bc_policy.pth (torch, 276164 bytes, 8 tensors)

weight f4 [256, 2]
-0.0048603285 0.44617137 -0.9229497 -0.019699866 -0.9349912 -0.24483432 -0.80662984 -0.4804827
0.94028044 -0.05313904 -0.10920611 0.36170506 0.19282876 -0.8039641 -0.75919354 -0.08644612
-0.88750446 -0.5702987 -0.20944175 0.7243849 -0.43386063 0.13518588 -0.2204719 0.5166146
0.044398602 0.32812315 -0.93323916 -0.112590455 -0.90460503 -0.31232935 1.490273 0.19962163
-0.6844913 -0.32263932 -0.41026258 -0.39787662 -0.00961876 -0.35438988 0.43509582 -0.118751265
-0.99871135 -0.7661066 -0.56538177 0.032986566 0.45886472 -0.53927904 0.45838252 -0.22824961
-0.52361035 0.67369425 0.17706044 -0.6837423 -0.51781976 0.26552907 -0.6115899 0.16282083
0.052985784 -0.53773355 1.3703356 -0.10594269 0.943256 0.7871963 0.76969457 0.5648206
0.50244504 0.0818117 1.0273134 0.7627086 -0.7117704 0.24581642 0.5938973 0.2624201
-0.42079383 0.28425232 -0.24364272 0.89703095 0.40461573 -0.17625466 0.23163404 -0.77876264
-0.6229444 -0.8230435 0.6700619 -0.07921733 0.13663483 0.49029732 0.5364736 -0.061411753
-0.56370115 -0.60160667 -0.14466977 0.21308662 0.50064737 -0.22277643 0.19950886 -0.5511665
0.23744665 -0.66825545 -0.3918421 0.5670123 -1.5099272 -0.47963303 -1.3746353 -0.010060896
-1.2796923 -0.19705413 -0.87783355 -0.69413096 -0.5637988 -0.11710054 0.40790355 -0.5472799
0.7521154 0.13291636 -0.3602409 0.43629673 1.7489498 0.011917286 0.6239803 0.5813085
-0.3480151 0.18488191 0.25996745 -0.6393335 0.28225768 -0.4707923 0.8730182 0.7773395
-0.6537293 1.4536889 0.20165688 0.138744 -0.02080957 -0.046851978 0.8190297 0.5561431
-0.18508728 0.6901659 0.5067317 0.90304375 0.10458327 0.39998534 -0.8823534 -0.43222445
0.3493708 0.91432256 0.0018075788 0.002081625 -0.4800121 0.29875985 0.6385158 -0.3184987
-0.5948565 -0.3333469 0.4210879 -0.004096645 0.4428016 0.9588423 -1.0768368 0.21646504
-0.5453271 -0.78661215 0.6427077 -0.53107977 -0.5711011 0.7749953 0.5263958 -0.6797598
-0.11033689 -0.9248115 -0.47720733 -0.5467157 0.18591055 -0.65961015 0.80594146 0.74653995
-0.67525256 1.1899647 -0.2881213 -0.60198385 0.4269511 0.14644007 -0.80145615 -0.52932465
-1.6434392 -0.19167706 -0.47079226 0.32180142 0.6688208 0.13077028 0.5672943 -0.2550807
-0.6694015 -0.99062395 0.3105587 -0.9207343 0.8326006 -0.72905666 -0.526113 0.29350412
-0.52832884 0.5367216 -0.6115996 0.88189167 0.25346303 -0.9429691 0.6380232 0.84891576
-0.8138184 -0.46525624 -0.16027962 0.6525339 -0.59967464 -0.04407883 0.3694794 -0.5448272
-0.5541874 0.001699002 0.67864245 0.5447409 0.016215036 -0.534651 0.22307123 -0.7417552
1.7054101 0.23163806 -0.46720383 -0.7568645 0.23447399 -0.61458147 -0.6542408 1.0730213
-0.54058963 -0.7016607 -0.56038976 0.30749062 -0.8542868 -0.7862392 -0.63341737 0.21012959
1.1319429 0.14026952 0.599273 -0.33507606 0.42108595 0.1372363 -0.42638332 0.17465995
-0.45419684 -0.24509646 1.0042812 -0.2290778 -0.90945315 -0.061288275 -0.018518165 0.46722025
00000000: 6443 9fbb 9370 e43e 6e46 6cbf 9d61 a1bc
00000010: 955b 6fbf d9b5 7abe 4b7f 4ebf d401 f6be
00000020: 38b6 703f 52a8 59bd 74a7 dfbd 6831 b93e
00000030: e774 453e 97d0 4dbf 825a 42bf aa0a b1bd
00000040: 7e33 63bf 18ff 11bf e677 56be 4a71 393f
00000050: fb22 debe 2b6e 0a3e 63c3 61be db40 043f
00000060: 4fdb 353d c2ff a73e c3e8 6ebf d395 e6bd
00000070: 3294 67bf a2e9 9fbe 44c1 be3f 9d69 4c3e
00000080: d23a 2fbf fb30 a5be f00d d2be 7cb6 cbbe
00000090: 0198 1dbc 9772 b5be e1c4 de3e dd33 f3bd
000000a0: 8cab 7fbf 901f 44bf dcbc 10bf ec1c 073d
000000b0: 51f0 ea3e 310e 0abf 1db1 ea3e 44ba 69be
000000c0: 540b 06bf 3a77 2c3f 554f 353e bc09 2fbf
000000d0: d68f 04bf 6df3 873e 2891 1cbf 81ba 263e
000000e0: 9f07 593d e8a8 09bf 2867 af3f 7bf8 d8bd
000000f0: 3a79 713f b285 493f b40a 453f 1598 103f
00000100: 3da0 003f e48c a73d 017f 833f df40 433f
00000110: 9636 36bf 4db7 7b3e a709 183f ed5b 863e
00000120: 4a72 d7be 8589 913e 7a7d 79be d2a3 653f
00000130: cb29 cf3e 1a7c 34be 7931 6d3e fd5c 47bf
00000140: 4979 1fbf fbb2 52bf 2d89 2b3f b23c a2bd
00000150: 00ea 0b3e 4008 fb3e 5556 093f e48a 7bbd
00000160: b84e 10bf e502 1abf 5024 14be 6133 5a3e
00000170: 6d2a 003f 811f 64be 0d4c 4c3e 3f19 0dbf
00000180: 3725 733e ca12 2bbf 879f c8be b827 113f
00000190: 4b45 c1bf 7692 f5be 0df4 afbf 75d6 24bc
000001a0: f5cc a3bf 8fc8 49be b3b9 60bf 91b2 31bf
000001b0: 1e55 10bf 68d2 efbd bcd8 d03e 891a 0cbf
000001c0: a38a 403f 3a1b 083e 7f71 b8be 4962 df3e
000001d0: 96dd df3f b840 433c 2cbd 1f3f a2d0 143f
000001e0: 092f b2be af51 3d3e 741a 853e 5cab 23bf
000001f0: 1484 903e b00b f1be 1f7e 5f3f b9ff 463f
00000200: ce5a 27bf 7a12 ba3f 247f 4e3e e812 0e3e
00000210: d578 aabc dce7 3fbd eeab 513f 655f 0e3f
00000220: 8587 3dbe b6ae 303f 2bb9 013f e02d 673f
00000230: c12f d63d e1ca cc3e eae1 61bf 864c ddbe
00000240: bbe0 b23e 0b11 6a3f 48ec ec3a df6b 083b
00000250: 25c4 f5be 0df7 983e c575 233f 4312 a3be
00000260: 8448 18bf 72ac aabe d598 d73e 263d 86bb
00000270: e4b6 e23e b076 753f cad5 89bf 03a9 5d3e
00000280: 8f9a 0bbf 6a5f 49bf 7e88 243f d8f4 07bf
00000290: af33 12bf 1866 463f e0c1 063f bd04 2ebf
000002a0: 4ff8 e1bd 72c0 6cbf 8554 f4be 8ff5 0bbf
000002b0: 565f 3e3e 36dc 28bf 2e52 4e3f 3e1d 3f3f
000002c0: 5add 2cbf c350 983f a384 93be 9d1b 1abf
000002d0: 5699 da3e 63f4 153e 3b2c 4dbf d281 07bf
000002e0: 375c d2bf fe46 44be af0b f1be 28c3 a43e
000002f0: d737 2b3f a5e8 053e 333a 113f f099 82be
00000300: e65d 2bbf 8899 7dbf 8d01 9f3e 3eb5 6bbf
00000310: 5025 553f 75a3 3abf 57af 06bf 2c46 963e
00000320: 8f40 07bf 9666 093f cb91 1cbf a7c3 613f
00000330: e8c5 813e 6c66 71bf 7d55 233f 8b52 593f
00000340: 6756 50bf 1136 eebe 5720 24be 760c 273f
00000350: 4784 19bf 018c 34bd 672c bd3e cc79 0bbf
00000360: 3adf 0dbf 0cb1 de3a 83bb 2d3f 2474 0b3f
00000370: 65d5 843c e3de 08bf c96c 643e abe3 3dbf
00000380: e14a da3f 8732 6d3e 5735 efbe dfc1 41bf
00000390: f319 703e 3655 1dbf 537c 27bf c358 893f
000003a0: 1564 0abf 09a0 33bf b475 0fbf 696f 9d3e
000003b0: 8ab2 5abf f946 49bf a427 22bf 362c 573e
000003c0: 81e3 903f d0a2 0f3e f569 193f 178f abbe
000003d0: 9498 d73e ac87 0c3e ea4e dabe 0fda 323e
000003e0: 7d8c e8be 91fa 7abe 498c 803f 5f93 6abe
000003f0: ecd1 68bf 6a09 7bbd 68b3 97bc 7e37 ef3e

bias f4 [256]
0.2283841 0.23920304 -0.21246661 0.11936458 -0.19811898 -0.09662688 0.46609178 0.15601292
-0.32880998 -0.60697657 -0.17818688 -0.27359572 0.20332326 -0.0026360424 0.00652451 -0.30027094
-0.33997917 -0.21723595 -0.21876596 0.45293385 -0.16164169 -0.5358704 -0.26498133 0.29696786
-0.018791247 -0.21047828 -0.39351258 0.23662885 -0.11144912 -0.29604128 0.10215169 0.3395039
0.40185946 0.1370605 -0.11543581 -0.0017662244 -0.24058536 0.22271016 0.16852812 -0.4451551
-0.08317878 -0.17165552 0.3706865 0.49735206 -0.32937977 0.094778195 0.30424803 0.33379135
-0.3880788 0.24836822 -0.036221463 0.13963774 0.07298271 -0.3207891 -0.42263338 -0.24748921
0.43693063 -0.5771985 -0.11494429 0.25277463 -0.368797 -0.39531195 -0.20652865 0.19235043
0.3213172 0.09096862 -0.032386117 0.36641234 0.41436222 -0.06204178 -0.14478351 -0.3882565
-0.20058881 -0.0012218602 -0.42831102 0.58309245 -0.31879887 0.2232483 -0.1268112 0.24400039
-0.053838003 0.1634798 -0.15019193 -0.29975328 0.36188716 -0.120283246 -0.4113912 0.10308765
0.084407136 -0.08762717 -0.04874235 -0.05494729 -0.014006647 0.13320424 0.5035145 0.3468763
-0.014410532 0.07410163 0.07677434 -0.4248962 -0.1471686 -0.09194036 -0.23815575 0.038440447
0.011134341 0.43183824 -0.1142285 -0.24238613 -0.41477758 0.08860717 -0.31935093 -0.44247356
-0.06145551 -0.24720651 -0.39613244 -0.04348659 -0.06744828 -0.1577188 -0.1903914 0.1797232
-0.16332202 0.5371113 0.27999604 -0.24463528 -0.009055141 -0.30942333 0.16768643 0.2751058
0.33327013 0.29164615 0.15305194 -0.102923505 -0.34171999 -0.2770066 -0.22955838 -0.20148157
0.2079641 0.15134867 0.032568924 0.01196652 0.005968618 0.17116912 0.358228 0.71539706
0.28206772 -0.31581244 0.020917587 0.3504899 -0.18195581 0.12205642 0.34211823 -0.2449429
-0.57115144 -0.106108546 0.185639 0.049451172 -0.2099432 -0.21106243 -0.060724523 0.07694791
0.24808137 0.12863262 0.14048007 0.5620169 -0.49876088 0.20022798 -0.0051442883 -0.09932125
-0.42328694 0.16035753 -0.05379121 -0.17275503 0.14560206 0.19069833 -0.3119428 -0.042861883
0.32540607 -0.07593683 -0.40686396 -0.086812824 -0.054037545 -0.26919055 -0.15023565 -0.18668535
-0.03599964 -0.038340446 0.052857187 0.26303387 -0.24710844 -0.4332415 -0.35726073 -0.31439212
0.50119376 -0.11979917 -0.3050819 0.17165673 -0.2019014 -0.3312572 0.47224876 -0.30958167
0.2139186 -0.34088728 -0.20879197 -0.39110947 -0.09872694 0.2139641 0.24957642 -0.14577112
-0.47321332 0.11914719 -0.31082463 -0.30446717 0.42931235 0.25418052 0.15771888 0.15709329
0.40565518 0.016065713 0.0050045084 0.3140931 0.35998967 0.28138867 0.32381856 0.30147442
-0.37975088 0.49651533 0.3473841 0.1655806 -0.1587814 -0.23694313 -0.23298821 -0.37583235
-0.09448564 -0.4546092 -0.028895581 0.39854252 0.35089776 -0.06092209 0.20678492 0.2735309
0.06246459 -0.0045777443 -0.21583037 -0.39996162 -0.013672661 -0.14478344 -0.24251626 -0.04437053
-0.3256593 0.42131382 0.13661617 -0.12826951 -0.21880631 -0.24984783 -0.14614534 0.16414522
00000000: 86dd 693e a4f1 743e d990 59be 6b75 f43d
00000010: b4df 4abe 50e4 c5bd 95a3 ee3e dac1 1f3e
00000020: c859 a8be d162 1bbf 9f76 36be bd14 8cbe
00000030: f933 503e 74c1 2cbb 8fcb d53b 1dbd 99be
00000040: c011 aebe 1a73 5ebe 2f04 60be f2e6 e73e
00000050: 6685 25be cd2e 09bf a2ab 87be 2c0c 983e
00000060: 1af0 99bc 9e87 57be 7b7a c9be d54e 723e
00000070: 703f e4bd b992 97be e834 d13d 75d3 ad3e
00000080: 86c0 cd3e 9659 0c3e 9c69 ecbd a880 e7ba
00000090: 025c 76be 220e 643e a392 2c3e 5feb e3be
000000a0: a359 aabd 77c6 2fbe 9fca bd3e eea4 fe3e
000000b0: 77a4 a8be 121b c23d 66c6 9b3e b3e6 aa3e
000000c0: 44b2 c6be 3d54 7e3e f55c 14bd 32fd 0e3e
000000d0: f677 953d 783e a4be 6763 d8be d06d 7dbe
000000e0: 5fb5 df3e 48c3 13bf e967 ebbd ad6b 813e
000000f0: f6d2 bcbe 5466 cabe 3f7c 53be 83f7 443e
00000100: b083 a43e c14d ba3d 4ea7 04bd 669a bb3e
00000110: 4927 d43e 861f 7ebd 2142 14be 8ec9 c6be
00000120: 2767 4dbe d326 a0ba 954b dbbe 8c45 153f
00000130: 9b39 a3be 349b 643e ccda 01be 3ddb 793e
00000140: 3d85 5cbd 4067 273e eacb 19be 4379 99be
00000150: 4649 b93e 1057 f6bd dea1 d2be 9e1f d33d
00000160: a6dd ac3d e075 b3bd 0fa6 47bd 6910 61bd
00000170: 237c 65bc b166 083e 54e6 003f c599 b13e
00000180: 271a 6cbc 98c2 973d dd3b 9d3d ff8b d9be
00000190: 5eb3 16be 3a4b bcbd 1adf 73be bb73 1d3d
000001a0: d06c 363c e719 dd3e a2f0 e9bd 1234 78be
000001b0: ba5d d4be ad77 b53d f781 a3be e58b e2be
000001c0: c6b8 7bbd b423 7dbe dfd1 cabe ff1e 32bd
000001d0: 5322 8abd 0981 21be f7f5 42be 5c09 383e
000001e0: e33d 27be 2080 093f a45b 8f3e ac81 7abe
000001f0: 045c 14bc bc6c 9ebe feb5 2b3e abda 8c3e
00000200: 62a2 aa3e a552 953e a6b9 1c3e 8fc9 d2bd
00000210: ecf5 aebe cfd3 8dbe 5a11 6bbe 2f51 4ebe
00000220: 8bf4 543e 25fb 1a3e fe66 053d 390f 443c
00000230: 6694 c33b f546 2f3e a969 b73e 4324 373f
00000240: 2e6b 903e 2bb2 a1be 5c5b ab3c 6a73 b33e
00000250: a052 3abe b7f8 f93d 1f2a af3e 50d2 7abe
00000260: fb36 12bf 704f d9bd 2618 3e3e 508d 4a3d
00000270: 5afb 56be c020 58be 47ba 78bd de96 9d3d
00000280: 0b09 7e3e 45b8 033e 02da 0f3e 57e0 0f3f
00000290: 965d ffbe 9008 4d3e 6b91 a8bb f168 cbbd
000002a0: 11b9 d8be c434 243e 2c54 5cbd b2e6 30be
000002b0: b518 153e 6c46 433e f7b6 9fbe f18f 2fbd
000002c0: a09b a63e c584 9bbd 7950 d0be ecca b1bd
000002d0: 7956 5dbd 58d3 89be 60d7 19be 722a 3fbe
000002e0: 5c74 13bd df0a 1dbd c780 583d 60ac 863e
000002f0: ff09 7dbe d4d1 ddbe e1ea b6be 01f8 a0be
00000300: 3c4e 003f 4459 f5bd b233 9cbe c8c6 2f3e
00000310: 3ebf 4ebe 8b9a a9be 97ca f13e 7d81 9ebe
00000320: 7a0d 5b3e c788 aebe 90cd 55be 803f c8be
00000330: 5a31 cabd 6819 5b3e f690 7f3e 0645 15be
00000340: 0449 f2be 7103 f43d 6824 9fbe 1fe3 9bbe
00000350: d4ce db3e f323 823e 0f81 213e 10dd 203e
00000360: 09b2 cf3e 3e9c 833c dcfc a33b d0d0 a03e
00000370: 9150 b83e 2d12 903e 8ccb a53e db5a 9a3e
00000380: b56e c2be 4237 fe3e 54dc b13e f68d 293e
00000390: 9797 22be 38a1 72be 7694 6ebe 196d c0be
000003a0: b081 c1bd 89c2 e8be 6db6 ecbc c40d cc3e
000003b0: dfa8 b33e 7189 79bd 6dbf 533e 3e0c 8c3e
000003c0: dfda 7f3d e700 96bb a302 5dbe c5c7 ccbe
000003d0: 4c03 60bc 1c42 14be 2f56 78be dfbd 35bd
000003e0: d1bc a6be 72b6 d73e 1ce5 0b3e 1559 03be
000003f0: c30e 60be 1cd8 7fbe 20a7 15be af15 283e

weight f4 [256, 256]
0.08579396 0.08272737 -0.074892014 0.020979868 0.062495824 -0.035363056 0.03967992 0.04811489
-0.06665192 -0.046033863 -0.009115853 0.029201528 -0.10990833 -0.33058792 0.21578564 0.045913048
-0.018510787 -0.033415835 -0.015672129 0.04208346 0.05432856 -0.023448223 0.06760847 -0.08061514
-0.0016512393 0.096734 0.08819906 0.0056303283 -0.016113909 -0.024685899 0.039487556 0.05742507
0.07528414 -0.09154896 0.02290543 -0.06398481 0.049185567 -0.048921585 0.09632651 -0.013053267
-0.07664472 0.05504764 0.04424539 0.13543895 -0.10353367 0.06799102 0.09545805 0.042532004
-0.20326287 0.044016816 0.035834264 0.037396178 0.035677854 -0.043732375 0.06938656 -0.06698584
0.19702849 0.0046929563 -0.12420254 0.039743066 -0.09165587 -0.11758172 0.07809072 -0.21022938
-0.13651267 0.029797113 -0.055936474 -0.024757601 -0.012820018 -0.007777964 0.083287075 -0.020378962
0.08837347 0.03956171 -0.09251791 -0.04907417 0.08623821 -0.06546104 -0.027763238 0.056755632
0.20380667 -0.0029892419 0.041509908 -0.06494067 0.027104119 0.16700304 0.077773295 -0.0056521497
0.05940928 -0.12834533 0.12702362 -0.04962533 0.13349871 0.12483975 -0.08621851 -0.13746817
-0.10997672 0.040538624 0.045380704 0.13957581 0.21462141 0.05267102 -0.1519393 0.12453287
-0.0016898286 -0.07039341 -0.03658317 0.014985509 0.051674232 0.15164763 0.0508236 0.05825973
-0.017054325 0.054100152 -0.06558915 0.033187304 -0.01299188 -0.06849954 0.04735291 -0.1388845
0.071095146 -0.08059285 0.11280806 0.032555517 -0.11325932 0.12050957 0.122341216 -0.08733302
-0.07572459 -0.0049568177 -0.09203759 0.09563523 0.11179443 -0.046786394 0.09524274 0.037278768
0.112981334 -0.03208766 -0.17887184 -0.025657613 0.029828336 0.021011136 -0.047067933 -0.019679718
0.08967522 -0.13725205 -0.04416366 -0.053266972 0.031641554 0.045053814 0.060819354 -0.030064924
0.029892776 0.11878089 -0.06466041 0.09412789 0.06561878 0.035124745 0.049207687 -0.07099782
0.10179096 -0.12168932 -0.021818511 0.024438428 0.01725997 -0.14317776 -0.09623027 -0.10686728
-0.11292078 -0.0032620616 0.075283855 -0.012395258 -0.08346316 0.03822978 0.105010256 0.10134011
0.023275685 0.032087218 0.10632082 -0.021543488 0.020268006 0.03366467 0.12074691 -0.040004753
0.18143278 0.27064297 -0.14622849 0.1011846 -0.03653023 -0.019079948 -0.14190927 0.043376658
0.08904627 0.030662937 0.12679335 0.052981544 0.07665108 -0.011368792 0.02358362 -0.09678598
-0.0413099 0.09388453 0.10952132 0.025438752 -0.07669883 0.13905086 0.059531108 0.018409189
0.006534852 -0.12756245 0.05863994 -0.09595232 0.07653072 -0.030838272 0.012820614 -0.052051783
-0.004887111 -0.05374328 0.04266877 0.069659516 0.14014566 -0.02763887 -0.10049538 -0.009279825
0.09324068 0.06919648 0.08200732 -0.06226457 0.06532348 0.017703537 -0.16156735 -0.011844952
0.06858439 0.11364002 -0.14934498 -0.15018149 -0.010494344 -0.02897605 0.064987406 0.02284394
0.0666634 0.10840862 0.0956392 -0.01911777 0.14283717 -0.055047307 -0.021273376 -0.033531528
-0.08554871 0.07433547 0.098484285 -0.027789058 -0.023333188 0.13333942 0.02055343 -0.05672305
00000000: beb4 af3d f86c a93d fc60 99bd f9dd ab3c
00000010: 9ffb 7f3d dad8 10bd 6987 223d 1e14 453d
00000020: cd80 88bd 018e 3cbd a95a 15bc 0b38 ef3c
00000030: 9e17 e1bd d242 a9be e9f6 5c3e 520f 3c3d
00000040: efa3 97bc 0bdf 08bd d662 80bc b55f 2c3d
00000050: a087 5e3d 7d16 c0bc 4f76 8a3d 8d19 a5bd
00000060: 666e d8ba 7a1c c63d b5a1 b43d 9e7e b83b
00000070: 5101 84bc 153a cabc b4bd 213d 8d36 6b3d
00000080: 922e 9a3d 057e bbbd 2ba4 bb3c 780a 83bd
00000090: ce76 493d 0062 48bd d546 c53d 5fdd 55bc
000000a0: e8f7 9cbd a279 613d a73a 353d 82b0 0a3e
000000b0: 7609 d4bd e03e 8b3d 837f c33d 0a36 2e3d
000000c0: 2424 50be fa4a 343d f3c6 123d bc2c 193d
000000d0: f122 123d b820 33bd 8a1a 8e3d df2f 89bd
000000e0: d6c1 493e 5fc7 993b e75d febd a0c9 223d
000000f0: 13b6 bbbd afce f0bd 07ee 9f3d 5f46 57be
00000100: fac9 0bbe 1319 f43c a51d 65bd 74d0 cabc
00000110: 0e0b 52bc 4bde febb 6a92 aa3d c8f1 a6bc
00000120: 26fd b43d 760b 223d 087a bdbd ff01 49bd
00000130: a99d b03d 7010 86bd bb6f e3bc 9878 683d
00000140: b2b2 503e 28e7 43bb 4b06 2a3d 9dff 84bd
00000150: 7509 de3c d802 2b3e 9b47 9f3d ab35 b9bb
00000160: 2557 733d f56c 03be 7b12 023e ee43 4bbd
00000170: e3b3 083e fcab ff3d 5593 b0bd 75c4 0cbe
00000180: 793b e1bd d40b 263d 1ee1 393d f6ec 0e3e
00000190: b7c5 5b3e 91bd 573d fa95 1bbe 170b ff3d
000001a0: 3d7d ddba 6c2a 90bd 3cd8 15bd c885 753c
000001b0: 5ca8 533d 8449 1b3e 682c 503d c1a1 6e3d
000001c0: 83b5 8bbc 1f98 5d3d 9b53 86bd 69ef 073d
000001d0: e5db 54bc 7d49 8cbd 20f5 413d bd37 0ebe
000001e0: 559a 913d dd0d a5bd ea07 e73d ef58 053d
000001f0: 81f4 e7bd b9cd f63d 088e fa3d a8db b2bd
00000200: 7e15 9bbd cd6c a2bb 347e bcbd 67dc c33d
00000210: 7af4 e43d 17a3 3fbd a00e c33d 9fb1 183d
00000220: c262 e73d 5a6e 03bd 2e2a 37be ea2f d2bc
00000230: 8e5a f43c 8c1f ac3c 4eca 40bd 5c37 a1bc
00000240: a4a7 b73d cd8b 0cbe f4e4 34bd 782e 5abd
00000250: 939a 013d 598a 383d b71d 793d b74a f6bc
00000260: b2e1 f43c 6543 f33d ad6c 84bd 20c6 c03d
00000270: 2463 863d f7de 0f3d 008e 493d 4e67 91bd
00000280: c777 d03d 4038 f9bd bcbc b2bc 1933 c83c
00000290: c864 8d3c 319d 12be 6014 c5bd 3cdd dabd
000002a0: 0343 e7bd 50c8 55bb 6c2e 9a3d 7b15 4bbc
000002b0: bcee aabd d496 1c3d 9e0f d73d 678b cf3d
000002c0: a6ac be3c e36d 033d bbbe d93d f87b b0bc
000002d0: 1709 a63c f7e3 093d 284a f73d 06dc 23bd
000002e0: 84c9 393e b791 8a3e ecbc 15be df39 cf3d
000002f0: b9a0 15bd 8d4d 9cbc aa50 11be b9ab 313d
00000300: e45d b63d d730 fb3c 1ed6 013e 2d03 593d
00000310: 3efb 9c3d 2b44 3abc 7032 c13c ba37 c6bd
00000320: 9234 29bd 8846 c03d b74c e03d ee64 d03c
00000330: 4714 9dbd 5963 0e3e e4d6 733d dece 963c
00000340: 5022 d63b bb9f 02be 6f30 703d a682 c4bd
00000350: 23bc 9c3d 8ba0 fcbc 8d0d 523c 4034 55bd
00000360: 0f24 a0bb ea21 5cbd 73c5 2e3d a6a9 8e3d
00000370: 5882 0f3e e96a e2bc 86d0 cdbd 680a 18bc
00000380: f8f4 be3d e2b6 8d3d 74f3 a73d 2209 7fbd
00000390: 51c8 853d 0207 913c e971 25be 5411 42bc
000003a0: f975 8c3d 19bc e83d e4ed 18be 2dc9 19be
000003b0: 78f0 2bbc 2e5f edbc 1e18 853d 3723 bb3c
000003c0: d286 883d 5705 de3d 7cde c33d df9c 9cbc
000003d0: e843 123e 4979 61bd 8145 aebc 5b58 09bd
000003e0: 2934 afbd 323d 983d 21b2 c93d e1a5 e3bc
000003f0: 3e25 bfbc 218a 083e ab5f a83c 6e56 68bd

bias f4 [256]
0.0034322178 0.021805158 0.015782518 -0.013614331 -0.025519487 0.02160234 0.0045591504 -0.003328135
-0.277123 0.1910958 -0.032173708 0.022352612 0.28793117 -0.0377782 -0.0154236285 -0.17371409
0.016794886 0.016770316 0.04324508 0.0443768 -0.055794153 -0.14698623 0.01193294 0.03008394
-0.060721025 -0.008551677 -0.018243205 0.013270731 0.22763726 -0.033454023 -0.00027958656 -0.0403615
0.37055972 0.0269143 -0.05262959 0.026169535 0.006991303 -0.005465677 -0.1073814 -0.006848323
-0.0034776237 -0.3232848 -0.21441352 0.028084328 -0.007856268 0.3353137 -0.008643128 0.009438496
-0.019496836 -0.14823905 -0.11554349 0.07111926 -0.0039263368 -0.2541069 0.009332963 0.0060030017
-0.22881788 -0.0031604532 0.016831312 -0.45758423 -0.049829 -0.010916677 -0.038399346 -0.028017543
0.026889792 0.009414091 -0.122993305 0.01017786 -0.05293398 -0.06937324 -0.019359648 -0.043762643
-0.018911477 -0.0077183535 0.03506414 -0.34911957 -0.26371264 0.01752004 -0.0548464 0.3025919
-0.046823293 0.02205052 0.009035922 0.031214962 -0.02723785 0.016777154 -0.2829002 0.068463586
-0.020873412 0.09690852 0.046016566 0.033271752 0.07311212 0.051897597 -0.010256229 0.018418415
-0.024024513 0.048150502 0.028632512 0.013869116 0.01204218 -0.023334537 -0.0020255619 -0.019916106
0.016151607 0.008921611 0.4064752 0.034162935 -0.28640473 -0.02395138 0.011596166 0.02972328
0.018898536 -0.034797486 0.123659775 -0.023738798 -0.038945157 0.012717292 -0.009651266 0.18590277
0.0015395735 0.129782 0.0152273355 -0.016267058 -0.18223372 -0.03622519 -0.019875817 0.09298383
-0.16094962 0.012661231 0.0064479755 -0.31962255 -0.18924516 -0.3556478 0.004825269 0.2940761
0.015384184 -0.027169256 0.29817137 0.07187353 0.0016014153 0.014334484 0.014894654 0.0030041975
-0.052570306 -0.008781397 0.054307282 -0.06215793 -0.0025764504 0.14328559 0.036376353 0.048731167
0.014346734 -0.04881044 0.027449971 0.013202466 0.27388972 0.018285662 0.21488847 0.003563232
-0.02553795 -0.012446023 0.01515216 -0.02018041 -0.04260423 -0.043980487 0.009311797 0.008230076
0.037459522 -0.011762393 0.029131582 -0.000511185 -0.11486867 0.033521216 -0.32104376 -0.30955547
-0.0037999372 0.0005944955 0.019656323 0.04436314 -0.005662447 -0.035130903 -0.002049218 -0.00015677606
0.0073074014 0.0074628196 0.07983235 -0.01897258 0.006143829 0.19590169 0.027763117 -0.03156573
0.15096718 -0.008346043 0.11276262 -0.029992674 0.014361213 0.018889453 0.049011853 -0.0051056934
0.03499866 -0.02390757 0.028181117 0.007083917 -0.025073241 -0.044503298 -0.15055473 0.03293541
0.03400783 -0.00039984478 -0.3006679 -0.008734109 0.387514 0.037321694 0.01719957 -0.07533094
0.0038424768 -0.0055829803 0.023174368 -0.35882902 0.0034947055 -0.03825231 -0.051104274 0.007884275
0.0037280547 0.04228222 -0.03742369 0.051779497 -0.027015908 -0.010455894 -0.021433765 -0.0037022056
0.0070057814 -0.018713439 0.026987169 0.048335154 0.019181402 -0.026729811 0.054412577 0.025132071
0.30799213 -0.00033673213 0.030150168 0.05178115 -0.012755112 -0.012784252 0.034683403 -0.05428255
0.00053697824 -0.015146745 0.050840173 -0.023420643 0.05451563 0.025443958 -0.0524823 -0.053562213
00000000: 0fef 603b bba0 b23c 574a 813c a50e 5fbc
00000010: 3e0e d1bc 64f7 b03c ed64 953b d71c 5abb
00000020: 11e3 8dbe 9eae 433e 94c8 03bd d31c b73c
00000030: b76b 933e 50bd 1abd 63b3 7cbc 1be2 31be
00000040: 6e95 893c e761 893c c121 313d 73c4 353d
00000050: 6988 64bd 8f83 16be 6182 433c 9872 f63c
00000060: 9cb6 78bd 551c 0cbc c672 95bc 7b6d 593c
00000070: be19 693e 1607 09bd 7995 92b9 1a52 25bd
00000080: 01ba bd3e 617b dc3c 2092 57bd 7e61 d63c
00000090: 4d17 e53b 6c19 b3bb c8ea dbbd e667 e0bb
000000a0: d8e8 63bb 9685 a5be 388f 5bbe 1b11 e63c
000000b0: 94b7 00bc 3dae ab3e e89b 0dbc eca3 1a3c
000000c0: d4b7 9fbc facb 17be 11a2 ecbd f9a6 913d
000000d0: 80a8 80bb 4d1a 82be 49e9 183c d4b4 c43b
000000e0: 3c4f 6abe 9b1f 4fbb d2e1 893c 7b48 eabe
000000f0: 7e19 4cbd dddb 32bc a248 1dbd 0c85 e5bc
00000100: fb47 dc3c 8f3d 1a3c eae3 fbbd 0ac1 263c
00000110: 4dd1 58bd 8f13 8ebd 2098 9ebc 7540 33bd
00000120: 3eec 9abc 3eea fcbb 6a9f 0f3d cdbf b2be
00000130: 5805 87be 3086 8f3c 9ea6 60bd 53ed 9a3e
00000140: c8c9 3fbd 4ba3 b43c 670b 143c 85b6 ff3c
00000150: e921 dfbc 3e70 893c 4cd8 90be a336 8c3d
00000160: b8fe aabc f977 c63d de7b 3c3d f647 083d
00000170: cfbb 953d 9392 543d be09 28bc 37e2 963c
00000180: 0ecf c4bc 7639 453d bb8e ea3c 4a3b 633c
00000190: 904c 453c 1228 bfbc 4abf 04bb 1a27 a3bc
000001a0: 6050 843c f32b 123c 841d d03e 6fee 0b3d
000001b0: a4a3 92be af35 c4bc d8fd 3d3c 3c7e f33c
000001c0: 1ad1 9a3c cf87 0ebd 5641 fd3d de77 c2bc
000001d0: f584 1fbd 305c 503c 5820 1ebc 4c5d 3e3e
000001e0: 84cb c93a 93e5 043e 137c 793c 7e42 85bc
000001f0: 7a9b 3abe dd60 14bd 9cd2 a2bc 4e6e be3d
00000200: facf 24be 0d71 4f3c 8a49 d33b 91a5 a3be
00000210: 7cc9 41be 7817 b6be 4a1d 9e3b 2591 963e
00000220: f20d 7c3c 0f92 debc eba9 983e 6e32 933d
00000230: 95e6 d13a 2fdb 6a3c b508 743c 12e2 443b
00000240: f653 57bd d9df 0fbc 5071 5e3d 5099 7ebd
00000250: aad9 28bb 75b9 123e 5fff 143d 559a 473d
00000260: 900e 6b3c 75ed 47bd c3de e03c 284f 583c
00000270: 463b 8c3e d0cb 953c b90b 5c3e 1d85 693b
00000280: f734 d1bc 67ea 4bbc c440 783c 6351 a5bc
00000290: c681 2ebd e224 34bd 8290 183c 71d7 063c
000002a0: 286f 193d 0db7 40bc 5ba5 ee3c 0b01 06ba
000002b0: 4440 ebbd 8b4d 093d d95f a4be 0e7e 9ebe
000002c0: 5e08 79bb ebd7 1b3a 4c06 a13c 20b6 353d
000002d0: 0c8c b9bb 6ce5 0fbd 2c4c 06bb 4164 24b9
000002e0: ed72 ef3b ab8a f43b 257f a33d 626c 9bbc
000002f0: 2c52 c93b 749a 483e 7a6f e33c 114b 01bd
00000300: 2497 1a3e d7bd 08bc 17f0 e63d 32b3 f5bc
00000310: 4b4b 6b3c 0ebe 9a3c a7c0 483d a94d a7bb
00000320: c15a 0f3d cfd9 c3bc 16dc e63c 3420 e83b
00000330: 6666 cdbc 1749 36bd 052b 1abe 48e7 063d
00000340: cb4b 0b3d 42a2 d1b9 25f1 99be 8219 0fbc
00000350: 3c68 c63e a2de 183d 1de6 8c3c 1c47 9abd
00000360: 10d2 7b3b 6ff1 b6bb 2cd8 bd3c 70b8 b7be
00000370: 6e07 653b 74ae 1cbd b752 51bd 0c2d 013c
00000380: 6152 743b 1f30 2d3d 9549 19bd bd16 543d
00000390: 7750 ddbc 334f 2bbc dd95 afbc b4a0 72bb
000003a0: c190 e53b ed4c 99bc 3214 dd3c 15fb 453d
000003b0: 5122 9d3c 7af8 dabc b9df 5e3d c6e1 cd3c
000003c0: 25b1 9d3e 6c8b b0b9 7cfd f63c 7918 543d
000003d0: d1fa 50bc 0a75 51bc 2f10 0e3d 6157 5ebd
000003e0: 00c4 0c3a 0e2a 78bc c93d 503d a6dc bfbc
000003f0: c84b 5f3d d96f d03c aef7 56bd 0d64 5bbd

weight f4 [1, 256]
-3.1397867e-05 -1.3527006e-05 -2.9052262e-06 -1.4017331e-05 2.314225e-05 -2.3734416e-05 -2.6697413e-05 -4.5519987e-06
-0.101981275 -0.25266254 4.259293e-06 7.820858e-05 0.12158167 5.0639752e-05 -6.4174565e-05 -0.020209888
-3.9805407e-05 9.3042465e-05 0.053086452 -2.9858593e-05 4.582609e-07 0.034881715 7.5346593e-06 2.1742399e-06
-4.3907943e-07 -6.031355e-05 4.1816587e-05 2.2015078e-05 -0.04148926 -1.4659897e-05 -2.6526846e-05 3.084153e-05
0.12921266 -3.718273e-05 0.07875029 4.6372643e-05 4.3774457e-05 -9.259026e-05 -0.0486895 -0.036918353
2.1207695e-06 -0.1228177 0.052823935 -2.8554987e-05 -8.918805e-06 0.20834674 -4.9797695e-06 -1.9465015e-05
-4.552165e-05 0.028086785 -0.20766893 -1.5371006e-05 -1.9895838e-06 -0.10587771 -3.0531177e-05 -2.5649713e-05
0.20470029 -9.95571e-05 1.9119368e-06 -0.06945053 1.3542092e-05 -2.8234881e-05 -0.12240269 4.0762814e-07
1.8355313e-05 1.536783e-05 -0.11022024 4.155358e-05 1.1671695e-05 -0.0986235 -2.1711532e-05 3.839679e-05
7.093972e-05 -4.48736e-06 -1.9954402e-06 0.124037 0.05552652 -6.448047e-05 6.611541e-06 -0.08553611
-1.1274229e-05 -8.548556e-06 1.5326394e-05 -8.125248e-06 0.000110091816 1.5939531e-05 -0.0035563891 0.03197734
-2.2798451e-05 -0.17031845 -3.2722455e-05 -2.9818606e-05 -1.8080176e-05 1.2459055e-06 3.9731305e-05 1.3673752e-05
-1.1850929e-05 -3.2931617e-05 6.099221e-06 2.10566e-05 3.223065e-07 5.825e-05 4.150388e-06 9.639654e-06
5.887827e-07 3.0839536e-05 -0.21688384 2.526342e-05 -0.13495876 -4.0575298e-05 -4.052583e-05 2.3181823e-05
-0.02517702 -4.5942885e-05 0.024647374 -4.6943253e-05 8.427314e-05 -3.32286e-05 -2.0777609e-06 -0.12760112
-6.2400904e-05 -0.09972209 -2.2549407e-06 1.50384385e-05 -0.029372154 2.8779607e-05 -3.447281e-05 -6.903595e-05
0.11213337 3.623851e-05 6.273167e-05 -0.048691805 0.063253626 0.1025036 4.088382e-05 -0.08977824
-6.1564538e-06 4.630644e-05 0.042358607 0.014717259 -1.7111019e-05 4.794584e-05 1.1058874e-05 1.1036917e-05
-0.041314285 -1.8794104e-05 -4.4625238e-05 -3.283088e-05 -6.854787e-06 0.0774982 -5.840599e-05 1.7345912e-05
-4.2919237e-05 1.947656e-06 2.6384541e-05 6.5917743e-06 0.031938434 1.7900858e-05 0.029717242 -2.3925391e-05
-1.2970115e-06 7.338545e-05 -2.0519123e-05 2.9600073e-05 -0.15445064 2.2820772e-05 -6.024408e-05 2.009871e-06
3.1567917e-05 -3.5749443e-05 -4.0843093e-05 1.7287104e-05 -0.13285513 7.855145e-06 -0.02255217 -0.15522851
9.65571e-06 0.010569541 2.943592e-05 0.010227631 -5.70325e-05 4.1187825e-05 6.058888e-05 1.0657665e-05
-3.7618447e-05 1.6137834e-05 1.0006118e-05 -6.0778857e-06 -2.2228865e-05 0.16636007 -2.460753e-05 -2.4782366e-05
0.11402321 -5.1439398e-05 -0.030431401 6.9053517e-06 -5.8436886e-05 6.0763712e-05 -0.084427446 -4.596385e-06
-4.0782697e-06 -2.7261716e-05 -3.7496906e-05 1.8299968e-05 1.07546275e-05 -2.387434e-05 0.10394748 3.7964754e-05
-5.3819964e-05 -2.4374109e-05 0.03451063 -4.6739842e-05 0.08309142 -5.9382182e-06 -1.3514574e-05 0.037160043
-7.399131e-06 3.1824886e-05 -6.3120643e-07 0.19916607 -1.6614898e-05 0.07626403 1.6931968e-05 1.6662154e-05
-1.688558e-05 -0.09782034 0.034953576 -7.168795e-06 2.5252722e-05 -3.5625188e-05 6.325143e-05 0.00014229522
0.062997915 2.8228138e-05 -0.088957764 1.9385629e-05 2.950573e-05 2.4744699e-05 -4.590962e-06 -4.3168475e-05
-0.081311636 -0.033534214 -1.0002401e-05 -0.1093222 -2.7640952e-05 3.173876e-05 6.383042e-05 -0.2957814
-4.613321e-05 2.3009992e-05 -8.676085e-05 2.6702563e-05 3.2325406e-05 -2.1663838e-05 -1.29774335e-05 1.9958673e-06
00000000: 34b1 03b8 0cf2 62b7 68f7 42b6 fa2b 6bb7
00000010: 9a21 c237 4519 c7b7 42f4 dfb7 5fbd 98b6
00000020: 8fdb d0bd fc5c 81be 0ceb 8e36 e903 a438
00000030: d0ff f83d 0566 5438 7595 86b8 358f a5bc
00000040: bbf4 26b8 cb1f c338 2e71 593d d778 fab7
00000050: e606 f634 21e0 0e3d 3bd2 fc36 28e9 1136
00000060: 9eba ebb4 2ef9 7cb8 3864 2f38 05ad b837
00000070: a4f0 29bd c7f3 75b7 f885 deb7 d75b 0138
00000080: 5350 043e a7f4 1bb8 d547 a13d 3f80 4238
00000090: 779a 3738 042d c2b8 a46e 47bd b337 17bd
000000a0: 8b52 0e36 d987 fbbd e95d 583d 5e89 efb7
000000b0: faa1 15b7 d958 553e e517 a7b6 cd48 a3b7
000000c0: 80ee 3eb8 4216 e63c 2aa7 54be fcf0 80b7
000000d0: ca84 05b6 6ad6 d8bd 9a0e 00b8 572a d7b7
000000e0: f49c 513e 50c9 d0b8 d34e 0036 143c 8ebd
000000f0: d832 6337 f2d9 ecb7 43ae fabd fcd7 da34
00000100: bcf9 9937 2aea 8037 26bb e1bd d149 2e38
00000110: 8cd1 4337 1efb c9bd 2921 b6b7 3d0c 2138
00000120: 79c5 9438 2192 96b6 67e9 05b6 1c07 fe3d
00000130: c76f 633d b039 87b8 b4d8 dd36 8e2d afbd
00000140: 7226 3db7 c56b 0fb7 2e91 8037 ad51 08b7
00000150: 18e1 e638 e2b5 8537 4f12 69bb acfa 023d
00000160: 4d3f bfb7 f667 2ebe 783f 09b8 f822 fab7
00000170: e2aa 97b7 fd38 a735 2aa5 2638 5168 6537
00000180: 5ad3 46b7 0e20 0ab8 e9a7 cc36 b4a2 b037
00000190: 7809 ad34 7651 7438 9043 8b36 00ba 2137
000001a0: d70c 1e35 b359 0138 cc16 5ebe c8ec d337
000001b0: a132 0abe 652f 2ab8 47fa 29b8 9676 c237
000001c0: 0a40 cebc ccb2 40b8 4ae9 c93c efe4 44b8
000001d0: ccbb b038 f05e 0bb8 a96f 0bb6 dea9 02be
000001e0: 3bdd 82b8 183b ccbd 9653 17b6 9a4d 7c37
000001f0: df9d f0bc bc6b f137 e696 10b8 65c7 90b8
00000200: 2ea6 e53d cefe 1738 cf8e 8338 0f71 47bd
00000210: 1e8b 813d 68ed d13d ab7a 2b38 a7dd b7bd
00000220: 8993 ceb6 2939 4238 3880 2d3d a920 713c
00000230: a289 8fb7 7419 4938 8189 3937 332b 3937
00000240: 2b39 29bd 08a8 9db7 fc2b 3bb8 e4b3 09b8
00000250: 2c02 e6b6 60b7 9e3d f4f8 74b8 1082 9137
00000260: 2e04 34b8 7ab4 0236 5f54 dd37 e92e dd36
00000270: e0d1 023d cd29 9637 9371 f33c 63b3 c8b7
00000280: fa14 aeb5 83e6 9938 7b20 acb7 ac4d f837
00000290: 4f28 1ebe 3c6f bf37 97ae 7cb8 52e1 0636
000002a0: cb67 0438 acf1 15b8 f04e 2bb8 c603 9137
000002b0: 2d0b 08be 97c9 0337 54bf b8bc 39f4 1ebe
000002c0: f5fe 2137 de2b 2d3c 28ed f637 cb91 273c
000002d0: 2e36 6fb8 17c1 2c38 d120 7e38 53ce 3237
000002e0: 80c8 1db8 bc5f 8737 f3df 2737 a4f0 cbb6
000002f0: 2078 bab7 4b5a 2a3e 456c ceb7 bae3 cfb7
00000300: 0085 e93d a2c0 57b8 464b f9bc 85b4 e736
00000310: 211a 75b8 8adc 7e38 4ce8 acbd a63a 9ab6
00000320: 12d8 88b6 17b0 e4b7 ff45 1db8 e282 9937
00000330: c66e 3437 c145 c8b7 6be2 d43d 583c 1f38
00000340: bfbc 61b8 0077 ccb7 055b 0d3d 860a 44b8
00000350: d62b aa3d e840 c7b6 a7bc 62b7 2135 183d
00000360: 0d46 f8b6 b67b 0538 2d70 29b5 31f2 4b3e
00000370: 3960 8bb7 5130 9c3d 2009 8e37 b4c5 8b37
00000380: 82a5 8db7 0856 c8bd 7b2b 0f3d 7b8b f0b6
00000390: cfd5 d337 416c 15b8 daa5 8438 1535 1539
000003a0: 0d05 813d 77cb ec37 7d2f b6bd 529e a237
000003b0: 1383 f737 d692 cf37 100c 9ab6 cc0f 35b8
000003c0: b786 a6bd 2c5b 09bd fccf 27b7 51e4 dfbd
000003d0: 7ede e7b7 3c1f 0538 b2dc 8538 a970 97be
000003e0: 287f 41b8 9505 c137 60f3 b5b8 51ff df37
000003f0: 2495 0738 bdba b5b7 a7b9 59b7 bdf0 0536

weight f4 [1, 256]
0.036889672 -0.060780812 -0.04213655 0.0052530193 -0.06366126 -0.016942909 0.016296849 0.15359229
0.029950423 0.041842163 -0.010346858 0.04856932 0.1660454 -0.042740602 0.03584077 -0.04602033
-0.0339679 -0.081643894 0.024917753 -0.037489794 0.041695036 0.121719025 -0.056502096 -0.08972217
0.024230657 -0.077064544 0.03286215 0.033417784 -0.0072500873 -0.05493861 -0.00469235 0.06774302
0.09838954 0.03337913 -0.04849632 -0.09380634 -0.031210879 -0.0035873754 -0.015843777 0.17613529
0.02468677 0.06501348 0.011030425 0.07788635 -0.04151971 -0.15215084 0.05083889 -0.06093189
0.080582485 0.057793777 -0.07715584 -0.06341709 0.11866817 0.0019830326 0.03429255 0.0063230568
0.099259764 0.040126376 0.012867906 0.056236316 -0.049900968 -0.07629519 -0.014773362 0.015997676
-0.025763554 -0.03505696 -0.021033483 0.015351928 -0.08557195 0.15303701 0.032291573 -0.018264337
0.018764079 0.052366555 -0.0486759 -0.06820391 -0.04681631 0.049615983 -0.024670456 0.02991952
-0.035993308 -0.0103544025 0.055971578 -0.14143749 -0.05195081 0.025017519 0.08318012 0.01088787
0.021361483 -0.029844426 0.020719042 0.056479577 -0.041709986 -0.039661646 -0.080320776 -0.047364693
-0.062870376 -0.08341243 -0.113407694 0.07659725 0.057182513 -0.016438985 0.042633917 -0.038632926
0.09175373 0.0045355656 -0.117951535 0.0686378 -0.010938608 0.024678856 -0.041565888 -0.07836073
0.0035416177 0.041146737 -0.020325134 0.041344985 -0.102374814 0.063210055 -0.041798133 -0.01854644
-0.018212173 0.023551913 -0.06829796 -0.018273171 -0.022980625 -0.00088281307 -0.030111259 0.048095766
0.081876956 0.039180867 -0.00613874 0.035305295 -0.062378462 -0.09437649 0.0020042588 -0.02717465
0.041356817 0.067015536 -0.053686332 0.14706945 0.0352986 -0.06911615 0.041338094 -0.06663958
0.07438706 -0.053856447 0.0029346459 -0.012609463 -0.042693302 -0.005172993 0.023125893 0.031425823
0.030945707 0.02617216 -0.01387837 -0.024056362 0.013613312 -0.04712956 -0.10071151 -0.06835893
0.14553905 -0.009163551 -0.022700902 -0.02712744 -0.037110493 -0.04141227 0.0031487644 -0.119055636
0.08523226 0.041674547 -0.01748846 -0.083037406 -0.043623142 0.070277296 0.05976179 0.020761512
0.06807403 0.084097125 -0.015058311 0.09812023 -0.0075825383 0.03664759 -0.039443497 -0.09156586
0.06434339 0.0040742853 0.023765787 -0.06754916 0.040123526 -0.022609603 0.008133721 0.006800301
0.040333748 -0.02476712 -0.016717201 -0.0683384 -0.07468521 -0.032411136 -0.0012126284 0.09112131
-0.07209345 -0.013645674 0.06412713 0.04704847 -0.044230387 -0.041391354 0.026764462 0.053209852
-0.0006803504 -0.061700657 -0.12580611 -0.011318519 0.10672668 0.07426275 -0.020694533 -0.06712753
0.09961196 0.03251197 -0.10238568 -0.05744712 -0.07249329 -0.069966376 -0.021640122 -0.097459175
-0.0053004776 -0.036092058 -0.02978804 0.04823461 -0.17925431 0.049010884 -0.034689605 0.008288493
0.07524655 0.1973306 0.09424724 -0.10968851 -0.071318634 0.029193792 0.04587952 0.019750645
-0.040311586 -0.038706537 0.017661532 -0.020507742 0.044028144 -0.052879024 0.045921516 -0.025848178
-0.0019014742 -0.014311696 0.13467823 0.030735582 0.03999372 0.10617474 -0.113291815 0.0765631
00000000: a019 173d 4df5 78bd 6097 2cbd 8521 ac3b
00000010: d660 82bd dbcb 8abc f880 853c 4c47 1d3e
00000020: 975a f53c b062 2b3d de85 29bc a0f0 463d
00000030: ce07 2a3e c510 2fbd c5cd 123d d07f 3cbd
00000040: ed21 0bbd ea34 a7bd 5120 cc3c e68e 19bd
00000050: 6ac8 2a3d d347 f93d be6e 67bd 42c0 b7bd
00000060: 5f7f c63c 04d4 9dbd 769a 063d 16e1 083d
00000070: 2492 edbb 4f07 61bd 49c2 99bb dabc 8a3d
00000080: 7580 c93d 8eb8 083d 14a4 46bd 8a1d c0bd
00000090: f5ad ffbc 2c1a 6bbb cfca 81bc cf5c 343e
000000a0: e93b ca3c ca25 853d f5b8 343c e182 9f3d
000000b0: 9210 2abd 6ecd 1bbe 713c 503d b893 79bd
000000c0: 6e08 a53d 2bb9 6c3d e203 9ebd d2e0 81bd
000000d0: 4c08 f33d c4f5 013b 5876 0c3d a531 cf3b
000000e0: b448 cb3d 8e5b 243d e9d3 523c 0d58 663d
000000f0: f564 4cbd a740 9cbd f90b 72bc 8f0d 833c
00000100: 170e d3bc e397 0fbd 694e acbc a786 7b3c
00000110: 5940 afbd bcb5 1c3e 2b44 043d 179f 95bc
00000120: 20b7 993c 507e 563d 6160 47bd 7eae 8bbd
00000130: 76c2 3fbd 213a 4b3d b219 cabc c819 f53c
00000140: b86d 13bd 83a5 29bc 7442 653d fdd4 10be
00000150: 5fca 54bd 8af1 cc3c 575a aa3d 0963 323c
00000160: 47fe ae3c 4c7c f4bc fbba a93c 2157 673d
00000170: 17d8 2abd 4074 22bd 387f a4bd 7b01 42bd
00000180: 2fc2 80bd 23d4 aabd 4b42 e8bd 05df 9c3d
00000190: 3638 6a3d 0dab 86bc e7a0 2e3d 8f3d 1ebd
000001a0: 61e9 bb3d 159f 943b 9390 f1bd fa91 8c3d
000001b0: d937 33bc 502b ca3c fe40 2abd 977b a0bd
000001c0: 7c1a 683b 7b89 283d e580 a6bc 5c59 293d
000001d0: e3a9 d1bd 4674 813d 8534 2bbd b4ee 97bc
000001e0: b231 95bc f1ef c03c cddf 8bbd 9eb1 95bc
000001f0: dd41 bcbc 956c 67ba e3ab f6bc 1100 453d
00000200: 1baf a73d 1e7c 203d 7c27 c9bb 499c 103d
00000210: 8f80 7fbd 7648 c1bd e259 033b 5f9d debc
00000220: c465 293d 713f 893d 33e6 5bbd 6099 163e
00000230: 4495 103d c58c 8dbd 2252 293d 557a 88bd
00000240: 3e58 983d 9498 5cbd 3053 403b ec97 4ebc
00000250: 2cdf 2ebd 3682 a9bb 8372 bd3c 5db8 003d
00000260: da81 fd3c ff66 d63c 1a62 63bc d911 c5bc
00000270: 5e0a 5f3c ed0a 41bd d641 cebd c4ff 8bbd
00000280: 3008 153e b822 16bc 3ef7 b9bc 5d3a debc
00000290: 2c01 18bd ea9f 29bd 805b 4e3b 71d3 f3bd
000002a0: 408e ae3d eeb2 2a3d f543 8fbc 840f aabd
000002b0: 2eae 32bd 8bed 8f3d c7c8 743d 0c14 aa3c
000002c0: 666a 8b3d 1d3b ac3d 22b7 76bc 42f3 c83d
000002d0: f176 f8bb c91b 163d 818f 21bd e286 bbbd
000002e0: 78c6 833d 9581 853b 78b0 c23c 3757 8abd
000002f0: 9158 243d c637 b9bc 4c43 053c 0fd5 de3b
00000300: 0035 253d 6ae4 cabc 83f2 88bc 01f5 8bbd
00000310: 8ff4 98bd 8ac1 04bd 0ff1 9eba cf9d ba3d
00000320: bba5 93bd 1b92 5fbc 1655 833d e5b5 403d
00000330: ec2a 35bd fb89 29bd 2541 db3c 93f2 593d
00000340: 8b59 32ba d4b9 7cbd 51d3 00be 4f71 39bc
00000350: 8593 da3d 1217 983d 9587 a9bc 297a 89bd
00000360: 5b01 cc3d 452b 053d 95af d1bd ac4d 6bbd
00000370: 5d77 94bd 884a 8fbd a046 b1bc ad98 c7bd
00000380: a1af adbb 44d5 13bd 0c06 f4bc a891 453d
00000390: 718e 37be a3bf 483d b016 0ebd 76cc 073c
000003a0: dd1a 9a3d 0811 4a3e b204 c13d 5fa4 e0bd
000003b0: 810f 92bd d227 ef3c 2aec 3b3d 1bcc a13c
000003c0: c31d 25bd bf8a 1ebd ebae 903c daff a7bc
000003d0: db56 343d ad97 58bd 3318 3c3d 8fbf d3bc
000003e0: e33a f9ba 9b7b 6abc 17e9 093e 30c9 fb3c
000003f0: 74d0 233d 2472 d93d 8a05 e8bd 1dcd 9c3d

loc f4 [32, 1]
0.73245466 0.79009557 0.28884575 0.51034653 0.21263579 0.0049562156 -0.04692343 0.064550586
-0.46735433 0.054897804 -0.47730222 0.034015924 0.356448 -0.25904432 0.3648839 -0.10692017
0.6688303 0.15590438 0.75300014 0.10938582 -0.48610738 0.23461333 -0.022634417 0.8062837
0.09014177 -0.073372886 0.29714334 -0.22579548 0.9172883 0.12378594 0.4264383 -0.42876422
00000000: 2682 3b3f b443 4a3f 97e3 933e 12a6 023f
00000010: 32bd 593e c067 a23b c832 40bd 1933 843d
00000020: 1149 efbe 85dc 603d f560 f4be 4854 0b3d
00000030: 5a80 b63e 75a1 84be 10d2 ba3e f6f8 dabd
00000040: 7638 2b3f 66a5 1f3e 9ec4 403f ac05 e03d
00000050: 11e3 f8be 7a3e 703e d06b b9bc 9c68 4e3f
00000060: 409c b83d 8644 96bd 2c23 983e ee36 67be
00000070: 68d3 6a3f 7c83 fd3d 1f56 da3e fc86 dbbe

scale f4 [32, 1]
0.007830928 0.007830928 0.007830928 0.007830928 0.007830928 0.007830928 0.007830928 0.007830928
0.007830928 0.007830928 0.007830928 0.007830928 0.007830928 0.007830928 0.007830928 0.007830928
0.007830928 0.007830928 0.007830928 0.007830928 0.007830928 0.007830928 0.007830928 0.007830928
0.007830928 0.007830928 0.007830928 0.007830928 0.007830928 0.007830928 0.007830928 0.007830928
00000000: 4b4d 003c 4b4d 003c 4b4d 003c 4b4d 003c
00000010: 4b4d 003c 4b4d 003c 4b4d 003c 4b4d 003c
00000020: 4b4d 003c 4b4d 003c 4b4d 003c 4b4d 003c
00000030: 4b4d 003c 4b4d 003c 4b4d 003c 4b4d 003c
00000040: 4b4d 003c 4b4d 003c 4b4d 003c 4b4d 003c
00000050: 4b4d 003c 4b4d 003c 4b4d 003c 4b4d 003c
00000060: 4b4d 003c 4b4d 003c 4b4d 003c 4b4d 003c
00000070: 4b4d 003c 4b4d 003c 4b4d 003c 4b4d 003c
