runs/4_400_300_5_666_critic.pth (torch, 493143 bytes, 5 tensors)

fc1.weight f4 [400, 3]
0.033482905 0.04835826 0.010899091 0.029015405 0.035547227 0.04976402 0.0012788177 0.0068486333
-0.031316765 0.06510972 0.056130014 0.07073674 -0.037149847 0.022840787 0.04347032 0.023463327
0.024119258 0.036880065 0.15499666 0.111558475 0.16599546 -0.0054953992 0.01659794 0.041087817
0.07312401 0.048556183 0.02656494 0.029170992 0.043825127 0.055634473 0.0003398955 -0.015920682
0.037518688 -0.0062374654 0.029211491 -0.0047044936 0.08425705 0.12697098 0.08911198 0.15763634
0.09256499 0.17228149 0.063530736 0.15275954 0.16498609 -0.049234737 0.028027076 -0.04576374
-0.028779685 0.007655078 -0.0067099095 0.09887165 0.10486535 0.19821209 -0.0031509956 -0.027968982
0.009686984 0.0048165917 0.04983605 0.040023047 -0.03571176 0.0069101453 0.013751316 -0.023362016
-0.025319505 -0.00091576576 0.04985573 0.09144944 0.017124712 0.09845777 0.0820365 0.08508888
0.0603711 0.061703075 0.048107818 0.13103993 0.11684694 0.1644261 0.08624973 0.045050513
0.06150643 0.11194883 0.15004475 0.19877757 0.043919828 -0.03289327 0.023975415 0.009077835
0.02973382 -0.0071237087 0.09546176 0.13010469 0.1615593 0.03262602 -0.041374933 0.049745347
-0.031011755 -0.04186044 0.018452508 0.14335147 0.16347207 0.09075272 0.04726005 0.04233591
0.022105558 0.013663881 0.095370896 0.07034266 0.0048042717 0.008027739 0.01737135 0.116054334
0.104817785 0.07366283 0.10216351 0.17681707 0.14909136 0.00024282932 0.029998977 -0.047013264
0.051315658 0.027340556 -0.004836725 0.041396834 0.028424824 -0.022230405 -0.00065418374 0.05181729
0.022320496 0.066006735 0.033308614 0.09546433 0.01859842 -0.0056207776 0.042438727 0.15257163
0.11571772 0.1767706 0.033231445 0.04423387 -0.0015087724 0.033418056 0.00520708 -0.012182826
0.13758929 0.1759222 0.13885039 0.12300192 0.09738318 0.11768975 0.025644679 -0.023622084
0.014754451 0.09697252 0.15706946 0.1582192 -0.00160231 -0.0030316233 -0.034319963 -0.033737518
-0.017490769 0.009431779 0.08224495 0.06887006 0.06247523 0.05128366 0.048917837 0.10157415
0.016839253 -0.03660153 0.024816357 0.019406581 0.00095599296 0.009828985 -0.021954669 0.038687356
0.015421236 0.063889824 0.027008114 0.01849561 0.048738804 -0.0033225536 0.011092752 0.027747352
-0.0139957545 0.0066755894 -0.010698008 0.044268843 0.010657883 0.06256679 0.09062245 0.20482668
-0.04461754 -0.017351443 0.03339851 0.014620882 -0.038332302 0.01934657 0.12097493 0.11131165
0.12517013 -0.0048430264 0.01872834 -0.021718223 0.15922453 0.14835627 0.15582561 0.009778857
-0.01971187 0.042161006 0.029278446 0.03628103 -0.037970107 0.13045745 0.088877164 0.096558936
0.006304294 -0.04761538 -0.023125118 -0.04405551 -0.008584851 0.03508357 0.01568349 -4.7361853e-05
-0.04618743 0.045651395 -0.022121185 -0.014656782 0.08184483 0.08705838 0.067233436 0.045947958
0.04457876 0.04900684 0.1443447 0.17630894 0.11963496 0.0013527274 0.042686936 -0.010672271
0.17216961 0.1411636 0.17351644 0.057610802 0.05429759 0.0123643465 0.02406019 0.02986285
0.031744357 0.14118335 0.090600766 0.1944432 0.01752612 -0.013643796 0.024054242 -0.018839395
00000000: 5f25 093d 5013 463d 1a92 323c b7b1 ed3c
00000010: f899 113d 5bd5 4b3d 009e a73a 806a e03b
00000020: 0246 00bd 3f58 853d 96e8 653d 6dde 903d
00000030: 702a 18bd 9a1c bb3c ef0d 323d 2a36 c03c
00000040: c095 c53c 8d0f 173d 72b7 1e3e c578 e43d
00000050: b7fa 293e c012 b4bb 67f8 873c b34b 283d
00000060: 0ac2 953d d9e2 463d b89e d93c 01f8 ee3c
00000070: fa81 333d f9e0 633d 0034 b239 176c 82bc
00000080: 32ad 193d a763 ccbb f04c ef3c 2728 9abb
00000090: f68e ac3d ae04 023e 5780 b63d 6c6b 213e
000000a0: b792 bd3d 8f6a 303e 671c 823d ff6c 1c3e
000000b0: 1df2 283e 5daa 49bd 0a99 e53c c272 3bbd
000000c0: 60c3 ebbc 73d7 fa3b cdde dbbb 387d ca3d
000000d0: a5c3 d63d 1cf8 4a3e ef80 4ebb 351f e5bc
000000e0: 28b6 1e3c 80d4 9d3b e320 4c3d 35ef 233d
000000f0: 7f46 12bd 806e e23b 334d 613c b361 bfbc
00000100: da6a cfbc 0010 70ba 8635 4c3d d849 bb3d
00000110: 2049 8c3c 3aa4 c93d c102 a83d 1443 ae3d
00000120: b047 773d 5dbc 7c3d b40c 453d 552f 063e
00000130: 734d ef3d 515f 283e b3a3 b03d e386 383d
00000140: 2bee 7b3d 6e45 e53d 55a5 193e 598c 4b3e
00000150: 47e5 333d 18bb 06bd 1768 c43c 33bb 143c
00000160: 5794 f33c 006e e9bb 7581 c33d 2a3a 053e
00000170: cd6f 253e dda2 053d c378 29bd c7c1 4b3d
00000180: 5d0c febc da75 2bbd b729 973c baca 123e
00000190: 3965 273e 90dc b93d c193 413d 6b68 2d3d
000001a0: b716 b53c 79de 5f3c d151 c33d d00f 903d
000001b0: 276d 9d3b c786 033c 5d4e 8e3c e5ad ed3d
000001c0: b5aa d63d 8adc 963d 1a3b d13d 890f 353e
000001d0: 68ab 183e 00a0 7e39 6ac0 f53c fb90 40bd
000001e0: 5e30 523d 4df9 df3c 647d 9ebb ba8f 293d
000001f0: 2ddb e83c 8a1c b6bc 877d 2bba 5e3e 543d
00000200: 79d9 b63c 8a2e 873d 9d6e 083d cd82 c33d
00000210: b75b 983c 802e b8bb 3bd4 2d3d bd3b 1c3e
00000220: 69fd ec3d 5a03 353e b21d 083d 932e 353d
00000230: 00c2 c5ba 5fe1 083d 27a0 aa3b 7a9a 47bc
00000240: 35e4 0c3e f324 343e cc2e 0e3e 6ee8 fb3d
00000250: d570 c73d 5307 f13d ca14 d23c 1a83 c1bc
00000260: a7bc 713c 8799 c63d d1d6 203e 3704 223e
00000270: 9a04 d2ba 33ae 46bb 1793 0cbd 5a30 0abd
00000280: cd48 8fbc c087 1a3c 0a70 a83d bf0b 8d3d
00000290: 07e6 7f3d d10e 523d 125e 483d 1c06 d03d
000002a0: 79f2 893c 7ceb 15bd ac4b cb3c 8dfa 9e3c
000002b0: 9a9b 7a3a c009 213c 47da b3bc a276 1e3d
000002c0: 5aa9 7c3c abd8 823d 1f40 dd3c 1b84 973c
000002d0: 57a2 473d 33bf 59bb 60be 353c 6a4e e33c
000002e0: 734e 65bc e7be da3b b346 2fbc 3f53 353d
000002f0: 679e 2e3c 0423 803d 4398 b93d 16be 513e
00000300: e2c0 36bd 9d24 8ebc e0cc 083d 6d8c 6f3c
00000310: 5502 1dbd b37c 9e3c b4c1 f73d 5df7 e33d
00000320: 992c 003e 40b2 9ebb 2d6c 993c 6aea b1bc
00000330: c10b 233e b5ea 173e c090 1f3e 8037 203c
00000340: ca7a a1bc 05b1 2c3d 5ad9 ef3c 6b9b 143d
00000350: 8b86 1bbd a396 053e 3b05 b63d b1c0 c53d
00000360: 4094 ce3b 5808 43bd e370 bdbc 8d73 34bd
00000370: 7aa7 0cbc cab3 0f3d aa7a 803c 67a6 46b8
00000380: 082f 3dbd f5fc 3a3d 7d37 b5bc 0023 70bc
00000390: 439e a73d aa4b b23d afb1 893d ed33 3c3d
000003a0: 3898 363d 65bb 483d 19cf 133e 558a 343e
000003b0: 2d03 f53d 004e b13a 7fd8 2e3d c0da 2ebc
000003c0: 3b4d 303e 318d 103e 4bae 313e 4ef9 6b3d
000003d0: 2667 5e3d d493 4a3c e019 c53c f0a2 f43c
000003e0: 5f06 023d 5e92 103e e58c b93d 1e1c 473e
000003f0: f092 8f3c 3a8a 5fbc 670d c53c 1355 9abc

fc1.bias f4 [400]
0.07262282 0.0199371 -0.05389967 0.17034562 -0.52192533 -0.29536393 0.3721472 -0.29745808
0.13756391 0.11106977 -0.57416475 0.019118764 0.24343324 0.38509935 0.3211042 -0.49477553
-0.53049415 0.33251163 -0.027773498 -0.06506792 -0.10374462 -0.42029297 0.15203115 0.23918316
0.15640776 0.36519998 0.1752574 0.39475238 -0.14133511 -0.09824594 0.32734567 -0.013207754
-0.483275 0.37075824 0.09781509 0.120397374 -0.271198 0.27200514 0.38549265 -0.2918036
0.07104196 -0.26804674 0.058128454 0.16439575 -0.33334708 0.37770832 0.042844914 -0.22380193
0.4218936 0.29851934 -0.42557898 0.35877508 -0.26232252 -0.409452 0.19261643 0.16767824
-0.003461431 -0.48302448 -0.30867377 0.10331068 0.012287832 -0.5732762 -0.20326342 0.30169767
-0.26845694 -0.15350898 0.2965955 -0.36311206 0.41026923 -0.09318328 -0.0638835 0.27627677
-0.34674412 -0.082794756 -0.49851394 -0.0716051 0.2056302 0.09338609 0.3895808 -0.4215677
0.42080945 0.106297106 -0.38584995 0.3583188 -0.12195709 -0.26872736 -0.4976572 0.19388297
-0.26287094 -0.43818265 -0.033052076 -0.28052524 0.12156397 -0.14758399 0.14950301 -0.40530092
0.3546432 -0.06439893 0.18154901 -0.56828725 0.4096604 -0.5526735 -0.033982143 -0.12462842
0.35430813 -0.09897088 -0.47966257 -0.5395302 0.10192131 -0.26158005 0.32172596 -0.2147206
0.41196916 -0.12539561 -0.072622 -0.12967215 -0.43231192 -0.5664284 0.35345343 -0.50770116
-0.058030438 -0.077492915 -0.19064103 -0.105404764 -0.48573744 0.27131298 -0.5574566 -0.35428807
-0.07589995 -0.46435755 -0.3419343 -0.017637227 -0.33693916 0.08499155 0.05403155 0.1332242
-0.021637877 0.28710186 -0.45524594 -0.28671196 -0.35551456 -0.014697185 0.41492337 0.20307386
0.18809378 -0.06324665 0.36223975 -0.34719574 0.087186284 -0.29953036 -0.16426344 0.40610123
0.3119064 0.2494372 0.13033855 -0.42608714 -0.21995388 0.38491207 0.1988687 -0.07375576
0.31178606 -0.33322424 -0.38792172 0.05247571 0.08515485 -0.09669441 0.2122895 0.064603195
0.34052277 -0.022222253 -0.4730085 0.18374723 -0.49514595 -0.16030955 -0.32665256 0.3084025
0.0705822 -0.5567063 -0.1854253 -0.051345177 0.26668972 0.06575475 -0.35881597 0.22659308
0.11242768 -0.34906402 -0.49309978 -0.35458526 0.3775359 -0.3705903 0.06349862 -0.035858504
0.03575761 0.19243254 -0.50107825 -0.0700301 0.36524773 -0.35993376 -0.15487221 -0.34475678
-0.2729315 0.14107734 -0.4051908 0.33466375 -0.2903381 0.33863923 -0.5741343 -0.14421801
-0.2965048 -0.25071806 0.10790466 0.090545505 0.11322859 -0.3660818 0.034912087 -0.022871338
-0.4442534 -0.5298001 0.4116861 -0.15939246 -0.4808765 0.20338313 0.124058716 0.10688503
-0.19772586 0.110295966 -0.016662516 0.31981474 -0.5756856 -0.5190776 0.26751056 0.05964506
0.32763076 0.4239567 0.1926783 0.27907264 0.1724244 -0.36997348 0.14475499 0.37192327
-0.25329208 -0.09230031 0.18732621 0.13948244 -0.104300246 -0.53118265 0.17117621 -0.44186965
-0.093152165 -0.124199085 0.1275925 0.19646622 0.20422871 -0.32932845 0.23750652 0.34442595
00000000: 46bb 943d 2153 a33c e6c5 5cbd 156f 2e3e
00000010: e69c 05bf f139 97be 148a be3e 6d4c 98be
00000020: 8edd 0c3e 8c78 e33d 76fc 12bf f49e 9c3c
00000030: 9046 793e be2b c53e c567 a43e 3853 fdbe
00000040: 77ce 07bf f73e aa3e 3f85 e3bc 5442 85bd
00000050: 0f78 d4bd a430 d7be 0eae 1b3e 6eec 743e
00000060: 5b29 203e 7efb ba3e ad76 333e fc1c ca3e
00000070: 27ba 10be 2b35 c9bd da99 a73e 5665 58bc
00000080: d26f f7be 06d4 bd3e 4753 c83d e692 f63d
00000090: 77da 8abe 4244 8b3e 4b5f c53e 4867 95be
000000a0: 727e 913d 6c3d 89be 1a18 6e3d 5c57 283e
000000b0: 78ac aabe fc62 c13e 267e 2f3d 552c 65be
000000c0: 7002 d83e 87d7 983e 7de5 d9be 5eb1 b73e
000000d0: 234f 86be b1a3 d1be 3e3d 453e d8b3 2b3e
000000e0: 2dd9 62bb fc4e f7be 7d0a 9ebe 8d94 d33d
000000f0: e752 493c 3bc2 12bf 4924 50be 1e78 9a3e
00000100: 3073 89be 7531 1dbe 5edb 973e d3e9 b9be
00000110: cf0e d23e e0d6 bebd 5ad5 82bd 2674 8d3e
00000120: 7288 b1be 4c90 a9bd 383d ffbe b2a5 92bd
00000130: b990 523e 3541 bf3d 2277 c73e b9d7 d7be
00000140: 5674 d73e 4cb2 d93d 208e c5be 9075 b73e
00000150: a4c4 f9bd a296 89be edcc febe 4289 463e
00000160: 0597 86be 7a59 e0be 9d61 07bd 01a1 8fbe
00000170: 88f6 f83d 4220 17be 5117 193e 9a83 cfbe
00000180: cb93 b53e 96e3 83bd fce7 393e 467b 11bf
00000190: 02bf d13e 037c 0dbf dc30 0bbd 2f3d ffbd
000001a0: e067 b53e 3fb1 cabd 5596 f5be a71e 0abf
000001b0: 1fbc d03d d2ed 85be 44b9 a43e b8df 5bbe
000001c0: 9fed d23e b567 00be d8ba 94bd c7c8 04be
000001d0: fd57 ddbe 7401 11bf d9f7 b43e b4f8 01bf
000001e0: 53b1 6dbd 9bb4 9ebd 6737 43be 74de d7bd
000001f0: 94b2 f8be 89e9 8a3e 7ab5 0ebf 3f65 b5be
00000200: 6f71 9bbd 46c0 edbe 0312 afbe f27b 90bc
00000210: 4a83 acbe 0d10 ae3d 3050 5d3d ed6b 083e
00000220: eb41 b1bc 04ff 923e ff15 e9be e9cb 92be
00000230: 0106 b6be 76cc 70bc d670 d43e 98f2 4f3e
00000240: a89b 403e 7687 81bd 7d77 b93e a4c3 b1be
00000250: b98e b23d 0b5c 99be ad34 28be 80ec cf3e
00000260: 32b2 9f3e 776c 7f3e 7877 053e 1828 dabe
00000270: 973b 61be 3213 c53e 3da4 4b3e 430d 97bd
00000280: 6ca2 9f3e 5e9c aabe ad9d c6be c5f0 563d
00000290: aa65 ae3d b807 c6bd 6b62 593e ae4e 843d
000002a0: 0059 ae3e 710b b6bc 2c2e f2be 3c28 3c3e
000002b0: c583 fdbe 3028 24be 013f a7be efe6 9d3e
000002c0: 678d 903d 4e84 0ebf 21e0 3dbe 524f 52bd
000002d0: 8e8b 883e 6daa 863d bab6 b7be 0408 683e
000002e0: 7c40 e63d 85b8 b2be 9377 fcbe 338c b5be
000002f0: 634c c13e 03be bdbe 910b 823d 5ee0 12bd
00000300: 9276 123d 090d 453e aa46 00bf f16b 8fbd
00000310: c001 bb3e 3d49 b8be d296 1ebe f683 b0be
00000320: adbd 8bbe 9476 103e 2b75 cfbe 0c59 ab3e
00000330: 32a7 94be 1f62 ad3e 77fa 12bf e3ad 13be
00000340: 7acf 97be 1e5e 80be 1efd dc3d ec6f b93d
00000350: 64e4 e73d 136f bbbe faff 0e3d ac5c bbbc
00000360: 2f75 e3be fba0 07bf 85c8 d23e c737 23be
00000370: 7235 f6be ab43 503e 7f12 fe3d 8ae6 da3d
00000380: a678 4abe dae2 e13d d47f 88bc c2be a33e
00000390: 2260 13bf 45e2 04bf 25f7 883e 614e 743d
000003a0: 38bf a73e da10 d93e 764d 453e 9ce2 8e3e
000003b0: 0690 303e 2a6d bdbe a73a 143e ba6c be3e
000003c0: 80af 81be f207 bdbd 71d2 3f3e 7cd4 0e3e
000003d0: 5e9b d5bd 96fb 07bf d148 2f3e bd3c e2be
000003e0: 90c6 bebd 175c febd 9ca7 023e 712e 493e
000003f0: 5521 513e bd9d a8be e934 733e 9958 b03e

fc2.weight f4 [300, 402]
-0.0412529 -0.02751432 -0.03967227 0.020926403 -0.025932442 0.023642411 -0.024298254 0.028581599
0.030150317 -0.018646313 -0.036215127 -0.025580358 -0.055726975 -0.057431087 -0.06253693 0.038349796
0.037784148 -0.019287437 -0.046557333 -0.05226915 -0.013215861 -0.02565061 -0.007890301 -0.020947501
-0.064326786 -0.063693404 -0.007764854 0.008350193 -0.0384691 0.028381605 -0.015071055 0.048307374
0.05759832 -0.005612715 -0.019629607 -0.055299196 0.017592607 -0.03923541 0.00986898 -0.03599405
-0.040706526 0.016248005 -0.060545307 0.0003176544 -0.019391121 0.005685571 0.035717055 0.03282384
-0.045369055 -0.024484588 0.044134587 0.020994553 -0.05289695 -0.050005935 -0.0034453922 -0.043317746
0.003980494 0.03319984 0.011049565 0.03941634 -0.050303392 -0.02783743 0.032523725 -0.011039204
-0.036545943 0.039832607 0.017449617 0.05267545 0.031824682 0.007779637 0.013102251 -0.060303662
-0.006470892 0.010646398 0.008196114 0.00030897837 -0.06738876 -0.04914811 -0.009663385 0.010302347
0.016958656 -0.037107024 -0.023980977 -0.03333546 -0.013180519 0.039184753 0.04965567 -0.046824142
-0.0275364 -0.039482404 0.0077231037 0.049885064 0.031134637 -0.037799098 0.0263723 -0.05533277
0.020890333 0.019068122 -0.0115670925 0.014633453 -0.008603355 0.02677391 0.04393079 -0.04522872
-0.057354677 0.032757048 0.003211777 -0.019924883 -0.043539084 0.046909686 -0.06486953 -0.021678405
-0.024020864 -0.00958056 -0.019335447 -0.026261263 -0.014536643 0.03799404 -0.034581598 -0.055108037
-0.041167535 0.00858482 0.0062163547 0.02175569 -0.051153578 -0.05468461 -0.037902363 0.0386527
-0.010838525 0.03310952 0.039967436 0.04489112 -0.033531975 0.0015501598 -3.114137e-05 -0.057478167
-0.0073710172 -0.05347679 0.042497344 0.030738067 -0.011811222 0.027150547 -0.050654937 0.008747465
-0.042396415 0.047072902 0.028969334 0.009864953 -0.028139416 0.005516668 0.012084735 0.009378041
-0.054463126 -0.04464229 0.029712351 -0.042446345 -0.028065138 -0.036209296 -0.06062081 -0.030672736
0.027188571 0.014674075 0.012683097 0.048293676 -0.051292025 0.031345487 -0.045498844 -0.03584234
0.018797483 -0.007307403 -0.019805843 -0.047884528 -0.04977199 0.038751923 0.028017903 -0.004718258
-0.02402418 -0.002562319 -0.015185572 -0.041209716 -0.079471916 -0.011915316 0.018778546 -0.026816111
0.038936686 -0.013308329 0.03947991 0.04783125 -0.0464526 0.0427744 -0.030063745 0.049094472
0.030521575 -0.053346418 0.009735913 -0.055758707 -0.040027596 -0.04107297 -0.015926471 0.056099262
0.027827697 0.028869718 -0.046658874 -0.06796658 -0.0072205947 -0.04691127 -0.05034516 0.007416376
-0.05214797 0.0036958407 -0.0048020114 0.013571232 -0.017265197 -0.010966355 0.052055106 -0.010704425
0.028562147 -0.047503054 -0.047062296 -0.053224154 0.0049922722 -0.070388265 -0.022669809 0.016342232
-0.033073008 -0.01790739 0.0024164414 0.015279587 -0.03269382 -0.021033717 0.00069124735 -0.044403322
-0.026499486 -0.041500278 -0.05948203 -0.013840062 -0.004193386 -0.045922372 -0.05411779 0.0029516679
0.015269484 -0.02683727 -0.06793967 -0.068034254 0.04782133 0.02898477 0.03460132 -0.031989492
-0.05477899 -0.034557 -0.040517982 -0.017962676 0.0089700585 0.015136086 0.028329406 -0.013112795
00000000: cdf8 28bd b665 e1bc 647f 22bd d96d ab3c
00000010: 4670 d4bc bbad c13c 220d c7bc f523 ea3c
00000020: ccfd f63c 27c0 98bc 5056 14bd e68d d1bc
00000030: f841 64bd dc3c 6bbd 5d13 80bd ad14 1d3d
00000040: 8dc3 1a3d b000 9ebc e7b2 3ebd 2d18 56bd
00000050: 5787 58bc 3a21 d2bc 5246 01bc 189a abbc
00000060: c3bd 83bd b071 82bd 5170 febb 3fcf 083c
00000070: c691 1dbd 8a80 e83c 96ec 76bc f4dd 453d
00000080: 37ec 6b3d deea b7bb 45ce a0bc 6981 62bd
00000090: 5f1e 903c 4fb5 20bd 81b1 213c 7f6e 13bd
000000a0: e3bb 26bd 891a 853c 5bfe 77bd da8a a639
000000b0: 21da 9ebc 074e ba3b 0c4c 123d 4a72 063d
000000c0: e7d4 39bd e793 c8bc 78c6 343d c5fc ab3c
000000d0: 79aa 58bd 06d3 4cbd 17cc 61bb f36d 31bd
000000e0: ce6e 823b 8efc 073d 3c09 353c 0773 213d
000000f0: ee0a 4ebd 520b e4bc 9937 053d c7dd 34bc
00000100: 33b1 15bd 8427 233d 80f2 8e3c 36c2 573d
00000110: 995a 023d 53ec fe3b d3aa 563c f900 77bd
00000120: c709 d4bb 3b6e 2e3c fe48 063c 60fe a139
00000130: 1e03 8abd 874f 49bd 2d53 1ebc 2dcb 283c
00000140: e1ec 8a3c 89fd 17bd c173 c4bc c38a 08bd
00000150: 1bf3 57bc 3180 203d be63 4b3d acca 3fbd
00000160: 0494 e1bc 4db8 21bd 1712 fd3b 4854 4c3d
00000170: 110e ff3c 3ad3 1abd b90a d83c 9da4 62bd
00000180: 3422 ab3c c034 9c3c e783 3dbc 27c1 6f3c
00000190: 16f5 0cbc f554 db3c c6f0 333d c041 39bd
000001a0: bdec 6abd 412c 063d ad7c 523b 8239 a3bc
000001b0: 0a56 32bd 5f24 403d 51da 84bd e996 b1bc
000001c0: 67c7 c4bc c8f7 1cbc 5f65 9ebc dc21 d7bc
000001d0: 1a2b 6ebc a39f 1b3d 6fa5 0dbd f7b8 61bd
000001e0: 4a9f 28bd 58a7 0c3c 90b2 cb3b fd38 b23c
000001f0: 6a86 51bd f8fc 5fbd 823f 1bbd 4b52 1e3d
00000200: 1294 31bc d99d 073d e5b4 233d c0df 373d
00000210: d358 09bd bb2e cb3a cb9d 02b8 3a6e 6bbd
00000220: 9388 f1bb 7b0a 5bbd b211 2e3d 66ce fb3c
00000230: db83 41bc d36a de3c 8d7b 4fbd 8751 0f3c
00000240: dda7 2dbd 84cf 403d 1951 ed3c 9da0 213c
00000250: a284 e6bc 2ac5 b43b 0dff 453c 5ba6 193c
00000260: ba14 5fbd d5da 36bd 5167 f33c 38dc 2dbd
00000270: dce8 e5bc 3350 14bd 874d 78bd 6445 fbbc
00000280: 91ba de3c 886b 703c c4cc 4f3c 97cf 453d
00000290: 9617 52bd 2064 003d ff5c 3abd 6bcf 12bd
000002a0: 2efd 993c f072 efbb dd3f a2bc 9122 44bd
000002b0: b7dd 4bbd 56ba 1e3d cd85 e53c 9e9b 9abb
000002c0: 5bce c4bc 94ec 27bb e8cc 78bc 85cb 28bd
000002d0: 2cc2 a2bd 7538 43bc 77d5 993c 76ad dbbc
000002e0: 137c 1f3d 2d0b 5abc b0b5 213d b3ea 433d
000002f0: 1545 3ebd 3634 2f3d 3e48 f6bc 4917 493d
00000300: 6208 fa3c c681 5abd 6183 1f3c 3e63 64bd
00000310: faf3 23bd 213c 28bd 3b78 82bc 57c8 653d
00000320: e9f6 e33c 3080 ec3c 601d 3fbd 1032 8bbd
00000330: bd9a ecbb 0826 40bd ba36 4ebd 1205 f33b
00000340: 1c99 55bd eb35 723b 315a 9dbb df59 5e3c
00000350: be6f 8dbc 3aac 33bc bc37 553d 9d61 2fbc
00000360: 2afb e93c 9092 42bd 65c4 40bd 9201 5abd
00000370: 3796 a33b b927 90bd 09b6 b9bc 25e0 853c
00000380: 9077 07bd 85b2 92bc 295d 1e3b 3c57 7a3c
00000390: f4e9 05bd e74e acbc d334 353a 42e0 35bd
000003a0: 7315 d9bc 32fc 29bd 6ea3 73bd 6dc1 62bc
000003b0: ac68 89bb 1919 3cbd 9eaa 5dbd c570 413b
000003c0: dc2c 7a3c d6d9 dbbc f423 8bbd 8b55 8bbd
000003d0: 4de0 433d 7871 ed3c 1dba 0d3d 6a07 03bd
000003e0: ef5f 60bd a48b 0dbd 2ff6 25bd 7626 93bc
000003f0: 27f7 123c 59fd 773c 1213 e83c 0cd7 56bc

fc2.bias f4 [300]
-0.04249768 -0.13654777 0.15210328 -0.022849841 0.108177155 -0.06490802 -0.038218595 -0.07397366
-0.021066852 -0.052184876 -0.1203529 -0.16629484 0.083127305 -0.010023053 -0.055729788 -0.037903216
0.2724817 -0.051680475 -0.09541544 0.06498196 0.07827825 -0.039847367 -0.04253149 0.020225223
-0.03772077 0.05699365 0.14580879 0.017398972 -0.03841833 -0.057107758 0.033129185 0.11055766
-0.034598146 -0.049212035 -0.05951314 0.13850144 -0.02712109 0.025814103 0.031878643 -0.016606675
-0.059814222 -0.04068027 -0.081109285 -0.0315645 -0.047487672 -0.029110737 -0.022847224 -0.1897667
-0.037111104 -0.057872575 -0.044120956 -0.091936976 0.060949117 -0.06966257 -0.021153409 -0.028929722
-0.017043438 0.116049886 -0.033774555 -0.045387335 0.0068455786 -0.11482416 -0.041046236 0.0060501746
-0.06709443 -0.036821436 0.027412912 -0.04854279 -0.16306716 -0.095288195 -0.040295653 -0.020730242
-0.051990647 -0.0074452106 -0.024985168 -0.03543692 -0.020142462 -0.0012594657 -0.013459209 -0.0019836654
-0.050143417 -0.029689465 0.40368584 -0.11153047 -0.0075698146 -0.023953516 -0.047401458 -0.015285521
-0.06564351 -0.0747176 -0.029776167 -0.03153033 -0.05534561 -0.038154222 -0.033095233 -0.034107063
-0.09702709 -0.06848561 -0.030914929 -0.038744956 -0.0699534 -0.037243754 -0.020965384 0.26523107
-0.18164913 -0.048790924 -0.049025327 -0.0676633 -0.013814155 -0.050319426 -0.020715171 -0.08339656
-0.09365684 -0.05630064 -0.028789066 -0.013940952 0.09345635 -0.0059428685 -0.042756394 -0.032308068
-0.06791067 0.04209134 0.023122936 0.34098297 -0.068394504 -0.029878622 -0.07086936 -0.01635101
-0.028658438 -0.05844652 -0.07486391 -0.035656776 -0.037663285 0.12742826 0.32440093 -0.043814946
-0.031614233 -0.03797959 -0.06439324 -0.07501223 0.10078467 -0.06879126 -0.02879613 -0.046444025
0.1784109 -0.046050113 -0.07874957 -0.065443754 -0.059565622 0.2937061 -0.08851944 -0.067253344
-0.071809486 -0.016188635 -0.08250542 -0.025731806 0.15163668 -0.13209435 -0.003776762 -0.038457897
-0.14257202 -0.03937971 -0.025477607 -0.034198504 -0.060816992 -0.037954606 -0.012910022 -0.032574624
-0.026736662 -0.040323522 -0.102132946 -0.056647442 -0.070040114 -0.14229289 -0.021347867 -0.043449238
-0.045321688 -0.014675166 -0.047546595 -0.012241047 -0.04203836 -0.076995395 -0.027848702 -0.051552635
-0.06373773 -0.018769214 0.062162466 0.38576576 -0.0030703866 -0.038334634 0.061068963 -0.028818207
-0.070316255 0.011151088 -0.014093237 0.15561996 -0.068657346 -0.018544082 0.026702382 0.04960532
0.06094403 -0.047461495 0.1367552 -0.014359117 0.28721318 -0.002972198 -0.047792524 -0.06503548
0.005185693 -0.050604302 -0.033207603 0.07206915 -0.038447764 -0.03805109 -0.053577106 0.09753056
-0.04565158 -0.01588158 0.040197395 -0.058476094 0.40393576 -0.08382614 -0.020289244 -0.032718282
0.16310783 -0.052492548 -0.03220291 -0.00667457 -0.04600021 0.16035296 -0.006847783 0.03956868
0.027647354 -0.010806452 -0.036486562 -0.01752923 -0.011453044 -0.027483815 -0.058145944 0.034697626
0.015736304 -0.035993926 0.14551063 -0.029964998 -0.026597714 -0.029504424 -0.07967474 -0.0067936773
-0.008639819 0.009569722 -0.039173063 -0.051135305 -0.016567474 -0.020562151 -0.04724019 -0.035410967
00000000: 0c12 2ebd 2ed3 0bbe f6c0 1b3e 972f bbbc
00000010: fc8b dd3d 7fee 84bd 1a8b 1cbd 817f 97bd
00000020: 6494 acbc cfbf 55bd 957b f6bd 3249 2abe
00000030: a63e aa3d bb37 24bc eb44 64bd 6740 1bbd
00000040: b982 8b3e e8ae 53bd 2c69 c3bd 4315 853d
00000050: 5950 a03d fe36 23bd 8035 2ebd 5eaf a53c
00000060: 1881 1abd 2c72 693d e64e 153e 4a88 8e3c
00000070: 8a5c 1dbd d3e9 69bd 78b2 073d 0e6c e23d
00000080: c9b6 0dbd 8f92 49bd 0dc4 73bd 52d3 0d3e
00000090: 0c2d debc 1978 d33c 2e93 023d b90a 88bc
000000a0: c2ff 74bd 5ba0 26bd a01c a6bd c749 01bd
000000b0: 6f82 42bd a479 eebc 1a2a bbbc 3452 42be
000000c0: d001 18bd cb0b 6dbd 2db8 34bd 7449 bcbd
000000d0: c8a5 793d 40ab 8ebd ea49 adbc 06fe ecbc
000000e0: ae9e 8bbc 90ab ed3d 3057 0abd 12e8 39bd
000000f0: e050 e03b ee28 ebbd 1920 28bd 8b40 c63b
00000100: ce68 89bd 13d2 16bd 0b91 e03c ced4 46bd
00000110: 14fb 26be 7526 c3bd 0e0d 25bd 78d2 a9bc
00000120: 25f4 54bd f4f6 f3bb b2ad ccbc 4e26 11bd
00000130: ce01 a5bc a814 a5ba 0484 5cbc 6200 02bb
00000140: 2f63 4dbd 5237 f3bc e9af ce3e 166a e4bd
00000150: 350c f8bb 2a3a c4bc 0828 42bd 1f70 7abc
00000160: 1b70 86bd 8b05 99bd 26ed f3bc f325 01bd
00000170: 14b2 62bd 9a47 1cbd de8e 07bd d9b3 0bbd
00000180: 24b6 c6bd 2f42 8cbd 4e41 fdbc 08b3 1ebd
00000190: ba43 8fbd e88c 18bd 99bf abbc 5ecc 873e
000001a0: 3b02 3abe fed8 47bd c8ce 48bd 0e93 8abd
000001b0: c454 62bc be1b 4ebd ddb2 a9bc d1cb aabd
000001c0: 28cf bfbd 809b 66bd 0cd7 ebbc 9768 64bc
000001d0: 0b66 bf3d 65bc c2bb 5421 2fbd 7755 04bd
000001e0: c014 8bbd f867 2c3d 506c bd3c 5295 ae3e
000001f0: 6b12 8cbd 03c4 f4bc f423 91bd 8ef2 85bc
00000200: 1ac5 eabc 9e65 6fbd 4052 99bd d70c 12bd
00000210: d144 1abd 8e7c 023e e117 a63e 4d77 33bd
00000220: ed7d 01bd 7d90 1bbd 9ae0 83bd 03a0 99bd
00000230: 3168 ce3d 6fe2 8cbd dde5 ebbc 173c 3ebd
00000240: 59b1 363e 0b9f 3cbd 7447 a1bd 6007 86bd
00000250: 15fb 73bd a560 963e ae49 b5bd 1fbc 89bd
00000260: da10 93bd 079e 84bc 9af8 a8bd 82cb d2bc
00000270: a546 1b3e be43 07be 8d83 77bb 0786 1dbd
00000280: 66fe 11be 9e4c 21bd 6ab6 d0bc bb13 0cbd
00000290: 3d1b 79bd 4a76 1bbd 8f84 53bc f86c 05bd
000002a0: d806 dbbc 472a 25bd 142b d1bd 2607 68bd
000002b0: 3171 8fbd 3ab5 11be b9e1 aebc d4f7 31bd
000002c0: 3ca3 39bd 1c70 70bc 38c0 42bd ac8e 48bc
000002d0: 6a30 2cbd c3af 9dbd f622 e4bc db28 53bd
000002e0: ed88 82bd e5c1 99bc 129e 7e3d 1783 c53e
000002f0: 8a38 49bb c704 1dbd 7323 7a3d 2914 ecbc
00000300: f801 90bd 0eb3 363c 52e7 66bc d75a 1f3e
00000310: 399c 8cbd c2e9 97bc f4be da3c f32e 4b3d
00000320: 72a0 793d fc66 42bd 8e09 0c3e 8042 6bbc
00000330: 9b0d 933e 35c9 42bb 18c2 43bd 5231 85bd
00000340: bfec a93b 7546 4fbd b204 08bd fe98 933d
00000350: 677b 1dbd 76db 1bbd ab73 5bbd 1abe c73d
00000360: 27fd 3abd 161a 82bc 06a6 243d a184 6fbd
00000370: abd0 ce3e 0aad abbd a135 a6bc 9b03 06bd
00000380: bd05 273e 6d02 57bd 33e7 03bd 5ab6 dabb
00000390: b76a 3cbd 9133 243e 5e63 e0bb c512 223d
000003a0: b47c e23c 8b0d 31bc ef72 15bd 7699 8fbc
000003b0: 8ca5 3bbc bd25 e1bc 712a 6ebd 191f 0e3d
000003c0: 6ce9 803c 5e6e 13bd bd00 153e 2879 f5bc
000003d0: 73e3 d9bc 43b3 f1bc 832c a3bd 7f9d debb
000003e0: 078e 0dbc 53ca 1c3c ef73 20bd 4173 51bd
000003f0: 83b8 87bc f571 a8bc ee7e 41bd 170b 11bd

fc3.weight f4 [1, 300]
-0.010899264 0.10467415 0.20646763 -0.19793527 0.19962806 -0.0015369473 0.025651596 0.00720546
-0.04132287 -0.011567384 0.09113321 -2.708769 0.16230254 0.0003688428 0.0007362093 0.003
0.37668297 -0.026546322 0.0060869684 0.2679757 0.21384346 -0.011608199 -0.093824476 0.10530858
0.0010223961 0.22690251 0.19422679 0.2056843 0.003 0.0007309838 0.16612701 0.20516181
0.005713352 0.022884712 0.00039725087 0.19309199 0.029118042 -2.721964 0.18327633 -0.1116758
-0.026595837 -0.14021635 -0.009807091 -0.015659966 0.008737039 0.009065424 -4.1621275e-05 -2.7484193
-0.004843452 -0.004425878 -0.007065261 0.12930177 0.26294658 0.0040168636 -0.0009140562 -0.015963055
0.009740063 0.20805156 -0.017495675 0.0016080127 0.16443168 -2.757281 0.003 0.019758837
-0.0013494944 -0.01847107 0.17746171 0.03096661 -2.9162745 -2.879862 0.0002217739 -0.0023194721
-0.013593392 -0.103063904 0.003 -0.020222489 0.1501406 0.1807967 0.025911102 -0.21838266
0.00823825 -0.007782937 -4.3647327 -0.02925905 0.26589447 0.011966141 -0.003912644 -0.07751521
0.0006352217 0.09305872 0.00076728297 -0.0029885604 0.01796914 -0.124822766 -0.023677746 0.0019362837
-0.01329652 -0.0042969445 0.024403475 -0.0030050382 -0.01722184 0.03173658 -0.023265187 0.35945624
-2.7603827 -0.008595348 -0.02980804 -0.12877868 -0.015437381 -0.0038555153 -2.6703107 0.048184358
0.0062553496 0.011710187 -0.02774639 0.0033752185 0.19521149 0.03541782 -0.011095987 0.0032004062
-0.008856384 0.31421724 0.1576741 -4.3371134 0.0058559855 -0.0016489918 -0.020744566 0.17886525
0.0004176126 -0.0022176781 -0.02231631 -0.014779167 0.003 0.19648127 0.42604783 -0.00782309
-0.0004165577 -0.009699388 -0.0035735148 -0.019095235 -4.255325 -4.0778028e-05 0.02370961 -0.02309792
0.23016033 0.0026076364 0.007319036 -0.009824719 0.015656801 0.39219323 0.004548831 -0.022891803
0.026657108 0.026676279 0.00018562358 -0.0051904535 0.19716486 -2.6847043 0.00322623 0.010327352
-2.8656466 0.007924337 -0.0056804423 -0.1475302 -0.015397311 0.024361853 -0.00026755378 0.0006883245
-0.0018023758 0.003 0.064080745 0.11730109 -0.0043007825 -2.700003 0.12861739 -0.016173778
-0.006061721 -0.056399982 0.0010253412 0.11360554 0.00407535 0.012187001 0.016013678 -0.049489584
-0.0042139585 0.003 0.33604988 -4.3657217 0.15960713 -0.19100305 0.26098266 0.0021708347
0.022107884 0.33370003 0.16025119 0.24395312 0.0065900814 0.15159334 0.36636335 0.16217019
0.31780604 0.023077337 0.19656828 -0.08895234 0.4455944 -0.3569648 0.0031565977 -0.02135705
0.13844001 -0.111824304 -0.0073610973 0.14893603 -0.13234529 0.011987807 -0.0076368065 0.21621597
-0.005181776 -0.019565329 0.19080423 0.093268216 -4.4319057 -2.7381852 0.0049230047 -0.008238852
0.21961969 -0.0054655983 0.00014264125 0.0067276326 0.003 0.22127771 0.023231681 0.26726633
0.3251658 0.027965147 0.003 -0.02057578 0.00086085725 -0.07982341 -0.005584725 0.29002377
0.1394553 -0.01964592 0.19245869 -0.089207575 0.03774611 0.0016508903 -0.0031951976 -0.13986208
0.0040593934 0.26723826 -0.006961501 -0.011346492 -0.01101352 0.003 -0.011308406 0.0035207965
00000000: d492 32bc 675f d63d 406c 533e 8baf 4abe
00000010: 4c6b 4c3e 6573 c9ba 4c23 d23c c81b ec3b
00000020: 2b42 29bd 2085 3dbc 0ca4 ba3d 795c 2dc0
00000030: a332 263e 3e61 c139 2bfe 403a a69b 443b
00000040: 97dc c03e ac77 d9bc 3175 c73b 1c34 893e
00000050: c8f9 5a3e 5130 3ebc 0c27 c0bd 06ac d73d
00000060: ec01 863a 2259 683e 63e3 463e e89e 523e
00000070: a69b 443b 7e9f 3f3a 331d 2a3e f015 523e
00000080: 1237 bb3b b878 bb3c 1c46 d039 e8b9 453e
00000090: f688 ee3c a834 2ec0 caac 3b3e 48b6 e4bd
000000a0: 83df d9bc e094 0fbe ecad 20bc 5449 80bc
000000b0: cc25 0f3c 2587 143c 8192 2eb8 1ae6 2fc0
000000c0: d2b5 9ebb f506 91bb b483 e7bb af67 043e
000000d0: efa0 863e e59f 833b 469d 6fba f4c4 82bc
000000e0: c994 1f3c 780b 553e 1753 8fbc f4c3 d23a
000000f0: c760 283e 4b77 30c0 a69b 443b 49dd a13c
00000100: 85e1 b0ba a450 97bc 86b8 353e b0ad fd3c
00000110: 3ea4 3ac0 a94f 38c0 fa8b 6839 4902 18bb
00000120: d2b6 5ebc 2b13 d3bd a69b 443b a2a9 a5bc
00000130: 75be 193e c522 393e 8543 d43c b49f 5fbe
00000140: baf9 063c 0208 ffbb e4ab 8bc0 adb0 efbc
00000150: 5223 883e a20d 443c a335 80bb 4bc0 9ebd
00000160: 0285 263a 9295 be3d 7d23 493a b9db 43bb
00000170: 0534 933c 14a3 ffbd d5f7 c1bc e6ca fd3a
00000180: a6d9 59bc 62cd 8cbb cce9 c73c 2df0 44bb
00000190: d114 8dbc 37fe 013d a296 bebc a60a b83e
000001a0: 1caa 30c0 81d3 0cbc fe2f f4bc 8fde 03be
000001b0: 12ed 7cbc d0ac 7cbb 5fe6 2ac0 f65c 453d
000001c0: adf9 cc3b 16dc 3f3c 664c e3bc c532 5d3b
000001d0: 85e5 473e 4712 113d f1cb 35bc e8bd 513b
000001e0: 5e1a 11bc 15e1 a03e 5275 213e a2c9 8ac0
000001f0: 91e3 bf3b fc22 d8ba 82f0 a9bc 7428 373e
00000200: 04f3 da39 7756 11bb b2d0 b6bc 5224 72bc
00000210: a69b 443b 6332 493e f122 da3e 6b2c 00bc
00000220: 6e65 dab9 2fea 1ebc a131 6abb 9c6d 9cbc
00000230: 9f2b 88c0 1309 2bb8 a83a c23c d937 bdbc
00000240: 26af 6b3e e1e4 2a3b 86d4 ef3b dcf7 20bc
00000250: b142 803c 8dcd c83e 5c0e 953b 9787 bbbc
00000260: 0260 da3c 3688 da3c f3a3 4239 ae14 aabb
00000270: 96e5 493e 32d2 2bc0 286f 533b 0e34 293c
00000280: c166 37c0 14d5 013c 0123 babb 2812 17be
00000290: 0145 7cbc 8292 c73c 7646 8cb9 ad70 343a
000002a0: b23d ecba a69b 443b c43c 833d 8e3b f03d
000002b0: 94ed 8cbb d9cc 2cc0 47b4 033e df7e 84bc
000002c0: 67a1 c6bb ab03 67bd be64 863a 05aa e83d
000002d0: 838a 853b fdab 473c 1e2f 833c 97b5 4abd
000002e0: 3f15 8abb a69b 443b bb0e ac3e feb3 8bc0
000002f0: 0d70 233e 4e96 43be 859f 853e 9044 0e3b
00000300: 981b b53c bbda aa3e e318 243e d9ce 793e
00000310: 9cf1 d73b 493b 1b3e fa93 bb3e f10f 263e
00000320: 79b7 a23e af0c bd3c 3249 493e a52c b6bd
00000330: f324 e43e 17c4 b6be ecde 4e3b fbf4 aebc
00000340: 38c3 0d3e 2404 e5bd 5c35 f1bb b082 183e
00000350: 8685 07be 8268 443c 2d3e fabb b867 5d3e
00000360: e3cb a9bb 7847 a0bc 2f62 433e 6803 bf3d
00000370: 2cd2 8dc0 6d3e 2fc0 2851 a13b 40fc 06bc
00000380: fce3 603e c318 b3bb f891 1539 7973 dc3b
00000390: a69b 443b a096 623e 5e50 be3c 22d7 883e
000003a0: 227c a63e 2a17 e53c a69b 443b 8a8e a8bc
000003b0: 27ab 613a 757a a3bd 1200 b7bb ff7d 943e
000003c0: 5fcd 0e3e 7bf0 a0bc e413 453e 76b2 b6bd
000003d0: aa9b 1a3d b062 d83a 8566 51bb 0138 0fbe
000003e0: a904 853b 74d3 883e 4e1d e4bb a3e6 39bc
000003f0: 0d72 34bc a69b 443b e446 39bc 2abd 663b
