runs/4_400_300_35_555_critic.pth (torch, 493207 bytes, 5 tensors)

fc1.weight f4 [400, 3]
0.07732688 0.076129824 0.039105967 -0.1152732 0.014893641 0.006499064 -0.05955156 0.014428568
-0.023886705 0.12961413 -0.007400744 0.06429768 -0.04256465 0.027092982 -0.0352018 -0.061388012
0.0052820123 0.019617995 0.018215906 -0.26944914 0.012388133 0.010972256 0.021834552 0.024940426
-0.12750639 0.073209174 0.040082593 0.043977324 0.00011530329 0.019220116 -0.018749041 0.022724671
0.046483576 0.11699605 0.045808915 0.053824108 0.015353936 0.012182784 0.002621627 0.07104917
-0.093486354 0.053321786 -0.042572048 -0.004438883 0.02457363 0.0034172058 -0.04256159 0.032306857
0.12471226 0.18777968 0.0033674166 0.04958967 -0.02540431 0.022283852 -0.07659254 -0.09892525
0.03757194 0.1903756 0.18378374 0.054985825 0.055402957 -0.08734396 -0.01099918 -0.061205648
-0.12609822 -0.00544387 -0.026689464 0.032003712 0.027659446 0.0013233423 -0.013945329 -0.036010504
-0.10123653 -0.044818036 0.062300447 -0.010105503 -0.0014411092 0.035387468 -0.057338804 0.043357126
0.027624661 -0.0017806828 0.02722751 0.037410993 -0.21687497 0.19477372 0.024744974 0.12697996
0.05979147 0.013664415 0.09052571 0.061276227 0.01830901 -0.049043935 -0.014085091 0.005056524
-0.07431723 -0.06721122 -0.01246509 -0.072679654 0.21724313 -0.018523997 0.0022153736 -0.044216156
0.011524582 0.005854279 -0.030411972 0.04565358 0.019771313 0.037221055 0.029061222 -0.01678898
-0.010685143 0.02068891 0.045973953 0.022998244 -0.001664567 -0.034594335 0.0012316346 0.028474463
-0.048361488 0.026482064 0.046080597 0.048833914 -0.043620646 0.036214948 0.11144094 0.07008533
0.0052202162 -0.029550457 0.008857858 -0.019787474 -0.0047104717 -0.0036559582 0.04431645 0.15151058
0.22367516 0.05502016 -0.041438557 0.014696187 0.035389163 0.009276508 0.17855844 0.03144579
-0.18489793 0.04760346 0.029626047 -0.014419275 0.034855437 -0.013831759 0.0017224491 -0.03723463
0.0039341273 -0.009544517 -0.064531825 -0.006571758 0.091388755 0.082197584 0.046687942 0.24819706
0.05026394 -0.016021071 0.035690557 -0.020019967 0.0148355365 0.16195522 -0.15204 0.009121116
0.035599373 0.08885299 0.041397158 -0.0042355484 0.01509222 -0.034098778 0.22043827 0.11557898
-0.042097077 0.031421088 -0.011345998 0.02377718 -0.09167396 -0.0604844 0.011256798 0.08131235
-0.1862199 0.03065668 -0.15456335 0.065583184 0.013661785 0.025780862 -0.025588417 -0.0014130175
-0.18854487 -0.11094558 0.028328903 0.09022264 -0.062271193 -0.027816704 -0.10279628 0.010248435
0.03636892 0.13905992 0.12307424 0.049845602 0.23919764 0.04786091 0.0075009004 0.009311325
-0.04605431 0.044265874 0.0020148994 -0.030437266 0.038042974 -0.014640247 0.15936461 0.050950695
0.008624161 0.029205596 -0.030082066 -0.022203004 0.04652359 0.017473673 0.14543532 0.08729922
0.035558842 -0.022182947 -0.04928522 0.021417648 -0.030030787 -0.0019384563 0.011113072 0.029728575
-0.046651013 -0.010091538 0.19516341 -0.04180345 0.04224976 0.026424745 0.12629423 0.040443845
-0.08780908 0.09097223 -0.011701474 0.014629149 -0.17700258 0.023894992 0.016513105 -0.12205286
0.009333974 -0.11239122 0.049478497 0.011490182 0.14141105 0.077332534 0.038517185 0.031605065
00000000: 8e5d 9e3d f4e9 9b3d 942d 203d 5b14 ecbd
00000010: 7504 743c 1af6 d43b 56ec 73bd cd65 6c3c
00000020: 0dae c3bc 91b9 043e f181 f2bb 81ae 833d
00000030: 4558 2ebd 1af2 dd3c c32f 10bd ff71 7bbd
00000040: bb14 ad3b ebb5 a03c 8639 953c 3df5 89be
00000050: 99f7 4a3c fac4 333c 60de b23c dd4f cc3c
00000060: 0991 02be b1ee 953d a52d 243d 9121 343d
00000070: fcce f138 8173 9d3c 9797 99bc 1729 ba3c
00000080: 9065 3e3d a09b ef3d 21a2 3b3d ab76 5c3d
00000090: 138f 7b3c 4d9a 473c 9acf 2b3b 3a82 913d
000000a0: c675 bfbd f267 5a3d 0760 2ebd 0d74 91bb
000000b0: a34e c93c 33f3 5f3b 1055 2ebd 3254 043d
000000c0: 2469 ff3d 5149 403e e0af 5c3b 8a1e 4b3d
000000d0: b31c d0bc a08c b63c 8ddc 9cbd 5299 cabd
000000e0: 09e5 193d d2f1 423e ce31 3c3e d138 613d
000000f0: 36ee 623d 64e1 b2bd e835 34bc c6b2 7abd
00000100: e41f 01be 7e62 b2bb dda3 dabc 5316 033d
00000110: 1096 e23c 0074 ad3a f37a 64bc c07f 13bd
00000120: 1955 cfbd 1e93 37bd c12e 7f3d 8d91 25bc
00000130: 9ae3 bcba 73f2 103d 18dc 6abd 3e97 313d
00000140: 1d4d e23c cd65 e9ba 3a0c df3c 453c 193d
00000150: 7914 5ebe c372 473e f9b5 ca3c 0907 023e
00000160: e7e7 743d b6e0 5f3c 8b65 b93d c8fc 7a3d
00000170: c7fc 953c 4be2 48bd 27c5 66bc 33b1 a53b
00000180: a233 98bd 09a6 89bd 603a 4cbc 12d9 94bd
00000190: fc74 5e3e a3bf 97bc cd2f 113b 001c 35bd
000001a0: 9ad1 3c3c 40d5 bf3b 8722 f9bc 40ff 3a3d
000001b0: 73f7 a13c 1b75 183d cd11 ee3c 0b89 89bc
000001c0: bd10 2fbc ca7b a93c 2f4f 3c3d d066 bc3c
000001d0: 9a2d daba cab2 0dbd cd6e a13a 4743 e93c
000001e0: b216 46bd eaf0 d83c 02bf 3c3d 1206 483d
000001f0: 90ab 32bd 2056 143d 263b e43d e688 8f3d
00000200: 590e ab3b cd13 f2bc 8d20 113c 5719 a2bc
00000210: 4d5a 9abb cd98 6fbb 2a85 353d 9725 1b3e
00000220: 1a0b 653e d25c 613d 7abb 29bd 47c8 703c
00000230: 3af4 103d 7ffc 173c 06d8 363e 4dcd 003d
00000240: e255 3dbe d8fb 423d 53b2 f23c d33e 6cbc
00000250: 93c4 0e3d 9a9e 62bc cdc3 e13a 5783 18bd
00000260: dae9 803b 9b60 1cbc 4329 84bd e757 d7bb
00000270: 072a bb3d 3557 a83d db3b 3f3d 5f27 7e3e
00000280: 90e1 4d3d 9f3e 83bc 4330 123d ea00 a4bc
00000290: c010 733c 97d7 253e 60b0 1bbe bc70 153c
000002a0: a6d0 113d 8ef8 b53d 1190 293d 5bca 8abb
000002b0: 5c45 773c 29ab 0bbd 92ba 613e acb4 ec3d
000002c0: fc6d 2cbd 66b3 003d 91e4 39bc 5cc8 c23c
000002d0: 8fbf bbbd 7dbe 77bd 6f6e 383c 1787 a63d
000002e0: 6eb0 3ebe b823 fb3c db45 1ebe 7a50 863d
000002f0: aed5 5f3c 6332 d33c cd9e d1bc 0035 b9ba
00000300: e811 41be 7037 e3bd 0412 e83c a6c6 b83d
00000310: 1410 7fbd dbdf e3bc db86 d2bd 0de9 273c
00000320: 94f7 143d b965 0e3e 590e fc3d e72a 4c3d
00000330: 3af0 743e cd09 443d 1dca f53b 878e 183c
00000340: 72a3 3cbd 2250 353d 670c 043b 9357 f9bc
00000350: f3d2 1b3d a6dd 6fbc 7a30 233e adb1 503d
00000360: 5a4c 0d3c 9340 ef3c aa6e f6bc 13e3 b5bc
00000370: 858f 3e3d f324 8f3c ffec 143e efc9 b23d
00000380: 26a6 113d 03b9 b5bc 4ddf 49bd 1074 af3c
00000390: 2003 f6bc cd13 feba 9a13 363c 5789 f33c
000003a0: 2215 3fbd fa56 25bc ebd8 473e 183a 2bbd
000003b0: 160e 2d3d b578 d83c 4653 013e 72a8 253d
000003c0: 3fd5 b3bd a64f ba3d 8ab7 3fbc 19af 6f3c
000003d0: 2a40 35be 6ebf c33c 7e46 873c daf6 f9bd
000003e0: 86ed 183c 5e2d e6bd f7a9 4a3d 5141 3c3c
000003f0: 0fce 103e 8560 9e3d 32c4 1d3d 5074 013d

fc1.bias f4 [400]
0.35482752 -0.07133649 -0.38478044 0.48891228 -0.5770737 0.18152782 -0.058506597 -0.4162267
0.43405798 0.19948828 0.30856854 0.5363123 -0.49079654 0.34045488 -0.39103043 -0.17895983
0.3105247 -0.46456292 0.3682789 0.3412069 -0.2840356 -0.3021154 -0.29234222 -0.55029726
0.41549417 -0.18920086 0.21396671 -0.45893356 0.31990692 0.048807018 0.08617164 -0.19377314
-0.3437683 -0.1449332 -0.22130492 -0.23498091 -0.5713569 0.17175336 -0.29279414 -0.26882517
-0.1624207 -0.43498495 0.107078254 -0.4041838 -0.51705724 0.41400015 -0.23881084 0.261022
0.15843037 -0.3430035 -0.49250326 -0.19692782 0.43298814 0.0613005 -0.25524753 0.10874692
0.3627191 -0.47936726 -0.2529752 -0.05509351 -0.018467518 0.31491315 -0.042100344 -0.41667077
0.10598412 0.19580135 0.2209673 0.34096935 0.3302142 -0.11512251 -0.22839059 0.44737694
-0.54758865 -0.4773732 0.3005197 -0.20417248 -0.4378956 -0.33496943 0.38073137 0.32192013
-0.21782418 0.14369126 -0.049708363 -0.029458586 0.23644616 -0.31713745 -0.52959746 0.36497322
-0.09701011 -0.364343 0.07388185 0.2589603 -0.33735922 -0.29920667 -0.11572328 -0.22215995
0.06945853 -0.31551585 0.21817526 -0.12227204 -0.08173491 -0.04583996 -0.3003218 0.03088411
0.28224933 0.07942815 -0.37972096 -0.25230318 0.31482175 0.41559067 0.30213553 0.068235844
0.5237144 -0.007894392 0.39914843 -0.1256712 -0.21026662 -0.14597775 -0.031645738 0.45317304
0.3555411 0.40537435 -0.5412147 -0.3886183 -0.17553067 -0.4980743 -0.55134296 -0.056129348
-0.14612716 0.27775425 0.37816203 0.37986857 -0.53156304 -0.12619442 -0.34658965 0.35806808
-0.5549852 -0.045840763 -0.056262173 0.39924318 -0.3234868 0.06301065 0.32231382 0.050499633
0.072069824 0.072367966 0.010567595 -0.033454113 0.21540944 0.20972219 -0.13243252 0.06900937
-0.22357678 0.5089709 -0.04761755 -0.5341302 -0.12797491 -0.48579967 -0.05465827 0.0075452914
-0.51357615 0.51362306 -0.19922537 -0.13729163 0.1288896 -0.37946534 -0.54351425 0.41094097
-0.020808246 -0.22079198 0.431539 0.4852813 0.12495547 0.4323124 -0.07113325 -0.46248385
-0.21388595 0.50015086 -0.4521585 -0.45729217 -0.56488866 -0.53745574 0.18833078 0.33462247
0.34056038 0.19159196 0.10250313 -0.06840548 -0.5422872 0.27448615 -0.1188404 -0.3644644
-0.141742 0.19415152 0.35699338 0.36667415 -0.25779188 0.1419593 0.45924327 -0.12911357
0.32692042 -0.24973449 -0.3867154 -0.49239928 0.075278334 -0.44328594 0.46666422 -0.011095474
0.22883593 0.26743966 -0.46925443 0.5427108 -0.14526285 0.3463853 -0.39313912 0.20154734
0.435109 0.2562347 -0.5128715 -0.15521221 -0.50248444 -0.31223226 -0.09431821 0.13714088
-0.10361927 2.2853992e-05 -0.20352572 0.010181543 -0.41228732 -0.16450551 0.238536 0.17599866
0.2818196 0.15232381 0.36571506 0.21481897 -0.07692097 -0.0413136 -0.56329453 0.51620936
-0.11912963 0.082727835 0.49125728 -0.4498126 -0.29903412 -0.5586567 -0.56320095 0.28713137
0.39964348 0.4218682 0.1467487 0.11527553 -0.2437639 0.08693664 -0.552614 0.2988275
00000000: f4ab b53e de18 92bd f101 c5be b652 fa3e
00000010: 1abb 13bf 6ee2 393e 9da4 6fbd ab1b d5be
00000020: d93c de3e a846 4c3e b2fc 9d3e c34b 093f
00000030: af49 fbbe 1a50 ae3e 2435 c8be 3f41 37be
00000040: 18fd 9e3e 31db edbe 0d8f bc3e acb2 ae3e
00000050: 1d6d 91be dfae 9abe e1ad 95be 48e0 0cbf
00000060: a7bb d43e dfbd 41be 171a 5b3e 57f9 eabe
00000070: d7ca a33e dee9 473d c27a b03d 776c 46be
00000080: 6602 b0be 5e69 14be c29d 62be d69e 70be
00000090: 7244 12bf 1de0 2f3e 1de9 95be 74a3 89be
000000a0: 9d51 26be 59b6 debe d84b db3d 2ef1 cebe
000000b0: dd5d 04bf d4f7 d33e d48a 74be ada4 853e
000000c0: 923b 223e 289e afbe 6329 fcbe 72a7 49be
000000d0: 9fb0 dd3e 3c16 7b3d ceaf 82be b5b6 de3d
000000e0: 51b6 b93e a06f f5be f785 81be bba9 61bd
000000f0: 3149 97bc 4c3c a13e 6971 2cbd df55 d5be
00000100: 340e d93d 2680 483e 4045 623e 8993 ae3e
00000110: d611 a93e 5ac5 ebbd 39df 69be 970e e53e
00000120: c52e 0cbf 436a f4be b8dd 993e 9712 51be
00000130: da33 e0be 1d81 abbe 39ef c23e b7d2 a43e
00000140: 4d0d 5fbe cd23 133e ff9a 4bbd 2253 f1bc
00000150: f11e 723e d75f a2be b393 07bf c5dd ba3e
00000160: 3dad c6bd 2a8b babe 5e4f 973d 7296 843e
00000170: 59ba acbe 9e31 99be 5400 edbd e67d 63be
00000180: 4640 8e3d 4b8b a1be 5669 5f3e c369 fabd
00000190: a264 a7bd afc2 3bbd c7c3 99be ac00 fd3c
000001a0: fc82 903e 3aab a23d c96a c2be e22d 81be
000001b0: 5130 a13e 4dc8 d43e 82b1 9a3e 3cbf 8b3d
000001c0: 2612 063f 7b57 01bc 2f5d cc3e f3af 00be
000001d0: 2250 57be 317b 15be f69e 01bd 4c06 e83e
000001e0: 7c09 b63e 3a8d cf3e 0c8d 0abf faf8 c6be
000001f0: 50be 33be 9803 ffbe d024 0dbf e3e7 65bd
00000200: 5ca2 15be ce35 8e3e 749e c13e 227e c23e
00000210: 8414 08bf 1c39 01be 3374 b1be b354 b73e
00000220: 8313 0ebf 86c3 3bbd 2a73 66bd 9a69 cc3e
00000230: 10a0 a5be ba0b 813d 5106 a53e b4d8 4e3d
00000240: 5899 933d a835 943d b523 2d3c 2e07 09bd
00000250: 4b94 5c3e 6ac1 563e 649c 07be c954 8d3d
00000260: 50f1 64be eb4b 023f 9f0a 43bd c2bc 08bf
00000270: db0b 03be bcba f8be 5ae1 5fbd 7e3e f73b
00000280: ba79 03bf cd7c 033f bc01 4cbe 2d96 0cbe
00000290: a3fb 033e 4849 c2be c023 0bbf db66 d23e
000002a0: 0e76 aabc 4b17 62be aef2 dc3e ca76 f83e
000002b0: a7e8 ff3d 0d58 dd3e 4fae 91bd afca ecbe
000002c0: eb04 5bbe e309 003f 5281 e7be 3322 eabe
000002d0: 8b9c 10bf b396 09bf c9d9 403e a353 ab3e
000002e0: ee5d ae3e af30 443e 29ed d13d 2c18 8cbd
000002f0: 55d3 0abf 7389 8c3e 9862 f3bd 149b babe
00000300: d124 11be a8cf 463e d6c7 b63e b7bc bb3e
00000310: 4cfd 83be c75d 113e ef21 eb3e 5936 04be
00000320: 1d62 a73e 66ba 7fbe 90ff c5be c21b fcbe
00000330: 872b 9a3d 60f6 e2be 9dee ee3e cac9 35bc
00000340: f753 6a3e daed 883e 1e42 f0be 18ef 0a3f
00000350: c9bf 14be 6a59 b13e 8849 c9be 6d62 4e3e
00000360: 9bc6 de3e 3231 833e 8c4b 03bf f3ef 1ebe
00000370: d2a2 00bf e8dc 9fbe e829 c1bd a96e 0c3e
00000380: 5736 d4bd 93b6 bf37 0c69 50be 7dd0 263c
00000390: 5317 d3be 2274 28be c842 743e fe38 343e
000003a0: a94a 903e c6fa 1b3e 013f bb3e 81f9 5b3e
000003b0: be88 9dbd 7338 29bd 1234 10bf 4c26 043f
000003c0: 3cfa f3bd 366d a93d 1386 fb3e d64d e6be
000003d0: 001b 99be 2004 0fbf f02d 10bf e202 933e
000003e0: 129e cc3e 1cff d73e 4b45 163e 9415 ec3d
000003f0: 3e9d 79be d60b b23d 1c78 0dbf ebff 983e

fc2.weight f4 [300, 402]
0.017284023 0.0074648606 0.043003425 -0.06319538 -0.039167017 -0.026414247 0.0144441845 0.04382305
-0.02307176 0.0054308297 0.00776823 0.25712875 0.019347692 -0.39980868 -0.014663303 -0.03903637
-0.10584258 -0.056337103 0.026179267 -0.03496824 0.01946974 -0.043403834 0.011032028 0.043646265
-0.008078854 0.04891255 0.043685637 0.0272794 -0.02882418 -0.7598759 0.010823028 -0.032697756
0.013317624 -0.084974505 -0.0071600354 -0.018535689 0.04604345 0.010462044 0.018556956 0.04647396
-0.055564247 -0.038259085 0.006756322 -0.02950947 -0.04105102 -0.06438679 0.019111518 0.03781196
0.018670866 -0.02575267 0.0074231345 -0.010541259 -0.027239423 -1.1495094 -0.056200594 -0.32131892
-0.24936312 0.031556387 -0.655293 0.015867703 -0.044790216 0.007688027 -0.112507984 -0.05082059
0.055561744 -0.005298389 0.050343268 -0.01547793 -0.12804012 0.003953351 0.040943425 -0.042222638
0.011986211 0.02882747 -0.024537843 -0.023013964 -0.031162582 0.037226703 -0.11830921 0.0068043293
-0.034343787 0.013049873 -0.00530165 0.026390707 -0.050071772 -0.00689695 0.095646955 -0.031094687
0.028896207 -0.05683503 -0.51792085 -0.105496965 -0.36876675 0.0038404707 -0.06820043 0.025507595
0.0023853416 -0.04332275 0.062175885 -0.00094824354 0.025253864 0.043026425 -0.005543888 -1.1557051
0.051970564 -0.096666194 0.00745306 -0.03664272 -0.025154654 -0.056046404 0.025309354 -0.050702065
-0.028825678 0.06463387 0.00594441 -0.0018032629 -0.02931741 -0.0039931606 -1.1670855 -0.016278971
-0.22727668 0.12788808 -0.054613072 -0.018915575 0.040767845 -0.036085904 0.00207277 0.035962354
-0.028580235 0.002177255 0.02552991 -0.011551925 0.03004438 0.018260457 0.024967907 0.008432228
0.01020299 -1.2456619 0.011256365 0.1260095 0.04445984 -0.0033829187 0.035508104 0.02652538
0.047288958 0.022948856 -0.09603889 -0.029548144 0.058027238 -0.03320817 -0.009530555 0.04277938
-0.016689725 0.0417975 -0.028307632 0.03354833 0.04996267 -0.07295345 -0.06296652 -0.020939618
-0.039828084 0.09676839 0.015570231 0.0030733345 -0.25277358 -0.02579495 0.022368087 0.011748278
-0.7116849 -0.021428363 0.04218644 0.0139483595 -0.021770231 0.08083469 0.07146291 -0.03796729
-0.0060478286 -0.07154084 -0.09858012 0.0038115205 0.05641494 0.07513734 -0.044436228 -0.010348401
0.049778193 -0.11088889 0.033801667 0.061692137 0.010220417 -0.24334852 -0.0055788793 0.05323477
0.048802137 -0.025456546 -0.059634738 0.06214705 -0.04188159 -0.1509569 0.035052683 0.02344569
0.0578258 0.018908754 0.028686048 -0.03506455 0.033184685 -0.0009949692 0.005491831 0.028965143
0.04388369 0.036509655 0.024337789 0.0087568145 0.04492538 0.0069140606 -0.0092041185 -0.0069445656
0.051824175 -0.17722009 0.0023341828 -0.041484993 0.02983372 0.004378748 0.05075373 -0.10601011
-0.14253838 0.08078354 0.0035781215 0.032154813 -0.020116039 0.050801635 -0.20569892 -0.17218767
-0.14633381 -0.9363657 0.025283067 -0.00023583413 0.009051149 -0.25934556 0.029409727 -0.07187424
-0.040188648 0.049688537 -0.041151207 -0.027271071 -0.051423494 0.0026728113 0.016790356 -0.15833016
-0.044589203 -0.10869018 -0.10645844 0.0014091019 0.034218106 0.025593054 0.016970031 -0.046412587
00000000: 3997 8d3c ca9b f43b 5c24 303d 946c 81bd
00000010: 986d 20bd b162 d8bc 4da7 6c3c cc7f 333d
00000020: fd00 bdbc 1af5 b13b a38c fe3b 61a6 833e
00000030: 0d7f 9e3c b9b3 ccbe 5a3e 70bc 9ae4 1fbd
00000040: ffc3 d8bd bcc1 66bd e775 d63c db3a 0fbd
00000050: 017f 9f3c 38c8 31bd aebf 343c 6dc6 323d
00000060: 2b5d 04bc 8758 483d b6ef 323d 0c79 df3c
00000070: b020 ecbc 3a87 42bf 1253 313c 15ee 05bd
00000080: 2a32 5a3c 1d07 aebd bb9e eabb 28d8 97bc
00000090: 0e98 3c3d fe68 2b3c c204 983c 7b5b 3e3d
000000a0: 5697 63bd 8fb5 1cbd 2364 dd3b d8bd f1bc
000000b0: 1d25 28bd 39dd 83bd c28f 9c3c b7e0 1a3d
000000c0: a5f3 983c 43f7 d2bc c43d f33b 3fb5 2cbc
000000d0: 3625 dfbc 2023 93bf 9832 66bd ea83 a4be
000000e0: 0c59 7fbe 4541 013d 48c1 27bf fcfc 813c
000000f0: f275 37bd d8eb fb3b 966a e6bd 4029 50bd
00000100: b694 633d 1c9e adbb be34 4e3d 2597 7dbc
00000110: f31c 03be 1d8b 813b 4bb4 273d a5f1 2cbd
00000120: d061 443c 9627 ec3c 9603 c9bc c887 bcbc
00000130: ac48 ffbc 077b 183d 194c f2bd daf6 de3b
00000140: 12ac 0cbd 22cf 553c 77b9 adbb 5331 d83c
00000150: 0f18 4dbd cfff e1bb 8de2 c33d 49ba febc
00000160: bdb7 ec3c d9cb 68bd 7696 04bf cb0e d8bd
00000170: ffce bcbe 68b0 7b3b abac 8bbd 4ef5 d03c
00000180: 6453 1c3b 3273 31bd 24ac 7e3d 8c93 78ba
00000190: 31e1 ce3c 7a3c 303d 81a9 b5bb 25ee 93bf
000001a0: 16df 543d edf8 c5bd cc38 f43b ad16 16bd
000001b0: 2211 cebc ea90 65bd 9055 cf3c f8ac 4fbd
000001c0: d423 ecbc c35e 843d 53c9 c23b 765b ecba
000001d0: 112b f0bc 0fd9 82bb 0f63 95bf 7a5b 85bc
000001e0: 38bb 68be 18f5 023e f5b1 5fbd d6f4 9abc
000001f0: 2ffc 263d d0ce 13bd 4fd7 073b 434d 133d
00000200: 1921 eabc 47b0 0e3b 1a24 d13c 4944 3dbc
00000210: a21f f63c f496 953c 7f89 cc3c 5427 0a3c
00000220: 712a 273c d971 9fbf 9e6c 383c a208 013e
00000230: 851b 363d f5b3 5dbb f270 113d c14b d93c
00000240: 11b2 413d 3dff bb3c 0ab0 c4bd f30e f2bc
00000250: f8ad 6d3d 4a05 08bd 0c26 1cbc 6e39 2f3d
00000260: e4b8 88bc db33 2b3d 68e5 e7bc f969 093d
00000270: a8a5 4c3d 9e68 95bd 97f4 80bd 9089 abbc
00000280: c622 23bd 812e c63d 481a 7f3c ff69 493b
00000290: 8a6b 81be ee4f d3bc 473d b73c d97b 403c
000002a0: fb30 36bf 898a afbc b0cb 2c3d a987 643c
000002b0: 7c57 b2bc a88c a53d 255b 923d 9783 1bbd
000002c0: dd2c c6bb 0184 92bd 60e4 c9bd b4ca 793b
000002d0: 5a13 673d 9be1 993d c302 36bd 578c 29bc
000002e0: 38e4 4b3d b719 e3bd 9e73 0a3d e5b0 7c3d
000002f0: 8973 273c 5b30 79be 08cf b6bb b40c 5a3d
00000300: c0e4 473d 3f8a d0bc 8e43 74bd e88d 7e3d
00000310: 088c 2bbd 7294 1abe 6793 0f3d 2d11 c03c
00000320: bfda 6c3d 88e6 9a3c 01ff ea3c d89f 0fbd
00000330: aaec 073d a069 82ba d1f4 b33b 4f48 ed3c
00000340: 62bf 333d 268b 153d 0b60 c73c be78 0f3c
00000350: ad03 383d 588f e23b dfcc 16bc 3d8f e3bb
00000360: 9645 543d 2f79 35be 17f9 183b 2bec 29bd
00000370: d865 f43c 9a7b 8f3b 25e3 4f3d d41b d9bd
00000380: 95f5 11be d771 a53d eb7e 6a3b c4b4 033d
00000390: 64ca a4bc 6015 503d bda2 52be f751 30be
000003a0: 88d8 15be aab5 6fbf 6f1e cf3c 3e4a 77b9
000003b0: 454b 143c f1c8 84be abec f03c cd32 93bd
000003c0: da9c 24bd 3586 4b3d 2b8e 28bd 9567 dfbc
000003d0: 71a1 52bd 552a 2f3b ee8b 893c 4d21 22be
000003e0: 2ba3 36bd f598 debd e206 dabd 9db1 b83a
000003f0: 4928 0c3d 86a8 d13c bc04 8b3c 201b 3ebd

fc2.bias f4 [300]
0.050042886 -0.03995992 0.042338546 0.02457744 0.06632386 -0.05433697 -0.0039057166 0.02272768
-0.03951633 0.039539255 -0.043488108 -0.0055520553 0.04420706 0.014156769 0.02177539 0.017654117
-0.052171268 0.00700231 0.040957827 -0.023619 0.007228787 -0.036063068 -0.022530068 0.031903002
0.0027595765 -0.04252717 0.020665089 -0.047979143 -0.026500141 0.028891487 -0.0023251155 0.0365185
0.052981604 0.024505427 -0.0030448763 0.043907665 0.00046918239 -0.007801497 -0.035319094 0.080137104
-0.012766146 -0.017482966 0.0288685 0.014260219 -0.012319714 -0.06437348 -0.010464546 0.029350437
-0.014466983 -5.3455973e-05 0.052788656 0.060219496 -0.041659188 0.07055991 -0.035260208 0.012012153
0.049838677 0.011293409 0.050515782 0.019883215 0.017655121 -0.017993703 -0.0056643016 -0.006856302
0.04664638 -0.04017064 0.024109872 0.004192478 0.025956415 -0.030506108 0.028096033 0.025118371
-0.04422288 -0.043903284 -0.023602445 0.0178648 -0.048158005 -0.034308504 0.028298741 -0.0125870695
-0.00966087 -0.02889544 0.022829706 -0.00035054056 0.00977194 0.037675153 -0.0060313498 0.0032901955
-0.005901803 0.07519226 0.07813164 -0.017496724 -0.06034929 -0.025265599 0.012267987 -0.024523146
0.02639494 -0.03938206 -0.0045593996 0.05367957 -0.038650606 0.011167381 -0.03891288 0.023739193
0.036347106 -0.014402265 0.019425128 -0.08635852 -0.0027981587 -0.015918424 0.036821365 0.024242166
0.031681266 -0.0030573243 -0.0054006367 -0.024341356 -0.013866688 0.0303391 0.069173396 0.028868582
-0.0071579213 0.045013867 -0.024654543 0.03695138 -0.032586526 0.059961174 -0.049339794 0.036892746
-0.014738186 -0.031663194 0.0283042 -0.033356603 -0.0055535138 -0.02299478 -0.02224627 -0.039394885
0.004695653 -0.048769645 0.02414565 0.052423086 -0.019016875 0.015044662 -0.0028106337 0.053634312
0.02614738 -0.007852754 0.018270718 0.017571524 -0.019103682 0.054206718 0.043782122 0.022114275
0.0770793 0.045894243 -0.027312584 -0.0043162326 -0.062275764 0.0070074103 -0.051849525 -0.03778455
0.03590335 0.0041858805 0.03867711 0.0590735 0.03549521 0.04496892 0.053578403 0.038874805
0.03064444 0.0024106482 -0.040055197 0.037224483 -0.024689551 0.00911604 0.048745457 0.010223688
-0.035122763 0.07144302 -0.041065548 0.021379704 0.046524443 0.015874637 0.05996848 -0.04465107
-0.031145852 -0.035288725 0.019226413 0.011134933 -0.0017463014 0.05597046 -0.019160135 0.023892405
0.013553951 -0.03281328 -0.03242319 0.023945231 -0.028274406 0.020417258 0.057858832 0.0020321652
0.010491637 -0.023794727 0.047914445 -0.03655144 0.061482597 -0.0070957434 -0.024457918 -0.05706319
-0.0017621218 0.054358613 0.004791957 0.04169282 -0.022660363 -0.015262098 0.023648225 -0.058891404
0.016939815 -0.00015202949 0.020663835 0.039169244 0.043257352 0.0045159557 -0.018491441 -0.014254658
-0.025769548 0.04064396 0.009269627 -0.021433512 -0.010830098 0.034991354 0.041318197 0.010448995
-0.017558387 0.023445692 -0.018622188 0.028637009 0.06552194 -0.030553594 0.035071775 0.009091525
0.011241246 0.0019018889 -0.040868763 0.026860906 0.005027015 -0.0062030475 -0.019602094 -0.025639394
0.0364937 -0.017417626 -0.0061710244 0.037257303 -0.019337432 -0.009005446 0.06378013 -0.056869034
00000000: c5f9 4c3d 03ad 23bd 2f6b 2d3d a156 c93c
00000010: ced4 873d 7190 5ebd 0df7 7fbb 662f ba3c
00000020: e0db 21bd eaf3 213d 9620 32bd 04ee b5bb
00000030: 7612 353d cbf1 673c 4d62 b23c 5e9f 903c
00000040: 8ab1 55bd a273 e53b 65c3 273d a27c c1bc
00000050: 76df ec3b deb6 13bd fa90 b8bc b9ac 023d
00000060: 03da 343b f830 2ebd d549 a93c c785 44bd
00000070: d316 d9bc d7ad ec3c f760 18bb 6c94 153d
00000080: 3d03 593d 9bbf c83c 8c8c 47bb 86d8 333d
00000090: 98fc f539 b3a3 ffbb c1aa 10bd ec1e a43d
000000a0: 1929 51bc 7038 8fbc a27d ec3c b2a3 693c
000000b0: a0d8 49bc 3ed6 83bd 7d73 2bbc 5470 f03c
000000c0: ed06 6dbc ea35 60b8 eb38 583d b8a8 763d
000000d0: d3a2 2abd b781 903d 026d 10bd 9fce 443c
000000e0: a423 4c3d fe07 393c a3e9 4e3d 20e2 a23c
000000f0: 79a1 903c 8867 93bc 9b9b b9bb d4aa e0bb
00000100: 4610 3f3d f889 24bd 1182 c53c 0e61 893b
00000110: 8ca2 d43c f2e7 f9bc a729 e63c 0bc5 cd3c
00000120: 0d23 35bd eed3 33bd ea59 c1bc 3359 923c
00000130: 5441 45bd 1387 0cbd c3d2 e73c ff39 4ebc
00000140: a048 1ebc 21b6 ecbc 5d05 bb3c c2c8 b7b9
00000150: 7d1a 203c 4351 1a3d a1a2 c5bb 52a0 573b
00000160: e963 c1bb 66fe 993d 7b03 a03d 4a55 8fbc
00000170: d130 77bd cdf9 cebc abff 483c c4e4 c8bc
00000180: 343a d83c 154f 21bd 0467 95bb 1cdf 5b3d
00000190: 1950 1ebd 64f7 363c 1d63 1fbd b278 c23c
000001a0: b4e0 143d 7af7 6bbc 7221 9f3c bcdc b0bd
000001b0: 5061 37bb 5b67 82bc 00d2 163d 8297 c63c
000001c0: 37c4 013d 645d 48bb d3f7 b0bb 8667 c7bc
000001d0: 1b31 63bc b489 f83c c8aa 8d3d ce7d ec3c
000001e0: ff8c eabb 7660 383d 53f8 c9bc 555a 173d
000001f0: 7379 05bd d999 753d 8618 4abd d91c 173d
00000200: 6f78 71bc 44b1 01bd 36de e73c efa0 08bd
00000210: 40fa b5bb 8d5f bcbc cf3d b6bc 885c 21bd
00000220: fedd 993b aec2 47bd 19cd c53c 97b9 563d
00000230: 47c9 9bbc e37d 763c 9c32 38bb a7af 5b3d
00000240: 0833 d63c d6a8 00bc 79ac 953c 28f2 8f3c
00000250: 537f 9cbc dd07 5e3d e254 333d ff28 b53c
00000260: c1db 9d3d 9afb 3b3d a4be dfbc 2f6f 8dbb
00000270: df14 7fbd 6b9e e53b 2b60 54bd f9c3 1abd
00000280: 640f 133d b629 893b e46b 1e3d 0ef7 713d
00000290: 6d63 113d 5531 383d 0775 5b3d 303b 1f3d
000002a0: 0c0a fb3c f7fb 1d3b eb10 24bd b378 183d
000002b0: be41 cabc 715b 153c 51a9 473d 4181 273c
000002c0: e3dc 0fbd b850 923d 5934 28bd 7d24 af3c
000002d0: 6a90 3e3d 870b 823c 82a1 753d 0ae4 36bd
000002e0: 9625 ffbc e98a 10bd b680 9d3c 4b6f 363c
000002f0: 27e4 e4ba 4841 653d b7f5 9cbc 01ba c33c
00000300: 6411 5e3c 3867 06bd 2ece 04bd ca28 c43c
00000310: ba9f e7bc 1842 a73c 62fd 6c3d 132e 053b
00000320: 1de5 2b3c 29ed c2bc f041 443d f6b6 15bd
00000330: 2dd5 7b3d 6983 e8bb f95b c8bc 17bb 69bd
00000340: fff6 e6ba 23a7 5e3d d905 9d3b 17c6 2a3d
00000350: 3aa2 b9bc e10d 7abc ecb9 c13c 1d38 71bd
00000360: 5ec5 8a3c 1b6a 1fb9 3447 a93c ee6f 203d
00000370: 9f2e 313d 95fa 933b 5d7b 97bc 5e8c 69bc
00000380: a91a d3bc 487a 263d a2df 173c 5595 afbc
00000390: b970 31bc 1853 0f3d 453d 293d 4332 2b3c
000003a0: 9bd6 8fbc 2e11 c03c 8f8d 98bc 2998 ea3c
000003b0: 5e30 863d 884b fabc 6ca7 0f3d 9ff4 143c
000003c0: 342d 383c cd48 f93a 0166 27bd 670b dc3c
000003d0: a9b9 a43b ef42 cbbb 9294 a0bc b509 d2bc
000003e0: 6b7a 153d 69af 8ebc 4e36 cabb 1d9b 183d
000003f0: 8969 9ebc 948b 13bc 289f 823d 81ef 68bd

fc3.weight f4 [1, 300]
0.09795912 0.008720293 0.04468066 0.09796287 0.109098405 0.0010686538 0.36691213 0.10148933
0.0023810028 0.099483505 0.003 0.3330085 0.09625036 0.16810557 0.055221986 0.103755005
0.0020577034 0.8380322 0.17044525 -0.0011312172 0.11645188 0.05072554 0.003 0.22774209
0.0891592 -0.0009608016 0.06404199 -0.1599158 0.023641704 0.08724369 -0.0016553088 0.21340406
0.07794917 0.07577433 0.09347623 0.5542136 -0.0064836205 0.11742529 0.103449404 0.19106801
0.04348069 0.0019327368 0.06592595 -0.005154551 0.07749877 -0.7058169 0.05762084 0.42618048
0.09917276 -0.0009317627 0.08814932 0.13117994 0.002137442 0.11458716 0.0012013222 -0.16428913
0.049151387 0.075898156 0.07748639 0.11324906 0.09989215 0.003 -0.66203976 0.10230807
0.557224 0.6887983 0.12884478 0.029720714 0.038529962 -0.0017980728 0.090375036 -0.0050515193
0.067740045 -0.19734825 -0.55163455 -0.097521126 0.015669743 0.00084802276 0.15215544 0.08947878
-0.0006941787 0.00020144084 0.12523048 0.083162844 -0.0025277727 0.23931429 0.007928682 0.092562154
0.036537234 0.08123258 -0.6138756 0.29775107 0.27777612 0.005799363 -0.67523396 0.066113845
0.0018111317 -0.0037512507 0.00288983 0.14541507 0.0019325358 0.04324788 0.11011917 0.06693776
0.0739902 -0.0012537476 -0.0009973331 -1.0506226 0.00019297696 -0.7481906 0.0013961613 0.019015998
0.3562479 -0.0032699134 0.3066502 0.08239135 0.06519954 0.064428985 0.2081182 0.6298113
0.67145324 0.058387585 0.004077822 0.2398597 0.21710895 -0.3229073 -0.0026635022 0.45047867
-0.6493389 0.056478832 -0.0034087533 -0.00038370347 0.5013907 0.09343757 -0.00021219294 0.11967999
0.2147962 0.0029272456 -0.35149905 0.04760669 -0.01944237 0.07852177 -0.0051412997 0.14007288
-0.3571354 -0.29838368 0.06364792 0.081397995 0.29914406 0.054322157 -0.08050426 0.0009184697
0.01300902 -0.57745147 0.0077158855 0.045361545 -0.6918705 0.13229631 0.00047181587 -0.19758424
0.18126433 0.024077453 0.051715277 -0.2857638 0.07678783 -0.06732594 0.098010086 0.08140336
-0.25606906 -0.00023420686 -0.00015631119 0.06731011 0.08848242 0.00057472126 0.73487765 -0.0008237619
-0.060325705 -0.29385898 0.12549141 0.00080366037 0.15740159 -0.044903405 0.07313761 -0.3258991
-0.00053687417 0.030855684 0.0011509376 0.0008676486 0.0012038518 0.57944286 0.03341647 -0.5974311
-0.0010430089 0.006721388 0.0006918894 -0.51224035 -0.0024084703 0.071812056 0.055357527 -0.0035136512
0.16684744 0.06610512 0.2584518 -0.0018411092 0.057620432 0.0030445724 0.00097562856 -0.00028344532
0.32367504 0.11980411 0.070649125 0.09231138 0.0024760985 0.0019090195 0.20290735 -1.6359154
-0.27595508 0.20596491 0.08815844 0.21439978 0.052345265 0.25448552 0.19345394 0.003
0.08795858 0.17604697 -0.100643694 0.0010835681 0.091009825 0.180611 0.10670507 -0.18351236
0.0026696543 0.4218972 0.09516364 0.36699334 0.12653397 -1.2142266 0.13773414 -0.0037343905
0.17335574 0.09123935 0.07430658 0.11027376 0.028192587 0.08984098 0.32741365 0.07241361
0.031006824 0.09288619 -0.09664121 0.07361969 0.081206225 -0.005964256 0.14448428 -0.1817728
00000000: cb9e c83d 8fdf 0e3c 1103 373d c2a0 c83d
00000010: fc6e df3d 1212 8c3a e8db bb3e a3d9 cf3d
00000020: 990a 1c3b 02be cb3d a69b 443b 1780 aa3e
00000030: e91e c53d de23 2c3e 7330 623d 817d d43d
00000040: 89da 063b 4789 563f 3389 2e3e 5a45 94ba
00000050: 537e ee3d 95c5 4f3d a69b 443b 3935 693e
00000060: 1999 b63d 4ede 7bba 7228 833d f8c0 23be
00000070: 3fac c13c d2ac b23d f2f6 d8ba 9886 5a3e
00000080: d0a3 9f3d 922f 9b3d 7770 bf3d f1e0 0d3f
00000090: 8d74 d4bb ac7c f03d 48dd d33d 55a7 433e
000000a0: cf18 323d e353 fd3a 2f04 873d 82e7 a8bb
000000b0: adb7 9e3d 6bb0 34bf d403 6c3d 5434 da3e
000000c0: 171b cb3d 8941 74ba a187 b43d 0954 063e
000000d0: 5314 0c3b acac ea3d af75 9d3a 693b 28be
000000e0: f752 493d 7e70 9b3d 2fb1 9e3d 20ef e73d
000000f0: 4194 cc3d a69b 443b 707b 29bf e586 d13d
00000100: 3ba6 0e3f 1655 303f e3ef 033e db78 f33c
00000110: 98d1 1d3d 50ad ebba 8c16 b93d 3787 a5bb
00000120: 4bbb 8a3d a915 4abe ec37 0dbf 28b9 c7bd
00000130: d55d 803c d84d 5e3a a3ce 1b3e a740 b73d
00000140: 8bf9 35ba dd39 5339 6b3c 003e 4851 aa3d
00000150: fda8 25bb ce0e 753e 4de7 013c 3a91 bd3d
00000160: 11a8 153d 445d a63d f426 1dbf d472 983e
00000170: ac38 8e3e 9508 be3b 22dc 2cbf b266 873d
00000180: 7f63 ed3a 8bd7 75bb 4d63 3d3b b0e7 143e
00000190: 244d fd3a b024 313d 2986 e13d aa16 893d
000001a0: 2d88 973d ca54 a4ba f2b8 82ba cd7a 86bf
000001b0: dc59 4a39 6b89 3fbf 66ff b63a 70c7 9b3c
000001c0: 2066 b63e 0b4c 56bb 4101 9d3e ccbc a83d
000001d0: 5687 853d 58f3 833d f01c 553e 503b 213f
000001e0: 5ce4 2b3f d227 6f3d 409f 853b c89d 753e
000001f0: cf51 5e3e 1b54 a5be 278e 2ebb 24a5 e63e
00000200: 133b 26bf 5956 673d 6465 5fbb cf2b c9b9
00000210: 245b 003f 325c bf3d 1c80 5eb9 c81a f53d
00000220: 89f3 5b3e 08d7 3f3b aff7 b3be 3cff 423d
00000230: 9b45 9fbc 06d0 a03d 5978 a8bb 446f 0f3e
00000240: 73da b6be bfc5 98be d759 823d feb3 a63d
00000250: 6929 993e e980 5e3d 6bdf a4bd 75c5 703a
00000260: c923 553c dcd3 13bf 8ad5 fc3b 07cd 393d
00000270: 6d1e 31bf af78 073e 0e5e f739 8653 4abe
00000280: 5b9d 393e 143e c53c 66d3 533d a24f 92be
00000290: f042 9d3d 2fe2 89bd 83b9 c83d ceb6 a63d
000002a0: 7c1b 83be 6d95 75b9 77e7 23b9 e2d9 893d
000002b0: 4536 b53d e4a8 163a f120 3c3f baf1 57ba
000002c0: 1618 77bd af74 96be d280 003e bcac 523a
000002d0: e22d 213e a2ec 37bd 2cc9 953d 3fdc a6be
000002e0: 04bd 0cba 0fc5 fc3c 0fdb 963a e972 633a
000002f0: 90ca 9d3a 5e56 143f b5df 083d 3ff1 18bf
00000300: 92b5 88ba 173f dc3b e95f 353a 2f22 03bf
00000310: 6dd7 1dbb 3312 933d 93be 623d 4945 66bb
00000320: 0eda 2a3e 1f62 873d cb53 843e 6051 f1ba
00000330: 6703 6c3d 7387 473b 53c1 7f3a 639b 94b9
00000340: bcb8 a53e db5b f53d 7db0 903d c00d bd3d
00000350: 0a46 223b 1138 fa3a f2c6 4f3e ad65 d1bf
00000360: fc49 8dbe 77e8 523e 6a8c b43d 9e8b 5b3e
00000370: fd67 563d ed4b 823e ca18 463e a69b 443b
00000380: a123 b43d a845 343e 481e cebd 8306 8e3a
00000390: 5c63 ba3d 17f2 383e 3088 da3d aaea 3bbe
000003a0: 5ef5 2e3b e902 d83e 28e5 c23d 8de6 bb3e
000003b0: 1f92 013e c76b 9bbf 2e0a 0d3e adbc 74bb
000003c0: 2b84 313e b2db ba3d 0c2e 983d 36d7 e13d
000003d0: 24f4 e63c 8cfe b73d c3a2 a73e 964d 943d
000003e0: 0602 fe3c 1d3b be3d d4eb c5bd ecc5 963d
000003f0: 734f a63d ce6f c3bb b0f3 133e a622 3abe
