runs/4_400_300_35_555_actor.pth (torch, 491991 bytes, 6 tensors)

fc1.weight f4 [400, 3]
-0.19453365 0.12857021 0.015338472 0.07912538 -0.053440545 0.022480935 0.047869988 -0.025115991
0.037564315 0.08159363 -0.0633792 0.01864797 -0.1587208 0.15212953 0.035426646 -0.16309841
0.16599055 0.024315927 0.0425531 -0.16406892 -0.031899385 -0.24196537 0.058883574 0.026766954
0.016022295 -0.0730541 0.0012887312 -0.21803337 0.0733987 0.02036929 -0.19363034 0.15352176
-0.07067515 0.1247006 -0.13345318 -0.00808389 -0.013546712 -0.031919625 -0.0052428604 -0.1818944
0.07712699 -0.033737298 -0.036774725 0.088710316 0.0022665416 -0.10327765 0.030093787 -0.036011096
-0.04820321 -0.035972733 0.04189248 -0.10395162 -0.19899425 0.011691227 -0.05581804 0.20821266
0.044807862 0.08038001 0.08072487 -0.0075837276 -0.1953004 0.124778554 0.039917435 0.13452177
-0.015017147 -0.074605785 0.100979224 -0.14605664 0.026676843 -0.03528707 0.04835676 -8.064509e-06
0.13206485 -0.12872246 -0.0067543904 0.13689458 0.08022107 0.00853466 0.045654405 0.0021900951
0.03771658 0.033258192 0.101719715 -0.01790182 0.13003628 -0.12090146 -0.051012732 0.123996966
-0.16836882 -0.05443274 -0.09823847 0.23030046 -0.0037997947 -0.24911514 -0.07210887 0.026435925
-0.19756286 0.19776201 -0.05184098 0.037074078 0.013781673 0.0017063379 0.028042436 -0.015477485
-0.006208503 0.015721643 -0.025367236 0.029813005 0.17098981 -0.07514513 -0.04123338 -0.064151496
0.20260489 -0.039842866 -0.012595633 0.06806882 -0.058867767 -0.008361572 0.041885097 0.044237085
-0.12563898 -0.07014799 -0.052641857 0.02819395 0.00047675372 0.045348685 0.017870938 -0.032659214
-0.033465683 0.098815784 -0.26799288 0.0015756965 0.00165115 0.008757663 0.004255569 0.009733028
0.036827274 -0.01835919 -0.11997672 -0.06855529 -0.0060695084 0.06039183 0.051464777 0.053711258
-0.03917685 -0.010402358 0.042167585 0.11043275 -0.24970621 0.010275713 0.06226988 -0.16423374
-0.008025356 -0.17073925 0.044677027 0.025869323 -0.13215247 0.041812964 -0.020799072 0.022374107
-0.020294745 0.04808714 0.046998132 0.03917861 0.02135015 0.16769703 -0.12315848 -0.008294716
-0.011047644 0.00047727823 0.0059311213 -0.045588132 0.03705433 0.033810694 -0.19145149 0.047194857
-0.037945114 -0.047588862 -0.024930298 0.007999092 -0.0050004423 0.006460977 0.028309405 0.1319664
-0.114186466 0.015664259 -0.037033148 0.019349402 0.015655858 0.04169957 -0.04217506 -0.044499453
0.1182045 0.072625816 -0.049513694 0.11764928 -0.1891996 0.0056488127 -0.18263014 0.20545298
-0.030606162 -0.00684191 0.048885535 0.008013571 0.18043353 -0.15262629 -0.046124596 -0.2222184
-0.006745816 0.024929225 -0.19181983 0.1260432 0.022148838 -0.0691468 0.15657087 -0.029321177
-0.024255734 -0.23158535 0.016801277 0.16756779 -0.27097318 -0.029945042 0.0830043 -0.054524764
0.003019955 -0.20229842 0.05694645 0.013719215 0.21571375 -0.20718813 -0.038094744 -0.038543716
0.10017592 -0.024108218 -0.03092792 0.033380833 -0.027499044 -0.00035399199 0.011772371 0.008445317
-0.18788579 0.1867079 -0.039108645 0.029280666 -0.13587448 -0.024129393 -0.014514166 0.008591897
-0.013008619 0.019259263 -0.04654314 -0.018794352 -0.046741214 0.0051104547 0.0068331184 -0.16710904
00000000: d433 47be e9a7 033e 374e 7b3c 7d0c a23d
00000010: 79e4 5abd f029 b83c 5213 443d 0dc0 cdbc
00000020: 0add 193d 901a a73d f4cc 81bd a1c3 983c
00000030: b587 22be d8c7 1b3e 881b 113d 4503 27be
00000040: 6df9 293e 3232 c73c 294c 2e3d af01 28be
00000050: eea8 02bd c5c5 77be e72f 713d 5f46 db3c
00000060: 3041 833c 639d 95bd a5ea a83a 2444 5fbe
00000070: 0f52 963d 7fdd a63c 0847 46be cf34 1d3e
00000080: 22be 90bd 0763 ff3d f3a7 08be 4b72 04bc
00000090: 07f3 5dbc 27be 02bd 4dcc abbb 8742 3abe
000000a0: c1f4 9d3d 1f30 0abd 18a1 16bd c1ad b53d
000000b0: 428a 143b 3c83 d3bd 3f87 f63c 5f80 13bd
000000c0: bb70 45bd 2558 13bd 7397 2b3d 96e4 d4bd
000000d0: 26c5 4bbe 8f8c 3f3c 75a1 64bd b335 553e
000000e0: 7388 373d 469e a43d 1553 a53d eb80 f8bb
000000f0: d4fc 47be e68b ff3d 7780 233d 13c0 093e
00000100: 7b0a 76bc ebca 98bd 32ce ce3d df8f 15be
00000110: 6589 da3c 2d89 10bd bd11 463d cd4c 07b7
00000120: 023c 073e d2cf 03be ef53 ddbb 182e 0c3e
00000130: f24a a43d f5d4 0b3c 1d00 3b3d b387 0f3b
00000140: b37c 1a3d be39 083d 6d52 d03d d6a6 92bc
00000150: 3b28 053e 2f9b f7bd baf2 50bd 1ff2 fd3d
00000160: e068 2cbe ddf4 5ebd 4031 c9bd e2d3 6b3e
00000170: fa05 79bb 0a18 7fbe d1ad 93bd 2790 d83c
00000180: eb4d 4abe 2082 4a3e 3557 54bd fdda 173d
00000190: 87cc 613c 33a7 df3a 40b9 e53c 4795 7dbc
000001a0: b370 cbbb adca 803c f3ce cfbc 673a f43c
000001b0: f417 2f3e b1e5 99bd 55e4 28bd dc61 83bd
000001c0: a877 4f3e 4632 23bd ea5d 4ebc aa67 8b3d
000001d0: 541f 71bd fafe 08bc b58f 2b3d f231 353d
000001e0: 81a7 00be c0a9 8fbd fd9e 57bd 00f7 e63c
000001f0: cdf4 f939 8bbf 393d 1366 923c abc5 05bd
00000200: 5013 09bd ee5f ca3d 5d36 89be 9a87 ce3a
00000210: 676b d83a 4d7c 0f3c 4d72 8b3b 4777 1f3c
00000220: 32d8 163d 0366 96bc 5bb6 f5bd b766 8cbd
00000230: bae2 c6bb 6c5d 773d bbcc 523d 5600 5c3d
00000240: e877 20bd a76e 2abc ebb7 2c3d 912a e23d
00000250: fcb2 7fbe 775b 283c b40e 7f3d e42c 28be
00000260: c87c 03bc 45d6 2ebe 42ff 363d e7eb d33c
00000270: fa52 07be 1244 2b3d d162 aabc e749 b73c
00000280: 2a41 a6bc 05f7 443d 1d81 403d c079 203d
00000290: 83e6 ae3c c5b8 2b3e 833a fcbd 8fe6 07bc
000002a0: 2d01 35bc 333b fa39 da59 c23b 9fba 3abd
000002b0: 48c6 173d 157d 0a3d dc0b 44be 654f 413d
000002c0: 566c 1bbd 8aec 42bd a03a ccbc a00e 033c
000002d0: c0da a3bb 9ab6 d33b 20e9 e73c 3322 073e
000002e0: 98da e9bd 5552 803c 12b0 17bd a382 9e3c
000002f0: b740 803c 2bcd 2a3d c1bf 2cbd 0f45 36bd
00000300: 3315 f23d d8bc 943d dfce 4abd 1bf2 f03d
00000310: 8abd 41be ad19 b93b 6503 3bbe 4462 523e
00000320: c6b9 fabc 1a32 e0bb 333c 483d 5a4b 033c
00000330: 91c3 383e 114a 1cbe 25ed 3cbd 388d 63be
00000340: 020c ddbb 6038 cc3c 6b6c 44be 7811 013e
00000350: 7b71 b53c d69c 8dbd 1d54 203e f732 f0bc
00000360: f6b3 c6bc b624 6dbe d5a2 893c e496 2b3e
00000370: ffbc 8abe 4e4f f5bc 29fe a93d 5c55 5fbd
00000380: 70ea 453b 5127 4fbe ae40 693d 8fc6 603c
00000390: 11e4 5c3e 2029 54be 3c09 1cbd 04e0 1dbd
000003a0: 0829 cd3d 997e c5bc 8d5c fdbc 57ba 083d
000003b0: ad45 e1bc 0098 b9b9 e7e0 403c 3a5e 0a3c
000003c0: 2265 40be 5b30 3f3e 6330 20bd 02de ef3c
000003d0: ae22 0bbe 01ab c5bc d3cc 6dbc 07c5 0c3c
000003e0: 1a22 55bc 9ac5 9d3c 05a4 3ebd 9df6 99bc
000003f0: b773 3fbd 9a75 a73b 5ae8 df3b a21e 2bbe

fc1.bias f4 [400]
0.58427316 0.3646359 -0.33694878 0.27319425 0.17835985 0.00086691615 0.05498269 0.071317054
0.4418078 -0.00048879936 0.005292086 0.5866448 -0.4144652 0.29828626 -0.09212494 -0.34202245
-0.57583416 0.05021035 0.25643224 0.5415741 0.23032898 -0.09628817 0.3772563 -0.11744496
0.58437866 0.3620839 -0.1744148 0.48917413 0.20976545 0.3237815 -0.35693768 0.081735946
0.2778294 -0.18271302 -0.28961438 -0.22089693 -0.116913326 0.08084 -0.48562303 -0.40165207
-0.04457276 -0.1493548 -0.55228823 0.06644037 -0.5700487 -0.48301807 0.39679527 -0.041651122
-0.4154527 0.057832163 0.06620932 0.073223114 -0.43002588 -0.14997086 -0.21487449 0.39501044
-0.49677464 -0.09249241 -0.17943652 -0.2647041 -0.4911487 0.35342413 -0.13375075 -0.3845739
-0.37222362 0.40330192 0.11722512 -0.5061185 0.35990766 0.088716656 0.001420355 -0.5946825
0.41128087 0.13640787 0.120719366 0.054825842 -0.2548223 0.22486669 -0.48622754 -0.23560522
0.17096782 0.20421395 -0.3565644 -0.50902116 -0.24260677 0.19036841 -0.50529027 -0.107460976
0.37908685 -0.03175013 -0.4975964 -0.36652994 -0.43356866 -0.23399153 -0.48552814 0.5483371
-0.55495095 0.4936755 0.16702963 -0.40223804 -0.2606919 -0.20962338 0.06580848 0.17155218
0.2392256 -0.36500585 -0.15991367 -0.040465042 0.0454578 0.073797636 -0.340815 -0.38101557
-0.11695596 -0.029578589 0.45525366 0.103528395 -0.46451908 -0.16543864 -0.02470254 -0.011584387
0.4949537 0.07862053 -0.2016112 -0.51969594 -0.06261374 0.1733069 0.5220047 -0.5619137
0.047978543 -0.58535993 -0.40525582 -0.1661714 0.08156918 -0.55375487 -0.55347955 -0.45859444
-0.21921174 0.36691725 -0.46771294 -0.19159965 -0.5388593 -0.038686894 0.21223058 -0.06232349
0.04438987 -0.10131577 0.10820073 0.22618367 -0.24497333 0.5663225 -0.27613202 0.30977938
0.2977341 0.19340123 0.31465736 -0.42937946 -0.4264221 -0.50827765 -0.37395957 0.49826074
0.44065446 0.194219 -0.5185552 -0.45584336 0.09564276 -0.35858208 -0.48988983 -0.10880364
-0.34101006 -0.17043331 -0.292769 0.49602106 0.07125361 -0.15149115 -0.4164731 0.5411058
-0.38365892 -0.25893366 0.009358528 0.026980769 -0.42099217 0.13794012 -0.06394551 0.17745833
-0.2465385 -0.32313213 -0.49486852 -0.27625343 -0.008679678 -0.49455887 -0.32754108 -0.21400405
-0.40711704 0.10337076 -0.19743218 0.35716948 -0.2211101 0.11296972 -0.29679462 -0.28900018
0.58518636 -0.121113926 0.5688725 0.5187019 -0.5713846 -0.33852804 0.17191322 -0.17826924
0.011303319 -0.16592771 0.43122944 -0.37541863 0.17486401 0.06072066 0.23133357 0.3318679
0.0011607559 -0.32142383 -0.18604349 -0.37520516 -0.041821893 0.13093778 -0.3207185 -0.14398319
0.5396365 -0.54297626 -0.558077 -0.21323782 -0.44146606 0.5418859 0.5285272 0.4889135
0.14773344 -0.43965244 0.015339453 -0.48907223 -0.07836824 -0.26126948 0.1184151 -0.49833024
0.12275177 -0.4321163 -0.45336378 0.087625295 -0.17189172 -0.45172325 0.4251542 0.14743178
-0.32244417 -0.26348677 -0.4489679 0.17649984 0.5359347 -0.25411832 0.12053372 0.19630642
00000000: ed92 153f 8fb1 ba3e 8d84 acbe 1ee0 8b3e
00000010: f7a3 363e c241 633a 8735 613d ad0e 923d
00000020: a234 e23e c522 00ba 3c69 ad3b 5b2e 163f
00000030: c834 d4be fab8 983e 00ac bcbd 911d afbe
00000040: de69 13bf 5ea9 4d3d 164b 833e 9aa4 0a3f
00000050: 5cdb 6b3e bb32 c5bd bd27 c13e fc86 f0bd
00000060: d799 153f 1063 b93e cb99 32be 0875 fa3e
00000070: c1cc 563e b0c6 a53e 89c0 b6be 2d65 a73d
00000080: a83f 8e3e 1f19 3bbe 5648 94be ce32 62be
00000090: 4170 efbd 718f a53d 95a3 f8be 57a5 cdbe
000000a0: ed91 36bd 77f0 18be c362 0dbf e411 883d
000000b0: b6ee 11bf 254e f7be c028 cb3e 5e9a 2abd
000000c0: 37b6 d4be 6be1 6c3d c198 873d 00f6 953d
000000d0: 5a2c dcbe f691 19be 0f08 5cbe cf3e ca3e
000000e0: 3f59 febe a96c bdbd 35be 37be 4c87 87be
000000f0: d877 fbbe 02f4 b43e f5f5 08be dfe6 c4be
00000100: 1894 bebe 977d ce3e b913 f03d fb90 01bf
00000110: d145 b83e 14b1 b53d 352b ba3a 1d3d 18bf
00000120: 6893 d23e 81ae 0b3e b73b f73d 1091 603d
00000130: 1278 82be 7443 663e d1f2 f8be 7f42 71be
00000140: 3012 2f3e 761d 513e 9c8f b6be 364f 02bf
00000150: e96d 78be f0ef 423e b45a 01bf 8014 dcbd
00000160: ac17 c23e 6d0c 02bd f5c4 febe d0a9 bbbe
00000170: b6fc ddbe 7a9b 6fbe 2597 f8be d25f 0c3f
00000180: 4411 0ebf 09c3 fc3e d109 2b3e 25f2 cdbe
00000190: 6979 85be 83a7 56be 99c6 863d 60ab 2f3e
000001a0: 8ef7 743e 0ce2 babe 69c0 23be acbe 25bd
000001b0: f531 3a3d 3723 973d 4e7f aebe 7914 c3be
000001c0: 9b86 efbd cc4e f2bc 0217 e93e b206 d43d
000001d0: 72d5 edbe bf68 29be fb5c cabc 71cc 3dbc
000001e0: 926a fd3e cd03 a13d 2b73 4ebe cb0a 05bf
000001f0: a23b 80bd 5d77 313e 1aa2 053f 94d9 0fbf
00000200: 2685 443d 26da 15bf b17d cfbe d628 2abe
00000210: be0d a73d e1c2 0dbf d6b0 0dbf e4cc eabe
00000220: 0b79 60be 94dc bb3e 1278 efbe b332 44be
00000230: aff2 09bf 2676 1ebd f952 593e ea46 7fbd
00000240: 27d2 353d a47e cfbd 5898 dd3d b19c 673e
00000250: 4ada 7abe 83fa 103f 2d61 8dbe 679b 9e3e
00000260: 9b70 983e f90a 463e c51a a13e a0d7 dbbe
00000270: ff53 dabe 7c1e 02bf a177 bfbe 081c ff3e
00000280: 769d e13e 58e1 463e 09c0 04bf 4d64 e9be
00000290: 5ae0 c33d 1298 b7be d7d2 fabe 71d4 debd
000002a0: df98 aebe 1286 2ebe d2e5 95be 79f6 fd3e
000002b0: 6aed 913d 7f20 1bbe f63b d5be e985 0a3f
000002c0: f16e c4be f492 84be 8354 193c c606 dd3c
000002d0: 498c d7be 2d40 0d3e ddf5 82bd a3b7 353e
000002e0: 9774 7cbe 9371 a5be 685f fdbe 1771 8dbe
000002f0: 3535 0ebc d236 fdbe 77b3 a7be e123 5bbe
00000300: a571 d0be 0db4 d33d a92b 4abe ebde b63e
00000310: b06a 62be ab5c e73d 77f5 97be d5f7 93be
00000320: c6ce 153f 940a f8bd a1a1 113f a6c9 043f
00000330: 4346 12bf 8c53 adbe 050a 303e 368c 36be
00000340: 8e31 393c f4e8 29be 1bca dc3e df36 c0be
00000350: 8d0f 333e 3ab6 783d b5e2 6c3e 97ea a93e
00000360: 8124 983a aa91 a4be 2f82 3ebe e41a c0be
00000370: 6f4d 2bbd 8e14 063e 3735 a4be 5470 13be
00000380: 9e25 0a3f 7e00 0bbf 22de 0ebf 045b 5abe
00000390: d707 e2be 09b9 0a3f 8f4d 073f df52 fa3e
000003a0: 6f47 173e 201a e1be 5452 7b3c ad67 fabe
000003b0: 877f a0bd 1dc5 85be 9e83 f23d 2425 ffbe
000003c0: 4865 fb3d 593e ddbe 4c1f e8be e474 b33d
000003d0: 6204 30be 4548 e7be d0ad d93e 5bf8 163e
000003e0: 6717 a5be bde7 86be 1fdf e5be 60bc 343e
000003f0: 0433 093f cc1b 82be 62da f63d 8d04 493e

fc2.weight f4 [300, 400]
-0.0022008393 0.007871047 -0.041265402 0.0059175505 0.6405515 -0.17066747 0.029194381 0.24504624
-0.035259098 0.25391516 0.019192189 0.0084409425 0.001337968 -0.052933604 -0.030327072 0.17820938
0.011892939 -0.03187535 -0.17551859 0.0795636 0.5399729 -0.039884835 0.008335773 -0.011290853
0.018483082 0.06587018 -0.050602846 -0.012193657 0.050115407 0.05074141 0.909924 -0.17843473
0.02088726 0.04764336 0.0083067715 0.054413177 0.0362868 -0.018829389 -0.048412025 0.02963842
0.026440253 0.04465557 -0.04329876 0.011630259 0.010404979 -0.038762707 0.009767052 -0.07428021
0.042356204 0.055535164 0.031603757 -0.08258319 0.24603036 0.03922361 0.031923972 0.01517674
0.011050129 0.05226107 -0.10880756 -0.03244401 0.047279164 0.07741285 0.02491595 -0.0038635423
0.045063347 -0.028882312 0.028582044 0.0053378455 -0.0016756788 0.23006932 0.69943476 0.77279943
0.044217218 0.07352456 0.02098479 0.3150793 0.06491826 0.056760762 -0.0363153 -0.019531291
-0.0044674496 -0.030367013 0.012575089 -0.0006981041 -0.013457122 0.61484766 -0.05633883 -0.043266866
0.042808842 -0.015488589 -0.030807078 -0.00863809 0.04018957 -0.000590929 -0.010366244 0.023315301
0.0031607223 0.031515304 0.8161608 0.046083897 0.019974135 0.05739209 -0.019255185 -0.14104551
0.053935226 -0.008141921 0.04204387 -0.0049136668 -0.020135608 -0.011426087 0.032720145 -0.09352566
-0.0063400376 -0.060296614 0.044644624 -0.048596792 0.025295345 0.026642364 0.030199796 0.00040369973
0.025824243 0.06628648 -0.06373909 -0.03487938 -0.05623155 0.15190431 -0.012263978 -0.03754128
-0.024241662 0.14264952 -0.0609951 -0.08386162 0.05931076 0.028516462 -0.051261444 -0.04740883
-0.055519726 0.049602523 0.006510639 -0.11146948 -0.00809439 0.057175357 -0.032511655 -0.052357968
-0.0792504 0.038438387 0.18187714 0.038130235 -0.055046234 0.0020587505 -0.0290616 0.0063279937
0.008347156 0.009550408 0.10204406 -0.042975243 -0.045407392 0.054305732 -0.02462295 0.053006187
-0.02977485 0.01378191 0.017070098 -0.01151075 0.016984815 -0.043631807 -0.006491587 -0.044444
0.052082557 -0.03141217 0.03063838 -0.06478523 0.043278053 -0.040182456 0.048896212 0.0637641
0.018327318 0.0035492457 -0.123067886 0.05661197 -0.01580931 -0.004150956 -0.05768056 0.01150901
0.028624704 -0.00648187 0.030333359 -0.011202041 -0.027294107 0.041575063 -0.0141332485 -0.018195428
0.00226321 0.028880017 -0.013975578 -0.021822948 -0.048806056 0.068440124 -0.030670108 -0.03339079
0.054653928 0.017556187 0.097784705 -0.0012040262 0.013186555 0.03668693 0.01907202 0.020677393
0.7840323 0.006233128 -0.04112852 0.01715123 -0.07578987 0.07350181 -0.1922777 0.04133373
-0.025337253 -0.17058147 -0.0013316154 0.9134437 0.0037285052 0.043270707 -0.03504946 -0.02442411
-0.028163213 0.0029804339 0.0036730939 0.021790588 -0.02160649 0.17415535 -0.036733083 0.15229577
0.03498836 -0.009343263 0.0704451 -0.015943581 -0.031212047 0.28500748 -0.30159354 -0.043750774
-0.04057862 -0.056583047 -0.05127948 0.7996804 -0.042748876 -0.03763552 0.007011146 0.07708633
-0.01891201 0.029472187 0.5887539 -0.06730213 0.004260567 0.021291958 0.24266286 -0.00891453
00000000: f53b 10bb 90f5 003c e905 29bd 03e8 c13b
00000010: 2ffb 233f 74c3 2ebe 0e29 ef3c 67ed 7a3e
00000020: d86b 10bd 2b01 823e f038 9d3c e14b 0a3c
00000030: c25e af3a e8d0 58bd 7b70 f8bc 857c 363e
00000040: 9ada 423c ba8f 02bd 25bb 33be 3ef2 a23d
00000050: aa3b 0a3f 485e 23bd c492 083c 45fd 38bc
00000060: d569 973c f2e6 863d ee44 4fbd e8c7 47bc
00000070: d045 4d3d 3ad6 4f3d c7f0 683f 98b7 36be
00000080: c21b ab3c af25 433d 2019 083c 5ae0 5e3d
00000090: 78a1 143d 1740 9abc b04b 46bd 46cc f23c
000000a0: 3b99 d83c c2e8 363d 0a5a 31bd d88c 3e3c
000000b0: a579 2a3c a5c5 1ebd fc05 203c 3920 98bd
000000c0: b37d 2d3d d778 633d f172 013d 6021 a9bd
000000d0: 62ef 7b3e f0a8 203d b6c2 023d dca7 783c
000000e0: 9a0b 353c b40f 563d 7fd6 debd 03e4 04bd
000000f0: cca7 413d a18a 9e3d 891c cc3c 7c33 7dbb
00000100: 5894 383d 999a ecbc e424 ea3c 18e9 ae3b
00000110: 73a2 dbba 4b97 6b3e 280e 333f 2fd6 453f
00000120: 1d1d 353d 0b94 963d 4be8 ab3c 1352 a13e
00000130: ddf3 843d f97d 683d 5abf 14bd 1600 a0bc
00000140: af63 92bb 3ec4 f8bc bf07 4e3c f900 37ba
00000150: 437b 5cbc a866 1d3f 8cc3 66bd 9938 31bd
00000160: 5358 2f3d dac3 7dbc 205f fcbc c786 0dbc
00000170: d29d 243d 93e8 1aba 2ed7 29bc bbff be3c
00000180: 1f24 4f3b 3116 013d eaef 503f 78c2 3c3d
00000190: cca0 a33c f813 6b3d 0dbd 9dbc 3c6e 10be
000001a0: 2feb 5c3d b165 05bc 3136 2c3d d302 a1bb
000001b0: 6ef3 a4bc 7b34 3bbc 8f05 063d 628a bfbd
000001c0: 17c0 cfbb 95f9 76bd 48dd 363d 6e0d 47bd
000001d0: 2f38 cf3c 1641 da3c 9065 f73c a9a7 d339
000001e0: 5d8d d33c 35c1 873d a489 82bd aedd 0ebd
000001f0: 0e53 66bd ce8c 1b3e daee 48bc e3c4 19bd
00000200: 7396 c6bc b712 123e ffd5 79bd a4bf abbd
00000210: d7ef 723d 5b9b e93c 85f7 51bd c32f 42bd
00000220: a768 63bd 042c 4b3d 3357 d53b 1c4a e4bd
00000230: 559e 04bc b530 6a3d f12a 05bd 4f75 56bd
00000240: 094e a2bd 9271 1d3d 003e 3a3e 732e 1c3d
00000250: 2978 61bd 1aec 063b 9812 eebc 0f5b cf3b
00000260: 83c2 083c 5179 1c3c 7afc d03d cf06 30bd
00000270: 1afd 39bd b06f 5e3d 12b6 c9bc 041d 593d
00000280: 63ea f3bc 85cd 613c 97d6 8b3c 9697 3cbc
00000290: bd23 8b3c 44b7 32bd 61b7 d4bb e90a 36bd
000002a0: 8554 553d 0caa 00bd 57fd fa3c 1eae 84bd
000002b0: 5444 313d 5c96 24bd 6547 483d c196 823d
000002c0: 2c23 963c 769a 683b 040b fcbd f4e1 673d
000002d0: 8782 81bc be04 88bb 7342 6cbd 4990 3c3c
000002e0: 5b7e ea3c de65 d4bb aa7d f83c c488 37bc
000002f0: e497 dfbc 9d4a 2a3d 248f 67bc 940e 95bc
00000300: 5d52 143b c995 ec3c d3f9 64bc 0ac6 b2bc
00000310: dce8 47bd 562a 8c3d e13f fbbc c8c4 08bd
00000320: ccdc 5f3d fed1 8f3c 5943 c83d 6ad0 9dba
00000330: 6c0c 583c 0945 163d ed3c 9c3c a363 a93c
00000340: 57b6 483f 443f cc3b 6176 28bd bc80 8c3c
00000350: b837 9bbd 1e88 963d 72e4 44be 8f4d 293d
00000360: 1290 cfbc e9ac 2ebe 9989 aeba 72d7 693f
00000370: f059 743b a03c 313d 0690 0fbd 1215 c8bc
00000380: 8ab6 e6bc 6253 433b 4ab8 703b 2d82 b23c
00000390: 1800 b1bc c855 323e 6e75 16bd 6cf3 1b3e
000003a0: f44f 0f3d 7c14 19bc 8545 903d 1d9c 82bc
000003b0: 68b0 ffbc 80ec 913e 786a 9abe 0334 33bd
000003c0: c435 26bd a0c3 67bd 6f0a 52bd dbb7 4c3f
000003d0: 7219 2fbd b427 1abd c1bd e53b 70df 9d3d
000003e0: 5ced 9abc a86f f13c 93b8 163f b3d5 89bd
000003f0: 3a9c 8b3b 796c ae3c 9d7c 783e 400e 12bc

fc2.bias f4 [300]
0.009904798 0.039369456 -0.040216852 -0.034416325 0.037507676 0.02816385 -0.0029620645 0.015512598
0.020671174 -0.046426587 -0.040445473 -0.025607385 0.039008625 -0.009714213 0.031283293 0.009004158
0.0073243957 -0.038115703 -0.035541605 0.04792347 -0.041826397 0.0135467285 -0.018583031 0.039793823
-0.027861577 -0.009931458 0.04396053 0.026333472 0.0350752 0.04732767 -0.04339327 0.03263089
-0.023660956 -0.007186079 0.03680339 -0.02057196 0.027212948 -0.0032763192 0.028176336 -0.033790402
-0.0012263358 -0.02993073 -0.03678878 0.048015885 0.015685225 0.031230643 -0.0387666 0.060530894
0.016648943 0.01771604 0.013485003 -0.027038949 -0.030992568 0.0077941595 -0.015016056 -0.047116317
-0.025841448 -0.008999109 0.009204716 0.003777988 -0.024304617 0.037919894 0.030841928 0.028371517
0.010091784 0.013997135 -0.005266776 0.020438224 -0.018015 0.03303429 0.039286464 0.03129258
0.050947245 0.0075966585 0.019998597 -0.039932508 -0.0022847822 -0.03688044 -0.011799801 -0.01031247
-0.048331197 0.0111031355 0.050359182 0.050701287 0.011694617 -0.005747757 0.035192315 -0.039424997
-0.04718334 0.029429365 -0.028162843 -0.025144385 -0.0100598065 -0.011828594 0.01172717 0.030139541
-0.018837204 -0.008157487 0.045936562 0.020281797 -0.024332635 -0.003863804 -0.036209624 -0.037264187
0.038358398 -0.009740467 -0.024072114 0.0011303702 0.031210206 -0.001324406 0.021606104 -0.040271506
0.030926874 0.035330508 0.048287656 -0.03396518 -0.0050793993 0.014098797 -0.031155104 0.020999847
-0.03097116 -0.03891613 -0.0014798356 -0.0152298985 -0.023898566 -0.017383935 -0.028901065 -0.0033832712
0.06249288 -0.041739404 -0.008870249 -0.0456217 -0.037148923 -0.007767983 0.0018315037 0.046913695
-0.0032974472 0.043368418 0.06868604 0.064719036 0.009061366 -0.027775433 -0.0129945455 0.007736439
0.043055937 -0.0075331167 -0.0039416766 0.04363206 0.046660796 0.048241004 0.037679806 -0.019982535
0.011822157 -0.01971736 -0.030135285 0.002927081 -0.017094884 -0.018494835 -0.0013590856 -0.0344667
-0.0100131035 -0.0041831615 0.016173812 0.071067266 0.038183026 -0.01292433 -0.030239133 -0.02970587
0.023657508 -0.041979413 0.049456783 0.02982074 -0.007255945 -0.044641737 -0.018218603 0.006131607
-0.027446184 0.024311934 0.036469538 0.021155814 -0.00855267 0.03610953 0.013860828 0.053294167
-0.04552981 -0.010219798 -0.026940087 0.0025284416 -0.028439928 0.0055095525 -0.038315017 0.0046475152
0.008576318 0.031442292 0.04927172 0.028643223 -0.006239931 0.044350978 0.0005406443 -0.0098232785
-0.05085676 0.016654784 0.036945548 -0.03946169 0.06593197 -0.0021357862 0.019006634 -0.022191083
-0.029820938 -0.01500684 0.028640617 0.017791936 0.011050386 0.029905085 0.02190762 0.015231037
-0.049070824 0.013597461 0.0024118305 -0.039022658 0.023550157 -0.049179595 -0.0053632255 0.041384205
0.028426912 -0.035688285 -0.0021753549 -0.027596122 0.052888457 0.04293571 -0.032504506 -0.042304374
0.04380615 0.003165418 0.04715181 0.043382447 0.033469908 -0.007194861 0.036898077 0.019554896
0.007774133 0.08182526 -0.03757365 0.036139283 0.042887256 -0.034517538 -0.01851714 0.0038954974
0.026229007 -0.027297977 0.046141397 -0.02694229 -0.032682724 -0.00010907289 0.018997135 -0.044763327
00000000: bc47 223c de41 213d 6dba 24bd 22f8 0cbd
00000010: a6a1 193d e0b7 e63c 321f 42bb 8d28 7e3c
00000020: 9856 a93c ce29 3ebd 27aa 25bd 94c6 d1bc
00000030: 82c7 1f3d 5d28 1fbc e922 003d 2d86 133c
00000040: 7c01 f03b 361f 1cbd 1394 11bd 674b 443d
00000050: 2852 2bbd 19f3 5d3c 713b 98bc d9fe 223d
00000060: f63d e4bc 8eb7 22bc f50f 343d 4bb9 d73c
00000070: 03ab 0f3d a9da 413d 24bd 31bd f8a7 053d
00000080: 9fd4 c1bc 3379 ebbb 27bf 163d 8786 a8bc
00000090: b0ed de3c 84b7 56bb 0fd2 e63c ce67 0abd
000000a0: 00bd a0ba 4a31 f5bc d5af 16bd 4eac 443d
000000b0: 4d7e 803c 68d7 ff3c bac9 1ebd 3eef 773d
000000c0: 5d63 883c 3b21 913c 34f0 5c3c c980 ddbc
000000d0: 20e4 fdbc 2666 ff3b e705 76bc 0afd 40bd
000000e0: 72b1 d3bc 0071 13bc 61cf 163c 1f98 773b
000000f0: 7a1a c7bc e451 1b3d 36a8 fc3c 626b e83c
00000100: 0358 253c 3d54 653c eb94 acbb 106e a73c
00000110: 3194 93bc f74e 073d d8ea 203d a62c 003d
00000120: 0fae 503d 64ed f83b 19d4 a33c 4590 23bd
00000130: 49bc 15bb f20f 17bd f453 41bc a2f5 28bc
00000140: eff6 45bd ede9 353c 6e45 4e3d 27ac 4f3d
00000150: c79a 3f3c ae57 bcbb d125 103d 1b7c 21bd
00000160: 5143 41bd da15 f13c c3b5 e6bc 99fb cdbc
00000170: e3d1 24bc b8cc 41bc 5123 403c 33e7 f63c
00000180: 7b50 9abc fba6 05bc fa27 3c3d 0326 a63c
00000190: 3c55 c7bc e037 7dbb 8b50 14bd 55a2 18bd
000001a0: b21d 1d3d 7b96 1fbc e232 c5bc ee28 943a
000001b0: 8cac ff3c b197 adba 49ff b03c bcf3 24bd
000001c0: 5b5a fd3c b9b6 103d 47c9 453d 131f 0bbd
000001d0: 1771 a6bb a4fe 663c fd38 ffbc df07 ac3c
000001e0: 3bb7 fdbc 8566 1fbd 0bf7 c1ba d386 79bc
000001f0: edc6 c3bc c168 8ebc edc1 ecbc dfb9 5dbb
00000200: 89f8 7f3d f0f6 2abd 8554 11bc d2dd 3abd
00000210: 7829 18bd 908a febb 110f f03a 9328 403d
00000220: fc19 58bb 15a3 313d 44ab 8c3d 6a8b 843d
00000230: 2076 143c 4e89 e3bc 13e7 54bc f481 fd3b
00000240: 6c5b 303d 5dd8 f6bb 2e29 81bb 88b7 323d
00000250: 641f 3f3d 5c98 453d 2456 1a3d 6ab2 a3bc
00000260: b8b1 413c 4d86 a1bc 46de f6bc 45d4 3f3b
00000270: 920a 8cbc 7b82 97bc 5823 b2ba f42c 0dbd
00000280: 000e 24bc e712 89bb f17e 843c b78b 913d
00000290: ce65 1c3d 92c0 53bc 0fb8 f7bc ba59 f3bc
000002a0: 64cd c13c 9bf2 2bbd 3293 4a3d a04a f43c
000002b0: 47c3 edbb 41da 36bd 2e3f 95bc a6eb c83b
000002c0: d2d6 e0bc d229 c73c 1561 153d f54e ad3c
000002d0: 7f20 0cbc 96e7 133d 8718 633c fc4a 5a3d
000002e0: 777d 3abd f170 27bc 75b1 dcbc 36b4 253b
000002f0: dafa e8bc 7a89 b43b 35f0 1cbd 2f4a 983b
00000300: af83 0c3c a2c9 003d 25d1 493d 31a5 ea3c
00000310: 5678 ccbb 5fa9 353d 06ba 0d3a d1f1 20bc
00000320: 2e4f 50bd 9d6f 883c 3754 173d 95a2 21bd
00000330: 5707 873d 8cf8 0bbb cdb3 9b3c 13ca b5bc
00000340: 0a4b f4bc 40df 75bc ba9f ea3c 65c0 913c
00000350: ae0c 353c 82fb f43c 9c77 b33c 998b 793c
00000360: 7dfe 48bd e3c7 5e3c cd0f 1e3b 39d6 1fbd
00000370: 42ec c03c 8b70 49bd ffbd afbb 7c82 293d
00000380: 8edf e83c e12d 12bd 6690 0ebb 4311 e2bc
00000390: 91a1 583d 5bdd 2f3d 7223 05bd 5a47 2dbd
000003a0: 146e 333d e772 4f3b 4222 413d cbb1 313d
000003b0: be17 093d dec2 ebbb 7022 173d 9731 a03c
000003c0: 27be fe3b 0094 a73d d4e6 19bd c906 143d
000003d0: 8caa 2f3d 4362 0dbd 42b1 97bc 9a4b 7f3b
000003e0: 37de d63c 02a0 dfbc c3fe 3c3d 14b6 dcbc
000003f0: 52de 05bd 10be e4b8 e19f 9b3c c059 37bd

fc3.weight f4 [2, 300]
-0.113879874 0.05627785 0.08546619 0.4954144 0.068957746 -0.03263006 0.10868922 -0.059077233
-0.18556485 0.076091506 0.0008353368 0.3635356 -0.0025091465 0.06121016 0.07197172 0.066765755
0.5199485 0.11244078 -0.0013757526 0.06631515 0.0006774452 -0.033633146 0.07762017 0.06794627
-0.0032355816 0.075761996 0.07688719 0.067148045 0.09932457 0.11196539 0.090839766 0.15501551
0.08068997 -0.035512984 0.056910302 0.00048145832 0.05609151 0.073511 0.07081534 0.076302156
0.00030635548 -0.0011287709 -7.5981616e-06 0.08812952 0.054539524 0.20347686 -3.140402e-05 -0.035327356
-0.0014273151 0.08408066 -0.04921643 -0.43277076 0.07794118 -0.0035879987 0.09037081 -0.5652127
0.06889444 0.0025977055 -0.033714373 0.080617115 0.058850963 0.07799015 -0.18306823 0.08779865
0.0747589 -0.037667252 0.0692261 0.054674245 0.07963226 0.06104397 -0.17294893 0.06601264
-0.05058944 0.087173045 0.22109091 0.47779757 0.08515706 0.03430547 0.124471806 -0.14410841
-0.0029215694 0.002070877 -0.055477817 0.08376182 0.00062615704 0.112455085 0.06439944 0.06148257
0.069451526 0.073848404 -0.03281168 0.07264715 -0.039021287 0.08230236 0.06494183 0.00089170935
0.08430352 -0.15234466 0.042069722 0.064884484 0.07575175 0.069383144 -0.001797437 0.079047665
-0.07120845 0.071209334 0.080877334 0.08035156 -0.077495344 0.057340402 -0.03806995 0.5817953
0.077051796 -0.0006463041 0.0888876 0.08799955 0.071896724 0.0788387 0.0012922132 -0.037292693
0.0833661 0.6362545 0.08291061 -0.00021019399 0.088529654 0.05822864 0.0012108489 0.0012953079
-0.032694507 0.08507096 0.07474287 0.075605206 -0.0015380301 0.08360303 -0.072859295 0.08152939
0.08636347 -0.00046377396 -0.050275553 -0.03398596 -0.0015488442 -0.03234961 0.16301031 0.08236042
0.066772915 0.070098236 0.07372675 0.14632723 0.027352273 0.061312277 0.08323526 -0.0017551102
0.07635509 -0.0013453218 0.079009 0.07666867 -0.033365082 0.0333678 0.07169468 0.07002006
-0.0007159528 -0.00038826227 0.06144505 -0.036237348 -0.08514884 0.0848843 0.072014526 -0.0022818313
0.095339745 0.1044337 -0.0007258566 0.08861518 -1.3088926 0.08843053 -0.039171495 0.07253803
0.06888159 -0.03265607 0.090917885 -0.0351115 -0.15110645 0.06636307 0.20403086 0.086621255
0.08083551 0.6328754 0.109008275 -0.061489653 -1.1144042e-05 0.094906926 0.0019639933 0.038085174
0.46646434 0.09484238 0.11903482 -0.03364835 0.10693429 0.085544795 0.08647289 0.25833714
0.07970579 -0.0024648472 0.079610236 0.09314815 -0.031726558 -0.035941754 0.08673172 0.09701144
-0.0017402999 0.002657076 -0.0027666017 0.08716166 0.08442958 0.0661644 0.0774723 0.072592564
-0.0007734583 0.095004186 -0.00076837064 0.6053566 0.061799996 0.002072411 0.07369249 0.12130961
0.07460765 0.0652587 0.05698258 0.08227799 0.06372919 0.1478096 0.3084754 0.046685472
0.0768858 -0.0020441406 -0.0021143826 0.082321815 0.090765715 0.12184923 0.00034662778 0.080810145
0.0025357523 -0.16256431 0.06348 0.09261239 0.0834244 -0.0009115195 0.07952213 0.0011525452
-0.0008378731 0.08300526 -0.16505261 0.08664941 -0.00049188995 0.0700681 0.08174839 0.10147291
00000000: da39 e9bd 9a83 663d e608 af3d f5a6 fd3e
00000010: b839 8d3d 19a7 05bd 7498 de3d f8fa 71bd
00000020: b604 3ebe ddd5 9b3d 81fa 5a3a 5721 ba3e
00000030: 7e70 24bb 81b7 7a3d e965 933d 7cbc 883d
00000040: 581b 053f 5a47 e63d 9952 b4ba 3dd0 873d
00000050: 9496 313a e9c2 09bd 53f7 9e3d 6a27 8b3d
00000060: 0d0c 54bb 1b29 9b3d 0877 9d3d ea84 893d
00000070: ae6a cb3d 1c4e e53d 330a ba3d 63bc 1e3e
00000080: c840 a53d 1076 11bd c71a 693d 3e6c fc39
00000090: 36c0 653d ef8c 963d a207 913d 4e44 9c3d
000000a0: 569e a039 44f3 93ba b6f3 feb6 407d b43d
000000b0: d664 5f3d 3d5c 503e cfb7 03b8 6bb3 10bd
000000c0: bf14 bbba 7b32 ac3d 2b97 49bd 2194 ddbe
000000d0: a09f 9f3d a124 6bbb 5514 b93d c8b1 10bf
000000e0: 8718 8d3d 443e 2a3b 1518 0abd 961a a53d
000000f0: b50d 713d 4db9 9f3d 3d76 3bbe c7cf b33d
00000100: 321b 993d fa48 1abd 6ac6 8d3d 1af2 5f3d
00000110: 3d16 a33d 3e09 7a3d 8619 31be a331 873d
00000120: df36 4fbd c887 b23d a865 623e e2a1 f43e
00000130: d366 ae3d e483 0c3d 13eb fe3d 2891 13be
00000140: cd77 3fbb 8db7 073b b53c 63bd 518b ab3d
00000150: b024 243a da4e e63d dbe3 833d 26d5 7b3d
00000160: 9a3c 8e3d d53d 973d 8a65 06bd 07c8 943d
00000170: c9d4 1fbd 248e a83d 3900 853d 9ac1 693a
00000180: 53a7 ac3d 3d00 1cbe 4d51 2c3d 28e2 843d
00000190: bc23 9b3d c018 8e3d fa97 ebba bee3 a13d
000001a0: bcd5 91bd 33d6 913d 04a3 a53d 5c8f a43d
000001b0: e1b5 9ebd c5dd 6a3d 3cef 1bbd 89f0 143f
000001c0: 55cd 9d3d bc6c 29ba b40a b63d 1c39 b43d
000001d0: 973e 933d 2f76 a13d 7b5f a93a 39c0 18bd
000001e0: d9bb aa3d 93e1 223f 0acd a93d 8567 5cb9
000001f0: 094f b53d 2881 6e3d 59b5 9e3a 52c7 a93a
00000200: adea 05bd af39 ae3d ca12 993d e7d6 9a3d
00000210: ba97 c9ba 1138 ab3d 4137 95bd e1f8 a63d
00000220: 55df b03d b026 f3b9 bded 4dbd dd34 0bbd
00000230: 9602 cbba 0681 04bd 2dec 263e 94ac a83d
00000240: 3dc0 883d aa8f 8f3d 0dfe 963d ced6 153e
00000250: e011 e03c 9522 7b3d 3f77 aa3d ba0b e6ba
00000260: 0f60 9c3d 8255 b0ba 78cf a13d 7704 9d3d
00000270: d3a9 08bd adac 083d a9d4 923d ad66 8f3d
00000280: c7ae 3bba ae8f cbb9 cead 7b3d 9d6d 14bd
00000290: 8462 aebd d2d7 ad3d 5a7c 933d c78a 15bb
000002a0: 7c41 c33d 56e1 d53d 6947 3eba e07b b53d
000002b0: cb89 a7bf 111b b53d 4a72 20bd d28e 943d
000002c0: cb11 8d3d 5fc2 05bd 2833 ba3d 14d1 0fbd
000002d0: a6bb 1abe 5ce9 873d 77ed 503e 7c66 b13d
000002e0: 168d a53d 1f04 223f bb3f df3d 93dc 7bbd
000002f0: 4cf7 3ab7 905e c23d 57b6 003b 33ff 1b3d
00000300: 6ad4 ee3e b93c c23d 87c8 f33d dad2 09bd
00000310: 5d00 db3d 1c32 af3d b318 b13d c444 843e
00000320: ca3c a33d 4689 21bb b10a a33d 75c4 be3d
00000330: b5f3 01bd a937 13bd 66a0 b13d efad c63d
00000340: c61a e4ba 5722 2e3b e04f 35bb d081 b23d
00000350: 6ae9 ac3d 3381 873d cca9 9e3d 69ab 943d
00000360: e8c1 4aba 8e91 c23d 7b6c 49ba a6f8 1a3f
00000370: fe21 7d3d 49d1 073b 17ec 963d 2c71 f83d
00000380: e5cb 983d 5aa6 853d 9166 693d 5d81 a83d
00000390: 7384 823d 665b 173e 7df0 9d3e 4439 3f3d
000003a0: 4d76 9d3d fdf6 05bb 7491 0abb 5798 a83d
000003b0: 60e3 b93d 178c f93d 98bb b539 ca7f a53d
000003c0: dd2e 263b 4277 26be cd01 823d 91ab bd3d
000003d0: 69da aa3d 0af3 6eba 80dc a23d 0011 973a
000003e0: b6a4 5bba a9fe a93d 8d03 29be 3f75 b13d
000003f0: 2df2 00ba dd7f 8f3d b36b a73d 07d1 cf3d

fc3.bias f4 [2]
0.025514113 -0.07676866
00000000: f902 d13c e338 9dbd
