runs/4_400_300_35_444_critic.pth (torch, 493207 bytes, 5 tensors)

fc1.weight f4 [400, 3]
00000000: 85d3 36bd c8d2 103d 67fb e83a 8e09 cdbd
00000010: d7ef f93d 405a 213d a7ed 3d3d e74c f8bc
00000020: 934d 88bc 424c 1cbe fcc7 a0be b08d 37bc
00000030: 4279 47bd 60d2 823e b151 bb3c 86a3 643d
00000040: 9bc4 a43d 1cbb 083d 1c3e 633e 7175 78bd
00000050: 6ad5 14bb b691 47be be74 b8bd 5016 623c
00000060: e400 2e3e e340 583e 5b72 133d 75b1 9ebd
00000070: 43f2 c23c f7a9 f33b 46a2 de3b 51bc 1cbe
00000080: 2c3d 323d 92eb 1ebd 0049 29bd 5a4f bd3b
00000090: ecdb 643e 0452 023c f043 c03c 9918 2bbe
000000a0: 0732 4dbe c4de 553b 657b 34be 7cf8 58bd
000000b0: d426 bdbb cb8d 44bd 6713 413d f0ba 143d
000000c0: 299a 7dbe 7d13 4e3e 17e5 e93c 1021 c3bd
000000d0: dba8 65be 3141 10bc a4db d3bd cc6a e53d
000000e0: f620 b03b 4dcf 6ebe 7e66 e33d 3225 c03c
000000f0: 9c01 dcbd 5faa 92bd 0d2a 8f3c 1d71 c5bc
00000100: e71b 3b3c e332 b43c 1ead f63d ca0d 3fbe
00000110: e55e 483d 9af7 ba3b faca 7c3c e090 d0bc
00000120: cdfe 6bbd b48c 29be 286e 7b3d 5afe 2e3d
00000130: c00e 583c 6035 193c 7a03 963d c2cb 493e
00000140: 9c4d e03c 1014 0b3c 57e2 55be 6155 233d
00000150: 0000 1fb8 072d a1bc 6d80 bf3c 9a9c 03bc
00000160: 358c 23bd 3ddb 8cbc 5992 693e 71be 803e
00000170: 103a 823c 3580 453d 3f57 403d 00d5 b03c
00000180: b551 0f3d 8797 84bc 7362 db3b 61d9 ccbb
00000190: 1c60 4bbe 5f6a eb3b 455b 88be 0883 50be
000001a0: 1740 babb e21b 3fbe b89a 51be 3804 b63c
000001b0: 7c75 3bbe 56e7 7d3d b9cb fa3a f01e 653e
000001c0: d8df 873d 696b 28bc a1ed 243e 8f67 423e
000001d0: 81f2 4c3c c0c7 31bd 4536 18bd 7dde 873c
000001e0: b3e2 3cbe ab4f b63c f222 c03c f6ac 5cbe
000001f0: 6b3c 723d 28e3 193c 1c0d 3ebe 3378 a1bd
00000200: 13a4 1e3b 323e 2d3d 6705 99ba 4dbc 57bb
00000210: 6d07 1e3e 6112 b23d c057 d0bc 18d5 503e
00000220: f627 643c 3e0b a73c 9d8f 8abd 1fd2 253e
00000230: c967 663c c47d 473e 6679 293e a615 28bd
00000240: 6df5 0dbe ab57 35be e228 c5bb 90d4 b33c
00000250: a7f0 ba3c 7aa8 0abc bd4d 653e b847 903d
00000260: 3f90 023c 5ffc 0cbd fab7 21bd 0fb1 2e3d
00000270: 8d18 2e3c bde3 f9bc e7ed 4f3c 737c 81bb
00000280: 334d 18ba 0701 873c 2e15 62be 6252 68be
00000290: f3b2 11bc f830 323e b7e0 9bbd 723b a43a
000002a0: 502e 1abd 9b4d 203d 2a6d b13c a289 04bd
000002b0: 9a09 37ba aba3 283d f2ed 3abe b85c d739
000002c0: ba01 153c 0f05 33be ba0d 32bd 68f2 313d
000002d0: 9426 49bc 986d 923d 66c2 cb3c 4da7 483b
000002e0: b0bd d6bc 67f0 613c 53a9 403e 58df 263d
000002f0: 36d1 bcbc 2773 99bb 676d a7ba 3347 7f3b
00000300: e780 393d e736 23bc f05f 213d 6684 26be
00000310: c862 62bd c30e 673c 952c 943c 0e1d 8d3c
00000320: cab8 073d f8c5 46be 3d51 0e3d b66a ae3b
00000330: 4ddb 3fbe cee1 4fbe 9023 6a39 f783 3cbd
00000340: 3739 f7bc 1316 003c 2f85 493e 4cf9 733e
00000350: 9bf9 973c 630b 88bc a7c2 c63c 2088 2a3d
00000360: fbfc e9bd 1338 673e 1d28 d43c 8ae1 693e
00000370: 139f f03c 6278 e73c 591f 2dbe d46f 59bd
00000380: 4c9e e0bc c573 283e 4d39 97bd c397 973c
00000390: c78e 273c 6393 39bd 6398 eebc 3fbd 12bd
000003a0: 4734 073c 0080 7a3b 3b04 76be b49f 49be
000003b0: 4509 2b3b 5061 993c a51f 09bd aa8a 9cbc
000003c0: 7f37 343e 68f3 8f3e 5f49 143c 3577 8e3e
000003d0: d7ab 6bbd 6831 593a b3ad e93c e023 2e3c
000003e0: 6aca 8e3c 0e79 21be 522c 00bc 957e 403c
000003f0: b41c 0abe 22ce 4bbe 8b2d 853b 07b5 cabc
-0.044635314 0.035357267 0.0017775119 -0.10011588 0.12203949 0.03939271 0.04636922 -0.030310107
-0.016638553 -0.15263465 -0.31402576 -0.0112032145 -0.048699625 0.25551128 0.022866102 0.05582001
0.08045312 0.033381566 0.22191662 -0.060658876 -0.0022710213 -0.19489178 -0.09006642 0.013799265
0.16992527 0.21118502 0.03599773 -0.07748691 0.02379716 0.007436033 0.006794247 -0.15306212
0.04351537 -0.038798876 -0.041329384 0.0057772817 0.22349519 0.007954124 0.023469895 -0.16708602
-0.20038615 0.0032634 -0.17625196 -0.05297135 -0.005772451 -0.047986787 0.047137644 0.03631109
-0.24765839 0.20124622 0.028551621 -0.095277905 -0.22427694 -0.008804605 -0.103446275 0.112020105
0.005375023 -0.23321266 0.11103533 0.023455236 -0.107424945 -0.07161402 0.017476106 -0.024101788
0.011420227 0.02199692 0.12044738 -0.18657604 0.048918623 0.005705786 0.015429253 -0.025459707
-0.057616044 -0.1655758 0.06138435 0.042723037 0.01318711 0.0093511045 0.07324882 0.19706634
0.027380757 0.00848867 -0.20887123 0.039876346 -3.7908554e-05 -0.019674791 0.023376668 -0.008032942
-0.039928634 -0.017194385 0.22809733 0.25145295 0.015896827 0.04821797 0.046958204 0.021585941
0.03499003 -0.016185535 0.0066950857 -0.0062514995 -0.19860882 0.0071843113 -0.26632133 -0.20362484
-0.0056839096 -0.1866298 -0.20469177 0.022218809 -0.18306535 0.061988197 0.00191342 0.22375083
0.06634492 -0.010279515 0.16106273 0.18984817 0.012508989 -0.043403387 -0.03716113 0.016585583
-0.18445854 0.022254786 0.023454163 -0.21550354 0.05913965 0.009392537 -0.18559688 -0.07884254
0.0024206683 0.042295642 -0.0011674584 -0.0032918632 0.1543252 0.08694912 -0.025432467 0.20393789
0.013925543 0.020391103 -0.06765673 0.16193436 0.01406283 0.1948157 0.16550216 -0.04103627
-0.13863154 -0.17709224 -0.0060168365 0.021951944 0.02281983 -0.0084630195 0.22392936 0.07044929
0.007968961 -0.034420367 -0.039482094 0.042649325 0.010625971 -0.030504102 0.012690998 -0.003951603
-0.00058098434 0.016479982 -0.22078392 -0.22687677 -0.0088927625 0.17401493 -0.0761122 0.0012529923
-0.037641823 0.03913651 0.021658499 -0.03235782 -0.0006982327 0.04117171 -0.18254831 0.00041077076
0.00909465 -0.17482398 -0.043470122 0.043444067 -0.012277264 0.071498096 0.02487297 0.0030617297
-0.026213497 0.013790227 0.18814592 0.04074034 -0.023048978 -0.0046829167 -0.0012773693 0.003895235
0.045288946 -0.00996182 0.039398134 -0.16261443 -0.055269986 0.014102641 0.018087665 0.017225768
0.033135213 -0.19411457 0.034745444 0.0053227795 -0.18736 -0.20300981 0.00022329227 -0.04602429
-0.03017865 0.007817763 0.19679712 0.23825568 0.018551638 -0.016606992 0.02426274 0.041633725
-0.11425205 0.22579984 0.025898034 0.22839943 0.029372727 0.028255645 -0.1690649 -0.053085163
-0.027419232 0.16450413 -0.07383976 0.018504983 0.010226912 -0.045306575 -0.029125398 -0.03582501
0.00825221 0.0038223267 -0.24025051 -0.19689828 0.0026098054 0.01872316 -0.033477444 -0.019109089
0.17599295 0.28115392 0.009050696 0.27825323 -0.057536926 0.0008285255 0.028525209 0.01062867
0.017430503 -0.15768835 -0.007823067 0.0117489295 -0.13487512 -0.19902852 0.004064267 -0.024744524

fc1.bias f4 [400]
00000000: 3c8a ebbe 8503 fa3e 4086 a3be ca4b 19bf
00000010: f39d 0a3f e0a4 ee3e acb8 f63e a973 c13d
00000020: d925 103f ed05 f33d 44bb dd3e 18a9 37be
00000030: 5a04 053f 843a a1be 9909 f0bd 7d2a cabe
00000040: fd11 983e 1391 21be 3205 f13d 4796 353e
00000050: 2624 0e3d 5154 07be aad6 0d3f 333f fcbe
00000060: 7d64 863e e90b 69bd 1f4f 013f 7521 923e
00000070: 6628 b2be 8008 0fbf 38ba d83e 56b2 edbe
00000080: a275 48bd 5afe 043e 773c 07bf 3f30 1e3e
00000090: 5f62 c1bd 21cd a23e b6cb e03e 29c5 43be
000000a0: e388 0d3e 5024 04bd c1a1 66be d7d1 e3be
000000b0: b277 b4bc aeeb e83e 80de ac3e 8de0 ea3c
000000c0: 6b7d 07bc e900 efbe a38d bb3e 15a0 84be
000000d0: 9373 e0be 9e03 bbbe af32 0dbf df1e 553e
000000e0: a4eb 3dbe 4602 a4be 68a3 c0bd bbc6 6c3e
000000f0: 1df8 ea3e 70a7 d0bd 3525 9ebd 8be1 5ebe
00000100: 624e 23be b6a5 05bd 4970 d23e cdc2 3cba
00000110: 8fc4 813d 438d 70be c2f4 093f 3705 4abe
00000120: e056 cd3e 0b66 973e f5f0 f1bd 97f2 9d3e
00000130: d448 f2be eeb8 94bd ed0d c7be bb9a e5be
00000140: e975 af3e 4d93 673e f492 a2be d4de d83e
00000150: 8027 9abe e7ce 9f3d b6cf 3a3e c411 f3be
00000160: 7b85 0f3e f540 edbe 967d 623e a29b cbbe
00000170: d147 173e 5acc c5be e356 133e 0053 6cbe
00000180: cf7c 053f c4fa abbd 08a9 2a3e abe1 d63e
00000190: 7fec 0bbe a9ea c0be 8902 3fbe 9e6b c4be
000001a0: 27f6 973d afd5 02be 55dc bebe 8385 ce3e
000001b0: ec5f 0a3f 5d0a 563e 74d6 90be df40 e5be
000001c0: 8c8e ef3e 1fbe dbbd f98a 5abd 36c0 eebe
000001d0: df07 ab3e 9413 a83e b825 d23d e4c9 a7be
000001e0: d9a7 f0be 5009 aabe f59a f53e e74b b03e
000001f0: 8bfa 183f d95c 1cbe 7815 23bd 2067 603e
00000200: f2f2 8a3e 01bc d03e 2fc6 d43e cb19 093d
00000210: 1c62 acbe 5d35 a3bc b955 013f ca94 a4be
00000220: 1b3c 93be afc4 b9be cc75 88be a91b 013f
00000230: 8dce a0bd 852c 24be 78bd 133f 7857 03bf
00000240: fddf 9bbe 4f28 12bf 78f1 bb3e 7112 0ebd
00000250: 552a 13bf f589 0fbf dd18 b3bd d5c2 88be
00000260: 9aff ca3e 1313 94be 45b6 b9bd 260e 783c
00000270: ba90 44be ec5f 55be 612d f5be 8b38 07bf
00000280: 426a 36be ea88 0dbe aec8 123e 0f6c 943d
00000290: f1d9 b0be cad7 05bf 46f6 cc3e 208e fbbe
000002a0: 99f9 0e3f 739b fcbe 33c5 ce3c c03f adbe
000002b0: 4a2c 333e 2630 093f 9896 12be d14a 8fbe
000002c0: 2bb2 093f 7583 803e 8e07 ee3e 1fc1 d5be
000002d0: f3f8 653e 4c5d af3e 5210 a53d b6b3 d8bd
000002e0: f677 f8be 5722 c43a 78ff a23d eabb a6be
000002f0: 06ec acbe 83de 60bd 7ce3 ae3e b19b e83e
00000300: a07e 00bf a5e8 0dbf bebd 383e bc1e 24be
00000310: 7c1e 553d 4ca9 07be 056b 8cbd 61ba ba3d
00000320: c047 acbe c6ed 073f 05c6 bfbd b604 f93e
00000330: 6988 90be 68e2 5cbe 32fc 0a3f bdbb a5bd
00000340: 9f20 9e3e 4cc2 463e 98a9 003f a139 d0bd
00000350: 22ef b13d 7b3e fc3e a523 053c 7852 473e
00000360: 2bdb df3e 8b8c 1b3f 9bb6 e43d 2a44 f3be
00000370: 8b94 ecbd 5c23 813d 450b f43d 15b3 08bd
00000380: f2aa c5be 22a3 ad3e d9e2 f7bd 6e34 2f3e
00000390: e9a0 ffbe 71c8 e23e 901a a0bd 1c7d 85be
000003a0: ab31 03bf fcf8 7f3e 3472 653e c613 013f
000003b0: 22a0 9d3e de68 bcbd d942 0b3f a288 06bf
000003c0: dce3 b6bd b4b9 043f 4596 9bbe cf27 5a3e
000003d0: c08b f7be 78a8 25be f074 0e3f 833b bbbe
000003e0: 4a34 ae3e 863f a1be ba0a ffbe 3e43 6e3e
000003f0: 1353 0ebf 5de2 083d 1a18 5d3c 1eb5 c33e
-0.46003902 0.4883081 -0.31938362 -0.5988127 0.5414726 0.46610165 0.48187768 0.094458885
0.5630775 0.11866365 0.43306935 -0.17935598 0.51959765 -0.31489956 -0.117205806 -0.3948554
0.29701224 -0.15777998 0.11768569 0.17733108 0.034702443 -0.13215758 0.55405676 -0.49266967
0.2624854 -0.056896124 0.50511354 0.2854115 -0.34796447 -0.55872345 0.42329574 -0.46425122
-0.04894031 0.12987652 -0.5282664 0.15448092 -0.09442591 0.31797126 0.4390542 -0.1911818
0.1382175 -0.032261193 -0.22522642 -0.44496033 -0.022029731 0.4549231 0.33763504 0.028671527
-0.008269648 -0.46680382 0.36631498 -0.25903383 -0.43838176 -0.36526197 -0.5515546 0.20812558
-0.18546921 -0.32032984 -0.09406167 0.23122685 0.4589242 -0.10188186 -0.077219404 -0.21765725
-0.1594787 -0.032628737 0.41101292 -0.00072006584 0.06336319 -0.23491387 0.53889096 -0.19728552
0.40105343 0.2957004 -0.11813537 0.30849144 -0.47321188 -0.07261835 -0.38877812 -0.44844612
0.34269646 0.22614785 -0.3175274 0.42357504 -0.3010826 0.07803135 0.18243298 -0.47474492
0.14015763 -0.4633862 0.2211822 -0.39767176 0.1477349 -0.3863247 0.14388613 -0.23078537
0.5214357 -0.08397439 0.16666043 0.41969046 -0.13664435 -0.37679031 -0.18653311 -0.38363355
0.07419997 -0.12776826 -0.37277475 0.40336236 0.54052615 0.20902391 -0.28288615 -0.44776055
0.46788442 -0.10729622 -0.05335519 -0.4663102 0.33404443 0.32827437 0.102611005 -0.32771218
-0.47003058 -0.3321023 0.47969785 0.3443291 0.597573 -0.15269794 -0.039815396 0.21914339
0.27138478 0.40768436 0.41557452 0.033471864 -0.33668602 -0.019922907 0.5052143 -0.32144767
-0.28756794 -0.3628287 -0.26652372 0.5043283 -0.078518964 -0.16032608 0.5771098 -0.5130534
-0.30444327 -0.57092756 0.36707664 -0.034685556 -0.5748647 -0.5606988 -0.08744977 -0.26711145
0.39648134 -0.28920802 -0.09067968 0.015140092 -0.19195834 -0.20837373 -0.47886184 -0.5282065
-0.17813972 -0.1382176 0.14334366 0.07247173 -0.34541276 -0.5228239 0.40031642 -0.4913187
0.55849606 -0.49337348 0.025240516 -0.338377 0.17497364 0.53589094 -0.1431526 -0.27986768
0.5378749 0.25100294 0.4649014 -0.41748902 0.22458248 0.34250867 0.080597535 -0.10581152
-0.48529023 0.0014963847 0.07958883 -0.32565242 -0.33773822 -0.054899704 0.34157932 0.45431283
-0.50193214 -0.5543311 0.18041131 -0.16027349 0.052031025 -0.13248175 -0.0685635 0.0911758
-0.3364849 0.5309719 -0.09363941 0.48636407 -0.28229073 -0.21570742 0.5429107 -0.08092449
0.30884263 0.19410056 0.5025878 -0.10167242 0.08688189 0.4926642 0.008126174 0.19465053
0.437219 0.60761327 0.11167642 -0.47512943 -0.1155177 0.063055724 0.11916212 -0.03337391
-0.38606983 0.33913523 -0.12103815 0.17109844 -0.49927452 0.4429355 -0.078175664 -0.26072013
-0.5124766 0.24997324 0.22406846 0.50420797 0.30786234 -0.09199689 0.54398876 -0.52552235
-0.089301795 0.5184586 -0.30388084 0.21304248 -0.48348808 -0.16177547 0.5564718 -0.3656884
0.34024268 -0.31493777 -0.4981287 0.23267838 -0.5559551 0.033419 0.013494516 0.3822412

fc2.weight f4 [300, 402]
00000000: 873a 48bd 4bd8 d5bc 186c 3d3d a534 f3be
00000010: 93b6 39bd 105f 883d 8a6f 303c 1dc0 89bc
00000020: 7a97 133d 0394 993c 2970 81bc 2714 653c
00000030: 0c7b 06bb dc9d 21bf e757 e03c 3652 4b3d
00000040: c3be 073c e0bf dcbb 6b2a ea3c bf33 8a3d
00000050: e173 4e3d 28c3 a03c e41c 0a3b c77b 4fbd
00000060: b287 31bd 9b06 18bb b1d2 5bbd 7564 2a3c
00000070: c0a5 a2bc a84d 32bc 560e 74bd a1c6 373d
00000080: 5827 493d cf2f e7bc d934 87be 76a7 1cbd
00000090: fef1 c6bc e671 b63b 3409 d23c 2212 34bd
000000a0: 3a2d 963d 9099 493b 3f89 b4bc 87b1 6b3d
000000b0: 60c2 dbbc 1c74 443d bb22 41bc 2762 b0bc
000000c0: b8f3 31bc 29c3 26bd 6c95 45bd 933b b73c
000000d0: 3016 063d 2f47 523c d57e aebe 672e 77bd
000000e0: f1a0 943b a7e5 6bbc 975b f83b e8f1 bdbd
000000f0: fe02 3a3d 9297 d6bc 7072 66bb aeb5 7dbc
00000100: 6c3b 07bc f30d 48bb 2385 0dbd c398 dabc
00000110: 8672 bd3c 5856 21bd 23bb 66bd d3c9 58bc
00000120: 965a e6bc a8be d9bc 14b8 973c 428f a1bc
00000130: 0304 113d ab88 58bb b669 edbe 77bd 51bd
00000140: 374d a6bd 834f 9abf 9003 643d 5d62 30bc
00000150: d923 37bf e58c 81bd 542c 70bf c3bc 323d
00000160: 1065 3d3c c308 b83b 87ed 8c3c cf1b 623d
00000170: d740 b6bd 8850 b6bc 343d 53bd 9355 c33b
00000180: 902d 253d a588 19bd d00d c3bd e48a 07bd
00000190: a1fc c2bc f4a5 d4bb e23b 883a 572e 103d
000001a0: 95a5 483d 3c99 3bbe 1b4b 11bd 586d 1e3b
000001b0: a722 0fbd 546a 383d 6907 85bc 64c5 233d
000001c0: f527 803d 2de3 e5bc 7045 53bd cb85 513d
000001d0: 72a1 c4bc 2ee6 00bb 3e2e 2ebe f5a1 43bf
000001e0: 5b58 6a3d 4dac 203d d901 d03a eb53 86bd
000001f0: 3f94 57b9 2346 0fbd 5ca6 4ebc ec6f d9bc
00000200: 482f 9ebd b34f 2c3d 6f85 f7bc 1ca2 153d
00000210: cb56 1abd 59d7 d43c f221 7dbb 337c 17be
00000220: 1b5f ea3c 321c 043c 4f7b 63bd b70d 02bd
00000230: 16ad eebc 3a7a 3a3d f98f 1fbd f55c 643c
00000240: 00a0 2b3d 1db7 48bd 2116 883c 4153 eabc
00000250: da39 423d fdc2 fd3c 8edd 3ebc b458 933c
00000260: f002 39bc 1b81 c6bb 23c4 e2bc 0c29 a4bb
00000270: c506 20bd 178c 01bd e830 643c 2714 55bd
00000280: fb07 e7bc 579d 87bc efc2 f5bd 3383 37bf
00000290: 1285 233d 2d25 473d a6c7 84bc 4b28 4a3a
000002a0: 421a 01bd 11d8 ac3b 9929 c13c 1df1 0bbd
000002b0: 5c13 bebf 508a d7bc 11b5 653d f86b 143c
000002c0: 7edf 2c3d a0af c5bb 92a9 bfbc 53f8 94be
000002d0: d9fa d13c 739f babf 018c a13c 19e6 133d
000002e0: f508 ee3b 1c55 b2bc 94f8 973b b198 95bd
000002f0: 0ff2 03bf b6e6 243d 5885 0e3c 5ffe 81bb
00000300: b240 b23c 24d3 8f3c fccd ebbf 9149 af3c
00000310: 862b 193d 4e84 343d 3857 5abd 48e8 1e3d
00000320: 6715 323d bcf0 423d 052b a13b fe08 68bb
00000330: 8e22 96bb a8fb d53c bbfd 9f3d 1082 f43c
00000340: d8ee 63bd 5b1d 11bd 818f d7bc c92b 063d
00000350: 3a5b 633d 785a 373d 185f 383d da84 f6bf
00000360: 9c1c 51bc 59a2 823d 72ab 523d 498b 60bd
00000370: d36b d63c bd20 a13d 5bdf 543c 5db2 b8bc
00000380: e78e d3bc f956 45bd 3052 5bbd eeae f73c
00000390: 7a09 6c3b 69c2 003d 1849 353d 0db0 30bd
000003a0: 8408 09bd d557 f3bf edc8 023c b4a6 4f3d
000003b0: eef4 4f3d c789 633d 1a11 36bd 4c73 b33a
000003c0: 2f76 6f3c 2402 16bd 0a6a 3ebf 844e 99bf
000003d0: 9d44 9c3c c679 42bd 9331 073d 5bcc 33bc
000003e0: cdd2 ba3c 0677 463c 837e 5e3d 7ff3 4dbd
000003f0: b179 5dbe 3d88 4c3c 9f02 aebc 7992 f9bd
-0.04888394 -0.026104113 0.046245664 -0.47501102 -0.045340132 0.06658757 0.0107687805 -0.01681524
0.03603313 0.018747335 -0.015800552 0.0139818555 -0.002052012 -0.631315 0.027385665 0.04963895
0.008285227 -0.0067367405 0.02858468 0.06748151 0.05040348 0.019624308 0.002107435 -0.050655153
-0.0433423 -0.0023197297 -0.053667728 0.010399927 -0.019854426 -0.0108827725 -0.059583984 0.04486716
0.049109787 -0.02822104 -0.26407507 -0.03824564 -0.024285313 0.005567777 0.025639154 -0.043962605
0.07332845 0.0030761696 -0.0220381 0.05754235 -0.026826084 0.047962293 -0.011788066 -0.021531178
-0.01086133 -0.040713463 -0.048238203 0.022367274 0.032736003 0.012834354 -0.3408114 -0.060346987
0.0045357873 -0.014398015 0.0075792777 -0.092746556 0.04541301 -0.026195321 -0.0035163425 -0.01548521
-0.008253913 -0.0030525893 -0.034550797 -0.02668417 0.023125898 -0.039388984 -0.05633081 -0.013231712
-0.028119367 -0.02658017 0.018520392 -0.019721631 0.035404216 -0.0033040445 -0.46369714 -0.05120608
-0.08120196 -1.2055515 0.05566746 -0.010765639 -0.71539074 -0.063257016 -0.9381764 0.04363705
0.01155974 0.005616279 0.017203106 0.0552023 -0.08899086 -0.022255197 -0.05157204 0.005961129
0.040326655 -0.03748383 -0.09524119 -0.03309144 -0.023802103 -0.0064895097 0.0010393823 0.035200443
0.048986036 -0.18320173 -0.035472017 0.002417406 -0.034945156 0.045023277 -0.016238885 0.03998317
0.06257621 -0.028062427 -0.051579893 0.051152986 -0.024002764 -0.0019668448 -0.17009827 -0.76419
0.05721317 0.03922682 0.0015869691 -0.06558975 -0.00020559224 -0.034978997 -0.012612905 -0.026542626
-0.07723862 0.042068195 -0.030214993 0.036531553 -0.03768043 0.025981592 -0.003862497 -0.14793472
0.028609803 0.008063363 -0.055537518 -0.03175136 -0.029135268 0.04552672 -0.038955662 0.013938178
0.041900635 -0.049002755 0.016612114 -0.028604152 0.047418453 0.030976767 -0.011649502 0.017986633
-0.011292204 -0.006057871 -0.027681416 -0.005009776 -0.039068956 -0.03162774 0.013927676 -0.052021172
-0.028202048 -0.016554518 -0.12000071 -0.7168457 0.039921828 0.048619438 -0.016208481 0.00077116926
-0.031519182 0.0052747806 0.023579406 -0.03416549 -1.4849658 -0.02631107 0.05608088 0.009058945
0.042205326 -0.006032899 -0.023396287 -0.29095706 0.025632309 -1.457991 0.01972008 0.03610811
0.0072642514 -0.021769099 0.004637787 -0.07304514 -0.5154123 0.040259086 0.008698784 -0.003967091
0.021759365 0.017556734 -1.8422236 0.021397384 0.037395023 0.044071488 -0.053305835 0.03879574
0.043477442 0.047592863 0.0049184584 -0.003540575 -0.004581756 0.026120976 0.07812067 0.029847175
-0.0556477 -0.035428386 -0.026313545 0.0327566 0.055506922 0.044764012 0.045012563 -1.9259293
-0.012763169 0.063786216 0.051433034 -0.054820333 0.026174461 0.078675725 0.012992705 -0.022545988
-0.025824977 -0.048178647 -0.053545177 0.03023478 0.003601639 0.031435404 0.04425916 -0.043136645
-0.033455387 -1.9011179 0.007982475 0.05069609 0.050770693 0.055551317 -0.044449903 0.0013690977
0.0146155795 -0.036623135 -0.7438055 -1.1977086 0.019075686 -0.047479413 0.033006262 -0.010974015
0.022805596 0.012113338 0.05431987 -0.050281044 -0.21628453 0.012483654 -0.021241484 -0.121861406

fc2.bias f4 [300]
00000000: 40fc 0bbd cbc3 c73c 1df6 00bd 3091 143d
00000010: 4881 5d3d 2381 623d 2e61 0bbd 5121 053d
00000020: d95d 843d ced3 45bc ac86 093c f792 463c
00000030: 1750 033d 9e50 db3c f1ed e6bb 30c5 df3c
00000040: f16b 98bb 94ba 33bc 2d56 a83c ab19 5dbc
00000050: b96c 17bd 5676 d23c f5fe 4dbd 484c 703c
00000060: 4b79 8ebc eecd ccbc 5377 06bd 0ee9 f43c
00000070: 7a65 1c3d 303a 813d df1d ac3c 9845 dc3c
00000080: 4d1c 1d3d 3372 2bbd 9c39 c43c 8b20 11bd
00000090: 2fe7 86bb fd52 8dbd 5e0b 92bd 6df8 013d
000000a0: 489d 59b9 1f1b 1b3d e145 963d 38b8 e1bc
000000b0: 8e83 8c3d 1357 993d 5e78 203d 2cb9 003d
000000c0: 641d 6cbd fda5 d1bc acaf c83b 02ad e9bc
000000d0: f39f c13c 7d4f 4fbc 8747 073d c3c3 bf3c
000000e0: f714 533d ec8a fb3c c869 323c 911f 6a3c
000000f0: b5e0 8bbc 8595 873a 55c6 5d3b 682f dfbc
00000100: fa6a 283d 9770 99bd dd58 1a3c a4d5 93bc
00000110: 80d7 203d 52f4 9dbd 3308 45bd 5f2a 80bd
00000120: c769 373d 5c4f a4bd a713 8a3b 443d 993c
00000130: 4a25 bebc 4000 e43c 2473 9a3c 8acc afbc
00000140: 4d53 28bd 04db 373c a4d7 a1bd 859c cfbd
00000150: b104 a03d 0caa a6bc 3222 ddbb d63b 29bd
00000160: 8c87 5d3d 4b53 14bc beb0 b33c 4690 c73c
00000170: f49f 083c 1ef4 3abc 894e bbba 259c 33bc
00000180: 99dc 8f3d 58d2 d93c 1837 2e3d ad72 52bd
00000190: 543f af39 4ef6 853d d2c6 bb3b 6b8a 6c3c
000001a0: 1bf6 723d 1847 373d 30b0 363d c1ce 25bd
000001b0: b87e 0f3d b52b 16bd 3f48 b63d 888f 7dbd
000001c0: 131b 6a39 a619 2abd 08b5 cdba 792a 393d
000001d0: 4515 8f3d b0b0 a9bc 89f9 e83c 3144 e33c
000001e0: 37a5 203c e74d 2dbd 70eb aaba 0e41 86bb
000001f0: 7026 703c 5cb4 debc 295d e93c 82a4 0ebd
00000200: 4acf ffbb 03bc 12ba 3b5a 0f3d 9dc5 ddbd
00000210: 1f76 4dbd 03a3 10bd 853f 3b3d d7db 07bd
00000220: 7ef9 9d3c ee19 4bbd 7cf3 49bd 1213 bebb
00000230: 8909 0dbc 22fd 7e3c e433 ef3a a84f 0abd
00000240: 9e45 57bd 4c18 46bd 0798 82bc 1735 503c
00000250: bb2f e73c f1dd 4ebd 1344 a23c ffbe 5ebc
00000260: 6829 0f3d d770 9f3c 515d ac3c 6f0d 01bd
00000270: 8117 903d 28f8 1dbd 183f d6bc c0e2 7a3c
00000280: 1929 90bc c5ad 5b3b 37c5 49bb 87da e03a
00000290: 3f67 803d bd5a ffbc 3413 33bd e9a2 c53c
000002a0: 35e4 05bd 7423 0f3d f631 093d b2de 1f3d
000002b0: 109d 41bd eec1 05bd cd31 57bd 78b9 28bc
000002c0: 168d 093c cd81 b23c c014 7abc 6a05 00bd
000002d0: 702b 933c fe9a 2ebb e2c9 7dba 9946 1abd
000002e0: 18b7 41bd 637a 90bc 90bb 193d bfa8 32bd
000002f0: 2211 4fbd 8e76 01bd e283 3dbc 02ab cebc
00000300: 75b1 b93b f699 cfbc d1ad 7ebd 6d59 253d
00000310: 91d1 453d 33cd 1cbc 8885 803c c958 d5bc
00000320: fbce 553d c9f2 853c 6f71 b4bc 8e88 88bd
00000330: 9c93 d3bc 7fec 65bb 08dd 0dbd 6325 e03b
00000340: e3c9 65bd a89d e3bc 6692 87bd 6c89 1e3c
00000350: 5aa7 a2bc 4b89 c5bc 450a 2a3d c817 abbc
00000360: 6fb7 a1bd ffcf 2cbd 034b 633c 90e5 1fbc
00000370: d2d7 a5bb 0c40 ac3d 165c 2ebc 1cfa e638
00000380: 0454 da3c f7a9 22bd 38b8 41bd f6a3 b43b
00000390: c43f 28bd 23b7 97bc 83d3 a63b ef7f 85bd
000003a0: 22e4 f739 8ae9 58bd 7baa 27bd 0a06 24bd
000003b0: 2993 793b 9297 3dbd 5213 12bd 5be7 543d
000003c0: 56a1 76bd 805f b8bc ccc3 33bb 7286 d53c
000003d0: cdbd fcbc fed9 cfbd a439 e636 8c1f 173c
000003e0: 8c49 443d 490d 38bd c3a9 1d3d fa44 fdbc
000003f0: a512 1e3c c538 18bd 123b 983c 6f50 bcbd
-0.03417611 0.024385354 -0.031484712 0.036271274 0.05407837 0.055298936 -0.034028225 0.032502476
0.064632125 -0.012074424 0.008393925 0.01212 0.0320588 0.02677184 -0.007047408 0.027315706
-0.0046515395 -0.010969777 0.020548904 -0.013494889 -0.03696892 0.025691193 -0.050291974 0.014666624
-0.017391821 -0.025000539 -0.03282864 0.029896285 0.038182713 0.063099265 0.021010337 0.026888654
0.038357068 -0.041856956 0.023953252 -0.035431426 -0.0041169147 -0.069005944 -0.07131074 0.031731058
-0.00020753324 0.03786766 0.07337547 -0.027553663 0.068610296 0.07487311 0.03917729 0.031426594
-0.057645217 -0.025591845 0.0061244573 -0.02852488 0.02363584 -0.012653229 0.0330272 0.023408776
0.051533666 0.030705892 0.010889478 0.014289753 -0.017074922 0.0010344243 0.003384014 -0.027244285
0.041117646 -0.07492178 0.009420601 -0.018046208 0.039268017 -0.07712616 -0.048103523 -0.06258082
0.04477861 -0.08022949 0.0042137685 0.018705972 -0.02321114 0.02783215 0.018853731 -0.021459837
-0.041095067 0.011221651 -0.07902458 -0.101372756 0.07813395 -0.020344757 -0.006748461 -0.04131683
0.054084346 -0.009053062 0.021934863 0.024360787 0.008338917 -0.011410741 -0.0014290373 -0.010962521
0.070244975 0.026589558 0.04253301 -0.051378895 0.00033425784 0.065411195 0.0057304883 0.014437298
0.059316736 0.044745535 0.04460162 -0.04048038 0.035032958 -0.036662776 0.089004986 -0.06190446
0.00022326065 -0.041528367 -0.001569421 0.04520652 0.06986479 -0.020714134 0.0284393 0.027742477
0.009805015 -0.04231062 -0.0013040137 -0.0040971106 0.014657602 -0.027185611 0.028486805 -0.034824856
-0.007806693 -0.0005597474 0.03499816 -0.10828707 -0.050161477 -0.03531171 0.045714874 -0.03316864
0.019284006 -0.049585275 -0.04930447 -0.005800613 -0.00860823 0.015563281 0.0018249718 -0.033767372
-0.052556626 -0.048363015 -0.015941633 0.01270797 0.028221002 -0.05050463 0.019807851 -0.013595342
0.034951597 0.019462986 0.02104059 -0.031506952 0.07035733 -0.03856674 -0.026153132 0.0153128505
-0.017597722 0.0033520323 -0.0030787715 0.001715497 0.06269693 -0.031171197 -0.043719485 0.024125533
-0.03268834 0.03494592 0.033494912 0.03903074 -0.047268927 -0.03265565 -0.052537728 -0.010298125
0.008395454 0.02179041 -0.015263736 -0.031255163 0.017965049 -0.0026642676 -0.0009681267 -0.037664983
-0.047293752 -0.017636484 0.03753239 -0.04361796 -0.05055345 -0.031607203 -0.011567088 -0.025228027
0.0056669065 -0.025341969 -0.062177483 0.040368486 0.04829556 -0.009570408 0.015688673 -0.026043313
0.052199345 0.01635112 -0.022026746 -0.06666671 -0.025827222 -0.003508359 -0.03463462 0.0068403943
-0.056100737 -0.027785137 -0.0661972 0.009676319 -0.01985519 -0.024113318 0.0415137 -0.020885363
-0.07896315 -0.042190548 0.013872865 -0.009759322 -0.005061128 0.084106535 -0.010642072 0.00011013841
0.02665139 -0.039712872 -0.047294825 0.0055127097 -0.041076437 -0.018519944 0.005091132 -0.06518542
0.00047281483 -0.052957095 -0.040934067 -0.04004482 0.00380821 -0.046287127 -0.035662957 0.05197845
-0.060212456 -0.022506475 -0.0027429936 0.026065085 -0.030852223 -0.101490006 6.8612444e-06 0.00922383
0.047921702 -0.044934545 0.038491976 -0.03091668 0.009648 -0.037163515 0.018582854 -0.09195029

fc3.weight f4 [1, 300]
00000000: 9ce6 0a3f a48b b03f a69b 443b 755c b23f
00000010: 8fc2 c23e f533 143f f716 303b 9468 3b3f
00000020: e121 f53e 64c2 f03e 76d9 b93f 4d0c 773f
00000030: f63c 583f d08c 053f 30c5 0dbb 7c47 a43f
00000040: 35ac b639 9bb5 863f 3cd9 0a3b 1e20 9e3f
00000050: b954 55ba e8c8 973f 4114 3ab9 81e2 f73e
00000060: 722f 683f d17b 3c3f 214a 373f 3212 513f
00000070: 64ab 383f b9fa f83e b829 913f 02a2 f83e
00000080: 615f 273f a69b 443b c5b6 483f e223 853f
00000090: f3f2 ae3f 5e0c 243f bf03 733f 1a1b 183a
000000a0: 7364 9c3a db54 053f 8683 053f 4cf7 993f
000000b0: 0c33 f93e 1eaa bc3e 8f21 d03e f61e 7e3f
000000c0: 46e0 9d3a 7887 523f 4e71 453f eab5 483f
000000d0: 0ef3 673f a69b 443b e14f 193a 37d5 243f
000000e0: 3af6 803e cee7 733f 792a fb3e 3357 06b9
000000f0: b246 513f 5eb9 993a b35b 013f 786f 5b3f
00000100: 142f 1f3f c2aa 5d3f 0db6 f63e a678 4f3f
00000110: d8ce f6ba c3c5 493f 73e3 f2b8 ee17 c23f
00000120: a69b 443b f83b 553f f96e 4b3f 17b6 d43e
00000130: cbf5 273f e18b 5b3b 2202 aa3e 9dca 133f
00000140: 4084 c63f 604e 84be 2101 c03f 56c7 733f
00000150: 5e36 1a3f 5d25 a53f fc20 523f b98b b33f
00000160: 57de f93e dfcc f63e 252e 6a3f 10ee 3b3f
00000170: fc36 1f3f 2484 8938 8f71 543f c069 143f
00000180: d3d3 813e c72b 443f 4928 0c3f 7d77 fe3a
00000190: 848c 423f 7730 ef3e 7af0 04bb 0892 9fba
000001a0: a600 f63e 7f6d 733e c375 263f b0c4 fbb8
000001b0: 0a06 853f 457b 08c0 20c2 0a3f 7f06 b13f
000001c0: 069c f63e a32d 243b dc43 213e 4cd9 373f
000001d0: b002 043f 3722 c5ba 72b2 0c3f 9fbf 4ebb
000001e0: a69b 443b 2c29 c83f 8b60 413b 574c 21b9
000001f0: b9f1 363f 613f 773f fbf6 003f fc2d 543f
00000200: 692c fc3e f67d b93e 3d43 423b c242 d23f
00000210: 2747 503f 1756 263a 6609 e63e de0e 133f
00000220: 46ff 39b4 a69b 443b a69b 443b 9f15 413f
00000230: f6c0 043f 379c 6ebf 18bd c5b8 a87b 443f
00000240: 0df1 403f a69b 443b b6c6 a73f 667a 22ba
00000250: d79b f53e b1ab 4a3f b183 ae3e 90ff 283f
00000260: 013c 4dba a63d c5b8 1ffd 283f a69b 443b
00000270: e5bf 153f 0646 863a a69b 443b d7ce 4f3f
00000280: a5d0 8c3f ca64 8f3f f070 683f 3e5e e03e
00000290: f254 753f 4b71 753f 1678 0c3f ef97 4a3e
000002a0: 0deb ad3f b03f ceba 6a21 dd3a 6b2f 5b3f
000002b0: 6bcb 52bb 088b 253f c57a 863f a102 1b3f
000002c0: 3c39 843f a69b 443b a69b 443b f1b6 923f
000002d0: fc74 7e3a 516d 29bb 748e 8c3f 2c27 933f
000002e0: f570 ab38 a69b 443b b268 793e 5a34 e33e
000002f0: dfe3 5e3f e270 1d3f ab01 013f fc21 4d3f
00000300: f33f 743e 8227 913e 1737 9d3f 89d4 893f
00000310: 5b19 07c0 a69b 443b 4cab 8b3a 0fd2 0d3f
00000320: c521 823e 7137 973e 39c1 483f a4c5 9f3f
00000330: 5d41 a03f 3f67 563f d26e 363f dc20 95b8
00000340: a110 533f ab21 683f a6a0 c93f 26d6 903f
00000350: 80e4 913a 9675 f1b8 757b 463f 3593 8d3f
00000360: 43e1 8a3f ea2a 0d3f 6a75 8c3f 0702 b93f
00000370: bf67 ae3f c0e8 143f 7e3f 153f 6e4f 493f
00000380: 758b 423b 1382 6b3f 7b26 6c3f 693c 683f
00000390: 85c0 cc3e a69b 443b def7 6b3f 6716 6c3f
000003a0: 3e1f 0d3f 427b 433b af1f 623d a69b 443b
000003b0: 9de3 6a3f 02da 933e 1fc7 19ba 2acd e93e
000003c0: a154 8d3f a69b 443b a69b 443b 0547 fc3e
000003d0: 7108 653d 71bd 613f a69b 443b 936d 053f
000003e0: c32c 7b3e 425d 883f 93ec b43f 0cf8 2ebb
000003f0: 35b8 243f 3fe7 0e3f 3a60 a33f abb8 853f
0.5425813 1.3792615 0.003 1.3934466 0.3803906 0.5789178 0.0026869157 0.7320645
0.4787741 0.47023308 1.4519489 0.96503145 0.8446802 0.5216799 -0.0021632425 1.2834315
0.0003484205 1.0524172 0.002118661 1.2353551 -0.000813793 1.1858187 -0.00017745887 0.48414996
0.90697396 0.7362643 0.71597487 0.8166839 0.7213652 0.48628786 1.1340857 0.48561102
0.6537991 0.003 0.78403884 1.0401576 1.3667892 0.6408137 0.9492759 0.00058023783
0.0011931792 0.52082604 0.52153814 1.2028594 0.48671758 0.3684854 0.40650603 0.9926599
0.0012044988 0.8223796 0.77126014 0.7840258 0.9060525 0.003 0.00058483897 0.6438784
0.25187856 0.9527558 0.49055842 -0.0001281172 0.817485 0.0011728217 0.50530547 0.8571696
0.6218121 0.8658868 0.4818577 0.8104347 -0.0018829955 0.78817385 -0.00011581825 1.5163553
0.003 0.8329463 0.79466206 0.41545174 0.65609425 0.0033500122 0.33204752 0.5773104
1.550911 -0.25841045 1.5000345 0.9522604 0.6023921 1.2902027 0.8208158 1.4027015
0.48802444 0.4820318 0.9147666 0.7341013 0.62193274 6.557282e-05 0.82985777 0.5797386
0.25356922 0.766293 0.5474897 0.0019414272 0.7599566 0.46716663 -0.0020284937 -0.0012174258
0.4804737 0.23772238 0.6502344 -0.000120052486 1.0392468 -2.1325238 0.5420246 1.3830107
0.4816591 0.0025051616 0.15748543 0.71815944 0.515666 -0.0015040104 0.54959786 -0.003154732
0.003 1.5637565 0.0029507007 -0.00015382595 0.7146259 0.96581084 0.5037686 0.82882667
0.49252632 0.36228913 0.0029642128 1.6426623 0.8135857 0.0006345226 0.44929045 0.5744456
-1.7322336e-07 0.003 0.003 0.75423616 0.51856935 -0.93207115 -9.4289135e-05 0.76751184
0.75367814 0.003 1.3107517 -0.00061980484 0.4797046 0.7916823 0.34084848 0.6601496
-0.00078290707 -9.405175e-05 0.6601123 0.003 0.5849593 0.0010244257 0.003 0.8117499
1.1001173 1.1202633 0.9079733 0.438219 0.9583274 0.95875996 0.54870737 0.1978452
1.3587357 -0.0015735533 0.001687092 0.8561923 -0.0032164704 0.6466527 1.0506216 0.60550886
1.0329967 0.003 0.003 1.1462079 0.0009706763 -0.0025852511 1.0980973 1.1496329
8.174955e-05 0.003 0.24356344 0.4437588 0.87066454 0.6150037 0.5039317 0.8012998
0.2385252 0.28350455 1.2282437 1.0767986 -2.1109226 0.003 0.0010655909 0.5539865
0.2541639 0.29534486 0.78419834 1.248219 1.2519947 0.8375129 0.7126285 -7.110994e-05
0.8244725 0.90676373 1.5752151 1.1315353 0.001113072 -0.000115136776 0.7753213 1.1060549
1.0849994 0.55143607 1.0973332 1.4453744 1.3625411 0.5816765 0.58300006 0.78636825
0.0029685174 0.9199535 0.92246217 0.9071718 0.3999063 0.003 0.9217509 0.92221683
0.55125797 0.0029828106 0.055205997 0.003 0.9175356 0.28877264 -0.0005866158 0.4566434
1.1041452 0.003 0.003 0.49272934 0.055916253 0.8817969 0.003 0.5212032
0.24528794 1.065346 1.4134697 -0.002669814 0.6434358 0.55821604 1.2763741 1.0446981
