runs/4_400_300_5_666_actor.pth (torch, 491927 bytes, 6 tensors)

fc1.weight f4 [400, 3]
0	0xbca13cf0	-0.019682378
1	0xbd368b75	-0.04456659
2	0xbc83d377	-0.016092045
3	0x3da82aa5	0.08211259
4	0x3e1c63fb	0.15272515
5	0x3d92a653	0.0716063
6	0x3df92dd9	0.12166948
7	0x3e04abfe	0.12956235
8	0x3e0c2274	0.13685018
9	0x3d9d55e2	0.076823965
10	0x3e1be864	0.15225369
11	0x3da9d3fc	0.08292386
12	0x3dc84426	0.09778623
13	0x3dff656c	0.124705166
14	0x3e0d0c17	0.13774143
15	0xbc8765aa	-0.01652797
16	0x3d33ff30	0.043944538
17	0xbc455ce7	-0.012046075
18	0x3d3073f3	0.043079328
19	0x3cd29a87	0.02570845
20	0xbd023170	-0.03178543
21	0x3cadf057	0.021232767
22	0xbd2db803	-0.042411815
23	0x3d449fd8	0.048004
24	0x3d412d37	0.04716226
25	0xbc38f30d	-0.011288417
26	0xbd22aa2a	-0.039713062
27	0x3e40a639	0.18813409
28	0x3dfc8e01	0.123317726
29	0x3e2d1789	0.16903509
30	0x3de1e72e	0.11030422
31	0x3e115e9c	0.14196247
32	0x3e1a7399	0.1508316
33	0x3ddb7196	0.10715024
34	0x3da57665	0.080792226
35	0x3e28922a	0.16462007
36	0x3df16a70	0.117878795
37	0x3dfd1368	0.12357217
38	0x3e35c7c3	0.17751984
39	0x3e144737	0.14480291
40	0x3dea3551	0.114359505
41	0x3d84c2da	0.064824775
42	0x3d2190d3	0.039444756
43	0xbcb156ea	-0.02164789
44	0x3ce0baa7	0.027432753
45	0xbcd3c6b0	-0.025851578
46	0xbc222513	-0.0098965345
47	0xbc873d50	-0.016508728
48	0x3dde7390	0.108618855
49	0x3dc424aa	0.095773056
50	0x3e36ff5c	0.1787085
51	0x3dc1b667	0.094586186
52	0x3de49f3c	0.11163184
53	0x3e271e6c	0.16320199
54	0x3dc5f9c5	0.096667804
55	0x3e3914cb	0.18074338
56	0x3dde00e2	0.10840012
57	0x3d6b7190	0.05748135
58	0x3cdd352c	0.027002893
59	0x3db0ec62	0.086388364
60	0x3dba8891	0.09108079
61	0x3dcdaa68	0.10042268
62	0x3e161233	0.1465538
63	0x3e026069	0.1273209
64	0x3d9bdcd1	0.07610477
65	0x3dbe365c	0.09287712
66	0x3ce89548	0.028391495
67	0x3b9f2eb4	0.0048578624
68	0x3d6bd5e6	0.057577036
69	0x3c229ce0	0.009925097
70	0x3d12ae83	0.03581096
71	0x3ca2abc7	0.0198573
72	0x3e19663e	0.14980409
73	0x3de98504	0.11402324
74	0x3e01efd4	0.12689143
75	0x3b9e2127	0.0048257294
76	0x3bb88a27	0.0056317034
77	0xbc9bc547	-0.019014968
78	0x3c073747	0.008252925
79	0xbd170642	-0.036871202
80	0x3c9dd72d	0.019267643
81	0x3e1cf33f	0.15327166
82	0x3d931830	0.07182348
83	0x3dba578b	0.09098729
84	0x3cfbccbd	0.030737275
85	0x3d2eca60	0.04267347
86	0x3c2c148d	0.010502947
87	0xbcc78c1a	-0.024358798
88	0xbc58b4ba	-0.013226682
89	0x3cef17b7	0.029186113
90	0x3d8b86e1	0.068128355
91	0x3da4b94f	0.08043157
92	0x3d864a65	0.065571584
93	0x3d12fc3a	0.035885073
94	0xbd170487	-0.036869552
95	0x3c555220	0.013020068
96	0x3dcde44f	0.10053312
97	0x3e20e62e	0.15712807
98	0x3ddc1fb4	0.107482344
99	0x3e23f3ae	0.16010925
100	0x3e41d926	0.18930492
101	0x3e3ac4d3	0.18239145
102	0x3d86ccf3	0.0658206
103	0x3d91b786	0.071150824
104	0x3de2dea8	0.110776246
105	0x3dc6268b	0.0967532
106	0x3e19b2c0	0.15009594
107	0x3ddc94ff	0.10770606
108	0xbcc3acf0	-0.023886174
109	0xbcdd9cd0	-0.027052313
110	0xbd425e4a	-0.047453202
111	0x3de3b275	0.11118022
112	0x3df57056	0.11984317
113	0x3dd4d9e4	0.10393122
114	0x3cb32f8d	0.02187326
115	0x3d4628d2	0.048378773
116	0x3c354773	0.011064398
117	0x3dfc0a70	0.12306678
118	0x3db582fb	0.08862873
119	0x3da9eed7	0.08297508
120	0xbd03f7cb	-0.032218736
121	0x3d0342c5	0.0320461
122	0x3c8e194a	0.017346043
123	0x3c353dd3	0.011062103
124	0xbcc06fca	-0.023490805
125	0x3cb164ed	0.02165457
126	0x3d2e5be2	0.042568095
127	0x3c8a3fda	0.01687615
128	0x3d0720cf	0.032990273
129	0xbcbf3c70	-0.023344249
130	0xbd3a444a	-0.04547528
131	0x3cd6b0ea	0.026207406
132	0x3e02fb12	0.12791088
133	0x3e05489f	0.13015984
134	0x3db4dfa7	0.08831721
135	0x3de7a48e	0.11310683
136	0x3dee354c	0.11631259
137	0x3e2c9be8	0.16856349
138	0x3d97a968	0.074053586
139	0x3d882dc8	0.06649357
140	0x3dcb6e86	0.0993319
141	0x3d82c231	0.06384695
142	0x3d1079dc	0.035272464
143	0x3cf770e4	0.030205198
144	0x3d733a87	0.059381988
145	0x3e0b5bbb	0.13609211
146	0x3d85e686	0.065381095
147	0x3d243881	0.04009295
148	0x3cf331a9	0.029686766
149	0x3d5d0deb	0.05396835
150	0xbd2bece8	-0.04197398
151	0xbc9a03a3	-0.018800562
152	0x3d23ea45	0.04001834
153	0x3dc21726	0.094770715
154	0x3dbe31eb	0.09286865
155	0x3dc88dd3	0.09792676
156	0x3c8bf1a0	0.01708299
157	0x3cd5a14d	0.02607789
158	0xbbed4640	-0.0072410405
159	0x3cf860aa	0.03031953
160	0xbc28f36d	-0.0103119435
161	0xbcd2f28a	-0.025750417
162	0x3c710fa0	0.014713198
163	0x3d18414a	0.03717164
164	0xbd211808	-0.03932956
165	0x3cdd8f00	0.027045727
166	0x3c898677	0.01678775
167	0x3cbc60a0	0.022995293
168	0x3ced7b2a	0.028989393
169	0x3caeeb13	0.021352326
170	0x3d05c0f0	0.032654703
171	0xbd212ee5	-0.039351363
172	0x3cf07c57	0.029356165
173	0xbd18531d	-0.037188638
174	0x3dae3d5e	0.085077986
175	0x3d6e30de	0.058152072
176	0x3de57563	0.1120403
177	0x3d09d96d	0.03365462
178	0x3d2df278	0.042467564
179	0xbd325872	-0.04354138
180	0x3d81c14e	0.06335698
181	0x3cbb6c22	0.02287871
182	0x3defdf08	0.11712462
183	0x3dfa6ba2	0.122275606
184	0x3dc2aa83	0.09505179
185	0x3de59048	0.1120916
186	0x3c9d07ea	0.019168813
187	0x3c30aa93	0.010782856
188	0x3d2d47ef	0.04230493
189	0x3ca6748a	0.020319242
190	0xbd01adfa	-0.031660058
191	0xbcc6a0ed	-0.024246657
192	0x3e1f4d78	0.15556896
193	0x3dcc23fa	0.099677995
194	0x3da5eeff	0.081022255
195	0xbc86c940	-0.016453385
196	0x3d0e53cf	0.034747895
197	0xbd0ab74b	-0.033866208
198	0x3b16a44d	0.0022986114
199	0xb9e0e59a	-0.00042895676
200	0xbca70aaa	-0.020390827
201	0x3e16fd34	0.14745027
202	0x3e36bc54	0.17845279
203	0x3de467cb	0.111526094
204	0x3e00047a	0.12501708
205	0x3d804f58	0.062651336
206	0x3dc221dc	0.094791144
207	0x3d081267	0.033220675
208	0x3c937b50	0.018003136
209	0xbcc4bd4a	-0.024016041
210	0x3cf52049	0.029922621
211	0x3dee4ad4	0.11635366
212	0x3d5c097b	0.05371998
213	0x3e018e04	0.12651831
214	0x3dc54488	0.09632212
215	0x3dda95a5	0.10673074
216	0x3d8653dd	0.065589644
217	0x3daa6b76	0.08321278
218	0x3db83377	0.08994191
219	0x3e1c92a9	0.15290321
220	0x3dcf7fb4	0.10131779
221	0x3e3b9ea0	0.1832223
222	0xbcfa03cd	-0.03051939
223	0xbd3573e0	-0.04429996
224	0x3c94d4ca	0.018167872
225	0x3dfc7b2e	0.12328182
226	0x3d10b84c	0.03533201
227	0x3d18699d	0.037210096
228	0x3c6c3dad	0.0144190015
229	0x3d1fdb4b	0.039027493
230	0x3b90825a	0.0044100704
231	0x3d0e7820	0.03478253
232	0x3cad6a9d	0.021169001
233	0xbc93510a	-0.017982978
234	0x3e1ab793	0.1510909
235	0x3e201e5f	0.15636586
236	0x3e02380a	0.1271669
237	0x3d73ba74	0.059503987
238	0x3d7f6ae2	0.06235779
239	0x3d893cf6	0.067010805
240	0x3d1c5798	0.038169473
241	0xbc98579d	-0.018596465
242	0x3c39682d	0.011316341
243	0x3e13c131	0.14429165
244	0x3d8eea03	0.06978228
245	0x3daa8848	0.08326775
246	0x3e10a190	0.14124131
247	0x3dbde3b4	0.092719465
248	0x3ded167c	0.11576554
249	0xbd1a32ab	-0.037645977
250	0x3cb6ef50	0.02233091
251	0x3ccb21ca	0.024796385
252	0x3d987242	0.07443668
253	0x3d22e2c8	0.039767057
254	0x3c8761e4	0.01652617
255	0x3d3b6b46	0.0457566

fc1.bias f4 [400]
0	0xbdcc5b30	-0.0997833
1	0x3e4030cb	0.18768613
2	0x3eaf2c45	0.34213462
3	0x3e8886c2	0.26665312
4	0x3e45d505	0.19319542
5	0xbda38a56	-0.0798537
6	0xbe8380a5	-0.25684085
7	0xbcce9ef4	-0.02522228
8	0xbe0e591f	-0.13901184
9	0x3eafc4b6	0.34329766
10	0x3e88c27f	0.2671089
11	0x3e02c776	0.12771401
12	0x3e8f50ba	0.27991277
13	0x3e976680	0.2957039
14	0xbeb31b48	-0.3498175
15	0xbeb756fc	-0.3580855
16	0x3eb022ff	0.344017
17	0x3e9f0578	0.3105886
18	0x3e7ebeab	0.24877422
19	0x3d79a7bf	0.06095099
20	0x3e9736b0	0.2953391
21	0x3dc244db	0.094857894
22	0x3cbbcde0	0.022925317
23	0xbce8d4eb	-0.02842184
24	0x3e37b54e	0.17940256
25	0xbd7873cb	-0.060657304
26	0xbe5b655b	-0.21425383
27	0x3e6380bf	0.22217081
28	0xbf09c3a1	-0.5381413
29	0xbe799260	-0.24372244
30	0x3d869c8f	0.0657283
31	0xbce033b0	-0.027368397
32	0x3e698612	0.2280505
33	0x3ecf8923	0.40534315
34	0x3e12bdb7	0.14330183
35	0x3e677516	0.22603258
36	0xbe539e82	-0.20665935
37	0x3e4adc8d	0.19810696
38	0xbdff136f	-0.124548785
39	0x3de0a190	0.109683156
40	0xbe5c3ff9	-0.21508779
41	0xbc836628	-0.016039923
42	0xbdbba521	-0.09162355
43	0xbeaa1356	-0.33217877
44	0x3e3965af	0.18105195
45	0x3e2853d9	0.16438235
46	0x3e49ac74	0.19694692
47	0x3daedd98	0.085383594
48	0x3e58131e	0.21101043
49	0x3d91dd88	0.07122332
50	0xbd8e5a9a	-0.069508746
51	0x3e4438d1	0.19162299
52	0xbe943a5d	-0.28950778
53	0xbe5bd45e	-0.2146773
54	0xbed5169b	-0.4161881
55	0xbe7574ac	-0.23970288
56	0xbe021bf3	-0.12705974
57	0xbef1b036	-0.4720475
58	0x3e2afb32	0.16697386
59	0xbe027aed	-0.12742205
60	0x3d96df64	0.07366827
61	0x3e90b976	0.28266495
62	0xbce29ec1	-0.02766359
63	0xbefcd1ab	-0.49378714
64	0x3e5d39f9	0.21604146
65	0xbefee37a	-0.49782926
66	0xbddb4394	-0.10706249
67	0x3e949a1d	0.2902383
68	0x3e8229b6	0.25422448
69	0xbe27f428	-0.16401732
70	0x3af73d11	0.0018862804
71	0x3e87a19b	0.26490483
72	0x3e41d698	0.18929517
73	0x3e8fb4fd	0.2806777
74	0xbeff9e5e	-0.49925512
75	0xbc6bb19c	-0.014385607
76	0xbf032e98	-0.5124297
77	0xbee19860	-0.44061565
78	0x3ecda2a2	0.4016314
79	0x3e1013ec	0.140701
80	0xbec7ac66	-0.38998717
81	0x3e0e8e08	0.13921368
82	0x3e140ce6	0.14458045
83	0xbef1de0c	-0.4723972
84	0x3d69eb5e	0.05710923
85	0x3d5e3954	0.05425389
86	0xbedc88d8	-0.43073153
87	0xbedd2ae2	-0.4319678
88	0xbe7d8da2	-0.2476106
89	0xbe8ffdad	-0.28123227
90	0xbe3594f6	-0.17732605
91	0xbdeef7da	-0.11668368
92	0x3e9c8fda	0.305785
93	0x3e80d877	0.2516515
94	0x3e9147dc	0.28375137
95	0x3e5b63e7	0.21424828
96	0x3dd604a7	0.10450106
97	0xbd369f02	-0.044585235
98	0x3e4253c2	0.18977264
99	0xbea05145	-0.31312004
100	0x3e5b218d	0.21399517
101	0xbee4274a	-0.44561225
102	0x3de02d0f	0.10946094
103	0x3e1aa837	0.15103231
104	0x3e8617a3	0.26189908
105	0xbeb7344f	-0.35782096
106	0x3e573b70	0.21018767
107	0xbd11932a	-0.035540737
108	0xbbeb5fbd	-0.0071830438
109	0xbccc8ba6	-0.024968933
110	0xbd29d74f	-0.0414651
111	0xbec9b5e2	-0.39396578
112	0x3dfbcc2d	0.12294803
113	0xbe5b7b06	-0.21433648
114	0xbd0bb40b	-0.03410725
115	0x3e25c2d2	0.161876
116	0x3ce1ed41	0.027578952
117	0x3d849454	0.06473604
118	0x3e867ebf	0.26268575
119	0x3d0b445a	0.034000732
120	0x3e053724	0.13009316
121	0x3ecfcd10	0.40586138
122	0xbdaca3d6	-0.08429687
123	0x3ed460b2	0.41480023
124	0xbebf0d3c	-0.37314785
125	0xbedc570f	-0.4303517
126	0x3e26b437	0.16279684
127	0xbeb28ba3	-0.3487216
128	0x3d571db9	0.05251858
129	0xbe24fd57	-0.16112266
130	0xbd227182	-0.03965903
131	0xbe13bc2d	-0.14427252
132	0xbe52411a	-0.20532647
133	0xbbeedb2a	-0.00728931
134	0xbef5c151	-0.4799905
135	0x3ea7d557	0.32779953
136	0xbec9ee4d	-0.39439622
137	0xbe94ec96	-0.2908675
138	0xbeebb7f2	-0.46038777
139	0x3e14ffd8	0.14550722
140	0xbeebc897	-0.46051475
141	0xbe0dc544	-0.13844782
142	0xbdd3fd8e	-0.10351096
143	0xbecf23d6	-0.40457028
144	0xbc028f8e	-0.007968796
145	0xbdc49acc	-0.09599838
146	0x3e8d328a	0.2757762
147	0xbf0f5ba8	-0.5599923
148	0x3eb2e9c2	0.34943968
149	0xbe1eae13	-0.15496092
150	0x3ec4bfb7	0.38427517
151	0xbb42060e	-0.002960566
152	0xbe35bc0e	-0.17747518
153	0x3d483de5	0.048887152
154	0x3e260785	0.16213806
155	0xbe277b14	-0.16355544
156	0x3e1372aa	0.1439921
157	0xbe85f3ba	-0.2616251
158	0xbe27ed36	-0.16399083
159	0xbefd92f6	-0.49526185
160	0x3eba973d	0.3644351
161	0x3eb18249	0.34669712
162	0x3ecba426	0.39773673
163	0x3e65dbc3	0.22447114
164	0x3ec49e2f	0.38401935
165	0xbd1ed883	-0.0387807
166	0xbec38cec	-0.38193452
167	0xbeab6fab	-0.33483633
168	0x3ed1acfe	0.40952295
169	0xbe8d4075	-0.2758824
170	0x3c780de4	0.0151400305
171	0x3da12a3d	0.078693844
172	0x3ddda525	0.108225144
173	0x3ec01e62	0.3752318
174	0x3d2492f9	0.040179227
175	0xbe992863	-0.29913625
176	0xbd838092	-0.06421007
177	0xbf087e36	-0.5331758
178	0x3e2b6c97	0.16740642
179	0xbf0f4fb5	-0.55981
180	0xbdcef352	-0.101050034
181	0xbedadf87	-0.42748663
182	0x3e9b6d82	0.30356985
183	0x3dfd2d2f	0.12362134
184	0xbe8071ad	-0.25086728
185	0x3e9e5e9f	0.30931565
186	0xbf006e03	-0.50167865
187	0xbefecd26	-0.4976589
188	0x3e9f766c	0.31145036
189	0x3de1b92b	0.11021646
190	0xbea68c4a	-0.32528907
191	0x3e8733c4	0.26406682
192	0x3ecda5c1	0.40165523
193	0x3ea9d48e	0.3316998
194	0x3e69bbd5	0.22825558
195	0x3caadf35	0.020858387
196	0xbefb65d2	-0.4910112
197	0x3e815c74	0.2526585
198	0xbd062d2a	-0.032757916
199	0xbeb7a537	-0.35868236
200	0xbe9f6cf9	-0.31137827
201	0xbe0da2d3	-0.13831644
202	0x3da3162c	0.07963213
203	0x3d385d47	0.04501083
204	0xbbbcb7a2	-0.0057591954
205	0xbec08496	-0.37601155
206	0x3e4b5631	0.19857098
207	0x3d318d8c	0.04334788
208	0x3d7b307b	0.06132553
209	0xbee365c0	-0.44413567
210	0xbe1c3bec	-0.15257233
211	0xbd8f02a5	-0.06982926
212	0x3ebeb0b9	0.37244204
213	0x3e9319eb	0.2873071
214	0xbe3c497a	-0.18387404
215	0x3e41967a	0.18905059
216	0xbe4b7088	-0.19867146
217	0x3ec846ca	0.39116508
218	0x3eb74098	0.3579147
219	0xbea21277	-0.31654713
220	0xbe9da400	-0.30789185
221	0x3e896e79	0.26842096
222	0x3ec4519e	0.3834352
223	0x3e398332	0.18116453
224	0xbe5c905a	-0.21539441
225	0xbe573823	-0.21017508
226	0xbe4f7c55	-0.20262273
227	0xbf096c00	-0.5368042
228	0xbec0c1f9	-0.3764799
229	0x3ebe4af6	0.37166566
230	0xbe64c817	-0.22341953
231	0x3ea9c4ec	0.33158052
232	0xbcd0e6a8	-0.02550061
233	0x3ea0a903	0.31378946
234	0x3e3d7cb5	0.18504603
235	0x3e5f7c9d	0.2182488
236	0xbeb80a5f	-0.35945413
237	0xbdfa8a84	-0.12233451
238	0xbebd13f7	-0.36929294
239	0xbf01e2c7	-0.5073666
240	0x3de7b3f9	0.11313624
241	0x3e0a0c19	0.13481177
242	0xbed7f3e0	-0.4217825
243	0x3c0cd73c	0.008596238
244	0xbc84a6d0	-0.016192824
245	0xbe364926	-0.17801341
246	0x3d81e974	0.06343356
247	0x3ec9fffc	0.39453113
248	0xbb614168	-0.003437126
249	0xbeb19216	-0.34681767
250	0x3e8fd794	0.2809416
251	0xbee02d36	-0.43784493
252	0x3ea1016a	0.3144639
253	0x3e51cbc0	0.2048788
254	0x3dc18d83	0.09450819
255	0xbee951cf	-0.45570228

fc2.weight f4 [300, 400]
0	0x3b832c40	0.0040030777
1	0xbd823ee4	-0.06359652
2	0x3b109836	0.002206338
3	0xbc52551e	-0.012837676
4	0xbd06b565	-0.032887835
5	0xbcd88c13	-0.02643398
6	0xbc338eed	-0.010959369
7	0xbd494068	-0.04913369
8	0x3cd60a70	0.026128024
9	0x3d40e612	0.047094412
10	0xbd2fc7a6	-0.04291501
11	0xbc94658d	-0.01811483
12	0x3c9bb3f8	0.019006714
13	0x3d2582c8	0.040407926
14	0x3d2679fc	0.040643677
15	0xbd5a6110	-0.053315222
16	0x3d1e0ca7	0.038586285
17	0xbd5322b3	-0.051546764
18	0x3cfba183	0.030716663
19	0xbd72b04c	-0.05925016
20	0xbc1eb5a2	-0.009686859
21	0xbb742009	-0.003725054
22	0xbd4990cf	-0.049210366
23	0x3d07c53c	0.03314708
24	0x3d0aee6b	0.03391878
25	0x3c292193	0.010322946
26	0xbd4ad761	-0.049521808
27	0xbcd1601e	-0.025558528
28	0xbb5b3423	-0.0033447824
29	0xbc11b73c	-0.008893784
30	0x3ccf883a	0.025333513
31	0x3c82f81a	0.015987445
32	0xbd2c8578	-0.042119473
33	0xbd80bcac	-0.06285986
34	0x3b8c9a13	0.004290828
35	0xbcea766e	-0.028620925
36	0xbc0f887a	-0.008760566
37	0x3c4f66e2	0.0126588065
38	0xba3432bf	-0.0006874017
39	0x3d12fb70	0.03588432
40	0xbd04670f	-0.032324847
41	0xbd3f0fbc	-0.046645865
42	0xbd4bb506	-0.049733184
43	0xbc8043f9	-0.015657412
44	0x3c261780	0.010137439
45	0x3d17ba2b	0.037042778
46	0xbd78843f	-0.060672995
47	0xbbe5f2e8	-0.007017482
48	0xbd66505b	-0.056228977
49	0xbd388a38	-0.04505369
50	0x3d3c028a	0.04590086
51	0x3cdb3dd5	0.026762882
52	0x3b995432	0.0046792263
53	0x3c842a88	0.016133562
54	0x3ca37c86	0.019956838
55	0xbcb39a2b	-0.021924099
56	0xbc5a942e	-0.013340993
57	0x3cedd724	0.029033251
58	0x3c06db41	0.008230985
59	0xbd67ca22	-0.056589253
60	0xbd59b451	-0.05315048
61	0x3c810044	0.015747197
62	0x3d450511	0.048100535
63	0x3ca4c734	0.020114519
64	0x3cecc4c4	0.028902419
65	0x3d6c6ac1	0.057718996
66	0x3c86276c	0.01637622
67	0x3c750a50	0.014956072
68	0xbd7d1bd3	-0.061794113
69	0x3d0dcda4	0.034619942
70	0xbd29d316	-0.041461073
71	0xbd835e14	-0.06414428
72	0xbd0232c1	-0.031786684
73	0x3d3b703a	0.045761324
74	0xbd65886e	-0.056038313
75	0xbc2ee071	-0.010673628
76	0x3d606ee2	0.054793246
77	0xbc7feb41	-0.015620054
78	0xbcf3e618	-0.029772803
79	0x3ced1e43	0.028945094
80	0xbd08f14f	-0.033433255
81	0xbcb37b7d	-0.02190947
82	0x3ca22219	0.01979165
83	0x3d3899a1	0.045068387
84	0x3d32d236	0.043657504
85	0xbc94fada	-0.018186022
86	0x3cc1fc47	0.023679866
87	0x3ca61ba3	0.02027685
88	0x3cdb76d2	0.026790056
89	0x3a8b3423	0.0010620396
90	0x3d65410e	0.055970244
91	0x3d37b7fa	0.044853188
92	0x3d3fbfee	0.046813898
93	0x3ce51407	0.027963651
94	0x3c19d28f	0.00938858
95	0x3ca91e63	0.020644372
96	0x3ce137cb	0.027492424
97	0x3ce085f6	0.027407628
98	0xbd3a6380	-0.045505047
99	0xbca689c4	-0.020329364
100	0xbd0fafad	-0.035079647
101	0xbd52a1c9	-0.05142382
102	0x3c862d7f	0.016379116
103	0x3d25c0dc	0.04046713
104	0xbd714949	-0.05890778
105	0xbc6a87ec	-0.014314633
106	0xbccd571b	-0.02506595
107	0xbc760d1e	-0.015017776
108	0xbc55edf2	-0.013057219
109	0x3c0341b3	0.008011269
110	0xbbbddf3c	-0.005794434
111	0x3d2be112	0.04196269
112	0x3cbb960c	0.022898696
113	0xbd6a639f	-0.057223912
114	0x3d5e47d8	0.054267734
115	0x3c70f9df	0.014708011
116	0x3bb586c3	0.0055397465
117	0xbd4d1574	-0.050069287
118	0xbbc6273c	-0.0060471576
119	0x3c02afb5	0.007976462
120	0xbcc91518	-0.024546191
121	0x3b42a71a	0.002970165
122	0x3d3adf93	0.045623373
123	0xbb86d662	-0.004114912
124	0xbd461111	-0.04835612
125	0x3c8f488c	0.017490648
126	0x3a8f7a58	0.0010946495
127	0x3b85a04b	0.0040779463
128	0x3d481bb8	0.04885456
129	0xbb10ed91	-0.0022114257
130	0x3cb45ec1	0.022017838
131	0xbc442bbf	-0.0119733205
132	0x3d63afe6	0.05558767
133	0xbbb1c2bf	-0.005424827
134	0x3b892df7	0.0041863876
135	0xbcaa7254	-0.020806469
136	0xbaa08841	-0.0012247638
137	0x3d1df5b7	0.03856441
138	0xbd60278b	-0.05472521
139	0xbd530650	-0.051519692
140	0xbd55a015	-0.05215462
141	0xbc866683	-0.016406303
142	0x3d1cd2da	0.03828702
143	0x3c4fb141	0.012676538
144	0x3d2e4a71	0.04255146
145	0x3d2d4885	0.04230549
146	0x3cb9dce7	0.022688342
147	0xbcc6287e	-0.02418923
148	0xbd6fa725	-0.05850901
149	0x3cdfaaa0	0.02730304
150	0x3bf60024	0.007507341
151	0xbc78e5f3	-0.015191543
152	0x3d00fbb7	0.031490054
153	0xbca8a91c	-0.02058845
154	0xbd551805	-0.05202486
155	0xbcc4be7e	-0.024016615
156	0xbd3c4068	-0.04595986
157	0x3d3d28bf	0.046181437
158	0x3d5a6443	0.053318273
159	0x3c90aee9	0.017661529
160	0xbd556f6b	-0.05210821
161	0xb9b12fb1	-0.00033795604
162	0x3d469d6b	0.04848997
163	0x3c2881bb	0.010284836
164	0x3d418108	0.047242194
165	0xbd413201	-0.047166828
166	0x3d0e9f5f	0.034819957
167	0x3d1524a4	0.036411896
168	0x3b974d72	0.0046173865
169	0xbce5c0f4	-0.028046109
170	0xbcb78158	-0.022400543
171	0xbd4942d7	-0.04913601
172	0x3d3942ec	0.045229837
173	0x3ce2e01e	0.027694758
174	0xbca1957e	-0.019724604
175	0x3cc020af	0.023453085
176	0xbd1eed9b	-0.038800817
177	0x3d1b8304	0.037966743
178	0xbd29bab8	-0.041437835
179	0xbcbd3711	-0.023097547
180	0x3b74e514	0.0037367987
181	0x3d636d84	0.055524364
182	0x3d124351	0.03570873
183	0xbac4063b	-0.001495547
184	0xbd64c200	-0.055849075
185	0xbc3673eb	-0.011136035
186	0xbd10739a	-0.035266496
187	0x3ce8f118	0.028435275
188	0x3d45dac6	0.04830434
189	0xbd66269c	-0.056189165
190	0x3d163173	0.036668252
191	0xbc695d47	-0.01424343
192	0xbd43b10b	-0.047776263
193	0x3b005e25	0.0019587365
194	0x3c201415	0.009770413
195	0xbd7a859a	-0.06116257
196	0x3d592b5c	0.053019866
197	0xbd68eb36	-0.05686494
198	0xbc5bd7d1	-0.013418154
199	0x3c24ca77	0.010058037
200	0x3d5105b4	0.05103083
201	0x3bc9dc9a	0.006160331
202	0xbd5c7683	-0.05382396
203	0xbd6d8bcb	-0.057994645
204	0x3d14ba8e	0.036310725
205	0xbd6736da	-0.056448795
206	0xbd5f3d17	-0.05450162
207	0x3cf0817d	0.02935862
208	0xbb86b1a4	-0.004110532
209	0x3cd998e4	0.026562162
210	0xbbbbc1f8	-0.00572991
211	0xbcb5f2f6	-0.02221058
212	0x3c88afef	0.016685454
213	0x3d0c008d	0.034180213
214	0xbbe67c28	-0.0070338435
215	0x3a5e50ba	0.0008480657
216	0xbca3c2e4	-0.019990392
217	0xbd4d9e32	-0.050199695
218	0xbc2ac1f3	-0.010422218
219	0x3bde9b5b	0.006793422
220	0x3c967735	0.01836739
221	0x3c12f663	0.008969876
222	0xbd34afc8	-0.04411295
223	0x3ba1f845	0.004942926
224	0x3c17c36e	0.009262903
225	0xbc23dcf1	-0.010001407
226	0x3d2b7d16	0.041867338
227	0xbc699b18	-0.014258169
228	0x3d4f7a66	0.050653838
229	0xbc8ee590	-0.017443448
230	0xbb858fd6	-0.0040759845
231	0x3c091a0c	0.008368026
232	0xbd39dfc2	-0.045379408
233	0x3a6cafe0	0.0009028893
234	0xbc3d5fe3	-0.011558506
235	0x3c21f60a	0.00988532
236	0x3d5064fa	0.05087755
237	0x3c149ab5	0.009070088
238	0x3d68508a	0.056717433
239	0xbd3b7d10	-0.045773566
240	0x3cf33ced	0.029692138
241	0x3cea727f	0.02861905
242	0x3d07cc56	0.033153854
243	0x3d3e17c5	0.046409387
244	0xbb387003	-0.0028142936
245	0x3bc76a2d	0.006085655
246	0xbd2dd799	-0.042441938
247	0xbcd46ded	-0.025931323
248	0xbd3e5cb0	-0.046475112
249	0xbd40b160	-0.047044158
250	0x3bad7120	0.0052930266
251	0x3c993c83	0.018705612
252	0xbc9ac8a0	-0.018894494
253	0x3d4167d5	0.047218163
254	0x3d2bd17f	0.041947838
255	0xbd0cedd8	-0.034406513

fc2.bias f4 [300]
0	0xbcf0b6f2	-0.02938411
1	0xbd1d70de	-0.038437717
2	0xbd38438d	-0.044986296
3	0xbd271fa7	-0.04080167
4	0xbd162fb0	-0.036666572
5	0xbd4bb9ae	-0.049737625
6	0xbd36f458	-0.044666618
7	0xbcbcff37	-0.023070915
8	0xbcfe28dd	-0.031025345
9	0xbc3e787f	-0.011625408
10	0xbd15de74	-0.0365891
11	0xbd15468a	-0.036444224
12	0xbd350db5	-0.044202525
13	0xbd59f316	-0.05321034
14	0xbcdf7958	-0.02727954
15	0xbc406d58	-0.01174482
16	0xbc594b4c	-0.013262581
17	0xbc6cf09c	-0.014461663
18	0xbaaf9c64	-0.0013398048
19	0xbd050a50	-0.032480538
20	0xbcc0ea58	-0.023549244
21	0xb758c780	-1.2921053e-05
22	0xbd26b6b4	-0.040701583
23	0xbb1300c5	-0.0022430879
24	0xbcf93932	-0.03042278
25	0xbcf089fd	-0.029362673
26	0xbd2a464a	-0.04157094
27	0xbc94ad00	-0.0181489
28	0xbac5ba0a	-0.0015085351
29	0xba91485e	-0.0011084189
30	0xbd05cc7d	-0.03266572
31	0xbc9c2cc3	-0.019064313
32	0xbcc748e7	-0.024326755
33	0xbb653433	-0.003497374
34	0xba6e0551	-0.00090797717
35	0xbca2cf1c	-0.019874148
36	0xbc8cc2d2	-0.017182741
37	0xbc6d317e	-0.014477132
38	0xbcaa0752	-0.020755444
39	0xbd20c274	-0.039247945
40	0xbd188a77	-0.037241425
41	0xbd69b2e8	-0.057055384
42	0xbc2ae32a	-0.010430137
43	0xbb8d28e5	-0.0043078535
44	0xba9f6048	-0.0012159431
45	0x3dd597f2	0.10429372
46	0xbd167995	-0.036737043
47	0xbcf7b40a	-0.030237217
48	0xbceab735	-0.028651813
49	0xb8b1ebf1	-8.483965e-05
50	0xbb34dd55	-0.0027597744
51	0x3d1fda52	0.039026566
52	0xbc6a44d8	-0.01429864
53	0xbb8af275	-0.004240329
54	0xbd06b15d	-0.03288399
55	0xb38011b7	-5.963687e-08
56	0xbc0d7544	-0.008633915
57	0xbd3715b2	-0.044698425
58	0xbc38e173	-0.01128422
59	0xbbf6d9e7	-0.0075333
60	0xbcfb68e0	-0.030689657
61	0xbd03bfc7	-0.032165315
62	0xbb248c9b	-0.0025108221
63	0xbcfaae4f	-0.030600695
64	0xbc95e98b	-0.018299839
65	0xbbfb568b	-0.007670229
66	0xbc88a6af	-0.016681043
67	0xbc0600f7	-0.008178941
68	0xbc53bbdb	-0.012923206
69	0xbbfd6127	-0.0077325287
70	0xbd81ae13	-0.0633203
71	0xba49cd35	-0.000769812
72	0xbcd0d0a4	-0.025490113
73	0xbdaa2d82	-0.08309461
74	0xbb2d42d8	-0.0026437547
75	0xbafb0212	-0.0019150397
76	0xbc40415d	-0.011734334
77	0xbb1aee31	-0.0023640508
78	0xbcaa3886	-0.020778906
79	0xbc7cca8d	-0.015429151
80	0xbcb898b3	-0.02253375
81	0xbc8d50c4	-0.017250426
82	0xbc4f2bc6	-0.012644714
83	0xbcd12cf3	-0.025534129
84	0xbbef5003	-0.0073032393
85	0xbd0018a6	-0.031273507
86	0xbce91e68	-0.028456882
87	0xbc9ef923	-0.019405907
88	0xbd4b3c35	-0.049617965
89	0x3e2b5311	0.16730906
90	0xbc9145c0	-0.017733455
91	0xbd33106f	-0.043716844
92	0xbbbc3c95	-0.0057445266
93	0xbd0a3981	-0.033746246
94	0xbd0d0508	-0.034428626
95	0xbd148a15	-0.036264498
96	0xbcd718aa	-0.026256878
97	0xbc53ee8d	-0.012935293
98	0xbb20b67a	-0.0024522827
99	0xbb729a1b	-0.0037018124
100	0xbd26b2fc	-0.040698037
101	0xb989d8da	-0.00026292243
102	0xba6b73be	-0.00089817855
103	0xbcd3bf2e	-0.025847998
104	0xb8eb5799	-0.000112219896
105	0xba9e577b	-0.0012080515
106	0xbd26f8b2	-0.040764518
107	0xbcb82e50	-0.022483021
108	0xbd0c4b49	-0.034251485
109	0xbcb9ecc3	-0.022695905
110	0xb985e05c	-0.00025534898
111	0xbae1e8b0	-0.0017235484
112	0xbc78eab7	-0.015192679
113	0xbcd3ed50	-0.025869995
114	0xbd558025	-0.05212416
115	0xbc8f1c93	-0.01746968
116	0xbcad871d	-0.021182591
117	0xbc128e4b	-0.008945058
118	0xbc723031	-0.014781998
119	0xbcd353f0	-0.02579686
120	0xbd41694a	-0.047219552
121	0xbb306d55	-0.0026920636
122	0xbd17e547	-0.03708389
123	0xbd221c1c	-0.03957759
124	0xbcc5eb64	-0.024160095
125	0xbb44c30c	-0.0030023484
126	0xbcfad98c	-0.030621313
127	0xbd20806f	-0.039184984
128	0xbd11c7cb	-0.035590928
129	0xbd0035d8	-0.03130135
130	0xbca39c74	-0.019972064
131	0xbc07b823	-0.008283648
132	0xbcc168af	-0.023609487
133	0xbd11d6f7	-0.035605397
134	0xbc92d9db	-0.017926147
135	0xbbe07426	-0.0068497835
136	0xbc7adbb1	-0.015311168
137	0xbc9471e6	-0.018120717
138	0xbcea96e3	-0.028636402
139	0xbc5c358d	-0.013440502
140	0xbd0b819c	-0.034059152
141	0xbc81c0f0	-0.01583907
142	0xbdb42c25	-0.087974824
143	0xbd646d6f	-0.055768427
144	0xbca8f04c	-0.020622395
145	0xbc8a1f6d	-0.016860688
146	0xbd01d981	-0.03170157
147	0xbd30852f	-0.043095764
148	0xbcc2fd2d	-0.023802364
149	0xbd5f3f65	-0.054503817
150	0xbd0e87d0	-0.03479749
151	0xbd389fce	-0.045074277
152	0xbabaddf3	-0.001425682
153	0xbb942b46	-0.00452176
154	0xbd340ebf	-0.043959375
155	0xbcb616f3	-0.02222774
156	0xbcf0a625	-0.029376099
157	0xbd296714	-0.04135807
158	0xbd55d51c	-0.05220519
159	0xbc914b67	-0.01773615
160	0xbc1f3865	-0.009718035
161	0xbc1f6263	-0.009728047
162	0xbcfe9c3b	-0.031080356
163	0xbbf568c0	-0.007489294
164	0xbd8af219	-0.06784458
165	0xbc93e753	-0.01805464
166	0xbcdef513	-0.02721647
167	0xb98d59b3	-0.00026960447
168	0xbd2af0ff	-0.041733738
169	0xbc921ac5	-0.01783503
170	0xbca8348a	-0.020532865
171	0xbcecb26a	-0.028893668
172	0xbd0b5b0a	-0.03402237
173	0xbc0a740d	-0.00845052
174	0xbceae9a6	-0.028675865
175	0xbd0e7783	-0.034781944
176	0xbb64fbf6	-0.003494022
177	0xbd00d44f	-0.031452473
178	0xbce28850	-0.02765289
179	0xbced12ba	-0.028939594
180	0xba56bbe5	-0.00081914506
181	0xb9bc8469	-0.00035956808
182	0xbc97d5d9	-0.018534588
183	0xba9430ad	-0.001130601
184	0xbc026287	-0.007958061
185	0xbd199860	-0.03749883
186	0xbc290688	-0.010316499
187	0xbd3bbdaf	-0.045835193
188	0xbc811b88	-0.015760198
189	0xbd0546eb	-0.032538336
190	0xb91ae8c2	-0.00014773294
191	0x3eb4eaaa	0.35335284
192	0xbcdd2f8a	-0.027000207
193	0xba06b585	-0.0005138743
194	0xba081f83	-0.0005192684
195	0xbc94e296	-0.01817445
196	0xbc773451	-0.015088157
197	0xbc29c6c4	-0.010362331
198	0xbd12a654	-0.035803154
199	0xbcd40b0d	-0.025884176
200	0xbce7b0a8	-0.028282478
201	0xba03e94e	-0.00050320185
202	0xbd1766cf	-0.03696328
203	0xbd348f0c	-0.044081733
204	0xbc540b3c	-0.012942132
205	0xbc8c85b6	-0.017153602
206	0xbc6232c7	-0.013806052
207	0xbd2dae81	-0.042402748
208	0xba5c4660	-0.00084028207
209	0xbca80047	-0.020507945
210	0xbd2edbfe	-0.04269027
211	0xbc97710f	-0.018486528
212	0xbcf89b97	-0.030347629
213	0xbd3f1f35	-0.04666062
214	0xbccb408a	-0.024811048
215	0xbd1c201a	-0.038116552
216	0xbd309c68	-0.04311791
217	0x3e2b0102	0.16699603
218	0xbd3d5f33	-0.046233367
219	0xbcac8a3b	-0.021062007
220	0xbb0c8e91	-0.002144728
221	0xbcd1289d	-0.025532061
222	0xbba6c08d	-0.005088872
223	0xba3acf2a	-0.0007126207
224	0xbcb0659a	-0.021532822
225	0xbc6ef6ca	-0.014585206
226	0xbd1b0899	-0.037849996
227	0xbbdc5667	-0.006724167
228	0xbc3a98f6	-0.011389008
229	0x3dcc878b	0.0998679
230	0xbd43d9b8	-0.047815055
231	0xbcabbbb5	-0.02096353
232	0xbd304f7f	-0.043044563
233	0xbcc688ce	-0.024235155
234	0xbd3cbb28	-0.046076924
235	0xbca3f570	-0.020014495
236	0xbd34fb85	-0.04418518
237	0xbc9bf830	-0.019039243
238	0xbce7e483	-0.028307205
239	0xbd391572	-0.045186467
240	0xba3ca857	-0.00071967155
241	0xbb73923a	-0.0037166015
242	0xbc0af4b4	-0.008481193
243	0xbc8c5324	-0.017129488
244	0xbcbaafb3	-0.022788858
245	0xbce922f7	-0.028459055
246	0x3ebae694	0.36504042
247	0xbd2c0170	-0.04199356
248	0xbae6c7ef	-0.0017607192
249	0xbbcbbb75	-0.006217415
250	0xbade9a83	-0.0016983304
251	0xbafa3fc3	-0.0019092489
252	0xb9ce697e	-0.0003936998
253	0xbc9d2f8d	-0.019187713
254	0xbd306410	-0.043064177
255	0xbcfef2f2	-0.031121705

fc3.weight f4 [2, 300]
0	0xba2ce6cf	-0.00065956725
1	0x3bd803cf	0.006592251
2	0x3a7c8998	0.000963354
3	0x3a90aeb8	0.0011038398
4	0xbb118cfa	-0.0022209273
5	0x3cd297d2	0.02570716
6	0x3c082e01	0.008311749
7	0x3cd54dab	0.026038012
8	0x3b9a7326	0.004713434
9	0xb8a80e59	-8.013537e-05
10	0x3ce36046	0.027755868
11	0x3b14cb55	0.0022704203
12	0x3b063f95	0.0020484675
13	0x3c5264cd	0.012841416
14	0xbcc02e8f	-0.0234597
15	0x3c24044c	0.01001079
16	0x3bbf216b	0.005832841
17	0x3bf554bb	0.0074869073
18	0xbc29c85d	-0.010362712
19	0xbad716da	-0.0016410009
20	0x3cb5b071	0.02217886
21	0xb79e184d	-1.8846384e-05
22	0x3bf43d35	0.0074535855
23	0x3b63e3c1	0.0034773203
24	0x3ccaf71b	0.024776032
25	0x3ab36508	0.0013686726
26	0x3b230c1c	0.0024879044
27	0x3c41464d	0.011796546
28	0xba9a12f8	-0.0011754921
29	0xbab8fb43	-0.0014112968
30	0xbaa4f626	-0.0012585565
31	0x3ca9ecfa	0.020742882
32	0xbb1f88f8	-0.0024343114
33	0x3ac56342	0.0015059488
34	0xb9be07a4	-0.00036245317
35	0xbc673903	-0.014112714
36	0xbbe00024	-0.0068359543
37	0x3d483f9a	0.04888878
38	0x3bc45caa	0.0059924917
39	0x3ce1b998	0.027554318
40	0xb908cb13	-0.00013045622
41	0x3bedc553	0.007256189
42	0xba28c731	-0.0006438373
43	0xbafcc552	-0.001928488
44	0xbc7e9cb3	-0.01554029
45	0x3d8c8289	0.06860835
46	0xbabaa203	-0.0014238957
47	0x39a9dc3a	0.00032398273
48	0x3c13b52a	0.009015361
49	0xbc8cb04a	-0.017173905
50	0xbc4af798	-0.0123881325
51	0x3ce048a4	0.027378388
52	0xbc91f14a	-0.01781525
53	0x3b3d12a8	0.0028850231
54	0xbad88977	-0.001652046
55	0x329d370d	1.830224e-08
56	0x3aee7dec	0.0018195487
57	0x3a0e4c54	0.0005428244
58	0x3cf1b602	0.029505733
59	0x3b153f1a	0.0022773207
60	0xbb31f30f	-0.002715293
61	0xbb03cf20	-0.002011247
62	0xbc52b7ce	-0.012861205
63	0x3c161a1c	0.009161498
64	0x3b1353ca	0.0022480362
65	0xba5a6919	-0.0008331701
66	0x3cb4839c	0.022035412
67	0xbb4f95a8	-0.0031674895
68	0x3bf841c4	0.0075761992
69	0x3b36938b	0.0027858939
70	0xbbb43edd	-0.005500658
71	0xbb0850a6	-0.0020800023
72	0xbc51e620	-0.012811214
73	0x3b9cacf7	0.004781361
74	0xbb0df02a	-0.0021658042
75	0xbafe14d1	-0.0019384866
76	0x3c9c751d	0.019098813
77	0xb9b3018b	-0.0003414269
78	0x3cd1edb7	0.025626047
79	0xbcb5f9d7	-0.02221386
80	0xbaa20e70	-0.0012363922
81	0x3adbd847	0.001677283
82	0x3c036c53	0.008021432
83	0x3c090a70	0.008364305
84	0xb98d7c0c	-0.00026986038
85	0xbca38e35	-0.01996527
86	0x3bda2633	0.0066573857
87	0x3b43eba7	0.0029895098
88	0x3b04a499	0.002023971
89	0x3dd9a1f3	0.106265925
90	0x3cf8624d	0.030320311
91	0xb97f2bae	-0.00024334967
92	0x3bb75eba	0.005596009
93	0x3c045e28	0.008079089
94	0x3a90457e	0.0011007038
95	0x3b3f999f	0.0029235852
96	0xbaa46ca4	-0.0012544584
97	0xbb28ca7f	-0.0025755463
98	0xbab2be61	-0.001363706
99	0xba453e97	-0.000752428
100	0xbc76bab9	-0.015059167
101	0xb954669d	-0.00020256122
102	0x3c3170b5	0.010830094
103	0x3cf69e37	0.03010474
104	0xbb940ac1	-0.0045178835
105	0x3838e769	4.4084536e-05
106	0x39fd5f37	0.0004832686
107	0xba1b39ee	-0.0005921413
108	0x3bb43648	0.005499635
109	0x39ed16e6	0.00045221223
110	0xbcaa9f93	-0.020828044
111	0xb9bc553c	-0.0003592166
112	0xbb866f7e	-0.0041026464
113	0x39c395e4	0.00037304976
114	0x3b9da9ba	0.0048114927
115	0xbad4c60a	-0.0016233337
116	0x3b11ffc1	0.0022277685
117	0xb9c0f396	-0.0003680258
118	0x3d0b3bab	0.03399245
119	0xbb9581a7	-0.004562575
120	0x3ccfb383	0.025354153
121	0xbae85cef	-0.0017727892
122	0xb8a2a70a	-7.7558754e-05
123	0x3bd24898	0.0064173453
124	0xbb698d7e	-0.0035637314
125	0x392e7b58	0.00016639882
126	0x3b32813c	0.0027237674
127	0xb9ce3098	-0.00039327587
128	0x3abfddab	0.0014638206
129	0xbb3e0b1a	-0.0028998316
130	0x3ce676a1	0.028132739
131	0xbc4f039a	-0.012635136
132	0x3cdf13d9	0.027231144
133	0x3be3b501	0.0069490676
134	0x3b88ed55	0.004178683
135	0xbb0ff0c3	-0.0021963574
136	0xbb96adf9	-0.004598376
137	0xbca21a6d	-0.019787991
138	0x3c2502bf	0.0100714555
139	0xbae5f114	-0.001754316
140	0x3ceec1ec	0.029145204
141	0xbba169a1	-0.004925922
142	0xbcc336ba	-0.023829807
143	0xbbb623df	-0.0055584754
144	0xbc192ca7	-0.009349025
145	0x3af4828e	0.0018654631
146	0x3bf8edc3	0.007596703
147	0x3b37a9ce	0.0028024795
148	0x3b3c55e3	0.0028737716
149	0x3bf9733d	0.0076126144
150	0x3b0b5c08	0.0021264572
151	0x3cda07e7	0.026615096
152	0xbbe8b41d	-0.0071015493
153	0xbcb12421	-0.021623673
154	0x3b0da9a0	0.0021615997
155	0xba8b122a	-0.0010610272
156	0x3b7bb502	0.003840745
157	0x3bbf3f03	0.005836369
158	0x3cde5844	0.027141698
159	0x3ce1e057	0.027572794
160	0xbc7c5e47	-0.015403337
161	0x3ccae86d	0.024769032
162	0x3b8ec193	0.004356572
163	0xbc289807	-0.010290152
164	0x3cecabc6	0.028890502
165	0x3b22f997	0.0024868005
166	0xba66ab1d	-0.00087993016
167	0x3a139ef9	0.0005631294
168	0x3ab042c6	0.0013447634
169	0xbbf678e7	-0.007521737
170	0xba1dfda4	-0.000602687
171	0x3d0b3f49	0.0339959
172	0x3b1a21d3	0.0023518696
173	0x3ac8bcf5	0.0015315103
174	0x3d5e2cb2	0.054241844
175	0xbcc203b5	-0.023683408
176	0x3c05cae3	0.008166048
177	0xbc674e14	-0.014117736
178	0xbba10bee	-0.004914752
179	0x3bc6303d	0.006048231
180	0xba0eaef1	-0.00054429384
181	0xbba327d4	-0.004979113
182	0x3bacbe76	0.005271728
183	0xba4554db	-0.0007527598
184	0x3ad73d65	0.0016421495
185	0xbac29dea	-0.0014848087
186	0xbce38e58	-0.027777836
187	0xba48c604	-0.0007658901
188	0xbb6127f2	-0.0034356085
189	0x3c3d9390	0.011570826
190	0xbb8867a7	-0.004162747
191	0x3ea99948	0.33124757
192	0xbb22a864	-0.0024819607
193	0xbc7c4a81	-0.0153986225
194	0xba0a0da8	-0.0005266317
195	0xbd190f11	-0.037367884
196	0xbcaef5de	-0.021357473
197	0xbb9245fb	-0.0044639087
198	0x3c0be796	0.008539101
199	0xbc844625	-0.016146729
200	0xbc8270a1	-0.015922846
201	0xba51fad4	-0.00080100936
202	0x3cf36876	0.029712897
203	0x3cede7d4	0.029041208
204	0xba8b61d5	-0.0010634015
205	0xbcd8647b	-0.0264151
206	0xbc0e701d	-0.008693722
207	0x3bade5ae	0.005306921
208	0x3c0f0260	0.008728594
209	0xbaa07a75	-0.0012243526
210	0xbd3f4f96	-0.04670676
211	0x3bfa547f	0.0076394673
212	0x39504029	0.00019860327
213	0xbb1ff9fa	-0.0024410472
214	0xbaf14f2c	-0.0018410436
215	0x3a35664c	0.00069198455
216	0x3c20517e	0.009785054
217	0x3dec4b19	0.11537761
218	0xba36760b	-0.0006960339
219	0x3cdc84d8	0.026918814
220	0x3cec7130	0.028862566
221	0xba468af6	-0.00075738074
222	0xbb31ce71	-0.0027131105
223	0x3860fb9c	5.364009e-05
224	0x3cf4d3c3	0.029886132
225	0x3c3b7bd7	0.0114431
226	0x3bc4aa42	0.0060017416
227	0x3bd0dff2	0.0063743526
228	0xbbb9821b	-0.0056612617
229	0x3d84defe	0.06487845
230	0x3a7ac460	0.00095660053
231	0x3be48e78	0.0069749914
232	0x3a85d578	0.0010210713
233	0xbc285d44	-0.0102761425
234	0x3afe2364	0.0019389209
235	0x3cb4d3c1	0.022073628
236	0x3bb2c446	0.0054555265
237	0xb99ddb89	-0.0003010894
238	0xbae23c68	-0.0017260434
239	0xba8dc2d5	-0.0010815511
240	0xba65fe77	-0.0008773575
241	0x390ff2ca	0.00013727989
242	0xbc0b5c90	-0.008505955
243	0xbca58563	-0.020205205
244	0xbadf18a2	-0.0017020891
245	0x3ab488f2	0.0013773723
246	0x3ea5332f	0.32265612
247	0x39bbd6a4	0.0003582734
248	0x39a816fe	0.00032060588
249	0xb90876a9	-0.00013014175
250	0xbd6b25c4	-0.057409063
251	0xbc65be91	-0.014022485
252	0xb9cc472f	-0.00038962948
253	0xbac4c57b	-0.0015012467
254	0x3b3538dc	0.00276523
255	0x3c166b8d	0.009180916

fc3.bias f4 [2]
0	0x3e85fbff	0.2616882
1	0xc05d0d5b	-3.4539402
