runs/4_400_300_32_42_critic.pth (torch, 493143 bytes, 5 tensors)

fc1.weight f4 [400, 3]
00000000: 00a4 213f d266 66bd 4cb0 9f3c 1619 83bc
00000010: e5d7 073c d8c2 e83c c8bf 243d 31b3 7abc
00000020: 8dca 3a3b 3022 0fbd dfb3 043d ea1e f3bc
00000030: 7e52 23bc b192 663c 71e2 c4bc 1ab7 d63c
00000040: 1153 423c 41aa 0b3d fbed 0fbf c480 523f
00000050: 9b7a 703c ef22 19be ee99 bbbd 3763 85bb
00000060: f482 11bf edc2 07bf c99c b73d fce2 22bf
00000070: 0a3f 1a3f 8eca 2a3d a6bb 833d de8b 06bd
00000080: 2a32 4f3c a2f4 a4bd b5bd c6bd cca2 3dbc
00000090: dfdd 973e d9d7 8bbe 6420 8f3b 9863 513f
000000a0: c50e ffbe 7202 3a3d 16ee 46bf f2c7 21bc
000000b0: dba1 073e abdc 24bd c0a6 b2ba a293 f53c
000000c0: 4145 2c3f c370 953d 107e 703d 1b3a 863d
000000d0: aec7 353d 96a6 913c ae31 e7bd c2b6 43bd
000000e0: 118d 84bb 30e6 f73e 5719 b5bd 8220 e03c
000000f0: 11ad 203f 0e1c 673d 5975 8e3d 27b6 b5bc
00000100: 732e 4a3d 0092 d23b ef4f 72bf 32d4 943e
00000110: 706a 3f3e 0e69 383f d7bf 10bf 1a02 4a3d
00000120: 0402 30be b7cf 5b3f b23e b33c 7e56 08bf
00000130: 9923 7fbe ae93 943d 0959 113f e5c3 b03e
00000140: e4ce da3d d046 ae3b bc77 783c 62f9 c83c
00000150: febc cfbe d758 b0be 2201 083e b0f1 9f3d
00000160: 954c 1e40 974d 063c 1aff f3bb 3c98 e63d
00000170: 4a7e 713d c083 93be 4c08 283f 434a 683e
00000180: f0d5 f93b 0dc0 bbbc 7b2e 123d 73f6 1ebd
00000190: 181d ae3b 3fd6 013d 57b6 653c d253 d83c
000001a0: 5665 2c3b 9097 30bd 0671 8abc b8b4 493c
000001b0: 87c3 34be 01f4 ff3d 05fb 083c 67e1 4f3f
000001c0: 338f 1ebf b339 843d 29b3 583d a2dc 9b3e
000001d0: 9651 813d 14c7 6f3b 8cd7 d73c 56f8 873c
000001e0: 4169 13bf 87b3 983e fe0d a23d f3cf 223d
000001f0: 94ae 44bc 3eeb a43c 179f 56bf 6535 e83e
00000200: c0e3 263e 2a5b c03d b1c6 6f3d b1d5 6c3c
00000210: e822 113d 4c70 a8b9 258d 823c 76a0 b63d
00000220: aa60 4bbf f802 143e efcf 76bd 23cf a03d
00000230: 252b a43b b21c f33c d84c 66bc 98b3 813b
00000240: a937 403e a27c 69bd 1d64 c73b b1c3 0dbc
00000250: 6502 17ba be09 5f3b 0575 2b3f e9fb f1be
00000260: 79da 993e 9dd8 16bd f27f 953c 984b c6bb
00000270: 9e4c 683c afc7 403d 1baf 09bd bc88 64be
00000280: a305 3f3e 3c79 dc3e 720c 3ebf 94f3 7e3f
00000290: c46f 4d3d af82 99bd ae33 d53b b1c0 cc3c
000002a0: aa95 f53c d86f 14bc 382f 2abc a8be c4bd
000002b0: 70be 803f e92e 903b 5b2e 833c 4e02 203c
000002c0: b00e db3c 134d 17bd 10d0 a1bc 7dd5 2f3d
000002d0: 8b0b cf3d d47f 5ebb 52ba 163d 8150 4c3d
000002e0: 80e8 9cbc 2c31 4b3c 3657 91bc 1019 acbc
000002f0: b091 e43b 8890 bfbc bf97 a33d d71f 263d
00000300: 63d7 8dbd 0b9c 3dbd 542f 95bc 8264 763c
00000310: edf2 15bc 7884 c83c 9f28 333f 7b30 9fbe
00000320: 7155 843d e063 65bc 3b24 0a3d aa9b ea3c
00000330: fe8a 0bbf dced 563f 46cd 013d ccb3 3a3f
00000340: 7c3b 6c3e 0a6b 00bc a48d 5a3c 187e 083d
00000350: 45e0 b0b8 750a 2bbd bf63 423d b01e 5f3b
00000360: 1bd3 213f ca0a 84be 797c 143d fe10 fd3c
00000370: 00a3 a53a 28de 8cbb c0fe 903f 4a9b 1ebf
00000380: 429b ea3b 1302 6d3e 0e79 883e 0dec cc3c
00000390: d773 9cbf 6d26 773f 3a55 0ebb 78dd 13bf
000003a0: aaab 8cbd d282 dd3d 35fc 723f 3261 173f
000003b0: addd 983c 2538 26bc 06f3 133e f51f cd3c
000003c0: 6bcd e93e df10 fabc 84c2 9f3d 90a7 f5bb
000003d0: c0f5 ecba 4026 d5bb 36f8 79bd 9666 9dbd
000003e0: 7ca6 06bd 9048 45be 53fb 36be 33a6 11bb
000003f0: c6cc 85bd f615 ebbc 0576 0a3d 8066 84bc
0.6314087 -0.0562504 0.019493245 -0.016003173 0.008291219 0.028413221 0.04022196 -0.015301512
0.0028502077 -0.034944713 0.0323981 -0.029677827 -0.009968398 0.01407306 -0.024033757 0.026210357
0.011860625 0.034097914 -0.56222504 0.8222773 0.014677669 -0.14954732 -0.09160219 -0.004070665
-0.56840444 -0.5303181 0.08965451 -0.636276 0.6025244 0.041697077 0.064322755 -0.03284823
0.012646237 -0.080544725 -0.097041525 -0.011574458 0.29661462 -0.27313116 0.004367875 0.81792593
-0.49815956 0.04541249 -0.7770704 -0.009874331 0.13245337 -0.040249508 -0.0013630018 0.029977623
0.67293173 0.07296898 0.058713973 0.065540515 0.044379883 0.01777963 -0.112887725 -0.047781713
-0.0040451367 0.48417807 -0.08842724 0.027359251 0.6276408 0.05642324 0.06955976 -0.022181584
0.049360704 0.006426096 -0.9465322 0.29068142 0.18692946 0.720353 -0.56542724 0.04931841
-0.17188269 0.8586382 0.021880481 -0.53256977 -0.24915923 0.0725473 0.5677648 0.34524456
0.106839925 0.0053185 0.015165266 0.024532977 -0.40573877 -0.3444278 0.13281682 0.0780977
2.4734242 0.00819721 -0.007446182 0.11259505 0.05895833 -0.28811455 0.6563766 0.22684579
0.0076243803 -0.022918725 0.03568886 -0.03880925 0.005313527 0.03169846 0.014020524 0.026407156
0.0026305518 -0.04311329 -0.016899597 0.012311153 -0.17652713 0.12497712 0.008360629 0.8120331
-0.61937255 0.06456318 0.052905235 0.30441767 0.063143894 0.0036587166 0.026347898 0.016597908
-0.5758248 0.29824468 0.07912825 0.039749097 -0.012004513 0.020131703 -0.838365 0.45353237
0.16297817 0.09392388 0.058539096 0.014455245 0.03543368 -0.00032127125 0.015936444 0.08917324
-0.7944437 0.14454257 -0.060256895 0.07852008 0.005010026 0.029676769 -0.014056407 0.003958177
0.18771233 -0.057003625 0.0060849325 -0.0086526135 -0.00057605497 0.0034032906 0.6697543 -0.47262505
0.30049494 -0.036827672 0.018249486 -0.006051492 0.014178423 0.047065433 -0.03361426 -0.22317785
0.18654494 0.43061244 -0.7423774 0.9959042 0.050155416 -0.07495629 0.006506405 0.024994226
0.029978592 -0.009059869 -0.010387234 -0.09606677 1.0058117 0.0044001234 0.016013315 0.0097661745
0.026740402 -0.036938738 -0.019752532 0.042928208 0.101096235 -0.0033950703 0.036798783 0.049881462
-0.019153833 0.01240186 -0.01774178 -0.021008044 0.006975375 -0.023384348 0.07987928 0.04055771
-0.069258474 -0.046291392 -0.018211044 0.015038611 -0.009152156 0.024477229 0.6998386 -0.31091675
0.06461609 -0.014000863 0.03372596 0.02863868 -0.5450896 0.83956695 0.031689905 0.729306
0.23069566 -0.00783802 0.013339434 0.033323377 -8.4341074e-05 -0.04175802 0.047458407 0.003404539
0.63212746 -0.2578948 0.03625152 0.030891892 0.0012637079 -0.004298944 1.1327744 -0.619557
0.0071596215 0.23145323 0.26654857 0.025014902 -1.2222852 0.9654301 -0.002171828 -0.5775981
-0.0686868 0.108159676 0.9491609 0.59132683 0.01866039 -0.010145222 0.14448175 0.025039652
0.45664534 -0.030525623 0.07800773 -0.0074967816 -0.001807861 -0.006504804 -0.061027728 -0.07685582
-0.032873616 -0.19265962 -0.1786931 -0.0022224307 -0.06533198 -0.028696995 0.03380396 -0.016162157

fc1.bias f4 [400]
00000000: 2b22 46bd 79c5 97bd 2d9e 69bd 370e efbe
00000010: 7662 b1be 246e 96bd 0379 0bbe 3e99 9dbe
00000020: c06c 94bc a2e0 d1bd 9a2c dfbd cffe b2be
00000030: c55b 96be 5e90 fabc 011f debe 5e18 a4be
00000040: a453 223f 122f 08be ca94 75be 8c0e 313e
00000050: 0e45 ff3d 92b5 6fbe bb24 e4be 9708 dbbc
00000060: ca12 24be 9d11 32bf a013 38be bc0d 54be
00000070: 9da7 36bf d3f0 e8be 2b59 36be b8c3 7fbd
00000080: f6df 11bf 1e63 f7be 8c06 31bd a2c2 2bbe
00000090: 3804 87be 618d ba3d 0f7b 0f3e 87e9 3ebd
000000a0: 0023 c63d 0c8e 7abe ccfd 86bd 6173 44be
000000b0: 51d1 84bd 820f 0c3d c50e 12be 100b d3bd
000000c0: e1eb 7bbe c465 cebe e033 a8be b684 a9be
000000d0: 3017 03bf b2b8 2a3e 434a 7e3e d1e1 fcbd
000000e0: 9497 debe 181f 3d3f ca09 b3bd 378a a6be
000000f0: bb71 10be 0ba2 92be e44d dcbe 99fe 0cbe
00000100: c2c7 b5be 4293 45bd f298 8c3c 3122 fdbe
00000110: 4bfa 7dbe 6f04 443f f7d1 cbbe 9292 ebbe
00000120: 8c9b f43c 8616 02bf b7f0 c13c dc0a 823e
00000130: 9553 d6bd c9e7 03bf fe59 2b3f 1f92 35be
00000140: de0c cf3d b29c 77be e7a3 18bf e938 d1be
00000150: 42fc 01be c497 9fbd c575 98be bee2 78be
00000160: b557 863e 7d8d 80be f45d 713d ea1e 74be
00000170: a839 23be f1c2 8bbe 0362 09bf 8265 61be
00000180: 2ff3 b5be 371f e0bd aa88 86be fef4 433d
00000190: 71b1 04bf 8c8c 7ebe cc1a 0ebf 253f a0be
000001a0: 9753 0dbf 50a9 89be 95ac 10bf 4a02 103f
000001b0: 25d3 92be 6f7f 8abd f3f3 b0be f33f 0ebf
000001c0: afaf f9bd e448 d9bd abe9 273f 30ef 1bbe
000001d0: 500c a4be aa49 47be efa1 a5be 765f 973e
000001e0: 28a5 eebe 6ebf b2be a67d bfbe 6246 4ebe
000001f0: 4275 b5be 12ff 053e b99c 0ebf eeed e1be
00000200: 3819 f5be b6c2 9e3d b1c7 4bbe 01af ad3d
00000210: 94a0 103e 5a53 b7bd 82e2 58bf b5a5 12bf
00000220: cee8 60bf 9c24 04be ee40 a9be 6f8b 6ebe
00000230: ba34 6abd 3067 95be 78bf c6be d3d4 51bd
00000240: 20b9 5cbe 2444 543e c474 91be 85be 88be
00000250: 345c 103f 2776 a0be 3594 81be cee5 50be
00000260: 6342 03bf 9d09 94be f0c6 23be 8d44 82be
00000270: 3ec6 053f 7c29 75be c221 eebc 38cd 39be
00000280: ffa9 8dbe 99e8 79bd 06eb 683e 0999 ccbe
00000290: a639 8abe 4c58 dd3e 165c 33be 2eaf fabe
000002a0: e0bd c5be 1e82 7fbd e351 2fbd 1aef 19be
000002b0: 0c6e a3be 11f9 38be 0865 04bf a0a6 a8be
000002c0: cff7 78be f1d1 a7be a726 f9be b4f4 90be
000002d0: 26c8 a0be 8719 eebe 46f8 2fbe 5b00 9ebd
000002e0: 41d4 56bd 4ab8 69be bb59 71be 871a 75bd
000002f0: 565d acbe ddf5 523e 30b8 213f eaed 96be
00000300: abd6 aabe d337 23be a426 46be af62 f9be
00000310: 137e 4ebd abc2 45be 52a1 273e 805d 0ebf
00000320: 9cc6 6f3e 3c3c fbbd 512f bfbe cbf9 b0be
00000330: e773 85be 1cc6 d5be 23ed 3abe 8a1a 61be
00000340: 4ef7 c9be 3f15 e7be aa57 0dbf 0a26 ddbe
00000350: 1176 cebe c41d b8bc 5da5 a33d 6ee0 4ebe
00000360: de8a 21bd 290a 87bb d610 a4be 6297 91be
00000370: 9e55 77be d74c 26be 7f27 d5be 375a e8bd
00000380: 0d87 103d 07f2 08bf 284a 08bf beb0 04bf
00000390: 31c2 05bf feaa cabe 797d f9be beeb a8be
000003a0: 4181 fdbe 1721 49bd d612 903e dfc9 61be
000003b0: 749a c2be d38e 8abe f5f9 673e 462a ec3d
000003c0: 84b0 b3be 72a3 9abe 99cf aabd e2cf babd
000003d0: 3237 ac3d d046 823d 80cd e4be e6cc 3bbe
000003e0: c21f edbe 71b1 b6be 7698 3c3e 4845 43be
000003f0: 7002 c63c e455 573d eb78 643d 82b0 f6bd
-0.04837243 -0.07410712 -0.057035614 -0.46690533 -0.34645432 -0.073452264 -0.13620381 -0.30780977
-0.018118262 -0.102479234 -0.10897179 -0.3496003 -0.2936689 -0.030586418 -0.4338303 -0.3204984
0.63408875 -0.13299206 -0.2398254 0.17290705 0.12464343 -0.23409107 -0.44559273 -0.026737494
-0.16022792 -0.69558126 -0.17976236 -0.20708364 -0.7134951 -0.45496234 -0.17807452 -0.06244251
-0.5698236 -0.48317808 -0.043219134 -0.16773465 -0.26370406 0.09108997 0.14011787 -0.046609428
0.096746445 -0.24468249 -0.06591377 -0.19184639 -0.064852364 0.034194477 -0.14263447 -0.103048444
-0.246017 -0.40312016 -0.32852077 -0.33109063 -0.51207256 0.16672018 0.24833016 -0.123477586
-0.4347502 0.7387557 -0.087421015 -0.32527325 -0.14105885 -0.28639254 -0.43028176 -0.13768996
-0.35503966 -0.04823614 0.017162774 -0.49440148 -0.2480251 0.76569265 -0.39808628 -0.46010262
0.029859327 -0.5081562 0.023674352 0.2539891 -0.10465161 -0.5152555 0.6693419 -0.17731522
0.10109876 -0.24180868 -0.59625095 -0.40863732 -0.12693885 -0.07792619 -0.2977735 -0.24305245
0.2623879 -0.25107947 0.05892749 -0.23839918 -0.15939963 -0.27297166 -0.5366518 -0.22011378
-0.35537097 -0.10943454 -0.2627614 0.047841065 -0.51833254 -0.24858302 -0.5550964 -0.31298175
-0.5520567 -0.26886988 -0.5651334 0.5625349 -0.28676715 -0.06762587 -0.34561118 -0.5556633
-0.12191712 -0.10609606 0.65590924 -0.15227962 -0.32040644 -0.19461694 -0.32350108 0.29565018
-0.4661038 -0.34911674 -0.3740055 -0.20144036 -0.35441023 0.13085583 -0.5570789 -0.44126838
-0.47870803 0.07751982 -0.19900395 0.08480645 0.14123756 -0.08951445 -0.84720623 -0.572841
-0.8785523 -0.1290459 -0.3305735 -0.23295377 -0.05717919 -0.29180288 -0.38817954 -0.051228356
-0.21554995 0.20729119 -0.28409398 -0.26707855 0.5639069 -0.31340143 -0.25308385 -0.20400164
-0.51273173 -0.28913584 -0.15993857 -0.25442925 0.5225562 -0.23941606 -0.029068831 -0.18144691
-0.2766876 -0.061012838 0.22745904 -0.39960507 -0.26997107 0.43231428 -0.17515597 -0.48961776
-0.38621426 -0.06237995 -0.042802703 -0.15032616 -0.31919897 -0.18063761 -0.5171666 -0.32939625
-0.24313281 -0.3277736 -0.48662302 -0.28311694 -0.314027 -0.4650385 -0.17184553 -0.077149116
-0.052448515 -0.22824207 -0.23569386 -0.05983975 -0.3366496 0.20601602 0.6317167 -0.2947839
-0.33366904 -0.15939264 -0.19350678 -0.48708102 -0.050413202 -0.19312541 0.16370133 -0.5561142
0.23415607 -0.12267348 -0.37340787 -0.34565577 -0.2606499 -0.41752708 -0.18254523 -0.2198278
-0.3944649 -0.45133397 -0.5521189 -0.43193084 -0.40324453 -0.02247513 0.07990525 -0.202028
-0.039439075 -0.004121084 -0.32044095 -0.28435808 -0.24153754 -0.1624025 -0.41631696 -0.11345332
0.035285044 -0.53494304 -0.53238153 -0.5183219 -0.5224944 -0.39583582 -0.4872854 -0.32992357
-0.49512675 -0.049103823 0.2813937 -0.22049664 -0.38008463 -0.2706209 0.22653945 0.115315005
-0.35095608 -0.30202824 -0.08340377 -0.09121682 0.08408965 0.06361163 -0.44688034 -0.18339881
-0.46313292 -0.35682252 0.18417534 -0.19069397 0.024171084 0.052572146 0.05577938 -0.12045385

fc2.weight f4 [300, 402]
00000000: c079 12bf e0a8 33bc 4670 1dbc 3035 563d
00000010: 9e46 993c 6faf 4bbc 191a 22bd 01c7 3a3a
00000020: e9ee acbd ca7f c0be 1e00 543c 3d64 1e3d
00000030: 8945 f53b 0b58 3ebe 4bad a0bd 131b 55bd
00000040: 305c 3bbd 6971 113a f640 1abc 3c90 e4bc
00000050: df07 543c 40dc 163d bbf2 2fbe 6893 7d3c
00000060: 6d3e 38be a6b2 54bc b038 6e3d 4438 81bc
00000070: 83c0 3a3d 138a a2bc 9765 1bbd 2886 5ebd
00000080: 7605 4abd 72e5 a7bc 10ba 43bb e256 593d
00000090: b643 e9be 82a6 a1bc 8746 41bc 84de d3bc
000000a0: 2d07 e53d ac88 9f3c 3f78 0f3d ba9c 4dbd
000000b0: 21ac b33c 9280 98be 3601 ccbc 7855 693c
000000c0: 5285 b9bc 6a46 15bd 95b2 16bd 68dd 903b
000000d0: 983e c13c 64a0 74be ca17 0a3f 8d4a dd3c
000000e0: 0035 ed3a 6642 ccbe b232 b7bc bdea 58bd
000000f0: edaf 263c d86a 18bd a084 8dbb 07ae d2bd
00000100: 4f3a 2e3d 72fb 4a3d 5cd7 253e be5b 4ebd
00000110: d3c4 c3bd 2164 61be 1421 bebc f087 de3b
00000120: 496f afbb 63cc f3bc f607 94bd 50f3 f4bd
00000130: 4ec6 a83e b7e6 b03d c4b4 69bc 03e3 863d
00000140: 9afe edbb c4cb 4f3d a649 2a3c b78b 303d
00000150: 837a 9f3d dace 3fbd fc7a dc3c bf35 81bd
00000160: a314 3b3e a043 04bd 64e9 59bf 7ce9 133d
00000170: 6137 bdbd 35eb 2bbe e005 543d 5620 0dbd
00000180: 3899 cbbd 78e8 1fbd 805b 823a bd09 93bc
00000190: ca6c a3bc 0024 e239 bfa2 553c 1607 3c3d
000001a0: 46ff e43e 60a8 0a3e 2c16 ec3c 5dc0 09bd
000001b0: f994 56bd 689d 9b3b 9bbf 303d 36bb d9bc
000001c0: e44b c7bd 7043 69bd 1836 f6bc b414 08bc
000001d0: c2cf 81bc 506e f4bb 4dde bb3d ad3e a0bd
000001e0: bd59 cfbd 031a 71bb 3e3f b2bc 7ed4 1c3d
000001f0: 5b15 62bd 7413 b43c 8028 163d 548a 1b3d
00000200: 2c2a e2bc c4e5 8a3d ab48 24bd 9622 4ec0
00000210: d2e5 aabd b44a 6ebc 1f0b a03b 187b 76bc
00000220: 1664 b5bd dd40 e1bc b690 08bd 57d4 4a3c
00000230: ab89 e03c 58ce d3bd 977e fbbc 10dc 033d
00000240: 38ee 183d e4c0 4a3d 53b2 913c cafa dd3c
00000250: cf0f 9ebe d224 83bd 2e2c 70bb 1012 a33b
00000260: 9d9b 2c3d 868d ccbc e062 ae3c fc60 77bf
00000270: d601 13be d444 c0bd e188 69bc 5ac3 29be
00000280: 50eb 743b 0daf 56be 861b 2abf ffe6 5cbd
00000290: 67d6 44bd c886 adbf f7cc 20bd 7ae2 8f3b
000002a0: 758b 1ebd 7442 3b3c 46ff 60bd 7e69 383e
000002b0: 2a44 86bc 71c6 c2bc 8204 41bd dc32 5f3d
000002c0: 671a 24bd a5e3 62bd c0f6 113c ac07 c9bd
000002d0: 1a5c a9bc 0e2c 8c3d c9d5 7ebb fa7c ab3c
000002e0: d6f3 2e3d dad8 61bd 130f cd3d 8c7f a6be
000002f0: ba0c d3bc 9aff 7ebf f2d6 27be 21bd 203d
00000300: 3b4f c0bc b7e2 553c 6d54 e9bc 0b04 ea3b
00000310: a0df 133d 0622 0e3b c359 54be df96 a5be
00000320: 4df0 48bf 5a1d 98bc 8d0c 35be 9107 2bbd
00000330: 4f83 37bc 98a8 c9bc eeaf 39be 7913 1fbd
00000340: 3416 af3d c9ef 0abd 1f18 37be a2c1 98bc
00000350: 09af 1ebd 2ee8 d9ba f448 e7be c048 353d
00000360: 3ccb 78bd e302 38c0 fe79 f3bc efe0 4b3d
00000370: 93db 343c d39c b4bd 7b5e abbc 0982 f4bb
00000380: 9b02 dd3c a941 5ec0 e44f c3bc 0f45 853d
00000390: d8af c33c a8ff e83c c4c9 583d f7ea f5bc
000003a0: 50b4 573c 63c8 dc3b 9083 d3bc c8ea 88be
000003b0: 4982 96be dfcb 3ebf 1237 c2bf 5e63 0ebe
000003c0: 78de 953c 5067 68bc 2676 c83d ec97 a6bc
000003d0: 685b 423d 38f4 c7bc 81da 5fbd 8624 993b
000003e0: 5207 c2bc 6e63 d43c 6361 12bf d8ed ca3c
000003f0: e202 3bbe bab0 a8bd bd4b 573e 0b0f cfbc
-0.57217026 -0.010965556 -0.009609288 0.052296817 0.01871043 -0.012431963 -0.03957567 0.0007124991
-0.08444006 -0.37597495 0.012939481 0.038669813 0.007485096 -0.18588273 -0.07845553 -0.052027773
-0.045742214 0.00055482105 -0.009414902 -0.027900808 0.01294133 0.03683114 -0.17182438 0.015477039
-0.17992564 -0.012982046 0.05815953 -0.0157739 0.04559375 -0.01984123 -0.03793868 -0.05432716
-0.049321614 -0.02049515 -0.002986554 0.053061374 -0.45559472 -0.019732717 -0.0117966 -0.02586294
0.11183009 0.01947435 0.035026785 -0.050198294 0.021932663 -0.2978559 -0.024902921 0.014241569
-0.02264658 -0.036444105 -0.036791403 0.004420925 0.023589417 -0.23889309 0.5394255 0.027013088
0.001809746 -0.39894408 -0.02236304 -0.05295824 0.01017378 -0.03721127 -0.0043187886 -0.10287099
0.042536076 0.049556203 0.16195434 -0.05038046 -0.095590256 -0.22010852 -0.023209132 0.0067911074
-0.0053538424 -0.029760545 -0.07228081 -0.11960471 0.32963794 0.08637755 -0.014264289 0.06586268
-0.007263017 0.050731435 0.010393536 0.043101992 0.07787039 -0.04682813 0.026914112 -0.063090794
0.18269591 -0.032291055 -0.8512175 0.03611134 -0.09239078 -0.16788943 0.051763415 -0.034454666
-0.099413335 -0.03904006 0.0009945482 -0.01794898 -0.019949336 0.000431329 0.01303929 0.045905195
0.44726008 0.13540792 0.028819166 -0.033630718 -0.052388165 0.004748989 0.04315148 -0.026578527
-0.09731272 -0.05694908 -0.03005509 -0.008305717 -0.015846137 -0.0074594393 0.0917326 -0.078244545
-0.10124538 -0.0036789186 -0.021758672 0.038288586 -0.055196147 0.021981932 0.036659718 0.037973717
-0.027608 0.067821056 -0.040108364 -3.220861 -0.08344616 -0.014544178 0.0048841382 -0.015043996
-0.088569805 -0.02749675 -0.033341132 0.012379727 0.027409395 -0.10342091 -0.030700011 0.03219229
0.037336558 0.04950036 0.017785227 0.027097125 -0.30871436 -0.06403507 -0.0036647427 0.0049765185
0.042140592 -0.024969827 0.021287382 -0.9663236 -0.14356169 -0.09388128 -0.014253826 -0.16578427
0.0037371702 -0.20965214 -0.6644825 -0.053931233 -0.048056033 -1.3556757 -0.03925797 0.004391012
-0.038707215 0.011429418 -0.054930948 0.18008992 -0.016389925 -0.023776265 -0.04712344 0.054491863
-0.04006424 -0.05539288 0.008908927 -0.098159164 -0.0206738 0.0684434 -0.003888475 0.020933617
0.04271301 -0.055138446 0.10012641 -0.32519186 -0.025762904 -0.9960877 -0.16390589 0.039242867
-0.02347528 0.013054541 -0.02848264 0.0071415952 0.036101937 0.002168776 -0.20737366 -0.32341668
-0.7849167 -0.018568683 -0.17680569 -0.041755263 -0.01120074 -0.024616525 -0.18133518 -0.03883693
0.08549157 -0.033920083 -0.17880295 -0.018647019 -0.038741145 -0.0016624981 -0.45172846 0.044258833
-0.060740694 -2.8751762 -0.029721256 0.04977506 0.011038679 -0.08818974 -0.020919075 -0.0074617905
0.026978781 -3.4727576 -0.023841806 0.065073125 0.02388756 0.028442219 0.052926794 -0.030019267
0.013165548 0.006737755 -0.02581957 -0.26741624 -0.29396275 -0.7452983 -1.5173056 -0.13905093
0.018294558 -0.014184788 0.0978816 -0.020336114 0.047450453 -0.024408445 -0.05465174 0.0046735434
-0.023685131 0.025926318 -0.5717985 0.024771616 -0.18262818 -0.08236833 0.21024986 -0.025275728

fc2.bias f4 [300]
00000000: 8387 00bd 8294 613e 14e0 1ebf 2853 b2ba
00000010: 862a 4bbd ca07 153e b44b 8abd 86a6 0d3e
00000020: 9ed9 0cbd fd40 b93b bc46 353d 928c 25be
00000030: 4a30 b7bd cc16 0b3e 8b9b 44be 447d 06bd
00000040: 68c7 d83d 96e4 2fbd a082 a3bd 4c19 1d3e
00000050: a4b3 a8bd 2224 35bd 514d 823c e2a8 8bbd
00000060: 7e91 bb3d d4b0 12be f6a9 45bc 42f7 b03b
00000070: b995 50be cf32 7abd bf5c a8bd 64da 82bd
00000080: 3718 93bd 24c8 cb3b d7f0 513c 2a5d babd
00000090: 05e4 76bd 11eb 99bd a99d dcbd eb14 ba3c
000000a0: 8096 99bd fca1 31bd 4f43 c5bd 4213 0b3c
000000b0: 68a6 abbc 1af3 febe 57aa 77bd 0da0 7ebd
000000c0: c4bb 94bd 0ad6 afbc 480b f5bb c3d6 3e3a
000000d0: 0d12 53bd 8b51 a3bd b582 8bbd 694b 20be
000000e0: 69d7 7abe e684 9fbc afc3 66bd ebf0 9fbd
000000f0: c0da 93bd b078 813e 9b0b 8a3d 7464 05bd
00000100: c36b b2bd b6ca 2cbd 9d96 72bd fab9 b0bd
00000110: 6a03 993e c8fd 03bd 34d0 64bc 1d10 05be
00000120: c2d6 a3bd f6fb 0ebd eb4d 85be c36d 223e
00000130: c33e 9dbc 91a9 b3bd ef86 30bf 91b5 b0bd
00000140: 1ab6 573e 4cc8 1c3e 17a6 7ebd 545c 72bd
00000150: ef51 1abd 5b52 223b ba26 933e 4f1d 16bc
00000160: 02fd 563e fd7d 8f3c 7971 2f3c e4d0 74bd
00000170: 70ce 77bc 1f47 81bd d991 163e 7311 823d
00000180: 7d16 dbbe 423a bebc 5043 023e 9c9f bcbe
00000190: 47e1 39be 3f98 e4be b2fe 87be 793a 6fbc
000001a0: f30a c4bd 2bf4 5b3e 414a 9a3e 36d1 093e
000001b0: 2013 a23e 4285 96bc f5cf 15bd a9df 593e
000001c0: adf0 50bd 329c 523d 8c9f 28bf d703 f2bc
000001d0: a643 d5bc e05e 0dbc b2a1 2bbd 3200 3dbd
000001e0: 8753 a3bd 30c1 8fbd 8ce9 e5bc dbc7 0abd
000001f0: 2e2e bebd ea05 4cbd 97bf 34bd 38ad b5bd
00000200: d23e 133a 597e 95bd ac35 e8bc 7c7c 583d
00000210: be9b b4bd a891 14be 5240 09be 5d11 a23e
00000220: b56f 6abd 23c8 52bd e136 aa3c 061e 073e
00000230: d617 563e e1ba 57bd e010 40bc d4ce 58bd
00000240: ac54 51be 17e4 a7bd 6991 4abd f7e2 06bd
00000250: 9406 8fbd f22f 88bd ff8f 93bb 5a17 82bd
00000260: 557b a2be c09d 8abd b1bd a1bd 60f6 c3bd
00000270: c5a7 bcbe 11d4 443e 9140 0dbf 243d a7bd
00000280: 95b2 7abe 219e ecbd daf9 60bd 205c 8f3e
00000290: 1b49 31be 7258 bcbd 37bf 08bc 703e a23d
000002a0: 901e a3bd 24e6 923e 1ffe e1bb f729 923c
000002b0: 99d7 71bd a634 d4bd d22f ebbd e138 8ebe
000002c0: d632 4ebe cbfa fcbc 6607 a4bd 3fab 01bd
000002d0: 6caf ffbb e1f1 32be e2a8 993e ecaf 82bd
000002e0: 0fe5 edbc 9d41 52be 4ba1 6cbd c65a 74bc
000002f0: c229 84bd 2e02 ecbd 61d2 c7bd b6e1 4d3e
00000300: ec22 2fbd d428 05bd ff43 79bd 79f5 3bbd
00000310: f8dc 54be d0fe 1abc 24ef 56bd b69e eebd
00000320: dcc5 a3bd 1ab7 a8bd 9dec 21bd 402b 1f3e
00000330: 3151 67bd 3b73 2fbd 6b66 acbe b42b 02bd
00000340: f9fe 38bd dd89 91bd 6873 143c acf6 5cbd
00000350: 88b4 163b f55a cebd 876b 863e b64b fbbc
00000360: 53ff 8e3d be84 64bc 7dd5 0abc 87ba 90bd
00000370: afb6 d33c cb97 b3bd aa5f b0bd 0e43 f73d
00000380: 32e5 17bd 542a c23d 2151 f63d a68f adbe
00000390: 1a66 7fbd e75d 98bd 6eba 2b3e 0871 5cbd
000003a0: d573 25bd 9168 80bd 396f 81bc 1988 87bc
000003b0: c4bf c6be bdff b9bd 65e8 113c b7ca 34be
000003c0: fcf0 9cbe 3dff 7bbd 6539 5cbd abe1 673e
000003d0: 6831 20be 8e2b 463a e31c b1bd bb1f a7bd
000003e0: dfcf afbd 1be8 17bf 0f75 94be 809b 183e
000003f0: 5bf3 073e 3396 3dbd 2b6c 4dbd 9215 62bd
-0.031379234 0.22029307 -0.62060666 -0.0013605105 -0.0496011 0.14553753 -0.067527205 0.13833055
-0.034387223 0.005653499 0.04425691 -0.16166905 -0.08944757 0.13582915 -0.1919996 -0.032834306
0.10584909 -0.042942606 -0.07983899 0.15341681 -0.08237389 -0.044223912 0.015906008 -0.06819321
0.0915861 -0.14325267 -0.012064448 0.005400569 -0.20369615 -0.06108361 -0.08220815 -0.06389311
-0.07182353 0.006218927 0.012813768 -0.09099801 -0.06027605 -0.075155385 -0.10772259 0.022715053
-0.07499409 -0.04336737 -0.09631979 0.008488478 -0.020953372 -0.49794847 -0.060465183 -0.062164355
-0.07262376 -0.021464366 -0.0074781515 0.0007279927 -0.051530886 -0.079745375 -0.0681204 -0.15653767
-0.24496235 -0.01947255 -0.056338962 -0.07809623 -0.072194576 0.2528739 0.06740495 -0.032566503
-0.0871196 -0.042185508 -0.059225667 -0.08629222 0.29885417 -0.032224447 -0.013965655 -0.12994428
-0.07999946 -0.034908257 -0.2603601 0.15862183 -0.019194966 -0.087725766 -0.6895589 -0.08628381
0.2106556 0.15310782 -0.062170114 -0.059170082 -0.037675794 0.0024768326 0.28740484 -0.009162261
0.20994952 0.01751613 0.010708206 -0.059769526 -0.015124902 -0.063123934 0.14704074 0.063509844
-0.42790595 -0.023221139 0.1272099 -0.36840522 -0.18152343 -0.44647405 -0.26561505 -0.014601343
-0.09572401 0.21479861 0.30134776 0.13458714 0.31655216 -0.01837409 -0.036575276 0.21276726
-0.051010776 0.05141849 -0.6586845 -0.029542847 -0.026033234 -0.008628577 -0.04190225 -0.046142764
-0.07974916 -0.070192695 -0.028065465 -0.033882003 -0.09286152 -0.049810328 -0.044128027 -0.088709295
0.0005616966 -0.072994895 -0.028345905 0.052853093 -0.08818768 -0.14508688 -0.13403443 0.31653872
-0.05723544 -0.051460396 0.020778121 0.13195047 0.2090753 -0.052668456 -0.011722773 -0.05293162
-0.20442456 -0.081978016 -0.04945508 -0.032931294 -0.069836766 -0.0664977 -0.0045032497 -0.0635211
-0.3173472 -0.0676837 -0.07897509 -0.09568477 -0.36846748 0.19221522 -0.55176646 -0.081659585
-0.24482186 -0.11553598 -0.054925777 0.27999973 -0.17313044 -0.09196557 -0.00834637 0.07922065
-0.07964814 0.28691208 -0.0068967487 0.017842276 -0.0590435 -0.103616044 -0.114837304 -0.2777777
-0.2013658 -0.030881306 -0.08009224 -0.031657454 -0.0078028943 -0.17475082 0.3001166 -0.06381211
-0.029039888 -0.20532842 -0.05777101 -0.01491422 -0.06453277 -0.11523853 -0.097569235 0.20105633
-0.042757913 -0.03250964 -0.06085586 -0.045888398 -0.20787418 -0.009460166 -0.052474156 -0.116513655
-0.07996723 -0.08238049 -0.039532293 0.15543842 -0.056473915 -0.0428345 -0.3367189 -0.03177996
-0.045165036 -0.071063735 0.009060718 -0.053946182 0.0022995789 -0.100759424 0.26253912 -0.03067575
0.06982293 -0.013947664 -0.008473751 -0.07066827 0.025843946 -0.087691866 -0.086119965 0.120733365
-0.037083812 0.0948073 0.12027193 -0.33898658 -0.06235323 -0.074397855 0.16770336 -0.053818733
-0.04039367 -0.062699445 -0.015800105 -0.016544389 -0.3881818 -0.09081981 0.008905505 -0.17655455
-0.30652606 -0.06152271 -0.053765673 0.22644679 -0.15643847 0.0007559591 -0.08648088 -0.08160349
-0.0858457 -0.5933854 -0.2899556 0.14903069 0.13276426 -0.04628582 -0.050151985 -0.055196352

fc3.weight f4 [1, 300]
00000000: 2623 97be 1e42 973d ae56 46bf d421 a2bb
00000010: 7c74 82bb abc6 0f3d bfd2 ae3d 7453 143e
00000020: 1a00 a5bc 1481 de3c 81ff 08bc bc24 a3be
00000030: 4ea7 f23c 7fff 8c3e ac09 413f 21b9 3c3c
00000040: 6420 cd3d 44d0 8dbc 64dc abbc e879 633e
00000050: e197 28bc 31e6 b83c 95c7 b63b da87 903b
00000060: b091 4e3d e83e 5e3d 0f92 53ba 6df0 ce3b
00000070: 89c0 6e3c e1c5 2c3b 9738 adbd 56b5 d73c
00000080: 5292 0f3c 4279 08bf 9d6f 77bb 8624 afbc
00000090: ccce 97bc 6038 bcbb 8d56 1abe 9b61 493e
000000a0: 9881 55ba 0df9 683b 1260 0b3d 3ace b93c
000000b0: 33b2 a23a a6f3 59be 5c39 d53c ef11 5d3b
000000c0: 12d8 053d d1ee 04bc 5fd7 fc3b 5266 2f3b
000000d0: ee89 d13a 5e19 e43c 6598 7d3c f093 103f
000000e0: 9e47 40be 2233 4cbc 0502 8fba f2b8 acbc
000000f0: c476 80bc 5661 ca3d 91ff 543c 2b03 debb
00000100: ea37 343c bad4 9cbc 71bd 67ba 1ac0 72bc
00000110: e11f dcbd c469 03bb c542 67bc f456 ff3c
00000120: b685 1ebc 2264 48bc 4290 de3b 5503 88be
00000130: 3343 11bb 3022 9038 42ad 21bf af3c 853c
00000140: b268 b23d e7bf 9e3b 81e2 d3ba 4a61 ba3b
00000150: c657 d43c daf9 02bc 1c2f 323d df2f 34be
00000160: f830 fc3c e54b 0abe f6ab 183f f688 6abc
00000170: ef2d 0c3c c3b1 d4bc 09aa 66be 602c 1bbe
00000180: 4b59 ddbd e718 1e3d 50d9 98be 5e39 f83e
00000190: 604e c23d 9f2f 8e3f 9584 a5bd 5ed1 59b9
000001a0: c049 f93b 0eb9 013e d1f1 553e 1532 853d
000001b0: 3581 a7bd d840 c7bb ad2c 22be c2eb e83d
000001c0: 8716 63be 53b2 1abe 6e23 9fbf 9ba8 86bc
000001d0: 037d 08c0 39c9 f63c f5b0 42bc fc84 c33c
000001e0: 1278 3cba d8f2 0bbc fb98 f0ba 53a8 a1bb
000001f0: 2cc3 543c 1038 f0bc a514 f4bc b85a 2cbc
00000200: 3103 7ebc 8060 c43c 0df0 bcbc 3fc9 b93c
00000210: 2e3b c9bc b4db 54be 70d1 ed3c 1016 343e
00000220: fee4 993b 3355 c63a 253f 1f3e 68f9 d43d
00000230: 2bb3 663d ca57 fe3b 5971 69bb 1c81 033c
00000240: fc2d 9dbc 1163 b2bb 3962 853b 7fd0 04bd
00000250: 3793 cabb 718b 10be ab74 f13a 7de9 cbbb
00000260: 2404 933e ac78 113b 4324 13bf 3c34 4cbc
00000270: 2b5d f7be 63dc 933d a919 6fbf 906b 6aba
00000280: 3ec6 88bd 1322 87bc a1c8 b4bb 73ab 313e
00000290: 5032 92be 15c8 833c d978 8e3b b2f5 823e
000002a0: fd9f 5ebc 0885 d03d fa72 f43c f259 57bc
000002b0: 1cb8 9bbb aebc c8bd b5f4 6c3c 0d98 893e
000002c0: 1636 d63e 5a7f 98be b5a9 cdbd 48d6 b2bc
000002d0: aaf4 51bd 2b4f 943e b6d0 34bf 5e32 653c
000002e0: 0908 9f3b 67c8 3abf 727d 6d3c 1d3a 87bc
000002f0: 979c 7e3c d384 573d 0f83 90bc e5f0 ce3d
00000300: d3b3 213c 39c3 153c af24 b63c 375f 873c
00000310: 817d 60bf d954 16bc 060c 593c da7d 113c
00000320: ee9e 66be e617 96bc 7762 b7bb 58ce 793c
00000330: b689 c53c 2c5c f0bc f620 4c3d 403b f4bb
00000340: c43a 2d3e 0355 26bc 164c 95bb 4a2e 3b3f
00000350: 3e75 743b 0b66 b4bc b589 af3d 478a 0c39
00000360: 1617 babe ec43 3a3b eda4 2fbd fef6 29bc
00000370: c723 cb3a 9168 5ebc bd69 cf3b e99b de3d
00000380: 8b11 903c 3428 cf3e 1537 ed3d f7ab a8bf
00000390: f4cb 64bb d0c4 4b3e 3d13 7e3e 63d4 d93c
000003a0: a99a 3e3b 5fba 5cbb 2578 0e3c 3acc e13d
000003b0: ec08 0fbf 5ee4 0dbc c186 0fbc 3157 73be
000003c0: 763b bd3f 687d cab9 8e90 6bb9 5435 2d3d
000003d0: c763 ff3b 205b 8c3c d049 e93c 88f6 a13c
000003e0: fb52 ab3c 7c55 783e 5fec 80be 4642 ac3e
000003f0: 760b c83d e8ed d3bc a01f a53c 3c47 f3bc
-0.29519004 0.07385658 -0.7747601 -0.0049478803 -0.003981171 0.035101574 0.085362904 0.1448496
-0.02014165 0.027161159 -0.008361698 -0.31863964 0.029620793 0.27538678 0.75405383 0.011518748
0.10015944 -0.017311223 -0.020979114 0.22214472 -0.010290117 0.022570701 0.0055779913 0.004410726
0.050431907 0.05425921 -0.00080707757 0.006315282 0.014572271 0.0026363062 -0.08458059 0.026331585
0.008762913 -0.53310025 -0.0037755736 -0.02137972 -0.018531226 -0.005744025 -0.15072079 0.1966614
-0.0008144616 0.0035548836 0.034027167 0.022681344 0.0012412727 -0.21284351 0.026028328 0.0033732613
0.032676764 -0.008113579 0.007716104 0.0026763869 0.0015986541 0.027844127 0.015478228 0.56475735
-0.1877732 -0.012463363 -0.0010910636 -0.021084283 -0.015681632 0.098818466 0.013000385 -0.00677528
0.010999659 -0.019144405 -0.00088401797 -0.014816308 -0.10748268 -0.0020052055 -0.01411504 0.031169392
-0.009675434 -0.012230905 0.006792099 -0.26565042 -0.0022165298 6.872823e-05 -0.63154995 0.016264288
0.08711375 0.004844654 -0.0016165526 0.0056878673 0.02592076 -0.00799414 0.04350196 -0.17596386
0.030785069 -0.13505514 0.5963739 -0.014314881 0.008555873 -0.02596367 -0.22525801 -0.15153646
-0.10808047 0.038597967 -0.29853296 0.48481268 0.09487605 1.1108283 -0.08081929 -0.00020772728
0.0076076686 0.12668249 0.20893027 0.06503693 -0.08178941 -0.006080728 -0.15837355 0.11373092
-0.22176562 -0.15107088 -1.2432687 -0.01643782 -2.13263 0.030125247 -0.01188301 0.023867123
-0.0007189523 -0.008541785 -0.0018356139 -0.004933396 0.012985986 -0.029323608 -0.029795 -0.010519676
-0.015503691 0.023971796 -0.023063684 0.02267897 -0.024564352 -0.20786935 0.029030532 0.17586541
0.0046964874 0.0015131593 0.15551431 0.10399133 0.05632321 0.00776193 -0.003562054 0.008026388
-0.019186966 -0.0054439385 0.004070547 -0.0324254 -0.0061821 -0.14115693 0.0018421611 -0.0062229023
0.28714097 0.002219717 -0.57477206 -0.0124636255 -0.4831327 0.0721977 -0.9339853 -0.00089424197
-0.06678437 -0.01649574 -0.005517081 0.17350559 -0.2855401 0.016086617 0.0043479023 0.25578076
-0.013587949 0.10181624 0.029839981 -0.013144003 -0.004752172 -0.09801613 0.01446264 0.26873818
0.4183814 -0.29784662 -0.10042135 -0.021830693 -0.05125872 0.2896665 -0.7063097 0.013989059
0.004853253 -0.7296204 0.0144952405 -0.016507203 0.015540264 0.052616905 -0.017640619 0.10104541
0.009869534 0.009140783 0.022234289 0.016524894 -0.87691504 -0.009175503 0.0132474955 0.008880103
-0.22521564 -0.018321943 -0.0055964547 0.01524695 0.024113517 -0.029340826 0.04983612 -0.007453352
0.16916949 -0.010152104 -0.0045561893 0.73117507 0.0037301327 -0.022021314 0.085711874 0.00013402953
-0.36345738 0.0028421832 -0.042881895 -0.010373829 0.0015498333 -0.013574735 0.0063297437 0.10869581
0.01758649 0.4046036 0.11582772 -1.317748 -0.0034911605 0.19899297 0.24812026 0.026590532
0.0029083884 -0.0033680422 0.008695637 0.11025281 -0.5587299 -0.008660404 -0.008760155 -0.2376373
1.4783771 -0.00038621877 -0.00022465197 0.042287186 0.007793877 0.017133296 0.02847758 0.019770876
0.020913592 0.2425136 -0.25180337 0.33644313 0.09767811 -0.025870278 0.020156682 -0.029697053
