runs/4_400_300_35_444_actor.pth (torch, 491991 bytes, 6 tensors)

fc1.weight f4 [400, 3]
00000000: 2233 39bd 9c66 6c3c 81e8 60bd b71b 0bbd
00000010: 4268 85bd 0008 25bd 3067 4cbd 4d8c f33b
00000020: 6314 e23c 37f1 c2bc 9a85 a53a dd49 fc3c
00000030: e8c6 72bb 92c3 abbc 32b3 6fbc afbe 58bd
00000040: a063 b0bd 8f6a b7bb e731 4dbd b36a a7bd
00000050: 82df 043c a7ae 06bd 8d86 b13c 58f4 293d
00000060: 507d 6dbd 1eef 84bd b239 45bd 4a1c 9dbc
00000070: 73b3 c63c b976 d23c 4fe3 7cbb 780f 1cbd
00000080: 7bf6 17bd 9931 c83a 5e4f 74bd 7d3a 8ebd
00000090: 8d1a 1dbd 9d0f 94bc 9aad 503c 978a ff3c
000000a0: 3d39 16bd 90aa cdbc 6358 12be ca98 e3bd
000000b0: 2cea 22bc 6dc9 4abc c3a6 873c eb99 2d3d
000000c0: 34db a0bd 5d0c 98bd 01da 45bd da44 c0bc
000000d0: 54cc 96bd 2e69 78bb 1799 d6bb b503 18bd
000000e0: 32b5 fc3b c0f9 30bd 1a0c 0c3d 3f4d 193d
000000f0: 9fd1 2e3d d380 4e3c b320 a2bb ca72 44bd
00000100: cab9 4c3d 1a41 d33b dcca 9abd 36fa 8ebd
00000110: 83e1 a33c 3b39 71bc 7471 a1bd 6a05 35bd
00000120: 7268 99bc 02aa 5abd 6517 7bbd 1dba 183b
00000130: b494 de3b 2455 76bd 9f00 6fbd c249 9ebd
00000140: 4c62 ad3a 5d5d 4238 7386 c7bd 8d52 503c
00000150: cdd1 8cbc e360 3abd e068 ea3c 1f01 36bd
00000160: 6250 33bd 9fed 6dbd 9d03 23bd 815c a03a
00000170: 1153 38bd 6086 b63b 1cc9 15bd 0789 2cbd
00000180: 410d c0bb 3aec 8dbd 5a9e 6a3c cef9 d1bc
00000190: 0251 12bd 66d3 10bd 5fd1 5fbd 1a3e 91bd
000001a0: b91c 2cbd 24a1 04bc b538 babc e22d 89bc
000001b0: 37d9 d2bc 206d 50bd 065e 72bd 7af2 8cbc
000001c0: 7a80 28bd c0f8 723c c7ad 9bbc cdf3 abbc
000001d0: 674e eaba 8064 92bc 8ebd 2ebc 1db4 6cbd
000001e0: 5d6d 03bd 25af 13bd 0d05 203d 675e 7dbd
000001f0: fd74 c3bc 29d0 43bd 79c9 ccbd 6ff3 b3bc
00000200: f9c8 3ebc 432f ef3b cd48 7fbd acc9 39bd
00000210: b055 7abc 240f 753c 71af 89bd fbf5 4dbd
00000220: 2cc9 60bd bbe6 c9b9 11ba 88bd dab7 833b
00000230: 9ea4 3ebd 92e3 99bd 3867 2dbd af59 92bc
00000240: 43ef 17bd 7373 843c 6f04 1ebd 5478 3bbd
00000250: 4f0b d23b 2d3d 33bc a58d 09bd 79f2 a0bd
00000260: 45ce 25bd 0334 a43c ed02 a93c 3ade 00bc
00000270: 89e3 56bd ef10 a0bd 921d 19bd c86c 623c
00000280: fdb2 8c3b 053c 99ba 7894 323d ab76 403d
00000290: 8a59 d0bc 4765 49bc 93b4 3a3c cffe 003d
000002a0: 2e02 1ebc 871f 65bb 3bfe 0f3c 66bd 8abd
000002b0: da5d 183c 4ff4 23bd 9250 49bd a77a 323d
000002c0: 0091 453c 80ed 84bb b397 bf3b cd93 ef3b
000002d0: 23c3 d33c 6071 d53c e8ef 00bd 6280 88bd
000002e0: 256e 9ebd 64f5 bdbc cdf7 4dbc 1a15 983b
000002f0: 8381 fd3c 079b 3bbd 2d85 90bc ad71 393d
00000300: 7a13 aebd 1e0c 6fbc 375d 74bc baa8 78bc
00000310: 9350 4cbd 3462 bdbc 6b93 cbba e4ea bb3b
00000320: 9af5 8abd 3d27 4fbd 1f62 34bd 3597 023b
00000330: dcc8 1fbd 2bb2 8abb 75bf 68bd 27ac 83bd
00000340: 4218 45bd 15cc 28bd ee10 75bd 150d 17bd
00000350: 72a5 bcba 1b3a 76bd 9788 043c f8bc 57bd
00000360: 14a8 97bd cb1c afbd b2fd 5f3c 88da 34bd
00000370: fe9a 59bc 4802 74bd d04e 313d da3c c7bb
00000380: e0c6 be3c b701 9abc 2734 d0bb 4004 4d3c
00000390: 4d18 3e3b b729 aebc 8027 aabb d650 99bd
000003a0: d044 77bd f8b3 8fbd 1039 76bd 4519 66bd
000003b0: 8da7 18bd 708a 92bd 2f0f 35bc d1b1 8fbd
000003c0: eaeb ddbb a23c a7bc c015 1dbc e031 3abc
000003d0: ba8a 163c 536b 963c 4281 e1bb 03a7 05bc
000003e0: cf6a 2b3c f040 f8bc 8c51 e73b fea6 19bd
000003f0: 4bd3 3d3d 950e 2a3d 1dc6 d63c 45a9 8bbd
-0.04521478 0.014428761 -0.054909233 -0.033961978 -0.06514026 -0.040290833 -0.049903095 0.0074324966
0.027597612 -0.02379666 0.0012628317 0.03079694 -0.0037044827 -0.020967279 -0.014630126 -0.052916225
-0.08612752 -0.0055974196 -0.05009642 -0.08174648 0.008109929 -0.032881405 0.021670604 0.04149279
-0.057980835 -0.064909205 -0.048150726 -0.019178528 0.02425549 0.025691377 -0.0038587635 -0.03810069
-0.037100296 0.001527357 -0.059646003 -0.069447495 -0.0383554 -0.018073851 0.012736702 0.031194014
-0.03667568 -0.025105745 -0.1429153 -0.111131266 -0.009943526 -0.012377125 0.01655901 0.042383116
-0.0785431 -0.07424233 -0.048303608 -0.023470331 -0.07363191 -0.003790449 -0.0065490115 -0.03711291
0.00771203 -0.04320693 0.03419123 0.037427183 0.04268038 0.012603956 -0.0049477457 -0.047961034
0.04998187 0.0064469697 -0.075582236 -0.06981318 0.020004993 -0.014723117 -0.078829676 -0.044194616
-0.018726561 -0.05338479 -0.061301608 0.0023304292 0.006792629 -0.06013979 -0.0583502 -0.07728912
0.0013228147 4.6340156e-05 -0.09742441 0.012714994 -0.017189885 -0.045502555 0.028614461 -0.044434663
-0.04377783 -0.05808794 -0.039798368 0.00122346 -0.045001093 0.005570218 -0.036568746 -0.042122867
-0.005860955 -0.06929822 0.0143199805 -0.025631811 -0.035721786 -0.035357855 -0.05464303 -0.07091923
-0.04201958 -0.00809506 -0.022732118 -0.016745511 -0.025738342 -0.05088532 -0.0591717 -0.017205466
-0.04113815 0.014829814 -0.019003762 -0.020990277 -0.0017876149 -0.017870188 -0.010665311 -0.057788957
-0.03208672 -0.036055703 0.039067317 -0.061857607 -0.023859495 -0.04780594 -0.09999365 -0.021966664
-0.011644595 0.007299335 -0.062325288 -0.045358345 -0.015279219 0.014957223 -0.06722916 -0.050283413
-0.054879352 -0.00038509615 -0.06676114 0.0040197195 -0.04654371 -0.07514109 -0.042334765 -0.01786503
-0.037093412 0.016168332 -0.038578447 -0.04576905 0.0064100395 -0.010939878 -0.03358235 -0.07858748
-0.040479917 0.020044332 0.020631278 -0.007865483 -0.05246309 -0.0781573 -0.037381716 0.013819881
0.004293798 -0.0011690861 0.043598622 0.04698817 -0.02543332 -0.012292213 0.011395591 0.031493004
-0.009644074 -0.0034961419 0.008788641 -0.06774406 0.00929972 -0.040027913 -0.049149103 0.043574
0.0120584965 -0.0040566325 0.0058469414 0.0073113204 0.025849884 0.026055038 -0.031478792 -0.06665112
-0.07735852 -0.0231883 -0.012571287 0.0046411874 0.030945545 -0.045802142 -0.017641628 0.045274425
-0.084998086 -0.014590291 -0.014914802 -0.015176946 -0.04988153 -0.023118116 -0.0015531605 0.0057347883
-0.06785126 -0.05057453 -0.044038888 0.0019926552 -0.039009914 -0.004232665 -0.056823213 -0.0642932
-0.048118837 -0.041210253 -0.0598306 -0.03687771 -0.0014392568 -0.060114007 0.008089206 -0.05267045
-0.07405105 -0.08550414 0.0136713255 -0.04415372 -0.013281582 -0.059572488 0.043288052 -0.006080252
0.02328819 -0.018799646 -0.0063538733 0.01251322 0.0029006184 -0.021260126 -0.005192697 -0.07486121
-0.06036836 -0.07016748 -0.060113013 -0.056176443 -0.037269164 -0.07155311 -0.011050983 -0.07016338
-0.006772508 -0.020414654 -0.009587705 -0.01136443 0.009188348 0.018361723 -0.006881864 -0.0081574945
0.010462477 -0.030304402 0.0070592817 -0.03751277 0.046344083 0.041517813 0.026217515 -0.06819395

fc1.bias f4 [400]
00000000: 5954 dbbc c280 c8bd 8c2f 38be afef 26be
00000010: 8a4a b63e 89b2 2b3e 5f11 913e f84b cdbe
00000020: d890 80bc 8507 fabc ada6 06be cc5d 063f
00000030: b2a4 89bd 8df9 eebe 3fed 1e3d c03f b0be
00000040: 4ca5 0a3f d3e2 473e bc9d b23e d062 01bf
00000050: 1ff9 91be 65dc cabe 3ccd df3e 7996 bd3e
00000060: 4b9f 38bd b7a5 28be dcf1 e73e 7cae b33e
00000070: 69aa b4be 1b46 103f 5637 d73e 1b3e 853d
00000080: 70ae b93e 6f10 d33e c8b3 37bd 9772 1c3e
00000090: 8354 c3be cc98 bcbe 5860 c6be 8a6c f43e
000000a0: 9c09 0cbf c557 123f d9b5 f83d df3b 283e
000000b0: 6304 06bf e287 a43e b629 cb3e c168 e73d
000000c0: f282 0dbf a0fc 553e 101f a33e e6b9 e7be
000000d0: 6b8b 0a3f a6f6 cabc 3de3 00bf 2977 9abe
000000e0: 0049 e33e 75c2 483e 418d dbbe 85ce bfbe
000000f0: e2ce 02bf 28e9 f83e 28e6 0cbe 1717 c3be
00000100: aba9 e03d 15f7 713e 467e fbbe a55c 803e
00000110: dbc7 bcbd 6888 0f3f 4193 bb3e 7508 2b3e
00000120: 26ed de3d 2cf1 58bc caea eebd e2f1 0bbf
00000130: 86aa c9be 29d3 aa3d d33d 11bc 7cdf 15be
00000140: 8abc c63e f29d cebe 109c e33e cddf f53e
00000150: 65ff 6ebd b493 cf3e a72d 51be f08f b8be
00000160: 97bd 603e 445f 143f c8e3 f63e 0496 a9be
00000170: 174e 02be 8629 0abe fc2d 25be f0c5 133f
00000180: 12e0 be3e 7a0b ed3e ae91 24bd 88ee 9d3d
00000190: 8912 c7be aca7 1ebe 5b78 1c3f e041 8f3e
000001a0: 2f8c fe3e e763 81be 183c f6be c19a c13c
000001b0: 185c 51be ea6b 6abe e4f5 173f e577 703e
000001c0: 539b 0e3f 755b 5d3e 25b9 91be fdfb ca3d
000001d0: fbeb 373c 8510 90bd 34fb f83e b3e7 a0bb
000001e0: f187 973e 5f92 76be f3ea 1dbe 0d0f 86bd
000001f0: 5a6e da3d 0572 903e 7ff7 42be a451 6dbd
00000200: d6f5 8fbe 67f6 b63e e62f e03e 7234 95be
00000210: d44c 193f e64b e6bd ed4d 1d3f 2ff3 f33e
00000220: e738 1b3f ed4b 033f 46ec c2bd 096e fb3e
00000230: 5622 66bd 9211 9a3e 72d5 f73d 5b5d f53e
00000240: 6642 de3e 6ea5 cdbe ff77 a03e d8cc 153f
00000250: a557 953e 4b51 dcbe e04a 19be 3cc3 143f
00000260: e43f 343e d139 4d3e 05b8 043f 758a b13e
00000270: 2512 0f3f 7b1e d4bd db18 5dbe 1a75 d3be
00000280: 5654 1e3e d99c 4abe a89a 8f3e 8f67 46be
00000290: 5e3e 79bd e3ec 3fbe 0307 123f 62b8 183f
000002a0: fc56 e03d 01ba 71be 0a9e 8b3e 67cf ed3e
000002b0: 4f74 6ebe 009c c9be f042 643e c19b 0abf
000002c0: 4787 d73d 9cbe f3be df64 e1be 06cd 313e
000002d0: a01a 42be 3a09 fabe 13cf 023f fe73 f23e
000002e0: f89f 94be a11b 89be a0af ca3e f96d d03d
000002f0: 5283 0f3f e295 7a3e f290 9b3e b8bc 0e3f
00000300: e474 11be 1cbc 743e 3eb8 38be 12fc f3be
00000310: 3332 993d 8e81 01bf bc81 133f 5d98 9e3e
00000320: bca8 223e c842 e8bd 36e4 2b3e 15ff bebe
00000330: 449e 6d3d d37b 16be 2cb4 a8be b34e 943e
00000340: e610 a9be 432b f63e d356 083f d3d7 ce3e
00000350: deb9 50be 9ca3 26be 0846 03bd f416 82be
00000360: 2a4f e63d d569 ebbe 6775 89bd 88cb afbe
00000370: e3a2 4fbe bfcb 77be 509f b53e bf80 be3e
00000380: 9c47 cf3e 92ad a93e 231d 2b3e 55f0 59be
00000390: 6650 9abd fdcc 08bf cf47 8e3e f323 b03e
000003a0: c03a e23e 3ed6 a6bd 6eca 973d dca6 d8be
000003b0: 6cc7 fdbd 1fe9 94be dd6b 353e 62ac c93e
000003c0: 438c 083f 3fc4 06bf bc13 0abf e02f d6be
000003d0: 9262 903e dd63 0bbe 6af2 04bf 58e8 d83e
000003e0: 4352 bebd 33e6 bb3e b365 2bbe e5e3 393e
000003f0: 9304 f63e 696c 013f c1ce 0ebf 7c94 8d3e
-0.026773619 -0.097901836 -0.17986888 -0.1630237 0.35603744 0.16767325 0.28333566 -0.40097022
-0.015694067 -0.030521164 -0.1314952 0.5248687 -0.06720866 -0.46674767 0.038800474 -0.34423637
0.54158473 0.1952012 0.34885967 -0.505414 -0.28510377 -0.39621273 0.4371127 0.37028864
-0.04507379 -0.16469465 0.45301712 0.3509406 -0.35286263 0.5635697 0.42034405 0.06505986
0.36265898 0.41223475 -0.044849187 0.15278088 -0.38150415 -0.36835325 -0.3874538 0.4773906
-0.5470216 0.57165176 0.1214406 0.16429089 -0.52350444 0.3213492 0.3968026 0.11299277
-0.5527793 0.2089715 0.31859636 -0.45259017 0.54118985 -0.024775814 -0.5034674 -0.30169037
0.44391632 0.1960543 -0.42881206 -0.3746225 -0.5109693 0.48615384 -0.13759673 -0.38103554
0.109698616 0.2362941 -0.49119776 0.25070682 -0.09217807 0.56067514 0.36635783 0.16702445
0.10885076 -0.013241094 -0.11665876 -0.5466596 -0.39387912 0.08341057 -0.008864838 -0.14636034
0.3881572 -0.40354878 0.44455004 0.4802231 -0.058349032 0.40542376 -0.20427571 -0.36047316
0.21947323 0.57957864 0.48220658 -0.33122265 -0.12725101 -0.13492402 -0.16130823 0.57723904
0.37280327 0.46297818 -0.040177993 0.07711512 -0.3888133 -0.15493649 0.6112115 0.27979946
0.49716327 -0.25271532 -0.48092723 0.023633363 -0.20445287 -0.22892728 0.59359574 0.23483236
0.55705756 0.2161692 -0.28461567 0.09911344 0.011225696 -0.07034401 0.48629153 -0.004910433
0.29595903 -0.24079274 -0.15421657 -0.065458395 0.10665579 0.2821199 -0.19039725 -0.057939187
-0.28117245 0.35734865 0.43786544 -0.29141575 0.59882855 -0.11244945 0.6144703 0.47646472
0.606337 0.5128773 -0.09517722 0.49107388 -0.05618509 0.3009153 0.12101258 0.47922787
0.43410033 -0.40165275 0.3134155 0.5851569 0.2916843 -0.43030772 -0.14969969 0.58110404
0.17602497 0.20041586 0.5184329 0.34675947 0.5588706 -0.10357376 -0.21591513 -0.4130028
0.15461859 -0.19786395 0.2804768 -0.19375442 -0.060850494 -0.18742709 0.5704195 0.59656346
0.10954091 -0.23606111 0.27269012 0.46447298 -0.23286556 -0.3937683 0.2229116 -0.5414391
0.10523849 -0.4760636 -0.4402227 0.17363366 -0.18955469 -0.48835164 0.5109722 0.4735412
-0.29028296 -0.26778892 0.39587116 0.101772256 0.56059754 0.24471238 0.30384022 0.5575671
-0.14204746 0.23899883 -0.18039033 -0.47653252 0.07480278 -0.5058831 0.57619834 0.3097562
0.1588468 -0.113408625 0.16786274 -0.37303987 0.058012262 -0.14695673 -0.3294996 0.28966293
-0.33020705 0.4807988 0.53257483 0.40399036 -0.20383403 -0.1627335 -0.03204921 -0.25408137
0.11245568 -0.4597918 -0.06711846 -0.3433497 -0.2027698 -0.24198817 0.35473108 0.372076
0.4048432 0.33140236 0.16710334 -0.21283086 -0.07534866 -0.5343779 0.2778916 0.34402427
0.44185448 -0.08146332 0.07411657 -0.42314804 -0.12391552 -0.29084107 0.17716928 0.3938933
0.5333902 -0.526432 -0.5393636 -0.418334 0.28200203 -0.13612314 -0.51932395 0.42364764
-0.09293034 0.36699066 -0.16738014 0.18153341 0.48050365 0.50556046 -0.5578423 0.27652347

fc2.weight f4 [300, 400]
00000000: 5b94 5fbd bea3 48bd e355 2a3d 0a3d 5cbd
00000010: 33ec 45bd 975e cbbc 8dbe 2b3d b6cf 833c
00000020: dc59 c9bc 512a 713c 8b0a 2fbd dd08 bd3c
00000030: b0e9 80bb 6fe7 d03c 5698 133d c293 57bc
00000040: 9310 28bd 0804 5cbd ffea d73c 8807 34bc
00000050: 66de eebb 9ba7 79bc 3990 65bd d612 29bd
00000060: 3773 78ba 085d 633d 6a8a 03bc ea72 48bd
00000070: 8381 643d cdfc 18bd 222c 4a3d b52a 75bb
00000080: 2b96 36bd a33e 3fbd 9281 1dbd a3fe 83bc
00000090: 2433 4cbc d899 0dbd c0a7 4cbd e6b3 e63c
000000a0: 7492 a73c 9300 8dbc dd6f 13bd 84bb 54bd
000000b0: 28a6 a1ba 898b d5bc 3cd1 19bd 9aec 003d
000000c0: cdda f93c d235 ecba 0f85 a63b d98a b5ba
000000d0: 4532 c8bc eded b83c 2e71 3ebd e630 173c
000000e0: 6d2c 39bd 5420 67bd f612 b5bc ff1d 81bb
000000f0: b916 21bd f7e1 443d c5e4 533c 149a cd3b
00000100: 6eee 11bc 4195 2c3d 1eac 933c 861d a73c
00000110: d1d1 33bd e2d7 173d 2c08 eebc 3767 05bd
00000120: bace 853c e0fb 093c fa1b 64bb 4f53 17bc
00000130: 20a1 1f3d e241 5ebd e2af 593d 2218 aabc
00000140: 2109 983c 7d31 0e3d e4a7 f03a b4da 53bd
00000150: e77d 6bbc b383 273d 06de a3bc 554d ecbc
00000160: 96db 05bb db46 4cbc 6e78 883c c877 423d
00000170: 66ed 05bd 5d1d d43c d57f 6d3b d0fc 9e3c
00000180: 097e 5ebd ecdf 5dbd f56c 62bc 14c5 113d
00000190: f679 6c3d 99f6 b03b e137 11bd 7c89 2bbd
000001a0: 964a 45bd bcd6 0fbc 88cf 6a3d b6ce 693d
000001b0: 76b0 b53c 82b1 86bc 75ff 40bd d94c 6e3c
000001c0: 17db f0bc fe39 1bbd 5c3f e73c 2bac 503d
000001d0: 94ac b63c cc41 453c ff9e bf3c 65cc 613c
000001e0: 7abb 483d 0521 5d3d 592c 09bc 3111 0e3d
000001f0: 9f9c e0bb 9436 fd3c 3a36 efbc ca8c f9bb
00000200: db71 1abd c74a 15bd dc1c a33c 6687 4b3d
00000210: ead7 913b 8a89 d1bc a2e2 923c baac 2a3d
00000220: 63c2 1b3d 9a30 2e3c 53b6 07bd 3f7b 0fbd
00000230: 9e03 473d 36bd ebbc 5176 1e3d 27c4 68bd
00000240: 18ce 58bc de78 3ebc 5f60 3ebd 7100 1c3c
00000250: 8f41 3bbd 6865 60bd 1960 69bd cc1f 39bd
00000260: 5b35 a7bc 04b5 38bc 1571 ca3c 3ba2 bf3c
00000270: 2b4b f0bb 6aea 56bd 70e6 e43c f232 debc
00000280: ae82 e23c 06fe 99bc d68b 21bd 5dce 19b8
00000290: fc4c 0bbd ac6e d3bc 3166 4f3d bc8d 35bd
000002a0: 3a6f 313d 88b4 dd3a a6b0 a2bc b035 f1bb
000002b0: 0f2e 423c 2625 17bd f6e4 05bd 7269 60bd
000002c0: bd62 c8bc 50ad 1d3d c67b 123d 48a7 49bd
000002d0: 10dc f33c 5582 67bc 4b91 d0bc cf48 393d
000002e0: 128c 523d ffe0 9abc 4d86 ecbb 28d4 4e3c
000002f0: 831f 1cbd 65f6 69bd e006 8abc 4fed 0dbd
00000300: 077f d8bb 58eb 7ebc 152c 6cbd a822 86bb
00000310: 617c 643d e9b2 fdbc 9873 98bc a197 1f3d
00000320: 15d7 203d 13cb 8f3c b186 1ebd 8441 d1bc
00000330: 0847 5f3d c50a 81bc 2c6c 57bd 179f 653d
00000340: 009c 16bd c760 6a3b 81ce bdbc 78ff cf3c
00000350: 7381 0cbd 2731 fcbb 259e ddbc cc3e 1a3d
00000360: 46a3 4bbd fdac f4bc e3bc c0bc 736e db3c
00000370: b27f 073d beb5 c5bc a5bd 603c f3cb 1fbc
00000380: abef 35bd 5030 3dbd bef5 593d 74ab 29bd
00000390: ab6a d63c 171a 1dbd ec46 b5bc 4760 80bc
000003a0: 34bb 08bd 50d9 163d e9d1 e03c 7a99 c23b
000003b0: 60b2 1abd d56c 35bd 223b 3ebd 28a6 ddbb
000003c0: 4d95 66bc 0f69 4ebd d64d 1dbb 5736 e7bc
000003d0: b6bd debc 5893 ad3c f892 94bc 1594 98bc
000003e0: 27c6 4a3d d133 82bb edf8 3dbc 14b8 3f3d
000003f0: ad23 babc 0906 473c 757f 1b3d 68ab 683c
-0.054584842 -0.04898428 0.041585814 -0.05376915 -0.04832096 -0.024825377 0.04192977 0.016090255
-0.024578981 0.014719562 -0.042734664 0.023075515 -0.0039341077 0.025500981 0.03603395 -0.013157787
-0.04103143 -0.053714782 0.026357172 -0.010988124 -0.0072896956 -0.015237714 -0.056045745 -0.04127773
-0.00094776176 0.055508643 -0.008028606 -0.048937716 0.055787574 -0.037350465 0.049358495 -0.0037409489
-0.044576805 -0.046690594 -0.038453646 -0.016112631 -0.012463365 -0.034570545 -0.049964666 0.028161954
0.020455576 -0.017212188 -0.035995353 -0.05193664 -0.0012332844 -0.026067512 -0.037553057 0.03147564
0.03049984 -0.0018021411 0.00508178 -0.0013850584 -0.024438033 0.02257439 -0.046494655 0.009227967
-0.045208383 -0.056427315 -0.022103768 -0.0039403434 -0.03932831 0.04806706 0.012932961 0.006274471
-0.008906944 0.042134527 0.018026408 0.02039982 -0.04390127 0.037071116 -0.029056631 -0.032569136
0.016333926 0.008421868 -0.0034806714 -0.009236171 0.03897202 -0.05426205 0.05314625 -0.02076346
0.01855904 0.034715164 0.0018360582 -0.051722243 -0.014373279 0.040897083 -0.02000333 -0.028845469
-0.0020425073 -0.012468065 0.016658988 0.047477514 -0.032697104 0.025892908 0.0036239524 0.01940766
-0.054319415 -0.054168627 -0.013819923 0.03558834 0.0577335 0.0054004905 -0.03545368 -0.041879162
-0.048166834 -0.008779224 0.057326823 0.0570819 0.02217887 -0.016442064 -0.047118623 0.014544689
-0.029401345 -0.037897103 0.028228454 0.050945442 0.022299089 0.012039613 0.023391245 0.013781642
0.049006917 0.053986568 -0.00837239 0.034684364 -0.006854608 0.030909814 -0.029200662 -0.0076156603
-0.037706237 -0.036448266 0.019911222 0.049689673 0.004450788 -0.025578279 0.017930333 0.04166863
0.03802718 0.010631705 -0.033132862 -0.035029646 0.048587434 -0.028776746 0.038687054 -0.05682769
-0.01323273 -0.011625497 -0.046478625 0.00952159 -0.04571682 -0.05478421 -0.05697641 -0.04519634
-0.020411184 -0.011273626 0.024712125 0.023392787 -0.0073331795 -0.05246965 0.027941912 -0.027123902
0.027650204 -0.018797886 -0.03944 -3.6670233e-05 -0.034008965 -0.025809608 0.050634567 -0.04432462
0.043318965 0.0016914764 -0.019859623 -0.0073611364 0.011851802 -0.036900662 -0.032689057 -0.05478806
-0.024461145 0.03849536 0.03576257 -0.049231797 0.02976802 -0.014130195 -0.025459906 0.04523545
0.051403113 -0.018906115 -0.0072181583 0.012623824 -0.03811599 -0.057119746 -0.016848981 -0.034650143
-0.0066069397 -0.01555904 -0.057659227 -0.004093487 0.05578268 -0.0309691 -0.018609807 0.038962964
0.03926762 0.017552888 -0.03870267 -0.025543936 0.0545111 -0.015752206 -0.052593395 0.056059923
-0.036769867 0.003576325 -0.023169758 0.025390372 -0.03430314 -0.007696289 -0.027052948 0.037657544
-0.049716257 -0.029867643 -0.023527568 0.026786065 0.033080764 -0.024134513 0.01371709 -0.009753215
-0.04441802 -0.046188653 0.053212874 -0.041423276 0.02617391 -0.03835496 -0.022128545 -0.015670909
-0.033381656 0.03682834 0.027443843 0.005938706 -0.037767768 -0.044293243 -0.046443112 -0.006764192
-0.014073682 -0.05039316 -0.0024002693 -0.028224153 -0.02719007 0.021188423 -0.018136486 -0.018625299
0.04950538 -0.003973462 -0.011594993 0.04680641 -0.02272209 0.012147435 0.03796335 0.014201023

fc2.bias f4 [300]
00000000: 871c 81bc fd8b 00bc 15f3 8abb 60ce 0e3d
00000010: 9df9 783d e799 35bc 9d75 96bc 1617 10bb
00000020: b042 ee3c 54c6 ba3b 33e3 493a 08c5 073d
00000030: 5e03 78bc 6afa 7e3d 1a54 173d 311c 443d
00000040: 94b0 f8bc c4f3 d9bc 0aef 88bc dade 433c
00000050: 8115 69bc f488 663d ed33 a83c 900f 043d
00000060: 15d6 c33c 4080 bc3c aa11 3dbd fa88 133c
00000070: 618f fc3c 562a 323d 45e7 4c3b 8f82 c4bb
00000080: 2b46 653d f439 913d 2ad9 983c 3309 ac3b
00000090: b900 563d deee 823d 4f33 5dbb 871c 5fbc
000000a0: 3f14 c03d 23ad 8ebc 87c8 873d 9823 d43c
000000b0: 9a5d 1e3c f535 0a3d 8db4 3f3d f26f cfbc
000000c0: da9e 90bc c173 083b 3668 bdbc 4b0f 023d
000000d0: 9bc9 27bd 8f07 1fbc 43ed 99bc c58b 323d
000000e0: 4892 523d bc2e 133d 85ca 713b a3ae 613d
000000f0: 70d6 b1bb 350c 723d 26ce 003d 5db0 1f3d
00000100: c55a 253d 990c b73c 040f 673d ff9a 143a
00000110: 553c 303d 7bee 4abd f257 3c3d e7f6 243d
00000120: be9f 983c 81f7 ad3b 87ca 31bc cd45 073d
00000130: 9317 35bc 0c7d 1d3d 1a1a 1a3b 388b 103d
00000140: 03fd 86bc 1b76 2d3d c30d d2bc 0a55 06bd
00000150: ab38 7a3c f653 91bc 7ba2 933d b316 05bd
00000160: 83cd a23c babd 4dbd 49f9 f23c 079b 343d
00000170: f344 bdbb 8376 eabc ae52 463d b73d 643d
00000180: 2f2b 393d 4302 273d a04b dabb 16c5 a03b
00000190: 9b5c d6bc 673f 3d3b e786 7c3d 57fb 123d
000001a0: bb8e 883d fe61 09bd 0c41 4d3d 32ae 403d
000001b0: d7d7 8b3d 3d21 eabc 22a3 323b 4849 153d
000001c0: 4d87 c0bc 834f 95bc 664c 723d f351 bc3b
000001d0: 80de 82bc 4025 14bd 8242 e03c 4d8e d23c
000001e0: 373d 21bd 7d34 1abd b412 86bc 83d2 fd3c
000001f0: 1012 e1bc bfd5 473d e1ef 683a 95cd 0cbc
00000200: d4ab 943d 4e4d a2bc b4d5 9f3c b586 61bc
00000210: 30ec a03c 0b35 163d f79c 8ebc 004a 953a
00000220: 68b0 613d ff98 9a3d 4069 b43c 8d8d f1bb
00000230: 1020 923d 6140 413d aeb7 453c fd59 0e3d
00000240: 674a b63a 3f5d ea3c 1c46 833d 6a9c babc
00000250: c7dc 17bd 82b8 86bb c1fa 1d3d 1af9 853d
00000260: b03b 4d3d c78f 4dbc 7a0d 96bc 4d56 c4bc
00000270: 9292 b93c b84c a1bb da8f 1dbd 9a72 96bc
00000280: 9b7d 7cbc 2d3f ba3c 67d8 0f3c d448 cd3b
00000290: 3795 e0bc d3a1 68bc a6e1 6b3d 1fdc 0dbd
000002a0: b7d3 483d 40f3 f2bb 9a0d 5bbc cde5 db3a
000002b0: a42a e03a 7a2b 99bc c792 b5bc eccd 243c
000002c0: bcd6 edbc ae24 71bc 2f76 833d 80d3 29bc
000002d0: ed81 e2bc 9f30 123d fa53 79bc 65d5 aabc
000002e0: dc4d 903c 9726 143d 6b6c 7e3d fb96 013d
000002f0: 4036 d2bc 9ce4 acbc 47ce 813d d5d4 08bd
00000300: 8a54 943d b177 093c 1021 393d 4fc2 563c
00000310: 40e7 483d 80d5 76bc 8da7 b0bb bc1c f13b
00000320: 1110 94bc 7389 3abd dd18 a9bc b392 d3bc
00000330: e4be 5e3d 398a 00bc 4b34 34bd aad4 1dbd
00000340: f3dc dfbc 7435 8d3d 1ab9 96bc 845d 793d
00000350: 9b18 4f3d 357e 9a3c f7f5 febc 1d99 b63d
00000360: efca 453d f345 55ba ba20 7f3c 7d51 143d
00000370: cd40 273c 9c28 6f3d 3900 21bc 37e7 8b3d
00000380: d51b 743d c94d 473c 7c1a 613d a711 b03c
00000390: 47ca 57bc ba12 2cbd 3cf9 f33c 11e1 733d
000003a0: 00f6 37bd 060b ddbb 9a7c 393b eaae b73c
000003b0: eaf4 1dbd 72c6 10bc 7037 ed3c b420 2dbc
000003c0: ea89 2d3b 3366 a13a 9186 3dbc 2c5b 553c
000003d0: 13d1 883c 99ed 2fbc 00ac a23c a692 4b3d
000003e0: 30ad fb3c 045e 9cbc b312 023d fcb0 1fbc
000003f0: 1995 593d 6ab3 6f3c 513a a9bb 17b1 3c3b
-0.015760673 -0.007845876 -0.0042404034 0.034864783 0.060784925 -0.011084056 -0.01836663 -0.0021986417
0.029084533 0.005699912 0.0007701397 0.033146888 -0.015137522 0.062250532 0.03694544 0.047878448
-0.030357637 -0.026605494 -0.016715545 0.011954987 -0.014226318 0.056282952 0.020532573 0.032241404
0.023905793 0.023010373 -0.046159424 0.009004826 0.030830087 0.043497406 0.0031265777 -0.005997009
0.05597512 0.07091132 0.01865824 0.00525012 0.052246783 0.063932166 -0.0033752506 -0.013617641
0.09378862 -0.017416542 0.066300444 0.025895879 0.009665871 0.033742864 0.046803046 -0.025321934
-0.017653871 0.0020820948 -0.02312098 0.031752866 -0.04096375 -0.009706392 -0.018789893 0.043590326
0.051409036 0.03593324 0.0036894393 0.055098187 -0.0054271743 0.059093673 0.0314466 0.038986553
0.040369768 0.022344874 0.056410804 0.0005668848 0.043026287 -0.04954384 0.04598231 0.040274527
0.018630859 0.005309046 -0.010851509 0.03302555 -0.011052984 0.038449332 0.0023514093 0.03528902
-0.016478067 0.042348962 -0.025641328 -0.032795943 0.0152723 -0.017740231 0.07208725 -0.03249235
0.019873386 -0.050229765 0.029659884 0.044093158 -0.0057760417 -0.028620964 0.048418693 0.05572292
0.0452072 0.04077364 -0.0066618472 0.004906307 -0.026167205 0.0028876902 0.06165209 0.035884228
0.06667849 -0.03354072 0.05011086 0.047041126 0.068282776 -0.028580302 0.002725788 0.03644684
-0.023502016 -0.01822639 0.05915489 0.005747074 -0.015975237 -0.036168337 0.027375463 0.02570262
-0.03936502 -0.037647713 -0.01636634 0.030984169 -0.027474433 0.04878783 0.00088858424 -0.008593936
0.07259336 -0.019812252 0.019511081 -0.013765027 0.019643873 0.03667168 -0.017408831 0.0011389852
0.055099875 0.07548713 0.022022843 -0.0073716105 0.07135022 0.047180537 0.012067718 0.03475379
0.0013907672 0.028608916 0.06409857 -0.022779662 -0.037075784 -0.0041113505 0.038569216 0.06541653
0.05010575 -0.012546486 -0.018316973 -0.023966933 0.022652898 -0.0049224757 -0.038467266 -0.018365193
-0.015410806 0.022735203 0.008779622 0.0062647853 -0.027414901 -0.014198738 0.057588242 -0.034633752
0.049030032 -0.0074142516 -0.013369942 0.001677686 0.0017102552 -0.018697489 -0.022164715 0.010058861
-0.029033057 -0.014718218 0.06419026 -0.010365367 -0.027649844 0.0356909 -0.0152177755 -0.020853708
0.017615251 0.036169615 0.062115114 0.031638127 -0.025660634 -0.021105103 0.063381724 -0.033406097
0.07242687 0.008390353 0.045197546 0.01310785 0.049048662 -0.015065551 -0.0053910674 0.0073581617
-0.018074067 -0.045541238 -0.020641739 -0.025826788 0.054381266 -0.007845455 -0.043995183 -0.03853289
-0.027327036 0.06894961 -0.01839881 0.0608802 0.050560575 0.018859008 -0.031123145 0.08915923
0.048289236 -0.00081357284 0.015571767 0.036210526 0.010208321 0.058388337 -0.009826713 0.0683121
0.059596855 0.0121645415 0.054956898 0.021492792 -0.013170785 -0.042010047 0.02978193 0.059540812
-0.04491234 -0.006745699 0.0028303028 0.022422273 -0.038563646 -0.008836376 0.028957099 -0.010566879
0.0026479908 0.0012313783 -0.011567728 0.013022225 0.016701257 -0.0107378 0.019857407 0.0497004
0.03072223 -0.019087799 0.031756114 -0.009746786 0.053120706 0.014630178 -0.0051644226 0.0028792077

fc3.weight f4 [2, 300]
00000000: 6de0 10ba 6665 81bc 9f0b c2bc 3964 01bb
00000010: a0f4 babc 1277 ce3a 6d30 bfba 2bf7 5ebd
00000020: 5afc 6939 e9da 99bc d8f6 2dbb 002e c5b9
00000030: 18f1 b4bc 38b8 a0bc 6ef2 82bc af99 77bc
00000040: 0c43 1e3a f61a 70bc 9657 b3bc b05d 293b
00000050: 090e b9bc 2f5f bdbc daeb b3ba 4212 f5ba
00000060: bc5a a6bc b0a7 a8bc 949e b539 9834 a7bc
00000070: 05ef 81bc e8b2 a5bc e7fd 9fbc db5c cfbc
00000080: b8ea d6bc b6ae afbc 9dc8 3fbb 317b 423b
00000090: 1d22 a1bc 6162 84bc 9b7e 633a 1967 c5ba
000000a0: 1c9b 9ebd fa0d 11ba e47a 8cbc a90b b0bc
000000b0: 2994 ca39 4963 23bb 654c b0bc 3c43 a0bc
000000c0: 1391 1ebb 505f 87bc 825c 29ba 2823 0dba
000000d0: fb09 df3a 8bff a7bc 38fa 313b 9031 b6bc
000000e0: bc68 8dbc bd84 a8bc ca89 9bbc 7685 c8bc
000000f0: 8341 b7bc b5cf a3bc 8d8b 8bbc c4fc a7bc
00000100: a790 b9bc 7372 99bc 2b82 acbc 142b 93bc
00000110: f4e4 a4bc 94ac 27bb 7d8c b4bc 7800 38bb
00000120: c2ab 5039 9e92 81bc 7fce e1ba ac09 73ba
00000130: 00a4 32bb 2f8c b1bc 2dea 0b39 f00d bf39
00000140: aff4 02bb 710b b8bc 6bac 0db8 37f2 41bb
00000150: fed2 71bc 48f0 90bc 6958 a7bc 4250 db3a
00000160: 633c aaba d0f8 c33b 198f 9cbc bf84 82bc
00000170: 8d7e 1fbb df14 443b 0837 a8bc 5812 77bc
00000180: e5e0 8dbc 83a0 15ba 1de1 8cbc b7c7 bbbc
00000190: 7cd7 3f3b c7cb 5aba 7d61 91bc 9bab aaba
000001a0: 6b5f e0bc 14da 0c3b 8027 85bc 3f26 8bbc
000001b0: ecd0 adbc 220f b43a 80d0 a2bc ef6d c6bc
000001c0: 7081 77bc 9c44 fe39 00b7 b1bc 2a60 2f3b
000001d0: e88a 303a d646 bd3a f752 bbbc ffe2 97bc
000001e0: ce6d b9ba 7674 8c39 1424 94bc 1867 c03a
000001f0: eaba 4cba e3f3 b4bc ee00 773a 4ec1 9abc
00000200: 98aa 89bd 33d1 7e3b f140 99bc fd17 a0bc
00000210: 7b1f a13a 5a0e 6dbc 1499 a9bc d7fb eb38
00000220: f5f9 82bc 10c5 16bd b3df bbbc 3a70 0e3b
00000230: 8c7d b1bc c96b afbc 26af 01ba efe4 c43a
00000240: ae42 5cba 7513 afbc e80b 91bc c2e7 2fbb
00000250: 4d30 08bb fc87 c0bc a4ab 99bd 2d78 debd
00000260: 8ed2 aabc 8105 2939 2d34 433a 4edb a3bc
00000270: 84c8 9bbc 4dd5 84bc ae73 28b9 2a98 adbc
00000280: 18a7 8bbc 0c29 2f3b db28 9fbc 3b23 b8bc
00000290: 83ec 90bc bfea 013a 4888 93bc bb39 37bb
000002a0: 945b 433b 6b56 183b a211 0f39 fc4f aab9
000002b0: 551d c8bc 4af7 033a 38bd 3f3b 68ce 82bc
000002c0: faaf 8fbc 2760 9abc bdc6 88bc db1f a3bc
000002d0: 605b 3eba ccde f0b9 27a7 a1ba 586a 9cbc
000002e0: d5e6 98bc 2934 a6bc e690 bbbc 4048 12bb
000002f0: 3381 07bb 1dfb 603b e041 7fbc 259b 423b
00000300: d9a5 c0bd c1e0 f7bc f379 0d3b 27c7 c0bc
00000310: aebe 42bb 579a fa3a fa88 3bbb 658c 20ba
00000320: 7c38 98bc 2fa7 28ba 0456 1635 5030 9fbc
00000330: b218 86bc 8765 b7bc c993 aaba 3ccf 5d38
00000340: 4a68 75bc 8e2b afbc 3193 aabc 4251 8dbc
00000350: 6126 a4bc 0818 90bc d517 21bb 42ac a4bd
00000360: 0bbb 19bb b1e3 e13a 6cb6 fa3a 9e5a a5bc
00000370: 9821 54ba 8ec8 9dbc 753d b4bc d39f 8ebc
00000380: 4140 a3bc c8e3 b8bc 77a6 b1bc 96df 31bb
00000390: 553d 96ba 2bd0 bcba 8f33 89bc 1562 adbc
000003a0: 00d3 1eba ad70 72bc 5085 1ebb 94a7 96bc
000003b0: 69da dfba 9d12 a5bc 7486 bbbc a06d b9bc
000003c0: 0d0a 83bc 8da8 b13a 010a 4c3a 2e3c a9bc
000003d0: c303 16bb 3e68 8fbc 5a38 84b9 bf7f cabc
000003e0: c2ce a4bc 755d a8bc 1082 2f3a 0f26 7abc
000003f0: 5521 a4bc 5d75 87bc 76ec b1bc 84ed b0bc
-0.0005526606 -0.01579542 -0.023687182 -0.0019743575 -0.022821724 0.0015752038 -0.0014586576 -0.054434936
0.0002231462 -0.018781142 -0.0026544835 -0.0003760904 -0.022087619 -0.019619092 -0.01598474 -0.015112325
0.00060372124 -0.0146548655 -0.02189235 0.0025843196 -0.0225897 -0.023116676 -0.0013726905 -0.0018697458
-0.020306937 -0.020587772 0.0003464116 -0.02041082 -0.015861044 -0.02022691 -0.01953025 -0.025312832
-0.02623497 -0.021445613 -0.0029263862 0.0029675479 -0.019669587 -0.016160192 0.00086782285 -0.0015060633
-0.077444285 -0.00055333937 -0.017148443 -0.021489935 0.0003863883 -0.0024931005 -0.021520803 -0.01956331
-0.0024195358 -0.01652494 -0.0006460623 -0.0005383962 0.0017016524 -0.020507595 0.0027157199 -0.02224043
-0.017261855 -0.020571107 -0.018986601 -0.024477702 -0.022370106 -0.019996503 -0.017034316 -0.02050627
-0.022651983 -0.018731331 -0.021058163 -0.017964877 -0.020128705 -0.0025585042 -0.022039646 -0.0028076451
0.0001990041 -0.015816983 -0.0017227678 -0.00092711556 -0.0027258396 -0.02167329 0.0001334331 0.00036440743
-0.0019982269 -0.022466393 -3.3777596e-05 -0.0029593834 -0.014759777 -0.0176927 -0.0204279 0.0016732293
-0.0012987967 0.0059805885 -0.019111203 -0.015932439 -0.0024336905 0.0029919667 -0.020534053 -0.015080057
-0.017319152 -0.0005707817 -0.017197186 -0.02292238 0.0029272726 -0.0008346405 -0.017746681 -0.0013021113
-0.027389249 0.002149229 -0.016254187 -0.01698601 -0.021217786 0.001373742 -0.019874811 -0.024222342
-0.015106544 0.00048497773 -0.021693707 0.00267602 0.0006734566 0.0014440666 -0.02286671 -0.018540857
-0.0014147104 0.0002678965 -0.01808361 0.0014679162 -0.0007809835 -0.02208895 0.0009422441 -0.018891003
-0.06721991 0.0038882017 -0.018707724 -0.019542689 0.0012292707 -0.014468754 -0.020702876 0.00011252582
-0.01598833 -0.036809027 -0.022933817 0.0021734373 -0.02166631 -0.0214137 -0.00049470586 0.0015021841
-0.000840227 -0.021371583 -0.017705873 -0.002684102 -0.0020780743 -0.023502342 -0.07503441 -0.108627655
-0.020852353 0.00016119146 0.00074464345 -0.020002034 -0.019016512 -0.016214991 -0.00016064823 -0.021190722
-0.01704745 0.0026727347 -0.019428661 -0.022477737 -0.017690903 0.00049559394 -0.01800932 -0.0027957994
0.0029809223 0.0023244868 0.00013644111 -0.0003248452 -0.02442805 0.00050341024 0.002925707 -0.015967563
-0.017539967 -0.018844677 -0.016696328 -0.01991265 -0.0007261541 -0.00045942364 -0.001233314 -0.019093677
-0.018664757 -0.020288544 -0.022896241 -0.0022320896 -0.0020676374 0.0034329363 -0.015579671 0.0029694524
-0.09406633 -0.030258538 0.002158758 -0.023532463 -0.0029715705 0.0019119483 -0.002861558 -0.0006124436
-0.018581621 -0.00064336037 5.6004524e-07 -0.019432217 -0.016369198 -0.02238728 -0.0013014014 5.2883508e-05
-0.014978478 -0.021383073 -0.02082214 -0.01725066 -0.020037832 -0.017589584 -0.0024580855 -0.08040668
-0.0023457434 0.0017233995 0.0019127852 -0.020184811 -0.0008092164 -0.019260671 -0.022001961 -0.017410195
-0.0199281 -0.022569552 -0.021685822 -0.0027141324 -0.001146237 -0.0014405301 -0.016748218 -0.021164933
-0.0006058663 -0.014797372 -0.0024188347 -0.018390454 -0.0017078641 -0.020150477 -0.02289126 -0.022635281
-0.015996004 0.001355426 0.0007783473 -0.020658579 -0.0022890426 -0.017505761 -0.00025218987 -0.024719117
-0.020118121 -0.020552376 0.0006695101 -0.015267863 -0.020035425 -0.016535455 -0.021719199 -0.021597631

fc3.bias f4 [2]
00000000: 7318 2d3c 05db 80bc
0.010564911 -0.015729437
