runs/4_400_302_38_42_actor.pth (torch, 495127 bytes, 6 tensors)

fc1.weight f4 [400, 3]
0	0xbd02156a	-0.031758703
1	0xbb6df49a	-0.0036309124
2	0x3cf57003	0.029960638
3	0x3c0e92b3	0.008701968
4	0xbcbe6537	-0.023241622
5	0xb9a46733	-0.00031357407
6	0xbd48fe4b	-0.049070638
7	0x3cb98a47	0.022648944
8	0x3cedfcd7	0.029051227
9	0x3edf2a84	0.43587124
10	0x3e3eaa86	0.18619737
11	0xbd0e71ca	-0.034776486
12	0xba8123cd	-0.0009852588
13	0xbd462693	-0.04837663
14	0xbb071067	-0.0020609142
15	0xbb8db3e7	-0.0043244245
16	0x3c561407	0.013066298
17	0x3beba25a	0.0071909847
18	0x3eb2d1fc	0.3492583
19	0x3d5aa2c1	0.05337787
20	0xbd6d26ed	-0.05789845
21	0xbe93a3ac	-0.2883581
22	0xbdeee60f	-0.11664974
23	0x3c803dac	0.015654407
24	0x3eb4e46d	0.35330525
25	0x3e44e733	0.1922882
26	0xbc4ed7a5	-0.012624656
27	0x3eaf7a8f	0.34273192
28	0x3e79ec71	0.24406601
29	0x3c3f48ce	0.011675073
30	0x3df4ae2d	0.11947284
31	0x3e72d954	0.23715717
32	0x3d24ccfb	0.040234547
33	0x3cc34307	0.023835672
34	0x3d452417	0.04813012
35	0xbbf32c67	-0.0074210647
36	0x3e9f956e	0.31168693
37	0x3e83eb2e	0.25765365
38	0xbc34793e	-0.0110152345
39	0x3e8ab253	0.27089176
40	0x3dc2bef8	0.09509081
41	0x3bfc0169	0.007690598
42	0xbe9f1648	-0.31071687
43	0xbe27f26a	-0.16401067
44	0xbc85463f	-0.016268848
45	0x3ea70b81	0.32625964
46	0x3e8ce602	0.27519232
47	0xbc4fb6bf	-0.012677847
48	0x3ebd5a6c	0.3698305
49	0xbc9d2b88	-0.019185796
50	0x3c326599	0.010888481
51	0xbecd5592	-0.40104347
52	0x3d3d714a	0.04625062
53	0x3c6aab0d	0.014323008
54	0x3eb93598	0.361737
55	0x3dd2bb2a	0.10289605
56	0xbc973029	-0.018455582
57	0x3d3a3dd0	0.045469105
58	0xbb33f3e7	-0.002745861
59	0x3ca01323	0.019540375
60	0xbc93d100	-0.018043995
61	0xbc5c3b5a	-0.013441885
62	0xbcecc9c3	-0.028904801
63	0xbe813cd4	-0.2524172
64	0xbe59003d	-0.21191497
65	0x3cc3cead	0.023902262
66	0xbe9cf53d	-0.30655852
67	0x3e618851	0.22024657
68	0x3bf18138	0.0073701404
69	0xbd00883b	-0.03137992
70	0x3d3aba00	0.04558754
71	0x3cc4415d	0.023956949
72	0x3e2c2820	0.16812181
73	0x3dc8583e	0.09782456
74	0xbb46afe1	-0.0030317234
75	0x3e87e14c	0.26539075
76	0x3e58b3ae	0.21162292
77	0xbdae28e3	-0.08503892
78	0x3e8dbf99	0.2768524
79	0x3e4da527	0.20082532
80	0xb8a6739f	-7.937033e-05
81	0x3d9da722	0.07697894
82	0x3e55489c	0.2082848
83	0x3d3430cc	0.04399185
84	0xbe904d8a	-0.28184158
85	0x3e431f11	0.1905482
86	0x3c0b370f	0.008497014
87	0x3cca9c7a	0.024732817
88	0xbd336d03	-0.043805134
89	0xbc21da6d	-0.009878737
90	0xbdcf23f6	-0.10114281
91	0x3f6972ca	0.9119078
92	0x3d696c4b	0.05698804
93	0xbe9d76f4	-0.30754817
94	0x3decc471	0.11560906
95	0x3bd5b609	0.0065219444
96	0x3ec3d885	0.3825113
97	0xbdefafff	-0.117034905
98	0xbcde2daf	-0.027121393
99	0xbe3aa8e2	-0.18228486
100	0x3f5f4dd7	0.8722815
101	0xbcc81c11	-0.024427446
102	0x3e850579	0.25980738
103	0x3eb60c74	0.35556376
104	0xbc56895c	-0.013094272
105	0x3d139d09	0.036038432
106	0xbb96b578	-0.0045992695
107	0xbc393f5e	-0.011306612
108	0x3d2baf7b	0.041915398
109	0xbc85d440	-0.01633656
110	0x3ab9b933	0.0014169574
111	0x3ed4bc7c	0.41550052
112	0xbdad1262	-0.08450772
113	0xbca73454	-0.020410694
114	0xbe7a61aa	-0.24451318
115	0xbe1fb5f4	-0.15596753
116	0x3c900426	0.017580103
117	0x3eb70ef6	0.35753602
118	0x3ea8b9b7	0.3295419
119	0xbc5b44bd	-0.013383088
120	0xbcff6b9d	-0.031179244
121	0x3d1c019a	0.038087465
122	0x3d333ed2	0.043761082
123	0xbf08a3e6	-0.5337509
124	0x3d04249d	0.03226148
125	0x3bbb1c5a	0.005710167
126	0x3e854540	0.26029396
127	0x3e1dea5e	0.15421435
128	0xbd621cbc	-0.055203184
129	0xbe74f360	-0.23920965
130	0xbd94dfc3	-0.07269242
131	0xbd08806d	-0.0333256
132	0x3d2f6956	0.042825066
133	0x3ea9946c	0.3312105
134	0x3b9efd45	0.0048519694
135	0xbe777853	-0.24166994
136	0x3c41ec6d	0.011836153
137	0x395f5ab0	0.00021300721
138	0xbd1ff97a	-0.03905628
139	0xbcdfc2da	-0.027314592
140	0x3afa7567	0.0019108475
141	0xbec94da2	-0.39317042
142	0xbdddea58	-0.10835713
143	0x3c87958a	0.016550798
144	0xbcd2046a	-0.02563687
145	0x3d3af10d	0.04564004
146	0xbc53ec47	-0.012934751
147	0xbe328dc1	-0.17436887
148	0xbdbf3e57	-0.09338062
149	0x3c49fca5	0.012328302
150	0xbeb81e7a	-0.35960752
151	0xbde0e8fc	-0.10981938
152	0x3c903282	0.017602209
153	0x3bd23af3	0.0064157187
154	0xbc7751cd	-0.015095186
155	0xbd05f87a	-0.03270767
156	0x3d1c6488	0.03818181
157	0xbcd4002a	-0.025878984
158	0x3d1232e5	0.035693068
159	0xbe7d503b	-0.24737637
160	0xbe013cb6	-0.12620816
161	0xbb523f7e	-0.0032081301
162	0xbe2d7bae	-0.16941711
163	0xbdff3f79	-0.12463278
164	0xbcea7e7b	-0.028624764
165	0x3eddb62c	0.4330305
166	0x3e33ad9b	0.17546694
167	0xbce22e42	-0.027609948
168	0xbe4f7e7a	-0.2026309
169	0xbe0e2d58	-0.13884485
170	0x3b57ff36	0.0032958514
171	0x3eb72558	0.3577068
172	0x3e073249	0.13202776
173	0xbc260c04	-0.010134701
174	0xbebc1df8	-0.36741614
175	0x3ee6214e	0.44947284
176	0xbc67aff6	-0.014141073
177	0x3d0045d3	0.03131659
178	0xbca03273	-0.019555306
179	0x3acff200	0.0015864968
180	0xbed8b5ef	-0.42326304
181	0x3e813ee2	0.25243288
182	0x3c210fe9	0.009830453
183	0x3e88b2ed	0.2669901
184	0x3e0d3b0f	0.1379206
185	0xbc999ce6	-0.018751573
186	0xbc6f77c7	-0.0146159595
187	0xbc2be940	-0.010492623
188	0x3c1cac9a	0.009562636
189	0xba72e200	-0.0009265244
190	0x3c5f57c7	0.013631768
191	0x3d04edf2	0.032453485
192	0x3e979d24	0.29612076
193	0x3e688c33	0.22709732
194	0xbd155f65	-0.03646793
195	0x3e94af1b	0.29039845
196	0x3e6afb9d	0.22947545
197	0xb9ceb6a9	-0.00039427474
198	0x3ebfe018	0.37475657
199	0xbe5bf0db	-0.21478598
200	0xbd50a7b9	-0.050941203
201	0x3eaee25c	0.34157073
202	0x3e1e79ea	0.15476194
203	0xbc3ab066	-0.011394596
204	0xbe9e2aeb	-0.3089212
205	0xbdf8ceeb	-0.121488415
206	0x3c52b57a	0.01286065
207	0xbcb48c73	-0.022039628
208	0x3d3e9130	0.04652518
209	0xbbffa5cd	-0.0078017474
210	0xbe9d750a	-0.30753356
211	0x3de78841	0.11305285
212	0x3b352123	0.002763816
213	0x3e79e5e4	0.24404103
214	0x3bbadd3f	0.005702644
215	0xbcfec5cc	-0.031100176
216	0x3cee36fa	0.02907895
217	0xbc46e107	-0.012138612
218	0x3cd0097d	0.02539515
219	0xbea8b86e	-0.3295321
220	0x3e816418	0.25271678
221	0x3c08dc59	0.008353316
222	0xbf0a95c6	-0.54134786
223	0xbdecc438	-0.11560863
224	0x3d1037f4	0.03520961
225	0x3e8e9079	0.278446
226	0x3d950669	0.07276613
227	0xbd8069b0	-0.06270158
228	0x3e891a70	0.26777983
229	0x3e3689a6	0.17825946
230	0x3ad78e64	0.0016445634
231	0x3e82fd31	0.25583795
232	0x3dd0c925	0.10194615
233	0xbc66775d	-0.014066544
234	0xbe203227	-0.15644132
235	0x3ef2db7d	0.4743308
236	0x3d2ce9e8	0.042215258
237	0x3e8a915c	0.27064025
238	0x3e9c9d58	0.30588794
239	0xbd12b76c	-0.035819456
240	0x3c181c7a	0.009284133
241	0xbcfea0a6	-0.031082463
242	0xbcf0cb5a	-0.02939384
243	0xbe9ba5b4	-0.3039986
244	0xbe2b8cab	-0.1675288
245	0xbb9b78d7	-0.00474463
246	0xbf10b8f6	-0.5653223
247	0x3ed65772	0.4186359
248	0x3ee2dd3a	0.44309407
249	0x3d19546a	0.03743402
250	0xbc4923c7	-0.012276596
251	0x3d068943	0.032845747
252	0x3e98248e	0.2971539
253	0x3d9251d2	0.07144512
254	0xbd83cca4	-0.064355165
255	0x3ea5e6dc	0.32402694

fc1.bias f4 [400]
0	0xbe955a68	-0.29170537
1	0xbe3bd294	-0.18342048
2	0xbe55dda3	-0.20885329
3	0x3ef3e138	0.47632766
4	0xbe5b1e45	-0.21398266
5	0xbed3a6fa	-0.4133833
6	0x3e2386d7	0.15969406
7	0xbdcd700e	-0.10031138
8	0x3ec9b80a	0.39398223
9	0x3eaed52e	0.34147018
10	0x3f1f1a49	0.6214948
11	0xbed87ce8	-0.42282796
12	0x3eaa5e8d	0.33275262
13	0x3ed9417e	0.4243278
14	0xbe85742e	-0.260652
15	0x3ec837ee	0.3910517
16	0x3edd5b9a	0.4323395
17	0xbd90d39c	-0.07071611
18	0x3e45e74b	0.19326513
19	0xbe4eb2d6	-0.20185408
20	0xbf00e904	-0.50355554
21	0x3de020a9	0.109437294
22	0x3d712b71	0.05887932
23	0xbec131b8	-0.37733245
24	0x3e66274c	0.22475928
25	0xbf2737ea	-0.65319693
26	0x3eedb2f4	0.46425593
27	0x3f2d9473	0.6780464
28	0x3d8c8f7b	0.06863304
29	0xbeb97854	-0.36224616
30	0x3e228156	0.1586965
31	0x3d46ba64	0.0485176
32	0x3dc322ec	0.09528145
33	0x3e2bb28e	0.16767332
34	0x3eb2244b	0.34793314
35	0xbe8171ae	-0.25282043
36	0xbe04fd31	-0.1298721
37	0x3de4b8ac	0.11168036
38	0xbd9c2250	-0.07623732
39	0x3ecdd9de	0.40205282
40	0xbe9b4323	-0.3032466
41	0xbdf585d3	-0.119884156
42	0xbd241653	-0.040060353
43	0xbe2c7d79	-0.16844739
44	0x3ed00ca8	0.40634656
45	0xbd192944	-0.03739287
46	0xbf089a4d	-0.53360444
47	0xbe22dfe1	-0.15905716
48	0xbe8612ac	-0.2618612
49	0xbd4b0531	-0.049565498
50	0xbdfb0aee	-0.12257944
51	0xbf129c0a	-0.57269347
52	0xbdd77737	-0.10520785
53	0xbe18ea90	-0.14933228
54	0xbe236308	-0.15955746
55	0x3ebb36d1	0.3656526
56	0xbe4ac7dc	-0.19802803
57	0x3ea2d58d	0.3180355
58	0xbd5f353a	-0.05449412
59	0xbef98750	-0.48736048
60	0x3d25d55c	0.04048668
61	0x3edcbdc9	0.43113545
62	0xbec15ab6	-0.3776452
63	0xbebf1212	-0.37318474
64	0x3efc2965	0.49250332
65	0x3ec3b77e	0.3822593
66	0xbeee6be4	-0.4656669
67	0x3e86ca4a	0.2632621
68	0xbe1cde0f	-0.15319084
69	0xbf11b8d5	-0.56922656
70	0xbb505c16	-0.0031793169
71	0x3d92cc6a	0.07167895
72	0xbe3156bf	-0.17318247
73	0x3cec84f8	0.028871998
74	0xbf1cecce	-0.61298835
75	0x3ea87eb5	0.3290917
76	0x3eeb38e3	0.4594184
77	0x3e65be0b	0.22435777
78	0xbd994c3c	-0.07485244
79	0x3d7216c0	0.059103727
80	0xbed8f552	-0.42374665
81	0xbe110eee	-0.14165851
82	0xbed5d991	-0.41767552
83	0xbea47fc9	-0.32128742
84	0xbf0c153c	-0.547199
85	0x3eb0e7cc	0.34551847
86	0x3ec01f15	0.37523714
87	0xbf06ce14	-0.526582
88	0x3db5807d	0.08862398
89	0x3e1bee18	0.15227544
90	0x3eecfff8	0.4628904
91	0x3e9476d6	0.28996915
92	0x3ef349ea	0.4751733
93	0xbe1d4d6d	-0.15361567
94	0x3ebfc84d	0.37457505
95	0x3ecf1547	0.4044592
96	0xbf0b92c1	-0.54520804
97	0xbeed4864	-0.46344292
98	0x3dd2e67d	0.102978684
99	0x3e8fe447	0.2810385
100	0xbe92dc0e	-0.28683513
101	0xbd8a514a	-0.06753786
102	0xbdfa584f	-0.12223875
103	0x3e33c4fb	0.17555611
104	0xbe9ed7a3	-0.31023893
105	0x3e2ea7a5	0.17056139
106	0x3e9d2339	0.30690935
107	0xbecd1b58	-0.40059924
108	0xbde9e46f	-0.114205234
109	0xbdd4be0b	-0.1038781
110	0x3ddb36b3	0.107037924
111	0x3efed9a4	0.49775422
112	0x3e3fa465	0.18715055
113	0xbe0655cc	-0.13118666
114	0x3f068ece	0.5256165
115	0xbe60f93b	-0.21970074
116	0xbe22cd80	-0.15898705
117	0x3dabd91e	0.08391021
118	0xbee11ac4	-0.43965733
119	0xbb88c135	-0.0041734227
120	0xbec88f43	-0.391718
121	0xbd4db6fa	-0.05022333
122	0xbe004907	-0.12527858
123	0x3d2bd4cc	0.041950986
124	0xbef947ee	-0.4868769
125	0xbf0c6134	-0.5483582
126	0x3e1c805e	0.15283343
127	0x3efe378a	0.49651748
128	0xbee5f3f3	-0.4491268
129	0x3e371bad	0.17881651
130	0xbec79c20	-0.389863
131	0xbe0df8ea	-0.13864484
132	0x3ef07af2	0.469688
133	0x3ece19a1	0.40253928
134	0xbf063185	-0.5241931
135	0x3eaac2bc	0.33351696
136	0x3e8fa0da	0.28052408
137	0xbde3a760	-0.111159086
138	0x3f0a5c60	0.54047203
139	0xbe7e5f70	-0.24841094
140	0xbe311e8d	-0.1729681
141	0xbe9566f0	-0.29180098
142	0xbceaf124	-0.028679438
143	0x3e81e782	0.2537194
144	0xbdc507c8	-0.09620625
145	0xbea65141	-0.32483867
146	0xbe85121a	-0.25990373
147	0x3e442809	0.19155897
148	0xbf0198ae	-0.50623596
149	0xbe470ad5	-0.19437726
150	0xbdc93e4b	-0.098263346
151	0xbe6f891c	-0.23392147
152	0x3e0668f2	0.13125971
153	0xbe1c566a	-0.1526734
154	0x3ecbab86	0.397793
155	0x3e081370	0.13288665
156	0xbeba910e	-0.36438793
157	0x3ec19568	0.378093
158	0xbd3ee8af	-0.046608623
159	0xbe90fd4c	-0.2831825
160	0xbec2d53e	-0.38053316
161	0x3d8b162f	0.067913406
162	0xbf0cf75a	-0.5506493
163	0x3e212a03	0.15738682
164	0x3e4942dd	0.19654413
165	0xbf16f944	-0.589741
166	0xbec2b11f	-0.38025758
167	0xbed558cf	-0.41669318
168	0x3ecaad6e	0.3958544
169	0x3ee621cf	0.4494767
170	0xbe00a7ac	-0.12563962
171	0x3f0136d2	0.50474274
172	0xbe45a48a	-0.19301048
173	0xbf0f7d38	-0.56050444
174	0x3e176a21	0.14786579
175	0x3dfdacb3	0.123864554
176	0x3f08c5a5	0.5342658
177	0xbb71d7d8	-0.0036902335
178	0x3eba268e	0.3635754
179	0x3eb21514	0.34781706
180	0x3ebebc75	0.37253156
181	0xbf12ab18	-0.5729232
182	0x3eb43d45	0.35202995
183	0xbefbfce8	-0.4921639
184	0x3ec99531	0.39371637
185	0xbc1da12c	-0.009620946
186	0xbf02fbff	-0.51165766
187	0x3d86b604	0.065776855
188	0xbe31a2b8	-0.17347229
189	0xbf04c125	-0.51857215
190	0xbe628680	-0.2212162
191	0xbbd08afd	-0.006364225
192	0x3ebc4830	0.36773825
193	0xbe35c125	-0.1774946
194	0x3e9afdd1	0.30271772
195	0xbdea2719	-0.114332385
196	0xbdca1d5f	-0.09868883
197	0x3d2d2c1b	0.04227839
198	0xbec1fec7	-0.37889692
199	0xbef5b478	-0.4798925
200	0xbe39c395	-0.18141015
201	0xbf09bac5	-0.5380061
202	0xbe89dad3	-0.26924762
203	0xbdcb192f	-0.09916913
204	0xbeb95c04	-0.36203015
205	0xbe7e3b15	-0.24827226
206	0xbdd476b0	-0.103742
207	0xbe28c77a	-0.16482344
208	0xbea32d67	-0.31870577
209	0xbdb67253	-0.08908524
210	0xbda5f6cf	-0.08103716
211	0x3db904f0	0.09034145
212	0xbe273fa8	-0.16332877
213	0xbe939d88	-0.28831124
214	0xbe4b8aff	-0.19877242
215	0xbd8b8b16	-0.06813638
216	0xbeb873bf	-0.36025807
217	0xbda755d2	-0.08170666
218	0xbd72b9e8	-0.059259325
219	0x3e0bafb6	0.13641247
220	0x3ecd336b	0.4007829
221	0x3ed7fbc0	0.42184258
222	0xbdde8d4e	-0.108667955
223	0xbeda6c3f	-0.4266071
224	0x3e7d1f79	0.24719037
225	0xbec89090	-0.39172792
226	0xbda28688	-0.07935816
227	0xbe03f2f3	-0.12885647
228	0xbe2c59c6	-0.16831121
229	0xbe5abca9	-0.2136103
230	0x3ec940d8	0.39307284
231	0x3ec03d69	0.37546852
232	0x3dbee206	0.09320454
233	0x3eedab12	0.4641958
234	0xbf05f0ed	-0.5232075
235	0xbdbf32cb	-0.0933586
236	0x3ea93c17	0.33053657
237	0x3ea5bfb1	0.3237281
238	0xbeeb41cc	-0.45948637
239	0x3e00cc34	0.12577897
240	0xbea74f97	-0.3267791
241	0xbd9a9f5c	-0.07549927
242	0xbdf6bc08	-0.12047583
243	0xbef6d17c	-0.482067
244	0xbf0cfd7a	-0.55074275
245	0xbec27a11	-0.37983754
246	0x3e32a642	0.17446235
247	0x3e53d423	0.20686392
248	0xbf19957f	-0.5999374
249	0xbd404e8f	-0.04694992
250	0xbe1428c0	-0.1446867
251	0xbeff92d0	-0.49916697
252	0x3e5710bc	0.21002477
253	0x3ed98ede	0.42491812
254	0x3cc30040	0.02380383
255	0xbf16b769	-0.5887361

fc2.weight f4 [302, 400]
0	0xbd033d60	-0.032040954
1	0xbcf664c0	-0.030077338
2	0xbc2c9efd	-0.010535953
3	0xbc5fe16d	-0.013664586
4	0xbca32868	-0.019916728
5	0xbd51d249	-0.051225934
6	0xbc3db8d9	-0.011579716
7	0x3d5f823c	0.05456756
8	0xbc8d7316	-0.017266791
9	0x3dfc2b7b	0.12312981
10	0x3dc1fe06	0.09472279
11	0x3d045dd0	0.03231603
12	0xbcec5a0e	-0.028851535
13	0x3cf4ec46	0.02989782
14	0x3d575086	0.052567028
15	0x3d03b082	0.032150753
16	0x3cc9c0a5	0.024627993
17	0x3d0f07ee	0.03491967
18	0xbc93790b	-0.018002054
19	0x3d68bc97	0.05682048
20	0x3d322b10	0.0434981
21	0xbccc2a84	-0.024922617
22	0x3da15f29	0.078794785
23	0x3d15dfb3	0.03659029
24	0xbc6cb793	-0.014448064
25	0xbdc83024	-0.09774807
26	0x3d6a8be8	0.05726233
27	0x3d3b73ab	0.045764606
28	0x3b71e83d	0.0036912106
29	0x3ca1916a	0.01972266
30	0x3da205c7	0.07911258
31	0x3d5c1509	0.053731
32	0xbd893ee3	-0.06701448
33	0x3e9d4f92	0.3072477
34	0x3d0d41f7	0.034486737
35	0x3d236782	0.039893635
36	0x3bff2e78	0.007787522
37	0x3bd03b2f	0.0063547115
38	0x3ccae785	0.0247686
39	0x3d52a476	0.051426373
40	0xbb66fb47	-0.0035244988
41	0xbaec4d2b	-0.0018028369
42	0xbc7738f6	-0.015089264
43	0x3d23a63c	0.039953455
44	0x3db0c0cc	0.08630523
45	0x3b810e0f	0.0039384435
46	0xbd3afb44	-0.04564978
47	0xbca653b3	-0.020303583
48	0xbc87712c	-0.016533457
49	0xbd10c1d6	-0.035341106
50	0xbd2ca975	-0.042153794
51	0xbba6a574	-0.0050856415
52	0x3d313ff1	0.04327387
53	0x3d674e81	0.05647135
54	0x3d229cfb	0.03970049
55	0x3d7b6436	0.061374865
56	0xbc2eb9a6	-0.010664379
57	0x3beb99c4	0.007189961
58	0x3de84e12	0.11343016
59	0xbd5c022b	-0.053713005
60	0x3dc2119f	0.09476017
61	0x3d69e087	0.05709889
62	0xbd2a343d	-0.041553725
63	0xbd3044cc	-0.04303436
64	0x3ccbc8ee	0.024876084
65	0x3dac56eb	0.08415016
66	0x3b9b6905	0.004742744
67	0x3b1a958e	0.0023587677
68	0xbd1ccb4c	-0.038279817
69	0x3d105333	0.035235595
70	0xbd0f7ea7	-0.035032894
71	0x3d048967	0.0323576
72	0xbd2d9a95	-0.04238375
73	0xbc366f45	-0.011134927
74	0xc00d9141	-2.2119906
75	0xbcb4f7bc	-0.022090785
76	0x3d837d90	0.064204335
77	0xbcb4cc5f	-0.022070108
78	0xbe16e6ab	-0.1473643
79	0x3d5210f6	0.051285706
80	0x3d018d2c	0.031628773
81	0x3ba7fc77	0.0051265317
82	0xbe48b805	-0.19601448
83	0x3d5fdf4a	0.054656304
84	0xbe53d0f0	-0.20685172
85	0x3cdb2cca	0.026754756
86	0x3db9ee3a	0.09078641
87	0xbbad35c8	-0.0052859522
88	0xbd1e4f6c	-0.03864996
89	0xbd18ab34	-0.037272647
90	0xbce38879	-0.027775036
91	0x3d16ed2d	0.036847282
92	0xbcc85085	-0.024452457
93	0x3d606874	0.054787114
94	0x3ceec982	0.02914882
95	0xbd1fee9a	-0.039045908
96	0x3c49edb7	0.012324742
97	0x3c8ab1d8	0.016930506
98	0x3b0442f5	0.002018151
99	0x3d59d4be	0.053181402
100	0x3d31ae1b	0.04337893
101	0xbcf2b77d	-0.02962851
102	0x3c9bc0cd	0.019012833
103	0x3daaa437	0.08332103
104	0x3c0969be	0.008387027
105	0xbc3e5bd9	-0.011618578
106	0x3d8b4875	0.068009295
107	0x3ba592db	0.005052907
108	0xbc225834	-0.009908725
109	0xbe9e34da	-0.30899698
110	0x3d84b6e4	0.06480196
111	0x3d46c406	0.048526786
112	0xbc7d3b9c	-0.0154561065
113	0xbcf5559a	-0.029948045
114	0x3da1cbfc	0.07900235
115	0xbd4040bc	-0.046936736
116	0x3d34bd2f	0.044125732
117	0x3d2f65ad	0.042821575
118	0xbd51f327	-0.05125728
119	0x3d787ca9	0.06066576
120	0xbc0308a9	-0.00799767
121	0x3d528a4d	0.051401425
122	0xbb6dc710	-0.003628198
123	0x3d2b672d	0.041846443
124	0x3cfaab19	0.030599164
125	0xbc4bec0b	-0.012446414
126	0x3d37cc0f	0.04487234
127	0xbcc2922e	-0.023751345
128	0xc0001045	-2.000993
129	0xbc7c416a	-0.015396455
130	0xbd92018b	-0.071292005
131	0x3c43a973	0.011942255
132	0x3d88fc6f	0.06688773
133	0x3d64623f	0.055757757
134	0x3bb8801e	0.005630507
135	0x3d8482f1	0.064702876
136	0x3c5576bd	0.013028798
137	0xbcb33d5d	-0.021879846
138	0x3ce3a109	0.027786748
139	0xbc36d62b	-0.01115946
140	0xbcf5a440	-0.029985547
141	0x3c832af4	0.016011693
142	0xbce28dcc	-0.027655505
143	0xbdaedd88	-0.085383475
144	0xbcc85732	-0.02445564
145	0xbd27c68a	-0.040960826
146	0x3c3880d4	0.011261184
147	0x3e80f707	0.25188467
148	0x3b8da594	0.004322717
149	0xbdb34efc	-0.087552994
150	0xbc7c293a	-0.015390689
151	0xbcfbc37a	-0.030732859
152	0xbcd01454	-0.025400318
153	0x3c2509be	0.0100731235
154	0x3dbbb071	0.09164513
155	0x3f157640	0.5838356
156	0xbcc39a87	-0.023877395
157	0x3b8a4e1e	0.004220738
158	0xbca0bc8c	-0.019621156
159	0x3d08bff2	0.03338618
160	0x3c946f22	0.018119399
161	0x3d439efe	0.04775905
162	0x3d249e41	0.040189985
163	0x3a01ef01	0.0004956574
164	0xbccf5c97	-0.025312705
165	0xc00826de	-2.1273723
166	0xbd328bfb	-0.043590527
167	0xbd0e6219	-0.034761522
168	0xbbd87029	-0.0066051674
169	0x3d923e4f	0.07140791
170	0xbd0142ca	-0.031557836
171	0xbcb4f4ec	-0.022089444
172	0x3d115e30	0.035490215
173	0xbd120997	-0.035653677
174	0x3b69a462	0.0035650958
175	0xbd40ebe5	-0.047099967
176	0x3bebba01	0.0071938043
177	0x3d523c83	0.05132724
178	0x3d294998	0.04132995
179	0xbcc0c175	-0.023529748
180	0x3d087fd1	0.03332502
181	0x3cc5cadf	0.024144588
182	0x3d170267	0.036867525
183	0x3d44e811	0.04807288
184	0x3d522604	0.051305786
185	0xbf025385	-0.5090869
186	0x3c592f1c	0.013255861
187	0xb966b542	-0.00022002033
188	0x3c8cfedd	0.017211372
189	0x3cad8ec2	0.021186236
190	0xbc15e35c	-0.009148445
191	0x3d433638	0.04765913
192	0xbd2c3b98	-0.04204902
193	0xbd482bec	-0.048870012
194	0xbc9ccdee	-0.019141164
195	0xbcbd534e	-0.023111012
196	0x3ba82d34	0.0051323418
197	0xbca09922	-0.01960427
198	0xbcff12f3	-0.031136965
199	0x3c1e4578	0.009660117
200	0xbc1c1d7b	-0.009528513
201	0x3c5c1ffb	0.013435359
202	0xbc469cce	-0.012122346
203	0xbc966983	-0.018360859
204	0xbbd029ea	-0.006352653
205	0xbcba32fc	-0.02272939
206	0xbd21f368	-0.03953877
207	0x3d8bcf35	0.06826631
208	0x3d5bfe6d	0.053709436
209	0x3d2fa43f	0.042881247
210	0xbaa8f8db	-0.0012891548
211	0x3cb910a5	0.022590945
212	0xbce69ec3	-0.028151875
213	0xbd495fa8	-0.04916349
214	0xbd3cf4f9	-0.04613206
215	0xbc9fe77e	-0.019519564
216	0xbcf8473d	-0.030307407
217	0xbc216324	-0.009850297
218	0xbd27dcbc	-0.040981993
219	0x3d992aeb	0.07478889
220	0xbd515b64	-0.051112548
221	0x3d31f35d	0.04344498
222	0xbd2276d9	-0.039664123
223	0xbd48b071	-0.048996393
224	0x3cbcf248	0.023064747
225	0xc01cc0ec	-2.449275
226	0xbd58d759	-0.052939747
227	0xbb8d9e15	-0.0043218234
228	0x3d910ab2	0.07082118
229	0xbd545779	-0.051841233
230	0x3c8b905e	0.017036613
231	0x3c631f7f	0.01386249
232	0x3d800981	0.06251813
233	0x3d8cfc45	0.06884054
234	0xbb72909c	-0.0037012463
235	0x3d5cab42	0.05387426
236	0xbc3f8ecc	-0.01169176
237	0x3cec2317	0.028825326
238	0xbcb5dfaf	-0.022201387
239	0x3c8a8722	0.01691014
240	0xbc444e5f	-0.011981576
241	0xbf1561ca	-0.5835234
242	0x3d2b1957	0.041772213
243	0xbc7266b8	-0.014794998
244	0xbc8b2bdd	-0.01698869
245	0xbd66d184	-0.056352153
246	0x3d163558	0.036671966
247	0x3e051890	0.12997651
248	0xc00e341e	-2.221931
249	0xbcee5a2d	-0.029095734
250	0x3d22b499	0.039723013
251	0xbd587856	-0.052849136
252	0x3e7b3939	0.24533547
253	0x3bbc9dd3	0.005756119
254	0xbd398e32	-0.045301624
255	0xbed6408d	-0.41846123

fc2.bias f4 [302]
0	0x3cc57434	0.024103262
1	0xbcf2c318	-0.029634044
2	0x3b10afa9	0.0022077358
3	0xbd197146	-0.03746154
4	0xbd4aded7	-0.049528923
5	0xbcce8797	-0.025211139
6	0xbd41af40	-0.047286272
7	0x3c94b640	0.01815331
8	0xbd24d1cd	-0.040239144
9	0xbd5b28f3	-0.05350585
10	0xbd0ff003	-0.035141002
11	0xbd8f69b0	-0.0700258
12	0xbd0384a8	-0.032108933
13	0xbcd10686	-0.025515806
14	0xbc443e6f	-0.011977776
15	0xbccb9aa8	-0.02485402
16	0x3c110bc2	0.008852901
17	0xbce0a839	-0.027423965
18	0xbcf5959f	-0.029978571
19	0x3c34bafc	0.011030909
20	0xbca9ab5e	-0.020711597
21	0xbd8dc827	-0.06922942
22	0xbbbdc705	-0.0057915472
23	0xbc124d24	-0.008929525
24	0x3cc70cc3	0.024298077
25	0xbc99528e	-0.018716123
26	0xbd388732	-0.045050807
27	0xbd963971	-0.07335175
28	0xbd09e2c1	-0.033663515
29	0x3a3e4f5b	0.00072597497
30	0xbd743720	-0.059622884
31	0xbcf85a9e	-0.030316647
32	0xbd68da25	-0.056848664
33	0xbbe8be1f	-0.0071027423
34	0xbc9972d2	-0.018731508
35	0xbb8da1be	-0.0043222597
36	0xbc76fe5e	-0.015075294
37	0xbc542763	-0.012948844
38	0xbda0d192	-0.07852472
39	0x390a4e95	0.0001318998
40	0xbd005c09	-0.03133777
41	0x3d2d5b8b	0.04232363
42	0xbd44f8ca	-0.048088826
43	0xbda70c1e	-0.08156608
44	0xbb21d03b	-0.0024690765
45	0x3c06e482	0.008233191
46	0xbcb0b1f0	-0.021569222
47	0xbcd016d9	-0.02540152
48	0x3e22ceac	0.15899152
49	0xbd2b5dcf	-0.04183751
50	0xbd2cfd77	-0.04223391
51	0xbd437356	-0.047717415
52	0xbd0a7a7b	-0.033808213
53	0x3caff932	0.02148113
54	0xbb6b5093	-0.003590618
55	0x3ccd18ce	0.025036242
56	0xbd3e9e11	-0.046537463
57	0xbd0f656a	-0.035008825
58	0xb9e892cd	-0.00044359863
59	0xbd869b79	-0.06572623
60	0xbc153cb7	-0.009108714
61	0xbce61fb3	-0.028091287
62	0xbda1c43c	-0.07898757
63	0xbd10b158	-0.03532538
64	0xbda50a7a	-0.08058639
65	0xbd5a5235	-0.053301055
66	0xbd41d4dd	-0.047322143
67	0xbd31a67d	-0.043371666
68	0xbd8a8c11	-0.06764997
69	0xbb5b5395	-0.0033466567
70	0xbd3925db	-0.045202117
71	0x3c80ef73	0.015739178
72	0x3cd7b4e1	0.026331367
73	0x3c9543e8	0.018220857
74	0xbd238d9b	-0.039929967
75	0xbd79d9ff	-0.060998913
76	0xbc49f134	-0.012325574
77	0x3c6ae1b6	0.01433604
78	0xbd8729d9	-0.06599779
79	0xbdb0bcec	-0.08629784
80	0xbd0476cd	-0.03233986
81	0x3cbecf17	0.023292108
82	0x3d1b6c25	0.03794493
83	0x3ced077e	0.028934237
84	0xbc4a455d	-0.012345639
85	0x3d013945	0.031548757
86	0xbda4c1a9	-0.0804475
87	0xbcbcba9d	-0.023038203
88	0xbdb03044	-0.08602956
89	0x3c3a6dae	0.011378689
90	0xbc82b923	-0.01595742
91	0x383fcade	4.5726883e-05
92	0xbd11bfc8	-0.035583287
93	0xbd99a76f	-0.075026385
94	0x3c5a213a	0.013313586
95	0xbd37db2d	-0.044886757
96	0xbd4b6d0d	-0.049664546
97	0x3c1b09b3	0.009462762
98	0xbd1601cd	-0.03662281
99	0x3e00727f	0.12543677
100	0x3d06bbf4	0.03289409
101	0x3d337788	0.043815166
102	0xbc379b68	-0.011206485
103	0x3c63bd5b	0.013900126
104	0x3c00375a	0.007825697
105	0x3c892dbb	0.016745439
106	0xb90d3a40	-0.00013468508
107	0x3ca2e5dc	0.019884996
108	0xbcf7056b	-0.03015395
109	0xbdc31afa	-0.0952663
110	0xbd0da7cd	-0.034583855
111	0xbd1e230d	-0.038607646
112	0xbc94509f	-0.01810485
113	0x3c73d4cd	0.014882279
114	0xbda7c96d	-0.08192716
115	0x3cca276b	0.024677
116	0x3cc357e3	0.023845619
117	0xbd4864ea	-0.048924364
118	0x3e103363	0.14082102
119	0x3bada509	0.0052992147
120	0xbdc596ab	-0.09647878
121	0x38c6ac5f	9.473482e-05
122	0xbd88d223	-0.066807054
123	0xbcff8e0e	-0.031195667
124	0xbabe5784	-0.0014521931
125	0xbbe81502	-0.0070825825
126	0xbd63cce1	-0.05561531
127	0xbd7d17a8	-0.06179014
128	0x3a389200	0.00070407987
129	0xbd81d734	-0.06339875
130	0xbc5a6e6b	-0.01333199
131	0xbb23a79e	-0.0024971734
132	0xbc1a675e	-0.009424059
133	0x3bbcab13	0.0057576983
134	0x3d28c3da	0.041202404
135	0xbc3dd45e	-0.011586277
136	0xbd4de5aa	-0.050267853
137	0xbd84deed	-0.06487832
138	0xbce5af36	-0.028037649
139	0xbd1d20b2	-0.03836126
140	0xbb96052c	-0.0045782533
141	0xbb8014ac	-0.0039087143
142	0xbbad95d3	-0.0052974015
143	0x3c0fd140	0.008777916
144	0xbd9c3ec7	-0.07629161
145	0x3c03e3e2	0.008049937
146	0xbd076ff1	-0.03306574
147	0xbcfdd745	-0.030986438
148	0x3d98db80	0.07463741
149	0x3bb8a31f	0.00563468
150	0xbd819536	-0.06327288
151	0xbcacb753	-0.02108351
152	0x3c880ba6	0.016607117
153	0x3dc9d51a	0.09855099
154	0xbbcaf929	-0.006194253
155	0x3deeba5e	0.116566405
156	0x3c46ed36	0.012141516
157	0xbd9ee472	-0.07758416
158	0x3d09cebb	0.03364442
159	0x3d237e2c	0.03991525
160	0x3cb7317b	0.022362461
161	0x3cb13ec6	0.021636378
162	0xbc6786d2	-0.014131265
163	0xbd1093e3	-0.035297286
164	0xbcfa4f1c	-0.0305553
165	0xbcb294de	-0.021799501
166	0xbc4faced	-0.012675506
167	0xbcf967be	-0.030444976
168	0x3cb69455	0.022287527
169	0xbc1f875e	-0.009736864
170	0x3b24ad3c	0.002512767
171	0x3cc97e28	0.024596289
172	0x3c920a63	0.017827218
173	0x3cbc8e27	0.023017002
174	0x3cb66dd8	0.022269174
175	0x3ce48fbc	0.02790057
176	0xbbcedaa9	-0.0063126874
177	0xbd1f9137	-0.038956847
178	0x3cece4ec	0.028917752
179	0xbd07bfc9	-0.033141885
180	0x3c1387d6	0.009004554
181	0x3c8ef913	0.017452752
182	0x3cc9290e	0.02455571
183	0xbd0d8df4	-0.034559205
184	0x3c4ddd3a	0.012564952
185	0xbcd44a33	-0.025914287
186	0xbd86004b	-0.06543025
187	0x3cfc56cf	0.030803112
188	0xbd3dc4d6	-0.046330296
189	0x3c4cb603	0.012494567
190	0xbd946855	-0.07246462
191	0x3b853def	0.004066221
192	0xbd970a26	-0.073749825
193	0x3dcdbc1f	0.10045647
194	0x3c14519a	0.009052658
195	0x3c34e70b	0.011041413
196	0x3d1169b4	0.035501197
197	0xbc8b6a6c	-0.01701852
198	0x3c810241	0.015748145
199	0xbc94d123	-0.01816613
200	0xbcf1e01b	-0.029525807
201	0xbd2f76cb	-0.0428379
202	0x3bb3bb4c	0.005484974
203	0x3bac203e	0.005252867
204	0x3dabc51e	0.083872065
205	0x3c1ece2c	0.00969271
206	0x3e27ce11	0.16387202
207	0xbd1aeb04	-0.037821785
208	0x3cdb75e6	0.026789617
209	0xbc604088	-0.01368726
210	0x3c4acce4	0.012377951
211	0xbd1843bc	-0.03717397
212	0xbda522f0	-0.080633044
213	0xbba48eee	-0.0050219214
214	0x3db690ca	0.08914335
215	0xbca5d263	-0.020241922
216	0xbc914fbf	-0.017738221
217	0xbcb0bac1	-0.021573426
218	0xbd411302	-0.047137268
219	0x3cc93c2a	0.024564821
220	0xbd307e53	-0.043089222
221	0xbc990017	-0.0186768
222	0xbccc8b35	-0.024968723
223	0xbd323b32	-0.043513484
224	0xba8c9f16	-0.0010728564
225	0xbd389752	-0.045066185
226	0x3c9d8e8d	0.019233013
227	0xbdf8afa1	-0.121428736
228	0xbd554ba0	-0.052074075
229	0xbd6a41f8	-0.05719182
230	0x3caef217	0.021355672
231	0xbdaebd6d	-0.08532224
232	0x3dcbe638	0.0995602
233	0x3ca1e853	0.019764101
234	0x3d1851dd	0.037187446
235	0xbb0b0e42	-0.0021218215
236	0xbd45a244	-0.04825045
237	0xbc4411d3	-0.01196714
238	0xbd13dcc0	-0.036099195
239	0xbcd8fb8e	-0.026487138
240	0xbcbe4cab	-0.023229918
241	0xbc11905c	-0.008884516
242	0x3d160231	0.036623184
243	0xbde41f24	-0.11138752
244	0x3d2d9742	0.04238058
245	0xbcd515f8	-0.026011452
246	0xbd5da4ed	-0.054112364
247	0xbc8452e2	-0.016152803
248	0xbd63d4be	-0.05562281
249	0xbd22bec0	-0.039732695
250	0x3d34c79d	0.04413568
251	0xbd4416a3	-0.04787315
252	0xbd2311f4	-0.039812043
253	0x3cd773b0	0.026300281
254	0x3d19a69e	0.037512414
255	0xbd957d38	-0.07299274

fc3.weight f4 [2, 302]
0	0x3f119c7c	0.568794
1	0xbcc70fd2	-0.024299536
2	0x3cd3ffac	0.02587875
3	0xbc3d6465	-0.01155958
4	0x3eafcaf5	0.3433453
5	0x3dec44c6	0.11536555
6	0x3d9a089d	0.07521174
7	0x3fa3ddd2	1.2802069
8	0x3d80563c	0.06266448
9	0x3e477d5c	0.19481415
10	0x3d175147	0.036942746
11	0xbccb3fe3	-0.024810737
12	0xbc039863	-0.008031937
13	0x3f4bd096	0.7961515
14	0x3c8e92a3	0.017403906
15	0x3b3caf0e	0.0028790864
16	0x3cf30fa7	0.02967055
17	0x3e9f1de6	0.31077498
18	0x3ecc7eaa	0.39940387
19	0x3b3dce7c	0.0028962186
20	0x3d8b0fd2	0.06790127
21	0xbbee6cda	-0.0072761597
22	0xba08e236	-0.00052216963
23	0x3f1571a4	0.58376527
24	0xbf05ba7b	-0.5223767
25	0xbeeea504	-0.46610272
26	0x3afd16c9	0.0019309159
27	0x3d9e5e10	0.07732785
28	0x3ca87687	0.02056433
29	0x3c9fdb2e	0.019513693
30	0x3c0e11b7	0.008671216
31	0x3ee4ca56	0.4468562
32	0xbe122a45	-0.14273937
33	0x3b90a8bb	0.0044146455
34	0xbe8ad54d	-0.2711586
35	0xba10ab78	-0.0005518715
36	0x3d49255b	0.04910789
37	0x3c8aef2d	0.016959751
38	0xbdf8b68b	-0.12144192
39	0xbdf017cb	-0.11723288
40	0x3d87d456	0.06632297
41	0xbec69f63	-0.38793477
42	0xbaa4afb8	-0.0012564575
43	0x3d19d3a7	0.037555363
44	0x3b427ffd	0.0029678338
45	0x3d3e5176	0.046464406
46	0x3d07e388	0.033175975
47	0x3c6459ac	0.013937395
48	0x3b8f350a	0.0043703364
49	0x3ac776ed	0.0015217938
50	0xb8c57a5e	-9.416485e-05
51	0x3e39ef0e	0.18157598
52	0x3a035c4f	0.00050110085
53	0x3c448ac0	0.011995971
54	0x3f37de68	0.7182374
55	0x3c4f1f15	0.012641688
56	0x3cd3f6d9	0.025874542
57	0x3aae9486	0.001331941
58	0x3f8d665a	1.104686
59	0x3eba0416	0.36331242
60	0x3e0355de	0.12825724
61	0x3d78da8c	0.060755298
62	0x3d4c8870	0.049934804
63	0x3cacd86d	0.021099294
64	0x3cfec673	0.031100487
65	0x3b2f8531	0.002678227
66	0x3d4b7fd4	0.049682453
67	0x3d46ecbd	0.048565615
68	0x3d8c6215	0.06854645
69	0xb942ff0c	-0.00018596294
70	0x3c18659b	0.009301568
71	0x3f8498c3	1.0359119
72	0x3e262cb7	0.16227995
73	0xbdef1b0a	-0.11675079
74	0x3b4361d8	0.0029812958
75	0x3d5c6df5	0.0538158
76	0x3d0bcc17	0.034130182
77	0x3c5ee73c	0.013604935
78	0x3deeee74	0.11666575
79	0x3e0b3b2c	0.13596791
80	0x3ee9b2dd	0.45644274
81	0x3a9c4c7d	0.0011924651
82	0xbab94642	-0.0014135318
83	0x3e8bbe57	0.27293655
84	0x3c5f710d	0.013637793
85	0x3a37d79e	0.00070130255
86	0x3d5a3bed	0.053279806
87	0x3ee3a7f6	0.44464082
88	0x3cdb5de0	0.026778162
89	0x3cf901d5	0.030396381
90	0xbe7d609c	-0.24743885
91	0xbd8bbec3	-0.06823494
92	0xbb0ff8ec	-0.0021968437
93	0x3c82ed47	0.015982283
94	0x3b3c3529	0.002871821
95	0xbd814d1f	-0.06313538
96	0x3f54d8b6	0.83143175
97	0x3987f250	0.00025929743
98	0xbee0b563	-0.43888387
99	0xbe24b442	-0.16084388
100	0xbd1401d0	-0.03613454
101	0x3a282589	0.00064142846
102	0xb7719faf	-1.4401899e-05
103	0xbf018430	-0.5059233
104	0x3a5c77f0	0.0008410206
105	0x3d192678	0.037390202
106	0x3c570b12	0.013125198
107	0x3849fc71	4.815724e-05
108	0x3b951766	0.0045499085
109	0x3d52c3db	0.051456314
110	0x3c9cc10c	0.01913502
111	0x3cfe54e9	0.031046348
112	0x3e212cb9	0.15739717
113	0xbaf4b1ab	-0.0018668672
114	0x3d8612e6	0.06546573
115	0xbcbfffef	-0.023437468
116	0x3baae603	0.005215408
117	0xbd166b4f	-0.03672343
118	0x3e6ec6f6	0.23318085
119	0x3f40faa3	0.7538244
120	0x3dfc21bd	0.123111226
121	0xbdfb4b5b	-0.12270232
122	0xbdfec22f	-0.12439381
123	0xbed55207	-0.41664144
124	0x3d032530	0.032017887
125	0x3cc2dff3	0.023788428
126	0x3e93eb16	0.28890294
127	0x3d172240	0.036897898
128	0xbb03f543	-0.00201352
129	0x3c20118e	0.00976981
130	0xbe73e990	-0.23819566
131	0xbe8772aa	-0.2645467
132	0xbda435d2	-0.08018078
133	0x3ac61a25	0.0015113993
134	0xbae2f550	-0.001731554
135	0x3f085219	0.5325027
136	0x3e9859bb	0.2975596
137	0x3cf7de06	0.030257236
138	0x3d994f55	0.074858345
139	0x3b33ea10	0.0027452745
140	0xba96776b	-0.0011479681
141	0x3c1c38a2	0.009534987
142	0x3e0d53c3	0.13801484
143	0x3de4ddc4	0.11175111
144	0x3c39f2de	0.011349408
145	0xbb32b691	-0.0027269463
146	0x3d5cd70e	0.05391603
147	0xbe815bd0	-0.2526536
148	0x3f610a44	0.8790629
149	0x3c187863	0.009306046
150	0xbccfda4b	-0.025372645
151	0x3cfece53	0.031104242
152	0x3d605571	0.054768983
153	0x3e902851	0.2815576
154	0x3b1a28ef	0.0023522933
155	0x3e9f3a91	0.3109937
156	0x3a1d3a36	0.0005997749
157	0x3d4de5db	0.050268035
158	0x3c60af01	0.013713599
159	0x3d76b5df	0.06023204
160	0xbb98c93d	-0.0046626613
161	0x3ac802a3	0.0015259575
162	0x3d4de1ae	0.050264053
163	0xba917202	-0.0011096599
164	0x3b0a56be	0.0021108831
165	0x3eb05f17	0.34447548
166	0xba5dd1ba	-0.00084617327
167	0xbcf0c689	-0.029391544
168	0x3d02ece1	0.031964187
169	0x3ac005f6	0.0014650214
170	0x3c93f5d3	0.018061554
171	0x3bcee1d1	0.0063135405
172	0x3f4fa306	0.8110813
173	0x3d3b1867	0.04567757
174	0xbec9912a	-0.39368564
175	0x3eb2a57b	0.34891877
176	0x3c90f5c2	0.017695311
177	0x3c727671	0.014798746
178	0x3babb1af	0.0052396874
179	0x3f03f21b	0.515413
180	0x3a65560e	0.000874848
181	0x3e0f8045	0.14013775
182	0x39c356e7	0.00037258046
183	0x3d9ee12d	0.077577926
184	0x3a73bf5a	0.0009298228
185	0x3ad82b36	0.001649237
186	0x3d745c91	0.05965859
187	0x3c2a5b79	0.010397785
188	0x3acfd035	0.0015854897
189	0x3d125547	0.035725858
190	0xbe8f25c5	-0.27958503
191	0x3c900cbc	0.017584197
192	0x3d9fa502	0.077951446
193	0x3f042b55	0.5162862
194	0x3899e666	7.3385236e-05
195	0xbb01a26a	-0.0019780644
196	0xbe5583ff	-0.20851134
197	0xbeb73d54	-0.35788977
198	0x3ba8c30b	0.005150204
199	0x3f476e84	0.7790301
200	0x3dc92ec5	0.09823374
201	0x3d6f3753	0.05840237
202	0x3b566528	0.0032714102
203	0x3e7bdbbf	0.24595545
204	0x3df0c8e8	0.1175707
205	0x3d61aa59	0.055094097
206	0xbe7b71b6	-0.24555096
207	0x3c8406c0	0.0161165
208	0x3d1191cb	0.03553943
209	0xbbcc8f38	-0.006242659
210	0xbeb65a95	-0.35615984
211	0x3d226a8f	0.039652403
212	0x3d875d74	0.06609622
213	0x3c19e3dd	0.009392706
214	0x3eec11b9	0.4610727
215	0x3d8d9c70	0.06914604
216	0x3b0a93fa	0.002114533
217	0xbbac2b39	-0.005254176
218	0x3ea55520	0.32291508
219	0x3aa5297c	0.0012600864
220	0xba811f80	-0.0009851307
221	0xbb1dc4d7	-0.0024073625
222	0x3e8631de	0.2620992
223	0x3c4ad09a	0.012378836
224	0x3a5f61ed	0.0008521367
225	0xbc1ed4c8	-0.009694286
226	0xb8502ac1	-4.9630882e-05
227	0xbe97597c	-0.2956046
228	0x3e9ecf4b	0.31017527
229	0x3e9682f2	0.29396778
230	0xb90eb642	-0.00013610072
231	0xbdedb0cf	-0.11605989
232	0x3e31b52b	0.17354266
233	0xbd99d8f2	-0.07512082
234	0x3b5efd3b	0.003402545
235	0x3bbee88c	0.0058260616
236	0x39fdb541	0.00048390965
237	0xba4972c5	-0.00076846435
238	0xbf08f4cf	-0.5349855
239	0xbed8892e	-0.4229216
240	0x3c2e6bc9	0.010645815
241	0x3e0775d1	0.13228537
242	0xbe9efaa1	-0.3105059
243	0xbec59896	-0.38592976
244	0x3d92b54b	0.07163485
245	0x3bfcdbca	0.0077166306
246	0x3c83347e	0.016016241
247	0x3ca138b0	0.019680351
248	0x3e59db34	0.21275026
249	0x3cd01310	0.025399715
250	0x3ac56eb4	0.0015062899
251	0xba3177c7	-0.00067698624
252	0xbf239b31	-0.6390868
253	0x3d61f29a	0.055163004
254	0xbb882b16	-0.004155527
255	0xbfce1656	-1.6100566

fc3.bias f4 [2]
0	0x3d829852	0.06376709
1	0xbbe31536	-0.006930019
