runs/4_400_300_38_123_critic.pth (torch, 493207 bytes, 5 tensors)

fc1.weight f4 [400, 3]
-0.01778139 -0.019593274 0.006825328 -1.0204498 0.11114568 0.014982431 -0.5780913 0.12696722
0.033649325 -0.23935007 0.022698019 0.04774632 -0.19288844 -0.062276598 -0.015231477 0.71275944
-0.42629498 0.029012684 -1.0184596 0.0062879226 0.15026952 0.69419736 0.97287977 -0.044717964
0.5365645 1.0878967 -0.028048007 0.003803655 0.6376934 0.08592222 -0.02876016 0.021546787
-0.0061596036 -0.5241103 0.25260547 0.27097866 1.0484629 -1.1848519 -0.006011762 -0.022130698
-0.031312015 -0.0010783792 -0.26524177 -0.009176439 -0.03352425 0.20242347 1.3531718 0.022246711
-0.3270646 0.04820403 0.030796356 0.6772624 0.5352664 0.11439091 -0.13499579 -0.062322926
-0.006848591 1.6785059 0.18899702 -0.02596657 0.73810655 -0.9516869 0.019022033 0.04357078
0.0045971526 0.13603845 0.81982183 -1.1255331 -0.020886455 0.021534825 -0.008913052 0.009828001
-0.03277002 0.04401192 0.012808931 -0.027327985 -0.021237154 -0.017895842 0.38333893 0.011797904
0.16538396 -0.36325982 0.12197565 0.05407542 0.005891017 -0.04364263 -0.017546501 -0.37375888
0.1079105 -0.0027563565 -0.38194317 1.4084797 0.10346209 0.42965627 -0.42583314 0.3163669
0.7488707 -1.4127132 0.06255559 -0.050652325 -0.06863125 -0.004722979 0.20406406 0.98632616
0.48600882 -0.057606373 1.7947938 -0.028099813 -0.037242588 0.018637149 0.0110917995 -0.04813212
0.025255967 0.025210708 1.1298589 -0.8397553 -0.028840201 0.009788406 0.034909453 0.007885176
-0.025495583 0.045245875 0.04960678 0.014808159 -0.028419858 -0.0069941813 0.8859572 0.021714818
-0.015121313 1.0986902 0.8143984 -0.074007675 -0.23443973 -0.1411712 0.043864653 -0.4009733
0.016747432 0.090908326 0.3325317 0.38594815 0.22352551 0.028902875 0.023633875 -0.011139537
-1.0151212 -0.018615756 0.06489419 0.039151724 -0.045926612 -0.00995599 0.9036685 -0.7671141
0.016509775 -0.007884229 -0.012993604 0.01732465 0.865958 0.22761706 -0.021500804 -0.31298006
0.01271795 -0.020481221 -0.51099175 0.26423293 0.045559082 0.748271 1.3385991 -0.08602679
-0.45191422 0.18123163 0.04629759 -0.015876163 0.0028268218 0.015630055 -0.8006246 0.51497656
0.07850315 0.7944197 -0.36768904 0.1092122 0.031038893 -0.032545235 0.030827016 0.045922156
0.003676623 0.016580326 0.503827 1.3035929 0.016088177 0.014836402 0.01779145 -0.020067606
-1.0901626 0.37824622 0.073678695 0.04716871 -0.02185828 0.007070649 -0.01599195 0.018601222
0.044440668 0.9579794 -0.00017650634 -0.011291925 1.6273477 -0.9164895 0.079369165 -0.025291879
0.010130865 0.009450078 0.047952015 0.046544995 0.025082981 -0.027810251 0.027416397 0.037145138
1.2476108 0.44959876 -0.032915045 0.49332356 -1.4745255 0.06778433 -0.1918695 1.1659875
0.11932666 0.9004405 0.118108466 0.0026909283 -0.42508626 0.80823183 0.015684284 -0.27140826
0.14211479 0.0032859952 0.08068914 0.71104366 0.21992187 1.1727772 -0.8535876 0.003910423
-0.98669565 0.22147642 0.0397936 -0.0145163955 0.0486147 0.011965424 0.6487746 1.2374495
0.0022370494 -0.16764896 -0.67745674 0.19790877 0.9436398 0.22527444 -0.010058009 0.28477603
00000000: 47aa 91bc 1382 a0bc 00a7 df3b 199e 82bf
00000010: 59a0 e33d df78 753c cbfd 13bf b203 023e
00000020: e0d3 093d 2f18 75be 32f1 b93c a591 433d
00000030: 8c84 45be bf15 7fbd 728d 79bc 6777 363f
00000040: 5643 dabe 02ac ed3c e25c 82bf eb0a ce3b
00000050: 41e0 193e ebb6 313f a60e 793f 2f2a 37bd
00000060: 4b5c 093f 3340 8b3f efc4 e5bc be46 793b
00000070: e03f 233f fdf7 af3d 6d9a ebbc e382 b03c
00000080: 80d6 c9bb 182c 06bf 8155 813e b7bd 8a3e
00000090: 0834 863f 3aa9 97bf 51fe c4bb 704b b5bc
000000a0: 0741 00bd 6758 8dba c5cd 87be c658 16bc
000000b0: b950 09bd 1948 4f3e bc34 ad3f bc3e b63c
000000c0: 0375 a7be 9771 453d a448 fc3c 1261 2d3f
000000d0: 3807 093f c845 ea3d 563c 0abe 5346 7fbd
000000e0: 256a e0bb 48d9 d63f 6f88 413e d8b7 d4bc
000000f0: 8df4 3c3f c1a1 73bf 18d4 9b3c 4677 323d
00000100: b6a3 963b aa4d 0b3e d8df 513f 7811 90bf
00000110: 121a abbc cd69 b03c 0d08 12bc a005 213c
00000120: db39 06bd d845 343d 8ddc 513c f0de dfbc
00000130: 8af9 adbc 4d9a 92bc 0045 c43e ff4b 413c
00000140: 6a5a 293e 31fd b9be 5fce f93d 307e 5d3d
00000150: 6f09 c13b 9dc2 32bd aebd 8fbc 535d bfbe
00000160: 2e00 dd3d fda3 34bb 0e8e c3be 1049 b43f
00000170: efe3 d33d e8fb db3e cd06 dabe d8fa a13e
00000180: fdb5 3f3f c9d3 b4bf 251d 803d d078 4fbd
00000190: 8a8e 8cbd 38c3 9abb 2bf6 503e df7f 7c3f
000001a0: 26d6 f83e a9f4 6bbd cebb e53f 9431 e6bc
000001b0: af8b 18bd efac 983c 61ba 353c 3026 45bd
000001c0: 9ae5 ce3c b086 ce3c 379f 903f 34fa 56bf
000001d0: 4942 ecbc 8d5f 203c 37fd 0e3d d330 013c
000001e0: 1ddc d0bc bd53 393d 7b30 4b3d ec9d 723c
000001f0: c3d0 e8bc 722f e5bb 17ce 623f 46e3 b13c
00000200: 62bf 77bc e1a1 8c3f 6a7c 503f 5691 97bd
00000210: f810 70be 2f8f 10be 6cab 333d 5f4c cdbe
00000220: e931 893c 252e ba3d 9841 aa3e ff9a c53e
00000230: dfe3 643e b9c5 ec3c d49b c13c 9b82 36bc
00000240: 7eef 81bf 1280 98bc 3fe7 843d 8f5d 203d
00000250: 8b1d 3cbd 731e 23bc d256 673f 9761 44bf
00000260: 823f 873c da2c 01bc 20e3 54bc 6dec 8d3c
00000270: 6caf 5d3f 7214 693e 7422 b0bc ec3e a0be
00000280: f35e 503c 3cc8 a7bc 5bd0 02bf 8a49 873e
00000290: 299c 3a3d b08e 3f3f 3757 ab3f d02e b0bd
000002a0: 4d61 e7be c994 393e 8ba2 3d3d ba0e 82bc
000002b0: 3342 393b 9a0a 803c bcf5 4cbf 81d5 033f
000002c0: 42c6 a03d 175f 4b3f bd41 bcbe a5aa df3d
000002d0: 4745 fe3c 274e 05bd f088 fc3c df18 3c3d
000002e0: 80f3 703b 77d3 873c cefa 003f 22dc a63f
000002f0: 5acb 833c 6114 733c 60bf 913c d264 a4bc
00000300: 738a 8bbf 7da9 c13e dbe4 963d fa33 413d
00000310: 2310 b3bc e7b0 e73b 8d01 83bc 9761 983c
00000320: 6b07 363d 233e 753f 8f14 39b9 c401 39bc
00000330: ee4c d03f 0e9f 6abf 4d8c a23d ea30 cfbc
00000340: edfb 253c 80d4 1a3c 5569 443d f7a5 3e3d
00000350: d37a cd3c 53d2 e3bc 5a98 e03c 8025 183d
00000360: b6b1 9f3f cf31 e63e edd1 06bd e894 fc3e
00000370: 40bd bcbf 83d2 8a3d 7079 44be 143f 953f
00000380: 8961 f43d 4583 663f dae2 f13d 495a 303b
00000390: e8a4 d9be 48e8 4e3f 547c 803c 06f6 8abe
000003a0: 8a86 113e da59 573b 5940 a53d f506 363f
000003b0: 3333 613e 901d 963f b884 5abf 0123 803b
000003c0: 1698 7cbf b7ca 623e 9dfe 223d 2dd6 6dbc
000003d0: 3520 473d a00a 443c 1816 263f bf64 9e3f
000003e0: 769b 123b 2bac 2bbe ce6d 2dbf 99a8 4a3e
000003f0: 6192 713f 58ae 663e 59ca 24bc 2ace 913e

fc1.bias f4 [400]
-0.42114106 -0.54422706 -0.33151117 -0.32447344 -0.48830375 0.8022586 0.8882324 1.002949
1.215271 0.80636555 -0.3900659 -0.4645197 -0.05014403 -0.35311404 -0.71528274 1.010385
-0.33106765 0.73376507 -0.3549316 0.9203563 0.14457557 -0.1907229 -0.42769894 -0.23443973
-0.12022441 -0.36409578 0.7638611 -0.32721817 -0.34775516 -0.55878 0.5933409 -0.26850793
0.33273014 -0.1955095 -0.27540419 0.7588 -0.15231675 -0.15021871 0.017947601 -0.3917078
-0.55403304 -0.14507528 0.61886466 1.1473434 -0.31773934 -0.32538053 0.61830556 -0.30758646
-0.24279475 -0.5221869 0.4435097 -0.4092661 0.9183953 -0.6332122 -0.24723333 0.86213654
-0.17535245 -0.41225404 0.22057587 0.7926357 -0.2898475 -0.07665999 1.0315664 -0.547748
-0.13589217 -0.4369857 -0.08607394 0.75957054 0.053335235 -0.26097202 -0.13695417 -0.27394703
0.6848375 -0.4392409 0.8467383 0.7817326 -0.527912 -0.46375924 0.6774084 0.46954584
-0.43625295 -0.073181964 0.97933257 0.31370282 1.0903519 1.2059249 0.6048985 0.19097462
-0.48061973 -0.08596791 -0.6071759 -0.29648754 -0.43164936 -0.22652714 -0.19352074 0.49318027
0.4066109 -0.5600872 0.7860576 -0.11658189 0.49669078 -0.170349 -0.57459253 0.36260423
0.40858734 0.4137427 1.2518291 -0.29911327 0.21824794 1.0680153 -0.38145965 0.5948114
-0.28944066 -0.089315765 0.9398308 1.1427479 -0.58671373 -0.2546045 -0.3470186 -0.0445075
-0.21750264 -0.30251315 0.48526442 -0.292177 0.5622125 -0.52609116 -0.20398788 -0.085803695
-0.6662744 -0.07429415 0.7525749 -0.3940887 -0.31708205 -0.28633973 -0.30477896 0.33139637
0.99395716 0.9911885 -0.12951896 0.6188443 -0.5850374 -0.10229882 0.576723 0.7423885
-0.33119637 -0.20963915 0.3967644 -0.34378436 1.0060288 0.5974326 -0.48918575 -0.35874602
-0.24226286 -0.5696383 -0.11686125 0.94740903 -0.29824907 0.45879522 -0.19740272 0.70275474
1.0325636 0.65426505 -0.28890818 -0.29464892 1.1363928 -0.2653913 -0.10333852 -0.57138425
-0.36919236 -0.16698647 0.090869285 -0.8233064 -0.17087111 -0.09507354 0.69932157 -0.21670456
-0.16681921 -0.32872877 -0.24762778 -0.37012482 0.94042104 -0.24859706 0.89871395 1.2860711
-0.39927346 -0.39528716 -0.3371174 -0.57737005 0.24881175 -0.42350122 -0.2986665 -0.24445635
0.022487627 -0.050198507 0.57268417 0.74913734 -0.5577381 -0.5658172 -0.22776538 0.37360996
-0.49539268 -0.12627774 -0.109387726 -0.2627222 -0.15038064 0.6781774 -0.09683571 1.1102018
0.34156254 -0.1654765 0.5683215 -0.6529217 -0.36686382 0.16065991 0.50737387 -0.3367013
-0.2673503 -0.7353098 -0.2333123 1.1100633 -0.37902823 -0.7448824 -0.22809353 -0.14466576
-0.35433012 -0.40533417 -0.35387745 -0.09070205 -0.36675546 0.19355465 -0.54492193 -0.46707416
-0.44288763 -0.37573996 -0.5268214 -0.40096986 0.4943039 -0.23624289 -0.22385126 -0.8220956
1.1974652 0.6934409 -0.13473964 -0.3366559 1.0728931 0.9596115 -0.38865533 0.25020394
-0.3564258 -0.53814745 0.86706364 -0.2715443 0.6206861 -0.10685282 -0.27437592 -0.104935996
00000000: cd9f d7be 7752 0bbf d5bb a9be 6221 a6be
00000010: f302 fabe d260 4d3f 3363 633f a260 803f
00000020: 008e 9b3f f96d 4e3f b8b6 c7be 87d5 edbe
00000030: d463 4dbd 5dcb b4be c51c 37bf 4c54 813f
00000040: b381 a9be 07d8 3b3f 98b9 b5be 789c 6b3f
00000050: 9e0b 143e dd4c 43be 5bfb dabe f810 70be
00000060: 3738 f6bd c36a babe 678c 433f 2489 a7be
00000070: f70c b2be 350c 0fbf 30e5 173f df79 89be
00000080: 9b5b aa3e a433 48be c701 8dbe b840 423f
00000090: ecf8 1bbe efd2 19be d906 933c ed8d c8be
000000a0: 1cd5 0dbf 9d8e 14be ea6d 1e3f 26dc 923f
000000b0: bbae a2be 4798 a6be 4649 1e3f f97b 9dbe
000000c0: 309f 78be 0aae 05bf b413 e33e 548b d1be
000000d0: f41b 6b3f 321a 22bf bc2a 7dbe fbb4 5c3f
000000e0: 988f 33be f612 d3be a4de 613e 2cea 4a3f
000000f0: e466 94be eaff 9cbd 5e0a 843f 3739 0cbf
00000100: 5127 0bbe 97bc dfbe 8947 b0bd 3773 423f
00000110: 0c76 5a3d 209e 85be b73d 0cbe c942 8cbe
00000120: 8351 2f3f 2fe4 e0be d7c3 583f a11f 483f
00000130: 3e25 07bf da71 edbe a36a 2d3f 5068 f03e
00000140: 8c5c dfbe 6de0 95bd 8ab5 7a3f a89d a03e
00000150: a790 8b3f bf5b 9a3f a1da 1a3f da8e 433e
00000160: ca13 f6be f20f b0bd e16f 1bbf 37cd 97be
00000170: 2501 ddbe bbf6 67be 4d2a 46be 2082 fc3e
00000180: 4e2f d03e e061 0fbf 123b 493f 7cc2 eebd
00000190: 414e fe3e f86f 2ebe 7f18 13bf 43a7 b93e
000001a0: 5c32 d13e 15d6 d33e f03b a03f 6025 99be
000001b0: 637c 5f3e bab4 883f ae4e c3be 8f45 183f
000001c0: 9131 94be 2feb b6bd c098 703f 9045 923f
000001d0: df32 16bf 855b 82be 6cac b1be 7f4d 36bd
000001e0: 03b9 5ebe 01e3 9abe 9474 f83e 3998 95be
000001f0: 29ed 0f3f e9ad 06bf 33e2 50be d9b9 afbd
00000200: f690 2abf 8827 98bd c0a8 403f fec5 c9be
00000210: 9458 a2be 1f9b 92be fd0b 9cbe c9ac a93e
00000220: fa73 7e3f 88be 7d3f 9ea0 04be 946c 1e3f
00000230: 03c5 15bf 0b82 d1bd 1ea4 133f 2c0d 3e3f
00000240: 9292 a9be a5ab 56be b424 cb3e 8104 b0be
00000250: 8dc5 803f 58f1 183f 8e76 fabe 8fad b7be
00000260: c113 78be d1d3 11bf f354 efbd 6689 723f
00000270: 1ab4 98be 35e7 ea3e f023 4abe bce7 333f
00000280: 0b2b 843f ea7d 273f c6eb 93be 39dc 96be
00000290: 5275 913f 5ee1 87be 25a3 d3bd 3d46 12bf
000002a0: c806 bdbe 80fe 2abe ad19 ba3d 35c4 52bf
000002b0: d6f8 2ebe ebb5 c2bd bd06 333f cde7 5dbe
000002c0: a8d2 2abe 234f a8be 2392 7dbe 0081 bdbe
000002d0: 6fbf 703f 3a90 7ebe 1e12 663f fa9d a43f
000002e0: 926d ccbe 1463 cabe a79a acbe 86ce 13bf
000002f0: 82c8 7e3e 27d5 d8be d1ea 98be c452 7abe
00000300: f937 b83c f39c 4dbd 6e9b 123f 77c7 3f3f
00000310: edc7 0ebf 65d9 10bf 543b 69be ce49 bf3e
00000320: 1ca4 fdbe f44e 01be ac06 e0bd 8683 86be
00000330: 62fd 19be 099d 2d3f cd51 c6bd 181b 8e3f
00000340: 49e1 ae3e ac72 29be 857d 113f e025 27bf
00000350: 93d5 bbbe 0884 243e 41e3 013f 1d64 acbe
00000360: 23e2 88be 433d 3cbf 6be9 6ebe 8e16 8e3f
00000370: fd0f c2be 9db0 3ebf 5a91 69be 4323 14be
00000380: c26a b5be f687 cfbe 6d2f b5be ffc1 b9bd
00000390: 5fc7 bbbe 3133 463e 0180 0bbf 5824 efbe
000003a0: 2bc2 e2be fd60 c0be c4dd 06bf ec4b cdbe
000003b0: 6715 fd3e a8e9 71be 4439 65be db74 52bf
000003c0: 8a46 993f 5885 313f 30f9 09be 2a5e acbe
000003d0: 9054 893f 19a9 753f d5fd c6be bb1a 803e
000003e0: 717d b6be 08c4 09bf e2f7 5d3f db07 8bbe
000003f0: 49e5 1e3f a7d5 dabd 007b 8cbe afe8 d6bd

fc2.weight f4 [300, 402]
0.03805185 0.014249783 -0.048222832 0.06877653 0.10187952 -0.49821383 -1.3319206 0.5421534
0.69104403 -0.15103924 0.034399122 0.037346467 -0.4004321 0.021224605 0.1697926 0.17772734
0.07077866 -0.15355903 0.04579364 -0.9441153 -0.62617743 0.040623564 -0.34867007 0.05253837
0.04467292 -0.03635908 0.36516702 0.040236678 0.03004935 0.19509745 -0.05788355 -0.68502223
-0.39242482 0.0877071 0.0574829 0.7033453 0.0066982848 -0.048169807 -0.6269288 0.011823232
0.037655223 -0.02717567 -0.14058034 0.76268464 0.12908621 -0.032955587 -0.14908761 -0.05667413
-0.033242073 -0.051088545 -0.61872256 0.00017394961 -0.23223689 0.124372214 -0.087211154 0.64588344
0.04313022 -0.008412219 0.12259856 -0.012446915 -0.033229977 -0.0033387807 -0.39310488 -0.034793183
0.1387893 0.02725968 -0.0020951382 -0.546968 0.047005847 -0.05074265 -0.023225782 -0.011015001
-0.6139619 0.44462445 -0.23747706 -0.31267527 -0.113113135 0.097745776 0.13091837 -0.70978415
-0.030317456 0.050596733 0.27196825 -0.6260745 0.22546393 0.10952376 -0.27568576 -0.00415851
0.056613933 -0.018128911 0.18892723 -0.009334449 0.108966716 -0.03276537 -0.0076099113 -0.490925
-0.083681986 0.1352788 -0.6518596 -0.023181355 -0.44989118 0.048372053 -0.022859775 -0.35083786
-0.0016737344 -0.045147218 0.39555624 0.017800968 -0.46281326 0.034642242 0.10181359 -0.83758986
0.007812969 -0.05385299 -1.0012594 0.38531375 0.009321156 0.23939092 -0.02978285 0.03148234
0.07101839 -0.054686517 -0.39619377 -0.039593108 -0.09779936 0.028657837 0.009153693 0.0019224687
0.3027205 -0.5308021 -0.14297356 -0.023476679 -0.04248336 0.026251726 -0.16139974 0.06699821
0.20379798 0.19660261 0.04892595 -0.38269317 0.12346812 0.0522 -0.76177764 -0.7470466
-0.04745265 -0.44857588 -0.45907828 0.054884113 -0.04039057 0.43429032 -0.00873899 0.023791302
-0.10802322 0.121223226 -0.04973246 -1.0217035 -0.06806689 0.056735132 -0.033320215 0.07240441
-0.1225747 -0.11568776 0.024070837 0.041623544 -0.1311633 -0.08613773 0.1299663 0.38467658
-0.0906688 0.054316483 -0.27835467 -0.11627365 0.027046107 0.045934465 0.08482845 0.005268621
0.00682873 -0.035601586 0.10206358 0.004750227 0.16563995 -0.046356488 0.7840051 0.54787654
-0.049562566 -0.043968815 0.04808189 0.17739655 -0.41379568 0.04471619 -0.13825391 -0.13920969
-0.054714113 0.017958634 0.6169841 -0.3848557 -0.056800038 -0.0034618475 -0.055768337 -0.77449656
0.10580889 -0.8176615 0.0125364745 0.0005928699 -0.2659662 0.1402621 0.0030006065 -0.3794464
0.026967075 -0.021714058 -0.3771581 0.09366101 0.0898503 0.14323291 0.07013936 -0.032419357
-0.021561008 -0.44701815 -0.00089376816 -0.3436208 -0.054180484 -0.029707175 0.0044415584 0.014555748
-0.023854256 0.021516142 -0.020384844 0.018089423 -0.18863207 -0.53861856 -0.022862803 0.048738312
-0.033814885 -0.056969997 0.00933477 -0.015532804 -0.44060162 -0.029275421 -0.017762179 -0.41088742
0.016723929 -0.45669243 0.056458786 -0.012224167 0.095200256 -0.018013937 0.0085512195 -0.21113575
0.055807434 0.13660845 0.33681893 -0.03770833 -0.7219308 -0.33545053 -0.050628975 0.13230366
00000000: 42dc 1b3d ec77 693c 4e85 45bd b6da 8c3d
00000010: 36a6 d03d e215 ffbe 607c aabf 91ca 0a3f
00000020: 43e8 303f 08aa 1abe 18e6 0c3d 9cf8 183d
00000030: 7005 cdbe 39df ad3c 1dde 2d3e 28fe 353e
00000040: 67f4 903d 943e 1dbe 1d92 3b3d 8ab1 71bf
00000050: 2a4d 20bf e564 263d e284 b2be 7932 573d
00000060: f4fa 363d 42ed 14bd 2cf7 ba3e 37cf 243d
00000070: 0e2a f63c a0c7 473e 4d17 6dbd 9e5d 2fbf
00000080: e8eb c8be c89f b33d 3073 6b3d 700e 343f
00000090: 497d db3b b44d 45bd 687e 20bf 3bb6 413c
000000a0: 5d3c 1a3d 839f debc 4bf4 0fbe 4d3f 433f
000000b0: 2d2f 043e 70fc 06bd 6caa 18be 2223 68bd
000000c0: d728 08bd 3942 51bd 9a64 1ebf 3e66 3639
000000d0: 82cf 6dbe dcb6 fe3d c39b b2bd 9e58 253f
000000e0: 50a9 303d 67d3 09bc f414 fb3d 25ee 4bbc
000000f0: 281c 08bd 72cf 5abb 0b45 c9be 4c83 0ebd
00000100: c81e 0e3e b14f df3c 964e 09bb 1806 0cbf
00000110: 3489 403d 86d7 4fbd ff43 bebc 4378 34bc
00000120: 9b2c 1dbf d1a5 e33e 302d 73be f916 a0be
00000130: dca7 e7bd f02e c83d 770f 063e 6ab4 35bf
00000140: 505c f8bc 853e 4f3d 6c3f 8b3e 6b46 20bf
00000150: 04e0 663e fe4d e03d af26 8dbe 1c44 88bb
00000160: 03e4 673d 1583 94bc 2476 413e 84ef 18bc
00000170: f129 df3d fb34 06bd 905c f9bb 865a fbbe
00000180: 7661 abbd 8786 0a3e 45e0 26bf d3e6 bdbc
00000190: 2358 e6be c621 463d 6c44 bbbc 05a1 b3be
000001a0: 3561 dbba 4aec 38bd 5986 ca3e 56d3 913c
000001b0: dcf5 ecbe 06e5 0d3d a583 d03d 4a6c 56bf
000001c0: f801 003c f494 5cbd 4529 80bf d847 c53e
000001d0: c3b7 183c e522 753e 2afb f3bc a0f3 003d
000001e0: 1772 913d f8fe 5fbd e9d9 cabe 622c 22bd
000001f0: 084b c8bd d7c3 ea3c 5ff9 153c 58fb fb3a
00000200: 2efe 9a3e a5e2 07bf a967 12be 2a52 c0bc
00000210: 0803 2ebd dc0d d73c f945 25be 5c36 893d
00000220: 6bb0 503e 3252 493e 9466 483d 5cf0 c3be
00000230: dbdc fc3d abcf 553d dc03 43bf 723e 3fbf
00000240: b65d 42bd bdab e5be 4f0c ebbe 2ace 603d
00000250: 9570 25bd 4d5b de3e fb2d 0fbc fae5 c23c
00000260: 473b ddbd e243 f83d 44b4 4bbd 2ec7 82bf
00000270: a766 8bbd 1963 683d c77a 08bd c348 943d
00000280: 7208 fbbd b4ed ecbd 3430 c53c 737d 2a3d
00000290: ac4f 06be fa68 b0bd e315 053e 54f4 c43e
000002a0: 90b0 b9bd f67a 5e3d 8184 8ebe e120 eebd
000002b0: cc8f dd3c c725 3c3d 8aba ad3d 65a4 ac3b
000002c0: 8ac3 df3b f8d2 11bd b606 d13d cba7 9b3b
000002d0: 859d 293e 4de0 3dbd 8fb4 483f a341 0c3f
000002e0: 1e02 4bbd a518 34bd 84f1 443d 71a7 353e
000002f0: 07dd d3be 5328 373d 6f92 0dbe fc8c 0ebe
00000300: e81b 60bd fc1d 933c acf2 1d3f ce0b c5be
00000310: 28a7 68bd 2ae0 62bb 576d 64bd 6845 46bf
00000320: 55b2 d83d 4452 51bf c965 4d3c d36a 1b3a
00000330: b92c 88be dea0 0f3e d3a5 443b cc46 c2be
00000340: 0eea dc3c aee1 b1bc de1a c1be 58d1 bf3d
00000350: 6f03 b83d a6ab 123e 3aa5 8f3d 29ca 04bd
00000360: b6a0 b0bc 90df e4be c44b 6aba 11ef afbe
00000370: 5bec 5dbd 765c f3bc 7e8a 913b 3b7b 6e3c
00000380: 006a c3bc 9f42 b03c 1efe a6bc 4530 943c
00000390: c428 41be e8e2 09bf c64a bbbc d3a1 473d
000003a0: 7a81 0abd 5f59 69bd ddf0 183c 4d7d 7ebc
000003b0: 8996 e1be 02d3 efbc fd81 91bc d65f d2be
000003c0: 9f00 893c 97d3 e9be 5441 673d df47 48bc
000003d0: 5af8 c23d f791 93bc 6a1a 0c3c f833 58be
000003e0: 5696 643d 16e3 0b3e 8873 ac3e 0d74 1abd
000003f0: 75d0 38bf 2cc0 abbe 5460 4fbd 9c7a 073e

fc2.bias f4 [300]
0.20408231 -0.44911852 -0.017642729 0.039219897 -0.053670127 -0.043849062 -0.0016878495 0.13245925
0.18998891 0.51949435 -0.031855248 -0.040862616 0.017069446 -0.1855193 -0.05461108 0.19927442
-0.0688713 -0.35793152 -0.31641912 -0.018141538 -0.18904714 0.059596762 0.010953054 -0.08492137
-0.08049987 -0.45441133 -0.012100943 -0.03887484 0.20698072 0.8733584 -0.06418953 -0.019735849
0.17719308 0.014359658 0.05549922 -0.4526628 0.18308087 0.15257452 -0.18150744 -0.06612117
-0.024519147 0.35572568 0.60953045 0.76423985 -0.1112169 -0.04712536 -0.38439658 0.12624179
-0.24134882 -0.0718352 -0.043149233 0.08155858 0.50122917 -0.01524314 -0.049611308 -0.20025045
-0.05810008 -0.08610803 -0.049312066 -0.25216448 0.3709401 -0.064443655 0.30429515 -0.19714934
-0.04600521 -0.37680426 -0.027975254 0.18511201 0.00044395842 -0.12785073 -0.033983197 -0.43985116
-0.061230376 -0.075291626 -0.03253549 0.34651765 -0.024536032 0.47639716 -0.046120312 0.42605102
0.20530577 0.01726424 -0.14377283 0.100209765 -0.45208633 -0.02609729 0.27568915 -0.005208707
-0.10226019 -0.09950938 -0.018675266 0.0770416 -0.0678272 -0.18022227 -0.3477962 0.26347733
0.8630752 0.28984562 0.004998608 -0.38561514 -0.2895215 -0.04412825 0.13521707 -0.01872933
-0.01582283 -0.033584226 0.14295775 -0.36507887 -0.45959875 -0.34547 -0.05726816 -0.19536005
-0.11214051 -0.04727027 0.10937971 0.10298168 0.106771 0.07468664 -0.0710913 -0.06371941
0.052621953 -0.010003319 -0.08100399 -0.06284176 -0.028011812 0.61629254 -0.07205592 -0.014734679
-0.051294573 -0.055652104 0.008141373 -0.40402883 0.11184558 -0.15289137 -0.045805007 -0.476977
-0.040041745 -0.17085984 -0.022425147 -0.12712523 -0.0808617 0.25918794 0.018608665 0.29989105
-0.11337647 0.5797762 0.022689797 -0.3386816 -0.09841463 -0.048777316 -0.06514648 -0.023454655
0.27035904 -0.017735764 0.35238883 -0.04689263 0.093933575 0.7822577 -0.51674086 -0.0144537315
-0.37501276 -0.0028303182 -0.4430312 -0.0014548459 -0.06608699 0.012871299 0.5961497 -0.34165806
0.6031182 -0.46181467 -0.06581973 0.001661756 -0.43522337 -0.27761996 0.80978614 -0.010674881
-0.03465437 -0.06553368 0.027524317 -0.031852335 -0.04691726 0.58405197 0.4632525 0.21592598
-0.010566876 0.45758078 -0.023136621 -0.019281043 0.83502835 -0.043183137 0.051968567 -0.39177856
-0.46949333 -0.019722728 -0.112002954 0.1391908 -0.066391826 -0.048259992 0.17322214 -0.07655451
0.22078954 0.091193765 -0.114341006 -0.03916894 0.4255329 -0.44780305 -0.2050045 -0.091264546
-0.3163578 -0.08386584 -0.029102916 0.22111037 -0.41113746 -0.074533015 0.25124845 -0.43959162
-0.42875984 0.67643595 -0.103015825 -0.04614552 -0.05187323 -0.008463077 -0.15697372 -0.40428463
-0.07273052 -0.09882657 -0.07088754 -0.0055061136 0.14916053 -0.026293868 -0.19427559 -0.14457633
-0.00027928205 0.7289891 0.7557423 -0.0686112 -0.061182752 -0.044123646 0.18413082 0.49749583
-0.16482402 -0.06173638 -0.090391845 0.29833934 -0.01918066 -0.010883392 -0.33258852 0.22946745
-0.009728476 -0.10452333 -0.052006897 -0.09687577 -0.03618118 -0.03401515 -0.121542625 -0.47283345
00000000: f4fa 503e ddf2 e5be 7c87 90bc 0ba5 203d
00000010: 35d5 5bbd 139b 33bd d53a ddba 66a3 073e
00000020: 748c 423e 95fd 043f a67a 02bd 8f5f 27bd
00000030: 39d5 8b3c c5f8 3dbe deaf 5fbd 980e 4c3e
00000040: 650c 8dbd cd42 b7be b001 a2be 909d 94bc
00000050: 9395 41be bc1b 743d 7074 333c 41eb adbd
00000060: 1edd a4bd 9aa8 e8be 0943 46bc 393b 1fbd
00000070: c1f2 533e 6b94 5f3f cd75 83bd 13ad a1bc
00000080: 1a72 353e c544 6b3c 2653 633d 6bc3 e7be
00000090: 8d79 3b3e 7f3c 1c3e 16dd 39be 896a 87bd
000000a0: 61dc c8bc ad21 b63e 300a 1c3f 39a5 433f
000000b0: b0c5 e3bd 8606 41bd a1cf c4be 8745 013e
000000c0: 2524 77be 551e 93bd 40bd 30bd 2f08 a73d
000000d0: 8e50 003f 5dbe 79bc 3a35 4bbd 740e 4dbe
000000e0: 59fa 6dbd 6859 b0bd 73fb 49bd b41b 81be
000000f0: dceb bd3e 09fb 83bd 93cc 9b3e 84e1 49be
00000100: f66f 3cbd 7dec c0be 5c2c e5bc 018e 3d3e
00000110: 17c3 e839 4deb 02be f731 0bbd 2c34 e1be
00000120: b4cc 7abd 7f32 9abd ef43 05bd c36a b13e
00000130: caff c8bc 54ea f33e a7e8 3cbd 5c23 da3e
00000140: ad3b 523e bc6d 8d3c 2f39 13be c73a cd3d
00000150: dc77 e7be fcc9 d5bc 2127 8d3e cdad aabb
00000160: ca6d d1bd 93cb cbbd dffc 98bc fdc7 9d3d
00000170: fde8 8abd 308c 38be 5812 b2be 80e6 863e
00000180: 7ff2 5c3f a566 943e 5dcb a33b 596f c5be
00000190: 293c 94be d3bf 34bd 5876 0a3e 406e 99bc
000001a0: e19e 81bc 9d8f 09bd 8463 123e 9eeb babe
000001b0: 8750 ebbe 72e1 b0be 0592 6abd 770c 48be
000001c0: eca9 e5bd 789e 41bd 7802 e03d 0fe8 d23d
000001d0: c1aa da3d 4ff5 983d 5198 91bd 527f 82bd
000001e0: 1e8a 573d f6e4 23bc 6be5 a5bd 2eb3 80bd
000001f0: 0779 e5bc 59c5 1d3f 0e92 93bd b969 71bc
00000200: 421a 52bd 76f3 63bd 6563 053c dedc cebe
00000210: 4c0f e53d 8e8f 1cbe 089e 3bbd 5436 f4be
00000220: d002 24bd e2f5 2ebe f1b4 b7bc 1e2d 02be
00000230: d29a a5bd 48b4 843e 3371 983c 528b 993e
00000240: ec31 e8bd 376c 143f f4df b93c ad67 adbe
00000250: 9c8d c9bd b9ca 47bd 856b 85bd fa23 c0bc
00000260: 806c 8a3e 984a 91bc 4f6c b43e 7d12 40bd
00000270: 3f60 c03d 0a42 483f 2149 04bf 58cf 6cbc
00000280: ac01 c0be dc7c 39bb fcd4 e2be 87b0 beba
00000290: 9e58 87bd 24e2 523c 449d 183f ceed aebe
000002a0: f465 1a3f f972 ecbe 7fcc 86bd 47cf d93a
000002b0: 99d5 debe 3424 8ebe 254e 4f3f b2e5 2ebc
000002c0: bef1 0dbd 8636 86bd ad7a e13c 9877 02bd
000002d0: 502c 40bd 6e84 153f 6f2f ed3e b31b 5d3e
000002e0: b120 2dbc 0748 ea3e 0389 bdbc 47f3 9dbc
000002f0: 6bc4 553f cde0 30bd fedc 543d 3397 c8be
00000300: 6e61 f0be 8f91 a1bc ce61 e5bd 0888 0e3e
00000310: 70f8 87bd 45ac 45bd 2561 313e 9cc8 9cbd
00000320: a716 623e ccc3 ba3d 9e2b eabd 9c6f 20bd
00000330: 73df d93e 7146 e5be b3ec 51be e8e8 babd
00000340: a6f9 a1be dbc1 abbd 3d69 eebc c26a 623e
00000350: 9c80 d2be c4a4 98bd a3a3 803e 2712 e1be
00000360: 6986 dbbe e82a 2d3f f6f9 d2bd 1603 3dbd
00000370: 0679 54bd b8a8 0abc b8bd 20be 65fe cebe
00000380: bdf3 94bd 9665 cabd 7d2d 91bd a16c b4bb
00000390: 8abd 183e 3d66 d7bc 2ef0 46be d10b 14be
000003a0: 9a6c 92b9 089f 3a3f 5478 413f 0784 8cbd
000003b0: c49a 7abd ffba 34bd ca8c 3c3e c6b7 fe3e
000003c0: a1c7 28be 49df 7cbd 5c1f b9bd efbf 983e
000003d0: c220 9dbc 4150 32bc 0b49 aabe 84f9 6a3e
000003e0: 3064 1fbc 5410 d6bd 2f05 55bd ce66 c6bd
000003f0: b832 14bd 7853 0bbd 57eb f8bd 3a17 f2be

fc3.weight f4 [1, 300]
0.720465 0.99891984 0.00014102296 -0.007134138 -0.026800685 -0.019413704 -1.2091535 0.7986775
0.21101616 0.6108936 -0.84018147 0.0121646905 0.0051791975 0.37787282 0.26463515 -0.020014714
-0.021124829 0.18205926 1.4731609 -0.024414916 -0.2511651 -1.8958492 -0.017188182 0.0017538664
-0.028181158 0.28053722 -0.01047555 0.020507492 0.96260333 0.3962147 -1.0980085 0.010510946
0.13483652 -0.026074396 0.026765563 -1.3760926 0.038837213 1.8182039 -0.93696314 0.00045718809
0.012488616 -1.8715752 0.6301947 0.52893853 1.0711954 -0.017854307 -1.7803174 -0.614543
-0.28574646 -0.025689917 0.02347777 -0.0005024445 0.8010157 0.0068491134 0.025236426 0.2303593
-0.019899786 0.00633736 -0.0028264502 2.0705106 0.48812234 -0.0032096843 1.5742701 1.6581513
-0.026679974 0.24439839 -0.02228828 0.12756413 -0.0014927506 0.55318856 -0.022907995 0.3370418
1.5023316 -0.02448518 0.0053437073 1.1717594 0.0018060083 0.8398453 -0.022934973 0.7767161
0.054585442 0.029091066 0.2327202 -0.4863249 0.25989598 -0.019250454 1.1943675 0.0072377026
-2.4285476 1.698024 -0.035098407 0.0215784 0.02352666 -2.2563438 -2.8373802 -0.0126561755
0.6651638 1.1333662 -0.02599809 0.32133517 1.2366557 0.010963624 0.023880027 0.017006692
0.015669247 -0.034768254 0.052808505 -0.13324507 0.27097908 0.013116144 0.016857114 -0.17523898
0.15139835 -0.022768084 -1.4096043 -0.20082319 0.012979655 -1.7146173 -0.027303787 0.00083952816
0.19403817 0.00075643003 -0.025456753 0.008266042 -0.017635912 0.52239275 0.008711304 -0.024031062
-0.024184315 0.02493071 -0.041882206 0.087856695 1.6192256 0.22145766 0.025194488 0.17791711
-0.004759985 0.62976384 -0.0020695066 1.5050349 -0.026846489 -0.04624564 -0.024127278 0.6146261
0.23200183 -1.3924084 0.8801098 0.102 0.0031224245 -0.017165354 -0.00909521 -0.0065645254
-0.61382705 0.00702549 -0.00847613 -0.020735476 0.06603756 0.4671731 0.38267174 -0.029735563
1.0740337 -0.02773227 0.11696262 -0.022850513 0.029054435 -0.022161428 0.11285916 2.04754
1.3349633 0.316319 -0.013802753 -0.023890898 0.2747222 -1.2035502 0.71808976 0.1830003
0.029697383 0.0008395042 -1.061239 -0.02301143 0.0024787944 0.103434086 -0.5452255 0.20720746
-1.3045899 -0.0075193252 0.008687944 1.1714642 -2.1080346 -0.001126202 0.24095328 0.012834011
0.13736984 -0.022135098 -0.57104546 0.0040756525 -0.027894156 -0.024651142 1.4714335 0.012532408
1.8019245 0.38980222 -2.5493295 -0.027315253 1.7796571 -1.0690142 1.8563215 0.014821085
2.0103111 -0.010864574 0.026668712 0.35460028 0.08189573 0.029015388 2.9147289 0.13363278
0.11625525 0.334154 0.044466723 -3.0266402 0.012035795 0.016381351 1.1900628 1.7642825
0.017503208 -0.013296036 0.012547116 0.023437532 0.9906698 0.004467793 -1.0423087 0.3414027
-0.034203727 0.51849765 0.4590832 -0.0011520617 -0.028520837 -1.4848912 0.2076265 -0.7231756
1.5945793 -1.5059165 -0.017391142 0.13811626 -0.02599454 -0.023566011 1.4116021 0.35556555
0.017005453 0.3454387 -0.0065428247 0.03083139 -0.113943584 -0.006349026 0.37283486 -3.038047
00000000: 6570 383f 36b9 7f3f 90df 1339 7dc5 e9bb
00000010: 1c8d dbbc 7d09 9fbc 8bc5 9abf 2176 4c3f
00000020: 9f14 583e 8663 1c3f 2216 57bf 694e 473c
00000030: 42b6 a93b 8c78 c13e 427e 873e e6f5 a3bc
00000040: fa0d adbc be6d 3a3e 8990 bc3f ca01 c8bc
00000050: b698 80be 30ab f2bf 3bce 8cbc fee1 e53a
00000060: 2cdc e6bc 93a2 8f3e a4a1 2bbc 54ff a73c
00000070: 2c6d 763f a7dc ca3e 8b8b 8cbf 1a36 2c3c
00000080: 9612 0a3e f999 d5bc 7443 db3c cd23 b0bf
00000090: c513 1f3d e8ba e83f d1dc 6fbf bfb2 ef39
000000a0: 0d9d 4c3c c78f efbf 7154 213f 8468 073f
000000b0: ee1c 893f 3243 92bc 71e1 e3bf b152 1dbf
000000c0: 5c4d 92be a973 d2bc 7454 c03c 7bb6 03ba
000000d0: 5d0f 4d3f 876e e03b 9fbc ce3c 4fe3 6b3e
000000e0: e004 a3bc a1a9 cf3b f73b 39bb 3f83 0440
000000f0: 2ceb f93e 9159 52bb af81 c93f 4d3e d43f
00000100: f68f dabc 9243 7a3e e995 b6bc 2ca0 023e
00000110: 66a8 c3ba c49d 0d3f 8ca9 bbbc be90 ac3e
00000120: 674c c03f 2595 c8bc 441a af3b 36fc 953f
00000130: 95b7 ec3a 1a00 573f 20e2 bbbc ded6 463f
00000140: fc94 5f3d 6350 ee3c 344e 6e3e 94ff f8be
00000150: 1611 853e 21b3 9dbc 09e1 983f 402a ed3b
00000160: 536d 1bc0 da58 d93f 59c3 0fbd 2fc5 b03c
00000170: fbba c03c f067 10c0 a397 35c0 d95b 4fbc
00000180: 2d48 2a3f 2512 913f f2f9 d4bc 0b86 a43e
00000190: bc4a 9e3f c6a0 333c 0ca0 c33c 9e51 8b3c
000001a0: cb5c 803c 2869 0ebd bb4d 583d 6571 08be
000001b0: c5bd 8a3e 18e5 563c ee17 8a3c d971 33be
000001c0: 2b08 1b3e 2284 babc ea6d b4bf 98a4 4dbe
000001d0: 9ea8 543c 9478 dbbf 31ac dfbc c813 5c3a
000001e0: f1b1 463e 294b 463a ae8a d0bc 4b6e 073c
000001f0: 3079 90bc 88bb 053f dbb9 0e3c cadc c4bc
00000200: 2f1e c6bc 7d3b cc3c ad8c 2bbd 36ee b33d
00000210: c942 cf3f ccc5 623e ac64 ce3c e72f 363e
00000220: a6f9 9bbb 3438 213f 8fa0 07bb fca4 c03f
00000230: 2bed dbbc 116c 3dbd 92a6 c5bc 2358 1d3f
00000240: e391 6d3e 703a b2bf e04e 613f 60e5 d03d
00000250: 97a1 4c3b 5b9e 8cbc 1304 15bc 3b1b d7bb
00000260: c523 1dbf 1536 e63b 77df 0abc 72dd a9bc
00000270: b33e 873d 5031 ef3e 8ded c33e ff97 f3bc
00000280: f079 893f c92e e3bc 198a ef3d 0031 bbbc
00000290: 9103 ee3c e28b b5bc b422 e73d e50a 0340
000002a0: 14e0 aa3f 90f4 a13e f124 62bc d8b6 c3bc
000002b0: 63a8 8c3e ef0d 9abf bbd4 373f 6e64 3b3e
000002c0: ed47 f33c 2c12 5c3a aed6 87bf 7782 bcbc
000002d0: 4573 223b 40d5 d33d e693 0bbf 312e 543e
000002e0: cdfc a6bf ac64 f6bb e157 0e3c 8af2 953f
000002f0: 0aea 06c0 129d 93ba 75bc 763e be45 523c
00000300: aeaa 0c3e aa54 b5bc 0930 12bf 0d8d 853b
00000310: 4982 e4bc 31f1 c9bc ef57 bc3f bb54 4d3c
00000320: 76a5 e63f 2894 c73e 3728 23c0 3dc4 dfbc
00000330: cecb e33f 75d5 88bf f19b ed3f 23d4 723c
00000340: f0a8 0040 5401 32bc 5878 da3c 2b8e b53e
00000350: f3b8 a73d aeb1 ed3c eb8a 3a40 08d7 083e
00000360: 3c17 ee3d 3c16 ab3e bd22 363d 79b4 41c0
00000370: c831 453c 2f32 863c fa53 983f 02d4 e13f
00000380: e362 8f3c 9ed7 59bc 6b92 4d3c 1100 c03c
00000390: 899c 7d3f 9066 923b 5f6a 85bf 56cc ae3e
000003a0: 3519 0cbd 43bc 043f f40c eb3e c700 97ba
000003b0: 88a4 e9bc ea10 bebf 0b9c 543e 0922 39bf
000003c0: 2d1b cc3f dfc1 c0bf de77 8ebc 596e 0d3e
000003d0: 80f2 d4bc 820d c1bc 61af b43f b00c b63e
000003e0: 054f 8b3c 57dd b03e 3165 d6bb 1c92 fc3c
000003f0: 415b e9bd 7e0b d0bb 36e4 be3e 5d6f 42c0
