runs/4_400_300_4_456_actor.pth (torch, 491927 bytes, 6 tensors)

fc1.weight f4 [400, 3]
-0.0018140316 0.039090097 0.030879766 0.028378343 -0.017880756 -0.0028719425 -0.016349262 0.0046434044
-0.026472587 0.02662347 -0.024441093 0.033630747 0.13487767 0.13955772 0.09282583 0.032142747
0.018976033 0.04379453 0.07055834 0.07662111 0.048649102 0.013869042 0.0041636885 0.0025091886
-0.03073895 -0.003115374 0.032764193 0.011731378 0.043092486 0.04866864 0.053795084 0.0671836
0.118624546 -0.0059495093 -0.026171727 -0.0019036711 -0.010467978 0.059560303 0.045116484 0.045961775
-0.011987138 -0.034710385 0.09701256 0.13602543 0.1549295 0.0075700283 -0.0056464016 -0.004533297
0.038030602 -0.049720533 0.0128273135 0.007013661 0.008746964 0.04769463 -0.025871146 -0.0023572207
0.047076862 0.125835 0.1416077 0.069304936 0.048997022 0.07348252 0.053103484 0.022251522
-0.008361203 0.015337688 -0.0067177815 0.057158645 0.0352297 0.055666283 0.051441394 0.06791285
0.007983983 -0.03380209 0.043401755 -0.008084288 0.052046318 0.021362957 0.1277992 0.13175972
0.16789977 -0.026883245 0.00058437587 0.03470413 0.13119301 0.1218026 0.09666303 0.0033795894
-0.041036725 -0.0034049451 0.013983912 0.040769923 0.012871099 0.024502767 -0.025017513 0.04803885
0.0456083 0.021241074 0.0477736 -0.046307344 0.028370881 -0.034873378 -0.02681846 -0.034604926
0.024393333 0.028322821 0.009322924 -0.0242387 0.035244513 0.0016126216 -0.026978588 0.033196367
-0.049587768 -0.026593244 -0.028023679 0.04124573 0.049105804 0.032005202 0.01907143 0.013954765
0.096163645 0.08493433 0.07864125 0.120854266 0.16977657 0.1446518 -0.0033786893 0.035868675
0.04943772 0.02382382 0.015981423 -0.0016931838 0.019919634 -0.019756496 0.048086148 0.007434231
3.0517579e-06 0.027509278 -0.010802323 -0.046156447 0.03769024 0.1548569 0.09040456 0.1762387
0.09547757 0.17784916 0.15992287 0.0391948 -0.008422327 0.025524778 0.13025981 0.12226987
0.17042992 0.057689175 0.09151996 0.06714958 -0.01604463 0.043368276 0.03361858 0.014266849
0.013774807 -0.0067656934 -0.006836957 0.015496743 0.036807206 0.12148842 0.10298854 0.111008495
0.029556772 -0.0037749445 0.06755493 0.109421 0.1574356 0.13165444 0.03775134 0.042905707
0.09554828 0.013427633 0.03175919 0.0029313029 0.0017317951 0.010319585 0.012429208 -0.016417671
-0.04278786 -0.00795672 0.06799686 0.03258873 0.021669827 -0.027746791 0.033907246 0.027441477
0.0047423006 0.018940544 -0.013285929 0.03364409 0.042345304 0.0041607646 0.0071937502 -0.0380265
0.01176095 0.04871511 0.048765764 0.066700116 0.02155642 0.014385271 -0.01295454 0.17347063
0.16178769 0.14965798 0.11470148 0.13948739 0.08072795 0.03824944 0.020048589 0.0003933847
0.07567811 0.040459394 0.080601625 0.02386759 0.033632845 0.00036193134 0.0051546576 -0.002118361
-0.0283372 0.04474189 0.0013557688 0.026641868 -0.031765237 -0.025967421 -0.020892074 0.10235918
0.11697851 0.08394842 0.018205231 0.023965329 -0.004407388 0.04519262 0.068848506 0.07680112
-0.03159378 -0.041776475 0.028341247 -0.0010914982 -0.029192377 0.0072339238 -0.008101356 -0.02819696
0.049975444 0.13343364 0.12805383 0.08985393 0.045438763 -0.025095975 0.023605406 0.032597452
00000000: cdc4 edba f01c 203d 90f7 fc3c b379 e83c
00000010: aa7a 92bc 3337 3cbb e3ee 85bc b327 983b
00000020: 0add d8bc 7719 da3c b038 c8bc 65c0 093d
00000030: 5f1d 0a3e 38e8 0e3e 781b be3d 1da8 033d
00000040: a073 9b3c e561 333d e480 903d 87eb 9c3d
00000050: 4844 473d fa3a 633c 8d6f 883b 3371 243b
00000060: 40d0 fbbc 4d2b 4cbb bf33 063d f734 403c
00000070: bf81 303d c558 473d 3c58 5c3d 8e97 893d
00000080: 6df1 f23d 1af4 c2bb 1766 d6bc 9a84 f9ba
00000090: e281 2bbc 81f5 733d 10cc 383d 6a42 3c3d
000000a0: b365 44bc 7a2c 0ebd 85ae c63d 404a 0b3e
000000b0: d7a5 1e3e 000e f83b 7305 b9bb 0d8c 94bb
000000c0: fac5 1b3d c2a7 4bbd a729 523c dad2 e53b
000000d0: 6d4f 0f3c 725b 433d baef d3bc 9a7b 1abb
000000e0: abd3 403d e4da 003e 9c01 113e bfef 8d3d
000000f0: 1ab1 483d 017e 963d 0a83 593d d348 b63c
00000100: 6dfd 08bc ed4a 7b3c d620 dcbb 2f1f 6a3d
00000110: 054d 103d 5402 643d 36b4 523d e415 8b3d
00000120: 40cf 023c 0f74 0abd 0ac6 313d f673 04bc
00000130: 852e 553d 5e01 af3c cbdd 023e 05ec 063e
00000140: ebed 2b3e 403a dcbc cd30 193a eb25 0e3d
00000150: 7657 063e a473 f93d 44f7 c53d 1a7c 5d3b
00000160: 2016 28bd 8025 5fbb c71c 653c 5dfe 263d
00000170: 4de1 523c 07ba c83c 87f1 ccbc 63c4 443d
00000180: c5cf 3a3d c301 ae3c 40ae 433d c5ac 3dbd
00000190: 0d6a e83c 63d7 0ebd 63b2 dbbc e5bd 0dbd
000001a0: 87d4 c73c 4305 e83c 2dbf 183c 3d90 c6bc
000001b0: 8d5c 103d 9a5e d33a 3302 ddbc eaf8 073d
000001c0: 8b1c 4bbd 13da d9bc ea91 e5bc 48f1 283d
000001d0: 2b23 493d e317 033d b03b 9c3c 87a2 643c
000001e0: 72f1 c43d 0df2 ad3d aa0e a13d 7182 f73d
000001f0: e9d9 2d3e 9a1f 143e 006d 5dbb 08eb 123d
00000200: 357f 4a3d 2c2a c33c 79eb 823c d2ed ddba
00000210: 802e a33c 60d8 a1bc fbf5 443d da9a f33b
00000220: cdcc 4c36 235b e13c 3afc 30bc 8b0e 3dbd
00000230: 1561 1a3d cf92 1e3e 0726 b93d eb77 343e
00000240: bf89 c33d 171e 363e d2c2 233e ba8a 203d
00000250: cdfd 09bc 5719 d13c d462 053e a068 fa3d
00000260: 2e85 2e3e 7c4b 6c3d d16e bb3d b885 893d
00000270: 0770 83bc efa2 313d a3b3 093d 80bf 693c
00000280: baaf 613c c0b2 ddbb 8d08 e0bb 0de6 7d3c
00000290: 27c3 163d ecce f83d a8eb d23d 6c58 e33d
000002a0: 0b21 f23c 0f65 77bb 3d5a 8a3d 1e18 e03d
000002b0: cc36 213e 6cd0 063e 26a1 1a3d e5bd 2f3d
000002c0: d1ae c33d 93ff 5b3c ed15 023d 1a1b 403b
000002d0: 67fd e23a 7a13 293c e0a3 4b3c 5a7e 86bc
000002e0: 5342 2fbd e75c 02bc f041 8b3d c37b 053d
000002f0: ec84 b13c 3d4d e3bc 53e2 0a3d f3cc e03c
00000300: 4d65 9b3b 3329 9b3c 3aad 59bc 63ce 093d
00000310: 4572 2d3d 0657 883b 8db9 eb3b adc1 1bbd
00000320: 00b1 403c 7f89 473d 9cbe 473d 129a 883d
00000330: 1797 b03c 33b0 6b3c 473f 54bc 49a2 313e
00000340: acab 253e f13f 193e 9ce8 ea3d c8d5 0e3e
00000350: b254 a53d 72ab 1c3d f03c a43c 333f ce39
00000360: 20fd 9a3d c0b8 253d 7712 a53d f785 c33c
00000370: 98c2 093d 9ac1 bd39 67e8 a83b 33d4 0abb
00000380: 6a23 e8bc 4643 373d 0db4 b13a 0c40 da3c
00000390: 441c 02bd a1b9 d4bc db25 abbc b1a1 d13d
000003a0: 6e92 ef3d 26ed ab3d 2323 953c f052 c43c
000003b0: da6b 90bb e61b 393d 7200 8d3d e849 9d3d
000003c0: 7b68 01bd cf1d 2bbd e72b e83c 9a10 8fba
000003d0: da24 efbc 8d0a ed3b 8dbb 04bc 50fd e6bc
000003e0: 0db3 4c3d d4a2 083e 8b20 033e 5605 b83d
000003f0: ff1d 3a3d 1396 cdbc 2060 c13c e884 053d

fc1.bias f4 [400]
-0.35646605 -0.4884811 -0.14334558 -0.41406187 0.2798254 -0.30205873 0.17013612 -0.15607038
-0.15912203 0.08902741 0.20306173 -0.25909463 0.011609666 -0.15072802 0.33333546 -0.20656498
-0.38746226 -0.29250962 -0.17436394 0.31254184 0.14400454 -0.45063692 0.074585915 0.14975376
-0.15172687 0.05640495 0.37481165 -0.114448294 0.32089892 -0.38243434 -0.36122686 -0.32021993
-0.22398327 -0.2915393 -0.07514803 -0.4111767 -0.4154344 -0.427154 -0.52644175 0.0009076709
0.23341432 0.38159767 -0.38095754 0.035358302 -0.5097755 -0.16717917 -0.13068761 0.3409321
0.37898353 -0.23970103 0.3668602 0.094150096 -0.003227208 -0.39018828 -0.11698679 0.29437158
0.03421758 0.34381673 0.13665645 -0.02310562 -0.21728304 -0.4654076 0.09191397 -0.42655122
-0.48643175 0.043850396 -0.47145325 0.13685597 -0.5544493 0.39852452 0.30936888 -0.3234475
0.105405904 0.00056230446 -0.44531608 0.062750205 -0.07592919 0.27869388 -0.25023353 0.16749477
-0.29473832 -0.08727798 -0.012064562 0.31779543 -0.054207318 -0.19111654 0.416525 0.18179896
-0.48353848 -0.16543761 0.027470298 -0.40335247 0.102000125 -0.26563558 0.20095475 0.16718687
0.3255608 -0.17412904 -0.54119533 0.34762272 -0.07289407 -0.031855147 0.3176318 0.07294066
-0.25330287 0.3690338 -0.15243281 0.33521143 -0.51603687 -0.54973596 -0.3554987 0.026097648
-0.14566019 0.25275373 -0.32096255 -0.42567658 -0.19652148 -0.55352974 -0.44342577 0.27079812
0.1870711 -0.46141988 0.19608408 0.04830651 0.35737488 -0.3880335 -0.5538177 -0.4968714
-0.17523354 -0.27147192 -0.49475688 -0.3546889 -0.31500116 -0.0062275897 0.0096304035 -0.26855716
0.2684883 -0.15754367 -0.12041382 -0.116622634 -0.2871116 -0.3417619 -0.1426031 0.23434481
-0.277417 0.31552294 0.08213307 -0.28149745 0.18573937 0.3462469 0.41323456 -0.13489588
-0.106345885 0.2244955 0.27375033 0.13294466 0.37377432 0.22182538 -0.5583969 0.2907899
0.29496416 0.18274224 -0.16389103 0.23222849 0.12129639 -0.015046333 -0.05693661 -0.120171964
-0.423811 0.2863635 0.29864252 0.40333807 -0.5023166 -0.074206844 0.06853718 -0.42322034
0.005828586 0.1294034 0.016353063 0.16269793 0.26148582 -0.45439506 0.34218392 0.4012417
0.31170386 -0.33111227 -0.154377 -0.51532084 0.032898955 -0.17829408 0.4272931 0.27122694
0.18399958 0.41637847 0.31792232 -0.35456964 -0.29500145 0.14580403 -0.37331992 0.28464076
0.26148257 0.36741903 -0.48906544 0.040005185 -0.43125007 -0.44394866 -0.29974648 -0.44246414
0.31519756 -0.19446746 -0.49575388 -0.37613103 0.0013417405 -0.2524286 0.21318834 0.012884386
0.3323187 -0.2977407 -0.3654672 -0.011187062 0.022577146 0.13680488 0.07235486 0.15977113
-0.2969849 0.40467387 0.17553958 -0.4500362 -0.40475866 0.32779378 -0.07184964 0.36230645
-0.40088755 -0.16762997 -0.3986356 -0.40749812 0.3606994 -0.5472655 0.29337126 -0.30429274
-0.10717764 0.1739034 0.2898276 0.32008293 0.17893761 -0.550609 0.37110025 -0.03565492
0.12815678 0.05975063 -0.2462548 -0.17657042 0.045286924 0.41012082 0.056921583 0.4153516
00000000: b882 b6be 321a fabe 2fc9 12be ebff d3be
00000010: 4645 8f3e 71a7 9abe 2a38 2e3e ead0 1fbe
00000020: e3f0 22be 0154 b63d 6aef 4f3e 0da8 84be
00000030: 7836 3e3c 7258 1abe f2aa aa3e c585 53be
00000040: 7461 c6be d2c3 95be 768c 32be 7c05 a03e
00000050: ed75 133e e2b9 e6be 80c0 983d 0d59 193e
00000060: 4a5e 1bbe e008 673d 50e7 bf3e de63 eabd
00000070: dd4c a43e 6fce c3be baf2 b8be def3 a3be
00000080: df5b 65be a444 95be 36e7 99bd c185 d2be
00000090: d1b3 d4be eeb3 dabe e3c4 06bf c3f0 6d3a
000000a0: 2a04 6f3e c560 c33e de0c c3be ded3 103d
000000b0: a680 02bf 0431 2bbe f9d2 05be a78e ae3e
000000c0: 210a c23e 3074 75be 1ad5 bb3e c4d1 c03d
000000d0: 917f 53bb c2c6 c7be c596 efbd dfb7 963e
000000e0: bc27 0c3d bf08 b03e abef 0b3e ff47 bdbc
000000f0: 727f 5ebe e849 eebe 643d bc3d ec64 dabe
00000100: 950d f9be 799c 333d 5262 f1be f923 0c3e
00000110: 64f0 0dbf 680b cc3e 9965 9e3e e99a a5be
00000120: 0ddf d73d 9d67 133a 7800 e4be 2e83 803d
00000130: c380 9bbd f7b0 8e3e 9c1e 80be c083 2b3e
00000140: f1e7 96be ccbe b2bd 71aa 45bc 15b6 a23e
00000150: 7e08 5ebd 0eb4 43be c442 d53e 8229 3a3e
00000160: 5b92 f7be 7a68 29be 6409 e13c 3784 cebe
00000170: 71e5 d03d 6301 88be 15c7 4d3e 0933 2b3e
00000180: e8af a63e e24e 32be c78b 0abf 9bfb b13e
00000190: 7c49 95bd 8b7a 02bd a3a0 a23e ea61 953d
000001a0: eab0 81be 00f2 bc3e 5917 1cbe d5a0 ab3e
000001b0: fe1a 04bf 7fbb 0cbf ed03 b6be bcca d53c
000001c0: f227 15be f068 813e 3455 a4be 48f2 d9be
000001d0: ed3c 49be 20b4 0dbf b408 e3be 0da6 8a3e
000001e0: 918f 3f3e 3a3f ecbe 44ca 483e 0cdd 453d
000001f0: d7f9 b63e 54ac c6be ffc6 0dbf ee65 febe
00000200: 6c70 33be 5efe 8abe c650 fdbe c999 b5be
00000210: d547 a1be cf10 ccbb d7c8 1d3c 5380 89be
00000220: 4c77 893e 2153 21be 859b f6bd d9d7 eebd
00000230: 4b00 93be 6afb aebe 8c06 12be 16f8 6f3e
00000240: 9a09 8ebe 398c a13e 6235 a83d 6f20 90be
00000250: 7632 3e3e 4647 b13e 7b93 d33e 2522 0abe
00000260: dfcb d9bd 26e2 653e 0129 8c3e a522 083e
00000270: 595f bf3e 3126 633e 19f3 0ebf 6ae2 943e
00000280: 8b05 973e c820 3b3e 0dd3 27be 4ecd 6d3e
00000290: 3e6a f83d e584 76bc 5d36 69bd b81c f6bd
000002a0: c1fd d8be 3d9e 923e ace7 983e 5482 ce3e
000002b0: d297 00bf c2f9 97bd 395d 8c3d 56b0 d8be
000002c0: b9fd be3b 5382 043e dcf6 853c 499a 263e
000002d0: 78e1 853e 78a6 e8be bb32 af3e 8d6f cd3e
000002e0: a697 9f3e 8c87 a9be 0115 1ebe 11ec 03bf
000002f0: 0ec1 063d b992 36be 29c6 da3e 42de 8a3e
00000300: 636a 3c3e 8f2f d53e b7c6 a23e 278a b5be
00000310: 6e0a 97be a74d 153e ca23 bfbe 6fbc 913e
00000320: 0be1 853e 591e bc3e c966 fabe 7adc 233d
00000330: cfcc dcbe 3d4d e3be 5f78 99be a98a e2be
00000340: 9361 a13e 7a22 47be 74d3 fdbe 3f94 c0be
00000350: 57dd af3a 523e 81be 0b4e 5a3e 0819 533c
00000360: ad25 aa3e 7871 98be 841e bbbe f049 37bc
00000370: b5f3 b83c 9416 0c3e c92e 943d 0b9b 233e
00000380: 680e 98be 6a31 cf3e a6c0 333e 256b e6be
00000390: 873c cfbe 96d4 a73e e725 93bd 3b80 b93e
000003a0: 2241 cdbe 31a7 2bbe f719 ccbe 98a3 d0be
000003b0: 97ad b83e 9819 0cbf c234 963e 42cc 9bbe
000003c0: f37f dbbd bc13 323e 4864 943e e9e1 a33e
000003d0: 6c3b 373e b6f4 0cbf da00 be3e e50a 12bd
000003e0: 883b 033e 14bd 743d 382a 7cbe e0ce 34be
000003f0: c87e 393d 5bfb d13e 9b26 693d f7a8 d43e

fc2.weight f4 [300, 400]
-0.032300763 -0.015639944 -0.023782732 -0.037576094 0.009379949 0.017132873 0.061421238 0.028147254
-0.0033360277 -0.013343351 0.04504092 -0.014957498 0.008690338 0.026648896 0.06752861 -0.011313944
0.053356607 0.03214352 -0.02585383 0.06625073 0.005603862 -0.047275007 0.043677244 0.039959505
0.036746223 0.010589882 0.04199518 0.038122714 0.018318074 -0.027245289 0.013725845 -0.03614409
-0.055969246 -0.0063633453 0.041026674 -0.034473874 0.036603678 0.042786233 -0.034177236 0.024621425
0.054258358 0.020744493 0.038839303 -0.038843185 0.025385154 0.05151834 -0.043689664 -0.004069069
0.021667177 0.0132252695 -0.0008254681 0.06148922 0.06507911 -0.025954982 0.008014132 0.037157834
-0.0064854412 0.03074238 -0.0038596278 -0.00013273688 0.01475129 -0.0366254 0.04295014 -0.002937177
-0.046683893 -0.025230289 0.056519892 -0.021356251 0.042488392 0.011879352 0.017948372 0.012828801
-0.031270962 0.019115193 -0.034684192 0.05332654 0.03761542 -0.04051905 0.026467059 -0.009402808
-0.0070754555 0.0037503573 -0.035200644 0.03514313 -0.033778254 -0.033752974 -0.002056612 0.07293082
-0.028389437 -0.012998882 -0.009672266 -0.04734066 0.050969534 -0.057148118 -0.011032772 0.058703758
0.01907412 -0.045382056 -0.03596189 -0.042287044 -0.026772065 0.045570076 -0.0022619844 -0.007988633
0.014006846 0.0071248966 -0.034529556 -0.058058426 0.036255628 -0.032980856 -0.01129362 -0.012662983
-0.048186153 0.05862586 -0.020704312 0.012112863 -0.0022254456 0.015316306 -0.03505953 0.030403266
0.06900652 0.05685503 -0.026819268 -0.02626014 -0.020105243 -0.024416313 0.0037709982 -0.048830435
0.008341604 -0.052301556 -0.028118987 -0.029730076 -0.03333873 0.038137387 -0.033066474 -0.03636396
0.019582909 -0.030802144 -0.022116143 -0.04697609 0.026559856 -0.054242827 0.02081455 0.032283414
0.054168116 0.058063902 -0.017584477 -0.025723852 -0.007114879 0.022273244 0.009159269 -0.016360857
-0.005030663 -0.01127908 0.061990228 -0.036407996 -0.037103225 0.04045007 -0.02852274 0.055865835
-0.02367051 -0.042656943 -0.044918973 0.014360572 0.012050995 0.059138987 0.035393506 0.03801871
-0.035725437 -0.016078599 0.07436528 0.053738315 0.0056984844 -0.016586412 0.06227212 0.043887444
0.065179564 -0.029379772 0.0056677125 0.05741828 0.06033696 0.026389375 0.023324234 0.03973645
0.040104385 0.020081598 0.009443315 -0.051050246 0.048386116 0.022283258 0.0646195 -0.012888201
0.02129472 0.0288383 0.038194586 -0.038387693 0.028438207 -0.02468298 -0.012141771 -0.017481238
0.03525752 0.06604074 0.0005714651 0.0056232777 0.028417084 -0.019547615 -0.020976922 -0.054703772
0.033200793 -0.047072563 -0.041986924 0.028976802 0.040590167 0.02058929 0.034796946 0.042902753
-0.046423774 -0.038939122 -0.0008079152 0.0034278824 -0.030240286 0.06159772 0.06532404 0.013330165
-0.037702657 -0.036105797 0.06455702 -0.023163207 -0.015595166 0.074441925 -0.032435056 -0.04319814
0.0569511 0.030022893 0.020128626 -0.015569315 0.04993611 0.028495925 0.047972657 0.037325032
-0.0070134574 0.07950765 0.03142626 -0.022566497 -0.02877994 0.009026748 -0.0053029982 0.03946656
-0.022144357 0.03237524 0.011367091 -0.038521007 0.044465967 0.008885512 -0.024501944 0.07290843
00000000: ce4d 04bd 571f 80bc 01d4 c2bc 64e9 19bd
00000010: 5cae 193c 3d5a 8c3c d694 7b3d 1295 e63c
00000020: 42a1 5abb 129e 5abc d47c 383d 4b10 75bc
00000030: eb61 0e3c c94e da3c 714c 8a3d 1f5e 39bc
00000040: 758c 5a3d eca8 033d 69cb d3bc 76ae 873d
00000050: 9aa0 b73b 70a3 41bd e9e6 323d 94ac 233d
00000060: 3583 163d 2f81 2d3c 2303 2c3d 9026 1c3d
00000070: c90f 963c 8331 dfbc 5ee2 603c d30b 14bd
00000080: 0240 65bd 9c83 d0bb 960b 283d 7a34 0dbd
00000090: bded 153d 9e40 2f3d 6efd 0bbd dfb2 c93c
000000a0: 033e 5e3d 5bf0 a93c f615 1f3d 081a 1fbd
000000b0: 87f4 cf3c e504 533d eff3 32bd d355 85bb
000000c0: 5d7f b13c cdae 583c 3a64 58ba 1fdc 7b3d
000000d0: 3248 853d 8b9f d4bc b54d 033c d032 183d
000000e0: d383 d4bb 72d7 fb3c cff1 7cbb 492f 0bb9
000000f0: 65af 713c 8404 16bd 7cec 2f3d a77d 40bb
00000100: 9c37 3fbd c0af cebc 6781 673d 4ef3 aebc
00000110: 4f08 2e3d 9da1 423c 7708 933c e42f 523c
00000120: fb15 00bd 7797 9c3c 0311 0ebd ee6c 5a3d
00000130: a012 1a3d 4ef7 25bd 72d1 d83c 3c0e 1abc
00000140: 39d9 e7bb 8ec8 753b 8d2e 10bd 3ef2 0f3d
00000150: 115b 0abd 8f40 0abd 39c8 06bb c15c 953d
00000160: f790 e8bc 43f9 54bc 6d78 1ebc 48e8 41bd
00000170: 6ec5 503d 2514 6abd cdc2 34bc 5a73 703d
00000180: 5441 9c3c 89e2 39bd c64c 13bd 2e35 2dbd
00000190: 1751 dbbc b0a7 3a3d cd3d 14bb c1e2 02bc
000001a0: f87c 653c f777 e93b dd6e 0dbd acce 6dbd
000001b0: c880 143d ef16 07bd e008 39bc 6678 4fbc
000001c0: d85e 45bd ab21 703d 179c a9bc 0875 463c
000001d0: c8d8 11bb 3ef1 7a3c 959a 0fbd 4510 f93c
000001e0: 4a53 8d3d d2e0 683d 15b4 dbbc 811f d7bc
000001f0: c0b3 a4bc b804 c8bc da22 773b 6c02 48bd
00000200: 39ab 083c 283a 56bd ca59 e6bc 7d8c f3bc
00000210: 318e 08bd f335 1c3d b670 07bd 60f2 14bd
00000220: 566c a03c c754 fcbc ea2c b5bc 006a 40bd
00000230: 0e94 d93c ba2d 5ebd 4683 aa3c 9d3b 043d
00000240: 63df 5d3d 6ad4 6d3d 520d 90bc d4ba d2bc
00000250: ee23 e9bb 6176 b63c c210 163c 3407 86bc
00000260: 43d8 a4bb e4cb 38bc 77e9 7d3d 8d20 15bd
00000270: 8df9 17bd f9ae 253d 85a8 e9bc 93d3 643d
00000280: a8e8 c1bc 0cb9 2ebd f5fc 37bd 9b48 6b3c
00000290: 8971 453c b93b 723d c8f8 103d 82b9 1b3d
000002a0: d654 12bd 44b7 83bc d34c 983d b51c 5c3d
000002b0: 5aba ba3b 3ae0 87bc 0d11 7f3d 52c3 333d
000002c0: dd7c 853d d9ad f0bc 38b8 b93b 6e2f 6b3d
000002d0: e323 773d 882e d83c 7712 bf3c b0c2 223d
000002e0: 7f44 243d 2a82 a43c 22b8 1a3c 101a 51bd
000002f0: 8530 463d 618b b63c 3a57 843d 0829 53bc
00000300: 4472 ae3c 4c3e ec3c ed71 1c3d 6a3c 1dbd
00000310: 3ef7 e83c f633 cabc 47ee 46bc d034 8fbc
00000320: 306a 103d 5e40 873d 60ce 153a 7943 b83b
00000330: f2ca e83c 5222 a0bc cbd7 abbc 1011 60bd
00000340: 8efd 073d 29cf 40bd 7bfa 2bbd c260 ed3c
00000350: e041 263d dfaa a83c 3e87 0e3d ccba 2f3d
00000360: db26 3ebd a17e 1fbd 45ca 53ba 53a6 603b
00000370: 7aba f7bc e44d 7c3d 9cc8 853d c466 5a3c
00000380: 1a6e 1abd ace3 13bd 7936 843d c4c0 bdbc
00000390: de82 7fbc 0275 983d 9fda 04bd 88f0 30bd
000003a0: 8e45 693d 92f2 f53c cae4 a43c 7116 7fbc
000003b0: ce89 4c3d 4970 e93c fa7e 443d 22e2 183d
000003c0: 25d1 e5bb e8d4 a23d d2b8 003d 60dd b8bc
000003d0: e9c3 ebbc ede4 133c c6c4 adbb b0a7 213d
000003e0: 1568 b5bc e69b 043d 093d 3a3c 34c8 1dbd
000003f0: f221 363d 8a94 113c 4db8 c8bc 0451 953d

fc2.bias f4 [300]
0.053345002 -0.038352396 0.02017956 1.9052019e-05 -0.0003822224 -0.012763274 -0.023219364 -0.018696828
-0.014661822 -0.002053376 0.09624839 -0.01603592 -0.00040457127 -0.03692011 1.4031023e-05 -0.050943248
-0.0127675 0.0448423 -0.014699836 -0.0031008387 -0.046918362 -0.043309156 -0.024964828 -0.008561668
-0.024289554 0.102105975 -0.03648245 -0.02608093 0.07681528 -1.2814315e-05 -0.05298857 -7.842614e-05
0.054266155 -0.003182292 0.084598854 0.027091512 0.11802436 -1.0989683e-05 -9.767289e-05 -0.030137774
0.08027017 -0.03271022 -0.0004158242 -1.5732074e-05 -1.0240552e-05 -0.04520404 0.06319883 -0.028108504
-0.00022483652 0.019864162 -1.4166923e-05 -0.00013824036 -0.029273046 0.02999016 0.07882528 0.07388246
-0.0019731037 -0.020600516 -0.00040844025 -0.027875453 -1.394363e-05 -0.03350779 -0.00066634925 -0.0010511845
-0.000118150434 -0.031312812 -0.017598981 -0.034445513 0.14937702 0.11353856 -0.009461767 -0.016621033
-0.02924631 -0.0026704234 -0.016787713 -1.5186797e-05 -1.0460505e-05 -0.052053504 0.004405904 -0.005565667
-0.0048302324 -0.00062830705 -0.012778622 -0.001060509 -4.99565e-05 -0.004204831 0.007976732 -8.9150344e-05
-0.030192649 -6.743863e-06 -0.046726864 -0.0040289196 -2.8904262e-06 -0.027312532 -7.9433696e-05 -0.022133535
-1.11917525e-05 -0.01652492 -0.03502345 -7.059013e-05 -0.037538055 -6.371173e-05 -0.048523773 -9.408236e-05
-0.053424526 -0.042735107 7.232085e-05 -0.008099401 -0.026231397 -0.0068482934 -0.036636204 -0.00015094285
0.0008689813 0.08688966 -0.04104942 -2.4189898e-05 -9.804159e-06 -0.040420856 -0.022682363 -0.00034566602
-0.011346507 -0.0037927153 0.044421703 -0.040407687 -0.00522224 0.18395872 0.12013023 -0.029989723
-0.036898173 0.017159706 0.050788607 -0.019485658 -0.00025899019 -0.02977479 -0.0007882944 -0.035889663
0.123541504 -0.06246447 -0.003783267 0.14664051 -0.0004504852 -1.9585386e-06 -4.8051937e-05 -5.2386622e-05
-0.00058136584 0.11091437 -0.024850428 0.064575456 -0.016197933 -0.027253002 0.17834958 -0.019070758
-3.686481e-05 -0.040250935 0.15261655 -0.03012426 0.02713139 -0.028217202 -0.010887909 -0.038863327
-1.9969739e-05 -9.482415e-06 -0.027117325 -0.024877675 -1.2076742e-05 -0.032205876 -0.023819972 0.0958765
-0.014822265 -0.018997334 -0.023653805 -1.5347321e-05 -0.01765448 0.081641234 -0.01348401 -0.04959156
-0.0368482 -2.9442187e-06 -0.0024798075 0.015132114 -0.036113128 -0.00013274039 -0.015481718 -0.00072530407
-0.001044003 -0.0041976473 -0.008999096 -2.8095572e-05 0.14386526 -0.0022629304 -0.00066469697 -0.01182049
-1.8369561e-05 -8.366829e-05 -0.003435581 -0.045689523 -0.0056953947 -0.043744337 -0.006145303 -0.0009137238
-0.0036544888 0.0076308157 -0.019151647 -0.0010838362 0.104030915 -0.040464725 -0.05343472 -0.044811845
-0.056091733 0.003284891 0.07937226 -2.5416954e-05 0.09968507 -0.015807468 -0.040208135 -0.000104924846
-2.7135065e-06 -0.032040723 0.00026090888 2.5292862e-05 0.03201435 -0.008126015 -0.024192 -0.03386415
-0.0434721 -0.0025637946 -0.025303995 -1.721544e-05 -0.0016791284 0.095450304 -7.60201e-05 0.00010561647
-0.008927587 -1.3342942e-05 -0.022194523 0.1064052 -0.0427135 -0.017613936 -0.0003036604 -0.010456845
-0.06879655 -0.015863312 -0.00034159704 -0.0028386703 0.12782528 0.079147734 -6.21366e-05 -0.0031965023
-0.00042735212 -0.023133552 -0.0066736112 -0.009413498 -0.02820526 -1.4249093e-05 -0.011076072 0.117490955
00000000: 4a80 5a3d 6717 1dbd 9b4f a53c e6d1 9f37
00000010: 0665 c8b9 0d1d 51bc 8936 bebc 172a 99bc
00000020: 2338 70bc ef91 06bb e01d c53d c35d 83bc
00000030: a31c d4b9 8b39 17bd c966 6b37 dea9 50bd
00000040: c72e 51bc 8fac 373d 95d7 70bc 7137 4bbb
00000050: 782d 40bd f164 31bd 0a83 ccbc 3d46 0cbc
00000060: e3fa c6bc f01c d13d 9f6e 15bd ada7 d5bc
00000070: 5451 9d3d 10fd 56b7 8b0a 59bd b778 a4b8
00000080: 3046 5e3d 008e 50bb 2a42 ad3d 05ef dd3c
00000090: c1b6 f13d 5460 38b7 bcd5 ccb8 7ee3 f6bc
000000a0: b064 a43d 27fb 05bd fb02 dab9 5ff8 83b7
000000b0: d6ce 2bb7 df27 39bd 636e 813d ce43 e6bc
000000c0: 18c2 6bb9 2bba a23c 79ae 6db7 9df4 10b9
000000d0: 07ce efbc edad f53c 266f a13d b04f 973d
000000e0: 304f 01bb 6ac2 a8bc ec23 d6b9 105b e4bc
000000f0: 6fef 69b7 773f 09bd f1ad 2eba e6c7 89ba
00000100: 88c7 f7b8 dd41 00bd bd2b 90bc bd16 0dbd
00000110: 4af6 183e e886 e83d 8705 1bbc d528 88bc
00000120: f595 efbc 4502 2fbb 6386 89bc ccca 7eb7
00000130: 877f 2fb7 0e36 55bd 675f 903b 3360 b6bb
00000140: ed46 9ebb f9b4 24ba 6d5d 51bc c700 8bba
00000150: 6288 51b8 aec8 89bb d7b0 023c 3af6 bab8
00000160: 9356 f7bc 5849 e2b6 ab64 3fbd 0705 84bb
00000170: 25f9 41b6 88be dfbc a495 a6b8 6351 b5bc
00000180: 36c4 3bb7 455f 87bc c074 0fbd ca09 94b8
00000190: 81c1 19bd f99c 85b8 ddc0 46bd 154e c5b8
000001a0: add3 5abd 020b 2fbd f6aa 9738 5ab3 04bc
000001b0: 3ae3 d6bc a667 e0bb d80f 16bd 6a46 1eb9
000001c0: 59cc 633a 35f3 b13d 7023 28bd 69eb cab7
000001d0: 8b7c 24b7 5790 25bd 5dd0 b9bc 823a b5b9
000001e0: b3e6 39bc 348f 78bb 88f3 353d 8882 25bd
000001f0: 531f abbb ad5f 3c3e d706 f63d 02ad f5bc
00000200: 8a22 17bd 8392 8c3c b707 503d 63a0 9fbc
00000210: 13c9 87b9 43ea f3bc 8ba5 4eba 0a01 13bd
00000220: 5403 fd3d beda 7fbd b0f0 77bb ee28 163e
00000230: 1a2f ecb9 706f 03b6 608b 49b8 b5b9 5bb8
00000240: cd66 18ba 1327 e33d 2093 cbbc 2340 843d
00000250: 87b1 84bc b041 dfbc 46a1 363e 473a 9cbc
00000260: 4a9f 1ab8 2ade 24bd 8347 1c3e 27c7 f6bc
00000270: a642 de3c c327 e7bc 3363 32bc 272f 1fbd
00000280: b084 a7b7 aa16 1fb7 2725 debc 44cc cbbc
00000290: 369d 4ab7 4fea 03bd 1a22 c3bc e65a c43d
000002a0: 16d9 72bc 4ca0 9bbc a0c5 c1bc 1fbe 80b7
000002b0: 21a0 90bc 8533 a73d 09ec 5cbc 8520 4bbd
000002c0: 23ee 16bd 4b95 45b6 4484 22bb b0ec 773c
000002d0: 5ceb 13bd 3a30 0bb9 08a7 7dbc 5522 3eba
000002e0: edd6 88ba 6b8c 89bb f270 13bc c8ae ebb7
000002f0: 6a51 133e ac4d 14bb 0f3f 2eba baaa 41bc
00000300: 5518 9ab7 1277 afb8 7c27 61bb f024 3bbd
00000310: 6fa0 babb 432d 33bd 8a5e c9bb f786 6fba
00000320: 2680 6fbb ec0b fa3b eae3 9cbc 820f 8eba
00000330: 290e d53d 57be 25bd 5dde 5abd a08c 37bd
00000340: 72c0 65bd 5347 573b ec8d a23d 7e36 d5b7
00000350: b027 cc3d aa7e 81bc 49b1 24bd 190b dcb8
00000360: b019 36b6 223d 03bd 99ca 8839 022c d437
00000370: 7b21 033d fa22 05bc 4d2e c6bc 23b5 0abd
00000380: cd0f 32bd 5605 28bb 534a cfbc e069 90b7
00000390: 3316 dcba 737b c33d fb6c 9fb8 697e dd38
000003a0: 0445 12bc 80db 5fb7 4ad1 b5bc f8ea d93d
000003b0: 5af4 2ebd 1a4b 90bc 9c34 9fb9 3053 2bbc
000003c0: 35e5 8cbd c7f3 81bc 6118 b3b9 fc08 3abb
000003d0: a1e4 023e 3518 a23d 554f 82b8 697c 51bb
000003e0: 3b0e e0b9 9382 bdbc 4fae dabb 133b 1abc
000003f0: b80e e7bc 630f 6fb7 6a78 35bc 199f f03d

fc3.weight f4 [2, 300]
0.039330926 -0.016468843 0.015448486 2.9834478e-06 -3.7926955e-05 0.0023006035 0.007464077 -0.017533742
-0.022579592 0.022329519 0.066328585 0.028336031 0.00066282024 -0.0022231294 2.1328924e-06 0.0075304625
-0.002589879 0.032959115 -0.002017653 -0.0030018946 0.00287558 0.016670996 -0.00082629954 0.016810937
0.006109765 0.07057039 0.004491414 0.026967322 0.05392215 7.668445e-06 0.0033075602 -2.608679e-05
0.040556215 -0.011637384 0.059044585 0.02077948 0.07858405 -3.3740052e-06 4.972722e-06 0.010527978
0.061757017 -0.0020616788 -0.00012844661 -1.6296299e-05 -1.133778e-05 -0.0002116059 0.046648383 0.02521325
-3.1277203e-05 0.0151655115 1.0046813e-05 4.936292e-06 -0.0021044856 0.02281005 0.05624841 0.053042848
-0.00029608587 0.0041471035 -6.999918e-05 -0.00074493815 7.941233e-06 -0.0025003834 0.00033804507 0.00027950708
3.0523726e-05 0.0016718559 -0.00040693153 -0.0021824946 0.09470031 0.07562698 0.0021614856 0.021995
0.018643143 -0.0015312842 0.0003160783 -4.382444e-06 -7.474201e-06 0.005538298 0.0034162155 -0.00039202988
0.02923637 -0.00053616223 0.0024841407 -0.00035874647 7.2881296e-05 -0.0046208897 0.0061885477 3.5324967e-05
0.01635624 -3.9212896e-06 -0.020726753 -0.00020792513 4.2658257e-06 0.008757826 -0.00088312814 -0.0015940004
-3.279434e-06 -0.021796847 0.0027763627 4.931284e-05 0.028685983 5.331733e-05 -0.000679376 7.259099e-05
0.024268344 0.0031333382 3.5885903e-05 -0.0016696751 -0.00029577434 -0.023340845 0.01213552 2.4336943e-05
0.00050523115 0.061500963 0.0022034883 -5.533217e-06 8.810977e-06 0.002208015 0.00033978652 -0.00041381264
0.0054115276 -0.00032970015 0.032847106 -0.022032015 -0.0009403497 0.10877769 0.08048363 0.012007921
-0.0029781575 0.0132103935 0.03755735 -0.020890573 -3.256019e-05 0.002903235 0.00010763101 0.0011513282
0.08298601 -0.0072536827 0.0009006534 0.09446911 -0.0010330399 -2.0417678e-05 3.2206142e-05 4.9209837e-05
1.9850493e-05 0.074855424 0.00041606175 0.046506066 0.02435816 0.0022358121 0.11394204 0.008175872
-2.910535e-06 -0.0022241522 0.0971576 0.016270487 0.020512486 -0.001015337 0.023606028 0.010316618
-1.0641208e-05 5.7484776e-06 -0.0027250357 -0.021138258 -9.10726e-06 0.001400397 0.0029506942 0.06679122
-0.017649038 -0.010320255 -0.034485962 9.252335e-06 0.027286647 0.058106743 0.024805507 -0.001762555
0.0154449195 2.9395085e-06 -0.000118897515 0.011672172 0.008599947 -0.00015525553 0.022493802 -0.008693832
-0.00038761232 -0.00093651447 0.025907611 2.5812775e-05 0.09363546 0.028494237 -0.0003666614 0.004741191
4.7515164e-06 6.265991e-06 -0.0020347629 -0.002823659 -0.017439272 0.007751453 -0.002759733 -0.025313789
-0.0027954238 0.00593984 0.0022363577 -0.026796393 0.07084935 -0.0006464664 -0.029579947 0.007981606
0.010601367 0.0025253224 0.05652094 -6.51588e-05 0.06769835 0.0066821245 0.0114178555 -1.715177e-05
-1.0315993e-05 0.0018817799 0.0001783509 4.295711e-06 0.024393687 0.0013809317 -0.002613028 -0.0025428464
0.001989923 -0.006049254 -0.00012015224 -3.4498407e-07 -0.0027580734 0.06649424 7.053878e-05 2.8688846e-05
0.03049833 -9.753679e-06 -0.00013770675 0.07151404 0.0018575538 0.00041179848 -0.0001525196 -0.016078183
-0.027751498 0.0057492456 -0.00023552138 -0.0018163318 0.08356759 0.056651626 5.8151352e-05 -0.0010766862
-0.00011520375 0.0021409024 -0.0109843565 0.029700374 -0.025931358 1.3625277e-05 -0.011574516 0.07871793
00000000: 7719 213d abe9 86bc a61b 7d3c 3e37 4836
00000010: c213 1fb8 b9c5 163b 3795 f43b eca2 8fbc
00000020: d6f8 b8bc 65ec b63c 48d7 873d f720 e83c
00000030: 1dc1 2d3a ecb1 11bb d022 0f36 19c2 f63b
00000040: f6ba 29bb 2300 073d 9a3a 04bb 6fbb 44bb
00000050: 3a74 3c3b 9d91 883c 069c 58ba 17b7 893c
00000060: 6c34 c83b 3587 903d b62c 933b 93ea dc3c
00000070: 79dd 5c3d b8a7 0037 a7c3 583b f4d4 dab7
00000080: 461e 263d baaa 3ebc bcd8 713d ba39 aa3c
00000090: adf0 a03d f86c 62b6 5bdb a636 8a7d 2c3c
000000a0: edf4 7c3d 3b1d 07bb a0af 06b9 09b4 88b7
000000b0: 6537 3eb7 87e2 5db9 6012 3f3d 058c ce3c
000000c0: a42f 03b8 c478 783c bc8e 2837 6da2 a536
000000d0: 69eb 09bb 24dc ba3c bc64 663d 7543 593d
000000e0: f93b 9bb9 6de4 873b 86cc 92b8 f447 43ba
000000f0: 563b 0537 79dd 23bb a43b b139 ce8a 9239
00000100: 9a06 0038 2d22 db3a 6d59 d5b9 2f08 0fbb
00000110: 3cf2 c13d 51e2 9a3d b6a7 0d3b dc2e b43c
00000120: 81b9 983c 5fb5 c8ba 50b7 a539 e80c 93b6
00000130: e6ca fab6 9c7a b53b 96e2 5f3b 5c89 cdb9
00000140: 1d81 ef3c 3d8d 0cba f7cc 223b 2316 bcb9
00000150: d9d7 9838 d56a 97bb 4dc9 ca3b e529 1438
00000160: 85fd 853c 9f93 83b6 27cb a9bc 7a06 5ab9
00000170: 2a23 8f36 fc7c 0f3c ba81 67ba c7ed d0ba
00000180: 3f14 5cb6 4d8f b2bc a3f3 353b 42d5 4e38
00000190: defe ea3c 0ca1 5f38 2718 32ba fe3b 9838
000001a0: 68ce c63c b158 4d3b 3284 1638 00d9 daba
000001b0: 2912 9bb9 4d35 bfbc 0fd4 463c 3027 cc37
000001c0: 7d71 043a 6fe8 7b3d 6668 103b f9a9 b9b6
000001d0: dcd2 1337 58b4 103b 6025 b239 fef4 d8b9
000001e0: 2f53 b13b 9bdb acb9 b08a 063d 7c7c b4bc
000001f0: cd81 76ba d6c6 de3d 9ad4 a43d dfbc 443c
00000200: 312d 43bb 6870 583c bcd5 193d b522 abbc
00000210: 3d91 08b8 3344 3e3b f5b7 e138 2ae8 963a
00000220: 92f4 a93d 4db0 edbb d419 6c3a 0579 c13d
00000230: 1167 87ba a146 abb7 1515 0738 a966 4e38
00000240: 9c84 a637 cd4d 993d dd22 da39 257d 3e3d
00000250: c48a c73c b486 123b 725a e93d 18f4 053c
00000260: 9c52 43b6 15c3 11bb 90fa c63d af49 853c
00000270: cd09 a83c 0e15 85ba 6e61 c13c 0807 293c
00000280: a487 32b7 0ce3 c036 8396 32bb 242a adbc
00000290: 62cb 18b7 878d b73a 6f60 413b d6c9 883d
000002a0: b794 90bc 4916 29bc 2741 0dbd 7a3a 1b37
000002b0: 3f88 df3c 5601 6e3d eb34 cb3c 8805 e7ba
000002c0: b00c 7d3c 5f44 4536 9e58 f9b8 a33c 3f3c
000002d0: cbe6 0c3c 17cc 22b9 ec44 b83c 9370 0ebc
000002e0: 7238 cbb9 6c80 75ba 333c d43c 8388 d837
000002f0: f3c3 bf3d bf6c e93c 763c c0b9 fe5b 9b3b
00000300: 376f 9f36 7440 d236 a859 05bb 230d 39bb
00000310: cedc 8ebc e7ff fd3b a3dc 34bb dd5e cfbc
00000320: 6e33 37bb fda2 c23b db8f 123b 1c84 dbbc
00000330: 7719 913d a077 29ba a551 f2bc 48c5 023c
00000340: 5bb1 2d3c e17f 253b 8082 673d dda5 88b8
00000350: 6fa5 8a3d b9f5 da3b f511 3b3c 25e1 8fb7
00000360: da12 2db7 0ea6 f63a b503 3b39 e023 9036
00000370: 45d5 c73c 6100 b53a 563f 2bbb e2a5 26bb
00000380: 5e69 023b d238 c6bb 3efa fbb8 4036 b9b4
00000390: cbc0 34bb 222e 883d 38ee 9338 d4a8 f037
000003a0: a2d7 f93c bba3 23b7 6065 10b9 f475 923d
000003b0: 2a79 f33a a8e6 d739 abed 1fb9 65b6 83bc
000003c0: 1c57 e3bc 2b64 bc3b 4af6 76b9 fb11 eeba
000003d0: 7c25 ab3d 890b 683d 8ae7 7338 981f 8dba
000003e0: 8b99 f1b8 624e 0c3b bbf7 33bc 334e f33c
000003f0: 006e d4bc 1e98 6437 0aa3 3dbc de36 a13d

fc3.bias f4 [2]
0.22082612 -2.1040318
00000000: 3e20 623e 75a8 06c0
