runs/4_400_300_38_123_actor.pth (torch, 491991 bytes, 6 tensors)

fc1.weight f4 [400, 3]
0	0x3e1a70d2	0.150821
1	0x3f005568	0.5013032
2	0xbcf7bec4	-0.030242331
3	0x3e5e669a	0.21718827
4	0x3e3d7efb	0.1850547
5	0xbc0de2a1	-0.00865999
6	0x3d3fed52	0.046857186
7	0x3d30a29f	0.043123838
8	0xbcb7bebc	-0.022429816
9	0x3e3c15fa	0.18367758
10	0x3ee0b2ac	0.43886316
11	0xbcb24282	-0.021760229
12	0x3ecd8638	0.40141463
13	0x3c9ea7d2	0.019367132
14	0x3c2959ef	0.010336383
15	0xbd36e503	-0.044651996
16	0x3eacb516	0.33731908
17	0x3ad44449	0.0016194667
18	0x3edde6cd	0.4334015
19	0xbe5344e1	-0.20631744
20	0xbcfc33a5	-0.030786345
21	0xbea8053e	-0.328165
22	0x3d6dbb06	0.058039688
23	0x3c4ff910	0.0126936585
24	0x3f17e2d2	0.59330475
25	0xbe4cfd3a	-0.20018473
26	0x3cb911d3	0.022591507
27	0xbcb96abd	-0.022633905
28	0x3cb06327	0.021531655
29	0x3d2a486a	0.041572966
30	0x3c1b2a64	0.009470556
31	0x3c5e6cad	0.013575715
32	0xbcbdb342	-0.023156766
33	0x3d3c1f8d	0.045928527
34	0xbd110ada	-0.03541074
35	0x3d3b9ecf	0.04580575
36	0x3c64d30d	0.013966334
37	0xbd00eb6f	-0.031474527
38	0xbcbdf5d0	-0.023188502
39	0x3d386dfe	0.04502677
40	0x3cfcd499	0.030863093
41	0xbc676f80	-0.014125705
42	0xbcd950e3	-0.026527828
43	0x3c107b73	0.008818495
44	0x3d2bb70a	0.041922607
45	0x3d009805	0.031394977
46	0x3d181c00	0.037136078
47	0x3c9f9bbd	0.019483441
48	0x3d1eab07	0.038737323
49	0xbd162b57	-0.036662426
50	0x3b8484b3	0.0040441393
51	0x3f0a5ced	0.54048043
52	0xbdce9de4	-0.10088709
53	0x3b9f21a5	0.0048563057
54	0xbd045351	-0.03230602
55	0x3ea4525a	0.3209408
56	0xbc6c572c	-0.01442508
57	0xbd067718	-0.03282842
58	0x3d380ced	0.044934202
59	0xbb41f49a	-0.0029595257
60	0x3f13518c	0.57546306
61	0xbd664832	-0.056221195
62	0x3beb81fb	0.0071871257
63	0xbe2054aa	-0.15657297
64	0x3eeaecd2	0.45883805
65	0xbc80556d	-0.015665734
66	0xbcd0fef3	-0.025512194
67	0xbb912267	-0.00442915
68	0x3d02f2a2	0.031969674
69	0x3edbcc21	0.42929175
70	0xbe594315	-0.21216996
71	0x3c256ca9	0.010096707
72	0x3e896f4d	0.26842728
73	0x3dc92440	0.09821367
74	0xbc965140	-0.01834929
75	0x3e8d6813	0.27618465
76	0x3e1b8555	0.15187581
77	0xbbd97e7a	-0.0066373916
78	0x3cd1be6f	0.025603501
79	0x3e7308b1	0.23733784
80	0xbc28509e	-0.010273127
81	0x3cd58702	0.026065353
82	0x3dcd0787	0.10011201
83	0xbd22291e	-0.039589994
84	0xbbd5c19a	-0.0065233232
85	0xbd3cb8a2	-0.046074517
86	0x3c178120	0.009247094
87	0x3e64db44	0.22349268
88	0x3defc90d	0.11708269
89	0xbd66f964	-0.05639018
90	0x3eb1b1a3	0.3470584
91	0x3e7a6e45	0.24456127
92	0xbccc7615	-0.02495865
93	0xbcc26803	-0.023731237
94	0x3e4968f4	0.19668943
95	0xbc4dc72d	-0.012559694
96	0xbb10af00	-0.0022076964
97	0xbcbc464a	-0.022982735
98	0x3ccb52e3	0.024819797
99	0xbd237fed	-0.03991692
100	0x3c3f9093	0.011692184
101	0xbbfc2c40	-0.0076957047
102	0x3d055e4d	0.032560635
103	0x3b781acd	0.0037857771
104	0xb9947800	-0.00028318167
105	0x3e87235a	0.2639416
106	0x3ed586d9	0.41704443
107	0xbd21691a	-0.039406873
108	0xbe28bd39	-0.16478433
109	0x3eefe6fc	0.46855915
110	0xbcfadf7b	-0.030624142
111	0x3e6c861c	0.23098034
112	0x3f42fc98	0.7616668
113	0x3dcf2dc2	0.101161495
114	0xbd816a6a	-0.06319125
115	0x3db76f95	0.089568295
116	0x3d71cdeb	0.05903427
117	0x3e0a125e	0.13483569
118	0x3e892fb6	0.26794213
119	0xbc86923f	-0.016427157
120	0xbc9a1467	-0.018808557
121	0x3b5ce2cd	0.003370452
122	0x3d306cbd	0.04307245
123	0xbd15cd20	-0.036572576
124	0x3d478e83	0.048719894
125	0x3b49cc9a	0.0030792118
126	0x3d3589bb	0.044320803
127	0x3c234620	0.00996545
128	0x3d2badd7	0.041913833
129	0x3db93e06	0.09045033
130	0x3f208d3c	0.62715507
131	0x3dbace5e	0.09121393
132	0xbdfd5ce7	-0.12371235
133	0xbcc461c0	-0.023972392
134	0xbde6f621	-0.11277414
135	0xbc537c00	-0.012907982
136	0xbd00122d	-0.031267334
137	0x3c0d991a	0.008642459
138	0xbebeade9	-0.37242058
139	0xbd9ebd0e	-0.07750903
140	0x3cf98835	0.030460456
141	0xbcb6f4fd	-0.022333616
142	0xbb7c89b3	-0.0038534224
143	0x3b032a80	0.0020014346
144	0x3c799827	0.01523403
145	0x3cff3147	0.031151427
146	0xbaca61cd	-0.0015440524
147	0xbc2895b1	-0.010289595
148	0x3d60815b	0.054810863
149	0xbcac0021	-0.020996155
150	0x3d2c3560	0.04204309
151	0x3cb578aa	0.022152264
152	0xbcb7db54	-0.022443451
153	0x3e7a52a7	0.24445592
154	0x3e29e61d	0.16591688
155	0x3c2e5305	0.010639911
156	0xbdfa699b	-0.12227174
157	0x3c87e8c3	0.016590482
158	0xbdebf3ef	-0.11521136
159	0x3f0a2de5	0.5397628
160	0xbea92ff9	-0.33044413
161	0x3b8a205f	0.0042152847
162	0x3ee5eb9f	0.44906327
163	0x3da773d4	0.08176389
164	0x3bd76a01	0.006573916
165	0x3cfa3083	0.03054071
166	0x3d4126bb	0.047156077
167	0x3c433ecd	0.011916828
168	0xbbb56e1b	-0.0055368072
169	0x3ecbdf6d	0.39818898
170	0xbc4bcdf7	-0.012439243
171	0xba3a11ee	-0.00070980086
172	0x3e1d703b	0.15374844
173	0xbc28afc3	-0.010295811
174	0x3ccda1c6	0.025101554
175	0x3ec99c30	0.39376974
176	0xbbb10f9b	-0.0054034716
177	0x3e15fa2f	0.14646219
178	0x3e0968b6	0.1341885
179	0xb9c257e2	-0.0003706804
180	0x3e88ff4b	0.26757273
181	0x3ebfeeb2	0.37486798
182	0xbd774f15	-0.060378153
183	0xbcb5e843	-0.022205478
184	0xbc8160d7	-0.015793247
185	0x3d17dac5	0.03707387
186	0x3d9578a7	0.07298403
187	0x3d866e86	0.065640494
188	0xbd24b2b9	-0.040209506
189	0x3e87b949	0.2650855
190	0x3e476d50	0.19475293
191	0xbcdd082f	-0.026981441
192	0x3e11918c	0.14215678
193	0xbcf6b7ad	-0.03011688
194	0x3c5d4c19	0.013506913
195	0x3e2c6c1c	0.16838115
196	0xbea4ef14	-0.32213652
197	0x3d6c0132	0.057618327
198	0x3d6ffb26	0.058589123
199	0x3cc44f4a	0.02396359
200	0xbc4ac6e4	-0.012376521
201	0x3e23d399	0.15998687
202	0x3ea02a6f	0.31282374
203	0xbaa412a3	-0.0012517761
204	0xbcf02b47	-0.029317511
205	0x3d39762a	0.045278706
206	0xbcb07d3a	-0.021544088
207	0xbd23b422	-0.03996671
208	0xbcadbd33	-0.021208381
209	0x3d3ab02d	0.04557817
210	0xbd05bda5	-0.032651562
211	0xbd15eed2	-0.03660471
212	0x3d331575	0.043721635
213	0xbe427f00	-0.18993759
214	0xbc9da2e7	-0.019242717
215	0xbd7242b2	-0.059145637
216	0xbc5ebafa	-0.013594383
217	0x3d1a33d5	0.037647087
218	0xbd0068bd	-0.031349886
219	0xbe92b2b6	-0.2865197
220	0xbdf4f0ba	-0.119599774
221	0x3d821538	0.063517034
222	0xbe8b7e8f	-0.27244994
223	0x3ee30e99	0.44347075
224	0x3c4f3c44	0.012648646
225	0x3e96f34e	0.29482502
226	0x3e4d555c	0.20052093
227	0xbd0f82ef	-0.035036977
228	0x3dc1d56f	0.09464537
229	0x3e9d5f4c	0.30736768
230	0xbc697d0e	-0.014251007
231	0x3f1a3e81	0.60251623
232	0x3e079b8b	0.13242929
233	0xbce5dfe6	-0.028060865
234	0x3c2ddfa0	0.010612398
235	0xbd1ef7b3	-0.038810443
236	0x3bbf3fa7	0.0058364454
237	0x3e1e2d69	0.1544701
238	0x3c852186	0.016251337
239	0xbc25fc98	-0.010131024
240	0x3d025def	0.031827863
241	0xbd11b380	-0.035571575
242	0x3c21dd73	0.009879458
243	0xbdb2cf56	-0.087309524
244	0x3e34c783	0.17654233
245	0xbca20744	-0.019778855
246	0x3ea5d1d3	0.32386646
247	0x3f031371	0.5120154
248	0xbd40af68	-0.04704228
249	0xbe9bc34b	-0.30422434
250	0x3eb8248f	0.35965392
251	0xbcbe2896	-0.023212712
252	0x3e6c99d0	0.2310555
253	0x3e007e63	0.12548213
254	0xbbae7dc3	-0.0053250506
255	0xbc05467a	-0.008134479

fc1.bias f4 [400]
0	0x3da4fabe	0.08055638
1	0x3eb00cce	0.3438477
2	0xbee400bc	-0.4453181
3	0x3ead6e32	0.33873135
4	0x3e775a22	0.24155477
5	0x3ebba99c	0.3665284
6	0xbdd50b2e	-0.10402523
7	0xbe19c8e6	-0.15018043
8	0x3eccc870	0.39996672
9	0xbf08356e	-0.5320653
10	0xbea5df4d	-0.32396927
11	0xbe4914d2	-0.19636849
12	0xbf086a1b	-0.53286904
13	0xbe874920	-0.26422977
14	0xbefbb6e7	-0.4916298
15	0xbf09b0ff	-0.537857
16	0xbda72a77	-0.081623964
17	0x3f08e106	0.5346836
18	0x3db68e7e	0.08913897
19	0xbf061425	-0.5237449
20	0x3e210f94	0.15728599
21	0x3ea2a38b	0.31765398
22	0xbec92d67	-0.39292452
23	0x3ecda1f4	0.40162623
24	0x3e1c3a8c	0.15256709
25	0x3dd1347f	0.10215091
26	0x3e414c28	0.18876708
27	0xbdb9b85e	-0.090683684
28	0xbee83315	-0.45351472
29	0xbcda2f40	-0.026633859
30	0x3e9286af	0.2861838
31	0x3d51285b	0.051063877
32	0xbd96b5cb	-0.07358893
33	0xbed3055d	-0.4121503
34	0xbeeaf4af	-0.45889804
35	0xbcb866ba	-0.022509921
36	0x3e1fcfb2	0.15606573
37	0x3eedfdd4	0.46482718
38	0xbde7e720	-0.113233805
39	0x3e51aa1b	0.20475046
40	0xbec55fc4	-0.38549626
41	0xbf112d04	-0.56709313
42	0xbeb67725	-0.35637775
43	0x3f28e87b	0.6597974
44	0xbe93616a	-0.2878526
45	0xbe82207d	-0.25415412
46	0xbb8e568b	-0.004343813
47	0xbe892b68	-0.2679093
48	0xbd98b3aa	-0.07456143
49	0xbec6992f	-0.38788745
50	0xbeccd2ab	-0.40004477
51	0x3f14a45f	0.5806331
52	0xbf03256d	-0.5122898
53	0xbd1ba959	-0.0380033
54	0x3e696305	0.22791679
55	0xbe9fd052	-0.31213623
56	0x3e664abb	0.22489445
57	0x3dce9d62	0.10088612
58	0x3eba0801	0.36334231
59	0x3e9b0105	0.30274215
60	0xbe113497	-0.14180218
61	0xbeb64096	-0.3559615
62	0xbe01b009	-0.12664808
63	0x3e0ee12e	0.13953087
64	0x3ed3440c	0.41262853
65	0x3e25ad13	0.16179304
66	0xbe96e942	-0.29474837
67	0x3e9c1afb	0.30489334
68	0xbf04a370	-0.51811886
69	0xbf01796e	-0.5057591
70	0xbe4663f8	-0.19374073
71	0xbe98af62	-0.29821306
72	0xbefb59a9	-0.49091843
73	0x3eed16eb	0.46306548
74	0x3eb2981e	0.3488168
75	0xbe5b7f85	-0.21435364
76	0x3e678b79	0.22611798
77	0x3ed1e091	0.40991643
78	0xbebe1e4d	-0.37132493
79	0x3e07839f	0.13233803
80	0xbed7baa8	-0.42134595
81	0x3d5536de	0.05205428
82	0xbd3286d5	-0.043585617
83	0xbe61f587	-0.22066317
84	0x3ea85376	0.32876176
85	0x3df41ce9	0.11919577
86	0xbf020beb	-0.50799435
87	0xbeb6ac8c	-0.35678518
88	0xbe3191f6	-0.17340836
89	0xbf0eda8b	-0.5580222
90	0x3e09cb7b	0.13456528
91	0x3da8ee6b	0.082485996
92	0xbedc9ac7	-0.43086836
93	0x3e71a09e	0.23596427
94	0xbee20225	-0.4414226
95	0x3f0234b2	0.50861657
96	0xbea4b6d2	-0.3217073
97	0x3ee92652	0.4553705
98	0x3d83bf6a	0.06432994
99	0xbedf1f9b	-0.435788
100	0xbebc036e	-0.36721367
101	0x3e691233	0.22760849
102	0x3f05efd6	0.52319086
103	0x3ea2ad65	0.31772915
104	0x3c7bc27f	0.015366196
105	0x3e195500	0.14973831
106	0x3ed214ef	0.41031596
107	0x3ed3eef5	0.41393247
108	0xbf115a52	-0.5677844
109	0xbe25e5de	-0.16200969
110	0xbebb1b83	-0.36544427
111	0xbe6aedad	-0.22942229
112	0xbf126102	-0.5717927
113	0xbef072d2	-0.469626
114	0x3ea81506	0.3282854
115	0xbe15a0ea	-0.14612165
116	0x3ead38e9	0.33832482
117	0xbef75aa6	-0.48311347
118	0xbd875a94	-0.06609073
119	0x3efe3857	0.4965236
120	0x3eb023d5	0.34402338
121	0x3f073505	0.52815276
122	0x3eb46f3d	0.35241118
123	0xbf076407	-0.52887005
124	0xbe57fe47	-0.21093093
125	0xbeefe505	-0.46854416
126	0x3eebb283	0.4603463
127	0xbd6f5437	-0.058429923
128	0xbda667ca	-0.08125265
129	0x3e8d8fc9	0.27648762
130	0x3e5b547d	0.21418948
131	0x3ebe94d5	0.37222925
132	0xbdecb98c	-0.11558828
133	0xbea91b72	-0.33028752
134	0x3e79580e	0.24349996
135	0xbed8a0a1	-0.4231005
136	0x3ea48a29	0.32136658
137	0xbe1b7985	-0.15183075
138	0x3e97a901	0.29621127
139	0xbeced89e	-0.4039964
140	0xbeced5de	-0.40397543
141	0xbe3c2abb	-0.18375675
142	0x3d34ea99	0.044169042
143	0xbdd226c8	-0.10261303
144	0x3ed596e9	0.41716698
145	0x3d93bb43	0.07213452
146	0x3e5474d5	0.20747693
147	0x3e939397	0.2882354
148	0xbf03e1a5	-0.5151618
149	0x3e24a75d	0.16079469
150	0xbea51956	-0.32245892
151	0x3f0ba34d	0.5454605
152	0x3e7e985b	0.24862806
153	0x3e4fc97a	0.20291701
154	0x3ea3fefe	0.3203048
155	0xbdb19c2c	-0.086723655
156	0xbeff7e15	-0.4990088
157	0x3d285f7c	0.041106686
158	0x3e61b289	0.22040762
159	0x3e994017	0.2993171
160	0xbef60ae0	-0.48055172
161	0xbdc2069c	-0.09473917
162	0xbe020fde	-0.12701365
163	0xbe5bda16	-0.21469912
164	0xbeeee4b1	-0.46658853
165	0xbef43c7b	-0.47702393
166	0xbcc3c60e	-0.02389815
167	0xbee75d99	-0.45188597
168	0x3d1f9421	0.038959626
169	0x3b3e1296	0.0029002777
170	0x3d250257	0.040285435
171	0xbe47364d	-0.19454308
172	0x3e55af25	0.20867594
173	0x3babb97d	0.005240618
174	0x3d7f9171	0.062394563
175	0x3eaf8bc6	0.34286326
176	0x3e8fba52	0.2807184
177	0xbe52fd15	-0.20604356
178	0x3ed1c0b6	0.4096734
179	0xbf132c2f	-0.57489294
180	0x3d979d7d	0.074030854
181	0x3f0b8cc4	0.54511666
182	0x3f04a156	0.5180868
183	0x3e416ca3	0.18889098
184	0x3dc7affb	0.097503625
185	0xbeb43c94	-0.35202467
186	0xbebde01f	-0.37085053
187	0xbe03316a	-0.12811819
188	0x3eecb69d	0.46233073
189	0x3dc8e711	0.098096974
190	0x3eb17cd0	0.34665537
191	0x3ebc7eba	0.36815435
192	0x3f0a7b2d	0.540942
193	0xbe839c6c	-0.25705278
194	0xbebb52f5	-0.3658673
195	0x3ef5900a	0.47961456
196	0x3df81674	0.121136576
197	0x3efd96b3	0.49529037
198	0x3eec362e	0.46135086
199	0xbf16a11d	-0.5883959
200	0x3ee4fde7	0.44724962
201	0xbe1dc8d6	-0.15408644
202	0xbe9135a3	-0.28361234
203	0x3ea4ccca	0.32187492
204	0xbee32cf6	-0.4437024
205	0xbe30dd65	-0.17271955
206	0x3ea0e64f	0.31425712
207	0x3f024b2f	0.5089597
208	0xbf01eda4	-0.50753236
209	0xbe8804a0	-0.2656603
210	0xbe52a8b7	-0.20572172
211	0xbeacf519	-0.33780745
212	0x3db1e099	0.08685417
213	0x3deaee7a	0.11471267
214	0x3e680859	0.22659434
215	0x3eb62478	0.35574698
216	0xbe07e2d9	-0.1327013
217	0x3e3d78de	0.18503138
218	0x3d805aba	0.06267305
219	0xbedbfb44	-0.42965138
220	0xbe944e1c	-0.28965843
221	0xbeb69db8	-0.35667205
222	0x3dfe618b	0.124209486
223	0xbeb962b5	-0.3620812
224	0xbf0beeda	-0.54661334
225	0xbd93cb72	-0.072165385
226	0xbedc8678	-0.43071342
227	0xbdd90d57	-0.105982475
228	0xbefdf42f	-0.4960036
229	0x3f0445fe	0.516693
230	0x3ebaedab	0.3650945
231	0xbeeab802	-0.45843512
232	0xbeccccff	-0.4000015
233	0xbd26cdee	-0.040723734
234	0xbee3e744	-0.4451238
235	0xbe6b6c9a	-0.22990647
236	0xbeb2d4a5	-0.3492786
237	0xbe5f4b98	-0.2180618
238	0x3ed6f1bf	0.41981313
239	0x3ebe7ca7	0.37204477
240	0xbf06c8b3	-0.5264999
241	0xbf11a0ea	-0.5688616
242	0xbeac75b6	-0.33683556
243	0x3e8743d8	0.26418948
244	0xbed75182	-0.42054373
245	0x3e9bd651	0.30436948
246	0x3d1ae7fc	0.037818894
247	0x3ea07480	0.31338882
248	0x3e78655c	0.24257416
249	0x3ec3af09	0.3821948
250	0x3ec27b18	0.37984538
251	0x3ece0ab2	0.40242535
252	0xbe6dee42	-0.2323542
253	0xbea1e172	-0.31617314
254	0x3e84cb8e	0.2593655
255	0x3efcc2a7	0.49367258

fc2.weight f4 [300, 400]
0	0xbc66a2eb	-0.014076929
1	0xbe112f49	-0.14178194
2	0x3d9cf406	0.07663731
3	0xbf0dcb8f	-0.5538873
4	0xbdb1fbb5	-0.086905874
5	0xbb96d410	-0.0046029165
6	0xbf2cb5fb	-0.6746518
7	0x3ec559b9	0.38545015
8	0xbea5cab2	-0.32381207
9	0xbcb9ab5f	-0.022664724
10	0xbd13b522	-0.036061414
11	0xbcaa90cc	-0.020820998
12	0xbcfebd54	-0.031096138
13	0xbd0eb0d5	-0.03483661
14	0xbd52f64f	-0.05150443
15	0xbd255fa1	-0.040374402
16	0x39829f34	0.00024914148
17	0xbf4c8098	-0.7988372
18	0xbdf4f704	-0.11961177
19	0x3c572532	0.013131427
20	0xbc82043b	-0.015871158
21	0x3d4b123e	0.049577944
22	0x3c0726de	0.008249013
23	0xbf581693	-0.84409446
24	0xbe07e6a0	-0.1327157
25	0xbd21bd25	-0.039487023
26	0xbe2dc62b	-0.16970126
27	0x3d91de05	0.07122425
28	0x3c9390c7	0.018013371
29	0x3d93e21b	0.072208606
30	0xbe704047	-0.2346202
31	0xbccda9bc	-0.02510535
32	0xbbb2637b	-0.005443988
33	0xbcbf8577	-0.02337907
34	0xbba35e63	-0.004985617
35	0xbd9562a4	-0.07294205
36	0xbeadbee2	-0.33934695
37	0xbd803cc7	-0.06261592
38	0x3e3a73ad	0.1820819
39	0xbe68daf3	-0.22739772
40	0xbd0f17af	-0.034934696
41	0x3cd5da07	0.02610494
42	0xbd49308f	-0.049118575
43	0x3d44d110	0.04805094
44	0xbd034ccf	-0.032055672
45	0xbd510227	-0.051027443
46	0xbf14b35c	-0.5808618
47	0x3c3a09e9	0.011354902
48	0xbd39743c	-0.045276865
49	0xbc3fb509	-0.011700877
50	0xbccece18	-0.025244758
51	0xbeedfe5d	-0.46483126
52	0x3db0d0fd	0.08633611
53	0xbe726acc	-0.23673552
54	0xbe629d21	-0.22130252
55	0x3cf0ae49	0.02937998
56	0xbdc05064	-0.09390333
57	0xbc21c9d8	-0.009874783
58	0xbe7039d0	-0.23459554
59	0xbe4bdf50	-0.19909406
60	0xbfaa7d6e	-1.3319528
61	0xba51080e	-0.00079739175
62	0x3d95010f	0.072755925
63	0xbe29df93	-0.16589193
64	0xbdff9086	-0.124787375
65	0xbf1f970a	-0.6233984
66	0x3d086dd0	0.03330785
67	0xbdd04a25	-0.10170392
68	0x3d322b5b	0.04349838
69	0x3cc25bf5	0.02372549
70	0xbd082105	-0.033234615
71	0x3b16d341	0.00230141
72	0xbd6a1d56	-0.057156883
73	0xbf19d738	-0.6009402
74	0xbe880f36	-0.26574105
75	0xbcfb7565	-0.030695627
76	0xbf24f221	-0.6443196
77	0xbee25b9b	-0.44210514
78	0x3a5bece3	0.0008389486
79	0xbcde18c4	-0.027111419
80	0x3d6bfaad	0.05761211
81	0x3e37807b	0.17920105
82	0xbbecdc55	-0.007228414
83	0xbe9c3a5e	-0.3051328
84	0xbe8c4937	-0.27399608
85	0x3ccd1f75	0.025039414
86	0xbd4205fe	-0.047368996
87	0x3c92fd22	0.017942969
88	0xbb953a58	-0.0045540743
89	0xbd088813	-0.033332895
90	0xbcdda49d	-0.027056033
91	0x3d4dc894	0.050240114
92	0x3d09848d	0.033573676
93	0xbe5800d4	-0.21094066
94	0xba5b9d72	-0.0008377648
95	0xbdb10ed2	-0.08645405
96	0x3d0b1eb7	0.03396484
97	0xbeafd528	-0.34342313
98	0x3ddf4294	0.10901371
99	0x3d610245	0.054933805
100	0x3d27e7d4	0.040992573
101	0xbf2240c4	-0.63380075
102	0xbd827003	-0.06369021
103	0xbed1cd80	-0.40977097
104	0x3f02b640	0.5105934
105	0xbe1cfb55	-0.1533025
106	0xbd7e4f6f	-0.062087473
107	0xbd3a02c3	-0.04541279
108	0xbcd79deb	-0.026320418
109	0x3eb40806	0.3516237
110	0xbd4f3291	-0.050585333
111	0x3c1d1437	0.009587339
112	0xbc229d77	-0.009925238
113	0x3d12f2e1	0.03587616
114	0xbef16b49	-0.47152165
115	0x3cdd49db	0.027012756
116	0xbd3e43ae	-0.046451263
117	0xbc57603a	-0.013145501
118	0x3db9fdc2	0.090816036
119	0xbf32cf49	-0.6984754
120	0xbe4e94c1	-0.20173933
121	0xbc898a76	-0.016789656
122	0xbe49ffd4	-0.19726497
123	0xbd11319a	-0.035447694
124	0x3ccf2f0c	0.025290988
125	0x3d136534	0.035985187
126	0xbe5070a7	-0.20355473
127	0x3b26e64f	0.0025466864
128	0xbc5d3a14	-0.013502616
129	0xbd9ec702	-0.077528015
130	0xbf06aaa2	-0.52604115
131	0xbe2e2f6e	-0.1701028
132	0x3c4fe84a	0.012689659
133	0xbccad1be	-0.024758216
134	0xbdbf0f2d	-0.093290664
135	0x3c95a940	0.018269181
136	0xbe3dd4e7	-0.18538247
137	0x3cfa325d	0.030541593
138	0xbe2ad1e1	-0.16681625
139	0xbcfabf29	-0.03060873
140	0xbcfeb357	-0.031091375
141	0xbc1cfae6	-0.009581303
142	0x3f06455f	0.524496
143	0x3de69402	0.11258699
144	0xbecf1f7e	-0.40453714
145	0xbe039ace	-0.12852022
146	0x3cbd1952	0.023083363
147	0xbe3d838f	-0.18507217
148	0xbc6bb855	-0.01438721
149	0x3cc09a2b	0.023511013
150	0x3d1b63ac	0.03793685
151	0xbf3f5d34	-0.7475159
152	0xbdf5b71e	-0.119978175
153	0xbe6c7bfc	-0.23094171
154	0xbcfc841e	-0.030824717
155	0xbd0e4e0b	-0.034742396
156	0x3d764967	0.060128596
157	0xbdb52321	-0.08844591
158	0xbe4f6e3b	-0.20256893
159	0xbe94d031	-0.29065087
160	0x3cb8ea3f	0.022572635
161	0x3d041263	0.032244097
162	0x3eddbf7d	0.43310156
163	0x3d48708e	0.048935466
164	0x4011e985	2.279878
165	0xbd27ebc1	-0.040996317
166	0xbf57ec60	-0.84345055
167	0xbd2a7746	-0.041617654
168	0x3da038fb	0.07823368
169	0xbf0fb588	-0.5613637
170	0xbc9a6926	-0.018848967
171	0xbf598bb4	-0.84978795
172	0xbdec758c	-0.11545858
173	0xbf7f4a1c	-0.99722457
174	0xbd1cf45e	-0.038318984
175	0xbe9abdda	-0.3022297
176	0xbe1fd0c6	-0.15606984
177	0x3af79b84	0.0018890952
178	0xbeca1fe0	-0.39477444
179	0x3ba17824	0.004927652
180	0xbd1afb12	-0.037837096
181	0xbe9e9e61	-0.3098021
182	0xbe04f210	-0.12982965
183	0xbdd1e208	-0.1024819
184	0x3cbab380	0.02279067
185	0xbcba80cd	-0.022766495
186	0x3c13a1cf	0.009010746
187	0x3e99b4b9	0.30020693
188	0xbeb6d97b	-0.357128
189	0xbe598f38	-0.2124604
190	0xbe101322	-0.14069799
191	0xbd89b68e	-0.06724273
192	0x3d64e0cd	0.05587845
193	0x3d69c2a8	0.057070404
194	0x3de8c472	0.11365594
195	0xbe341b92	-0.17588642
196	0xbe18046f	-0.14845441
197	0xbf5580e3	-0.8339979
198	0xbde97d8b	-0.114008985
199	0x3ccebe5f	0.02523726
200	0xbedaa0ef	-0.42700908
201	0x3ebe3777	0.3715169
202	0x3c8edba7	0.017438723
203	0xbe9904ed	-0.2988657
204	0xbbfae7b7	-0.007657017
205	0xbd0ba209	-0.034090076
206	0xbd4b0279	-0.049562905
207	0x3c80d820	0.015728056
208	0x3ac490ed	0.0014996805
209	0xbae4a400	-0.0017443895
210	0xbe0b4ed0	-0.13604283
211	0xbb8d642b	-0.0043149195
212	0xbf647931	-0.89247423
213	0x3c8235d8	0.015894815
214	0xbe46cf94	-0.19415122
215	0xbef4d351	-0.47817472
216	0x3dae9c67	0.08525925
217	0xbd36182b	-0.044456642
218	0xba2f757c	-0.0006693227
219	0x3d23f0c4	0.040024534
220	0xbd415d61	-0.047208194
221	0xbca13786	-0.019679796
222	0xbe1da31c	-0.15394253
223	0x3cd5505b	0.026039293
224	0xbd1ea9a5	-0.038736004
225	0x3ddd9f9f	0.10821461
226	0x3e84a1ec	0.25904787
227	0x3d6f3f54	0.058410004
228	0x3ce97118	0.02849631
229	0xbf097ce3	-0.53706187
230	0x3cd920ec	0.026504956
231	0xbd1d8d28	-0.038464695
232	0x3aebea12	0.0017998836
233	0x3c6ecc9e	0.014575152
234	0xbc4280a6	-0.0118714925
235	0x3cb67f79	0.02227758
236	0x3ce75890	0.028240472
237	0xbd02fa81	-0.03197718
238	0xbeefb91e	-0.4682092
239	0x3d0cc511	0.034367625
240	0xbd4a116e	-0.04933303
241	0xbd40e243	-0.04709078
242	0xbc1adca7	-0.009452022
243	0xbe05b2aa	-0.13056436
244	0x3d821e52	0.063534394
245	0xbc8b7e04	-0.017027862
246	0x3e3b607b	0.18298523
247	0xbd85bf6b	-0.06530651
248	0xbea5b4e6	-0.32364577
249	0xbf5c8efa	-0.86155665
250	0x3eb0bc48	0.34518647
251	0xbdf37eb2	-0.118893996
252	0xbe2e7870	-0.17038131
253	0x3ce3c198	0.027802274
254	0xbf1bb3b8	-0.60821104
255	0xbd191fb1	-0.03738374

fc2.bias f4 [300]
0	0xbc421420	-0.0118456185
1	0xbd54b587	-0.05193093
2	0xbc85012d	-0.016235912
3	0x3cf60803	0.030033117
4	0x3d4c718c	0.049912974
5	0x3c38dd92	0.011283295
6	0xbd2c73c3	-0.042102586
7	0x3cf5e659	0.030017065
8	0xbd36a728	-0.044593006
9	0xbc5335ee	-0.012891276
10	0x39c80ec1	0.00038157965
11	0x3d043591	0.032277647
12	0x3b9f7068	0.004865695
13	0x3d9b3f81	0.07580472
14	0xbc03b67e	-0.008039115
15	0x3c24d371	0.010060177
16	0x3d535ed9	0.051604126
17	0x3ba42eca	0.0050104605
18	0xbd36a06e	-0.04458659
19	0x3ccc2f24	0.024924822
20	0x3dbe8744	0.093031436
21	0x3c59f0b8	0.013302021
22	0xbd4a88c2	-0.04944683
23	0xbd7b2fd6	-0.061324917
24	0x3c54d778	0.012990825
25	0x3dac77db	0.08421298
26	0xbcb7d7a0	-0.022441685
27	0x3d137ba8	0.0360066
28	0x3d202925	0.03910174
29	0x3d62cd77	0.055371728
30	0x3c39c30b	0.011338006
31	0x3c48d6d3	0.012258249
32	0xbcb30a32	-0.021855447
33	0x3ca20a2c	0.019780241
34	0xbbb44329	-0.00550117
35	0x3dd1025d	0.10205529
36	0xbcf80426	-0.030275416
37	0x3d57f5c6	0.052724622
38	0xbd19f527	-0.03758731
39	0x3d81539c	0.06314775
40	0x3d97bde5	0.074092664
41	0xbc10dd85	-0.008841877
42	0x3d9ed6b1	0.07755793
43	0xbdef26ed	-0.116773464
44	0xbd1666ac	-0.03671901
45	0xbdbb477f	-0.09144496
46	0x3d7ab4f3	0.061207723
47	0x3ccdfa22	0.025143687
48	0xbd1fe3ce	-0.03903561
49	0x3d2233f5	0.03960033
50	0xbd087ee7	-0.03332415
51	0x3d0b68ff	0.03403568
52	0x3bfa2557	0.007633846
53	0xbcd9f7be	-0.02660739
54	0x3d31526e	0.0432915
55	0x3d36702b	0.044540565
56	0xbda9029c	-0.08252451
57	0xbb7806e3	-0.0037845902
58	0xbd24a847	-0.040199544
59	0xbc9492f0	-0.018136472
60	0x3d1c7117	0.03819379
61	0x3baa9827	0.0052061263
62	0x3c46dad3	0.012137133
63	0x3a58e22c	0.00082734483
64	0x3d00f980	0.03148794
65	0x3d81057c	0.06299874
66	0x3bd6bb32	0.006553077
67	0x3d2eb7ee	0.042655878
68	0x3c9ec72b	0.01938208
69	0x3c7dd581	0.015492798
70	0xbbab470e	-0.0052269762
71	0x3c2058f2	0.009786831
72	0xbd0b7d0a	-0.034054793
73	0xbc1c6b32	-0.009547042
74	0x3baf860e	0.0053565567
75	0x3c82a6cb	0.015948674
76	0x3da53e84	0.080685645
77	0xbbdcef20	-0.006742373
78	0xbd7ce666	-0.061743163
79	0x3d5e7942	0.05431486
80	0xbd2e952f	-0.04262274
81	0xbd0deabc	-0.03464769
82	0x3d8ca153	0.06866708
83	0x3d1b8d80	0.03797674
84	0x3d614284	0.054995075
85	0xbc511e39	-0.012763553
86	0x3c0d14d9	0.0086109275
87	0x3d008424	0.03137602
88	0x3c8e1b54	0.017347015
89	0x3c23607e	0.009971736
90	0xbcdf130d	-0.027230764
91	0xbd48486c	-0.048897192
92	0x3b1ee04d	0.002424258
93	0xbc9a3187	-0.018822445
94	0xbd80e40b	-0.06293496
95	0x3d2ac566	0.04169216
96	0xbb0249e1	-0.001988046
97	0xbb6f0543	-0.0036471642
98	0x3c2717dc	0.01019856
99	0xbd6fba42	-0.05852724
100	0x3df427d7	0.11921661
101	0x3d2faef7	0.04289147
102	0x3d284614	0.041082457
103	0xbd21de88	-0.039518863
104	0x3e45e6de	0.1932635
105	0x3d314ca2	0.043285973
106	0x3c9afef2	0.018920396
107	0xbd0b42b5	-0.033999164
108	0xbb2b6d34	-0.002615762
109	0xbdae6098	-0.085145175
110	0x3b80d0d1	0.003931143
111	0x3bc473c6	0.0059952466
112	0x3d11c0e3	0.03558434
113	0xbd5f4cce	-0.054516606
114	0x3dbb62b9	0.09149689
115	0x3d4f3a2f	0.050592598
116	0x3cb6d5f4	0.022318818
117	0xbcf883a4	-0.030336209
118	0x3d368124	0.04455675
119	0xbcd93fe5	-0.026519725
120	0x3d14036d	0.03613608
121	0xbc311946	-0.010809248
122	0xbc2698b3	-0.010168242
123	0xbc4e02e0	-0.012573928
124	0x3c5787fb	0.013154979
125	0x3d4f2b4c	0.0505784
126	0x3d7482e7	0.05969515
127	0xbb3eeda6	-0.0029133349
128	0xbc8d91b7	-0.017281396
129	0x3ccfb697	0.02535562
130	0xbc7d694a	-0.015466997
131	0x3d52a7cc	0.051429555
132	0xbbfc6886	-0.00770289
133	0xbd5b173c	-0.053488955
134	0x3d87b994	0.06627193
135	0x3c4fb089	0.012676367
136	0x3c62fcc5	0.01385421
137	0x3d12d3db	0.035846572
138	0xbcb8a81f	-0.022541104
139	0xbd685d14	-0.05672939
140	0xbc8cec06	-0.017202388
141	0x3cd8e92a	0.026478369
142	0xbd22416a	-0.039613165
143	0x3bee70f6	0.0072766496
144	0x3d30cdbe	0.04316496
145	0xbd8fa5dd	-0.07014058
146	0xbd0cae18	-0.034345716
147	0x3d7029cc	0.05863361
148	0x3b9eac83	0.0048423423
149	0x3cb28348	0.021791115
150	0xbcc9a553	-0.024614966
151	0xbd4b834e	-0.04968577
152	0xbb9fab0f	-0.0048726867
153	0xbcc40535	-0.023928264
154	0x3c97c369	0.018525796
155	0xbcb3a03c	-0.021926992
156	0xbd04a224	-0.03238119
157	0x3cd70138	0.026245698
158	0xbd99caf4	-0.07509413
159	0xbc15da18	-0.009146236
160	0x3cd2fb05	0.025754461
161	0xbd98e31d	-0.074651934
162	0xbc6ab65e	-0.014325706
163	0xbcb093ab	-0.021554789
164	0xbd9c45bc	-0.07630488
165	0xbb240664	-0.0025028223
166	0xbcc8c492	-0.024507795
167	0xbd08b4c9	-0.033375535
168	0xbcb68609	-0.02228071
169	0xbd53bcf6	-0.05169388
170	0x3d51d41a	0.051227666
171	0x3d4f43a7	0.050601628
172	0x3c97739d	0.018487746
173	0x3daf4d65	0.08559684
174	0xbc327b3d	-0.01089364
175	0xbce6d177	-0.028176052
176	0x3c198d48	0.009372063
177	0xbbe0c07c	-0.0068588834
178	0xbd137a1f	-0.036005136
179	0xbceb2f2a	-0.028709013
180	0x3c81cd66	0.015845012
181	0x3dbcee06	0.09225087
182	0xbc543347	-0.012951679
183	0x3b7edae4	0.0038887793
184	0xbd0edbe1	-0.03487766
185	0xbc4d86da	-0.012544358
186	0x3d745eac	0.0596606
187	0xbbba4137	-0.0056840437
188	0x3a55ab46	0.0008150827
189	0xbc97e080	-0.018539667
190	0xbd09a7ba	-0.033607222
191	0xbcb1af53	-0.021690046
192	0x3d5a39e2	0.053277858
193	0xbc23e911	-0.010004298
194	0xbc8fadba	-0.017538894
195	0x3cfdd835	0.030986885
196	0xbd04e1ff	-0.03244209
197	0xbccec841	-0.025241973
198	0xbd37ca04	-0.04487039
199	0xbd0862b5	-0.03329726
200	0x3d4bb3d2	0.049732037
201	0xbd654f41	-0.055983786
202	0x3d6e79e6	0.05822172
203	0xbd28fe03	-0.04125787
204	0x3b9b5eae	0.0047415113
205	0x3e01d499	0.12678756
206	0x3d1ac545	0.037785787
207	0x3cc7052b	0.024294456
208	0x3d56ecf2	0.052472062
209	0x3c3614a4	0.01111332
210	0xbad0b5a0	-0.0015923269
211	0xbcb7b537	-0.022425277
212	0x3d7b6c8f	0.061382826
213	0x3d9f87ae	0.07789551
214	0xbd198feb	-0.037490766
215	0x3b6d5c8f	0.00362185
216	0xbd343307	-0.043993976
217	0x3c895562	0.016764347
218	0x3e3ebf6d	0.1862771
219	0xbc0ca798	-0.008584879
220	0xbb8a98f0	-0.0042296574
221	0xbd43e5b4	-0.047826484
222	0x3d1d6047	0.038421895
223	0x3c183b95	0.009291549
224	0xbd17e71d	-0.03708564
225	0xbc7daa6d	-0.015482527
226	0x3d2a17da	0.041526653
227	0x3ca8a33e	0.020585652
228	0xbc587ccd	-0.013213349
229	0x3df59a17	0.11992281
230	0x3cac1600	0.021006584
231	0x3ced43f8	0.028963074
232	0xbca07d67	-0.019591046
233	0x3d89cf97	0.06729048
234	0xbcc2fba0	-0.023801625
235	0xbc4c9509	-0.012486705
236	0xbd1d45ba	-0.038396575
237	0xbd080acb	-0.033213418
238	0xbd20d5cd	-0.039266396
239	0xbcd9f757	-0.026607199
240	0xbd7edb7a	-0.062221028
241	0xbc599af1	-0.01328157
242	0x3d41b6fc	0.047293648
243	0xbca237b8	-0.01980196
244	0x3a75a190	0.0009370083
245	0xbd345c95	-0.044033606
246	0xbbf42aba	-0.0074513825
247	0xbcd59a37	-0.026074512
248	0x3c6da787	0.014505274
249	0x3bd4b1c6	0.006490919
250	0x3c617ad6	0.0137621965
251	0x3cf0d167	0.029396726
252	0xbba2825e	-0.0049593886
253	0xbc4632d9	-0.012097084
254	0x3d2c1253	0.042009663
255	0xbd72d80c	-0.05928807

fc3.weight f4 [2, 300]
0	0x3f16f8bb	0.5897328
1	0x39d32afb	0.0004027708
2	0xbe2cbbd4	-0.16868526
3	0x3973c9b1	0.00023249422
4	0x3ecbc53c	0.39798915
5	0xbd1c2d77	-0.038129296
6	0x3b034309	0.002002897
7	0xbc308efe	-0.0107762795
8	0x3f08958c	0.5335319
9	0x3d4fb95e	0.05071389
10	0x3d0581fe	0.032594673
11	0x3b407080	0.002936393
12	0x3d98bee4	0.074582845
13	0x3e4208c2	0.18948653
14	0x3b67dde0	0.003538005
15	0x3d499d7d	0.04922246
16	0x3e42bedd	0.19018121
17	0xbb2f55ff	-0.0026754139
18	0x3b0cb789	0.00214717
19	0x3c7b2535	0.015328695
20	0xbe18a794	-0.14907676
21	0x3c35af3d	0.011089143
22	0xba168922	-0.000574248
23	0x3e6b1981	0.22958948
24	0x3e316611	0.17324091
25	0x3e161bc8	0.14659035
26	0x3f01b7d5	0.5067113
27	0xbe376ad6	-0.17911848
28	0x3e248c2a	0.16069093
29	0xbdb64da0	-0.089015245
30	0x3cb6c990	0.02231291
31	0x3a0d42e5	0.0005388691
32	0x3aca2350	0.0015421901
33	0x3e400736	0.18752751
34	0x3912cc15	0.00013999672
35	0xbc257646	-0.010098999
36	0x3b8bfe7f	0.0042722817
37	0x3de5870b	0.11207398
38	0x3ecf2cc4	0.4046384
39	0x3f06e814	0.52697873
40	0x3e228b9a	0.15873566
41	0xbdc6a83c	-0.09700057
42	0x3e3f972d	0.18710013
43	0x3e22b8cf	0.15890811
44	0x3d9e86be	0.07740544
45	0x3ddce4fe	0.10785864
46	0x3f243230	0.6413908
47	0x3dd02269	0.10162813
48	0x3aef9899	0.001827973
49	0x3e29163d	0.1651239
50	0x3e187a23	0.14890341
51	0x3a07829d	0.0005169304
52	0x3e22ef3c	0.15911573
53	0xbe930786	-0.28716677
54	0xbe9bacf0	-0.30405378
55	0xbdfff8e1	-0.12498642
56	0xbecf68b3	-0.40509567
57	0x3f91796a	1.1365178
58	0x3a44131d	0.0007479655
59	0x3da6ffb4	0.0815424
60	0x3dc56eaf	0.09640252
61	0xba234d25	-0.0006229452
62	0x3eec1443	0.46109208
63	0x3b93ba10	0.0045082644
64	0x3f49c4fd	0.78816205
65	0x3e0aa457	0.13539253
66	0xba90451e	-0.0011006927
67	0x3eced72c	0.40398538
68	0x3b7e428c	0.003879699
69	0x3e51c63c	0.20485777
70	0x3ea4a138	0.3215425
71	0xba00d4e6	-0.0004914537
72	0x3a7b32bc	0.000958245
73	0x3e21b31e	0.15790984
74	0x3d68b7dd	0.05681597
75	0x3e3ce53d	0.18446822
76	0xbeb4e725	-0.353326
77	0xb981a66f	-0.000247288
78	0xbdd17bc8	-0.102286875
79	0x3e03ec7f	0.12883185
80	0x3b3f8732	0.002922487
81	0x3ee40927	0.44538233
82	0x3e3ad409	0.18244947
83	0x3dcf91a1	0.101351984
84	0x3d2901b9	0.04126141
85	0xbb7dd281	-0.0038730206
86	0x3c6167b0	0.013757631
87	0x3d55065e	0.052008025
88	0x3dedbf44	0.11608747
89	0x3e375b7f	0.17905997
90	0x3bc8675d	0.0061158375
91	0x3dc0ebd5	0.094199814
92	0xbea6980d	-0.3253788
93	0x3f179d14	0.5922406
94	0x3d3b8544	0.04578139
95	0x3b912f90	0.0044307187
96	0x3b268654	0.0025409656
97	0x3f24d06d	0.6438053
98	0xbdd2a62e	-0.102856025
99	0x3ab6559a	0.0013911009
100	0xbeaf9214	-0.34291136
101	0x3e38dfff	0.18054198
102	0x3b0a4e6d	0.0021103874
103	0xbb373e43	-0.0027960695
104	0xbd104b4e	-0.035228066
105	0x3e1bf7af	0.15231203
106	0x3b2c7ebe	0.0026320661
107	0xbca53853	-0.020168459
108	0x3e0e4c9c	0.13896412
109	0xbdadfe01	-0.08495713
110	0x3d1a0791	0.037604872
111	0x3e394d3f	0.18095873
112	0x3ea3700c	0.31921422
113	0x3e91fb67	0.28512117
114	0xbf003408	-0.50079393
115	0x3ef50126	0.4785244
116	0x3ad1345f	0.0015961042
117	0x3ed30d96	0.41221303
118	0x3e10f41b	0.14155619
119	0xbe1ac46d	-0.15113993
120	0x3ebb6ba4	0.3660556
121	0x3957c300	0.00020576641
122	0x3b5c689c	0.0033631688
123	0xbb2e7377	-0.0026619115
124	0xb9cd231d	-0.00039126808
125	0xbe94d3ab	-0.2906774
126	0x3edb50fa	0.42835218
127	0x3e3dd2dd	0.18537469
128	0xba91e3a2	-0.0011130462
129	0xbe5337f5	-0.20626815
130	0x3ea65993	0.32490215
131	0x3e6c6622	0.23085836
132	0xbe165871	-0.14682175
133	0xba7e8b44	-0.0009710083
134	0xbe29c5d0	-0.16579366
135	0x3d6d3607	0.057912853
136	0x3e3f9103	0.18707661
137	0x3f092460	0.5357113
138	0x3d69f031	0.05711383
139	0x3daa61a0	0.08319402
140	0x3ace111b	0.001572165
141	0x3e0b6ad6	0.13614973
142	0xb98a76fa	-0.00026410056
143	0x3ab9e5d9	0.001418288
144	0xbaa15ef8	-0.0012311628
145	0xbe886752	-0.26641327
146	0x3b23e5fd	0.002500891
147	0x3ec31659	0.38102987
148	0x3e36d9e7	0.1785656
149	0x3b2c0f2e	0.0026254165
150	0xbae0ba48	-0.001714536
151	0xbdc01295	-0.09378544
152	0x3eea7027	0.4578869
153	0xba17fd4a	-0.0005797936
154	0xbd3bac54	-0.04581864
155	0x3e0deed8	0.13860643
156	0x3e6f2711	0.23354746
157	0x3acaa87d	0.001546159
158	0xbed0da76	-0.40791672
159	0xbe1cd7af	-0.15316652
160	0x3e1eb86d	0.1550004
161	0xbea02812	-0.3128057
162	0x3b8dc855	0.00432686
163	0xbd4c13dc	-0.049823627
164	0xbc0ff644	-0.008786742
165	0x3e1277c4	0.143035
166	0x3ed18d5c	0.4092816
167	0x3e1e9710	0.15487313
168	0x3ec43a08	0.38325524
169	0x3e35ff66	0.17773208
170	0x3ddb60c8	0.10711819
171	0xbead7c04	-0.3388368
172	0xbb25a704	-0.002527655
173	0x3e14cf69	0.14532246
174	0x3e8095ba	0.25114232
175	0xbe9b263d	-0.3030261
176	0x3e617a2f	0.22019266
177	0x3e382ceb	0.17985885
178	0xbc9c974c	-0.019115113
179	0x3a95bdf7	0.0011424412
180	0x3e5b9573	0.21443729
181	0x3e8949ad	0.26814023
182	0xbb4576e2	-0.0030130674
183	0x3e407c16	0.18797335
184	0x3dd473d1	0.10373653
185	0x3e2d335b	0.16914122
186	0xbe165333	-0.14680175
187	0x3f148a69	0.580237
188	0x3af333bb	0.0018554846
189	0xbec82b96	-0.39095753
190	0x3bbd0cb7	0.005769338
191	0xbeb5c98d	-0.35505334
192	0xbe48973a	-0.19588938
193	0x3dac5e0a	0.08416374
194	0xbe38813b	-0.18018048
195	0x3e3eb5c7	0.1862403
196	0x3e99bcc3	0.30026826
197	0xbebc5121	-0.36780646
198	0xbcb0867f	-0.021548508
199	0x3efe4b9a	0.49667054
200	0x3e1df94d	0.15427132
201	0xbe2f14c3	-0.17097764
202	0x3f123aef	0.57121176
203	0x3b89b80d	0.0042028488
204	0xbb0a4c36	-0.0021102554
205	0xbf4cc6df	-0.79990953
206	0xbee3880e	-0.4443974
207	0x3e375566	0.1790367
208	0x3f116115	0.5678876
209	0xba6b89b7	-0.00089850597
210	0x3ba22ca2	0.0049491683
211	0x3afa2c87	0.0019086757
212	0x3e5ec9d2	0.21756676
213	0x3e02d938	0.12778175
214	0x3d674384	0.056460872
215	0x3e6203ce	0.22071764
216	0x3a005e9a	0.0004896909
217	0xbea90b3f	-0.33016393
218	0xbe39a99b	-0.18131106
219	0x3ebb5804	0.36590588
220	0x3ee006af	0.437551
221	0xbae2a7ff	-0.0017292498
222	0x3e7a1c0f	0.24424766
223	0xbdd3ad40	-0.10335779
224	0x3e1e5cc9	0.15465082
225	0x3e27eaa2	0.16398099
226	0x3d67ed4a	0.05662278
227	0xbec2b62c	-0.3802961
228	0x3ad076ad	0.0015904509
229	0xbcdcb3d7	-0.026941223
230	0x3ea54cef	0.32285258
231	0xba47e30f	-0.0007625082
232	0xbacc943d	-0.0015608143
233	0xbe24bfd4	-0.16088802
234	0x3f94ead3	1.1634163
235	0xbdd2dcde	-0.10296033
236	0xbb288198	-0.002571201
237	0xbb16ab26	-0.0022990196
238	0xbb83a471	-0.0040174057
239	0xbd90bfec	-0.07067856
240	0x3ec59707	0.38591787
241	0x3e2b7566	0.16744003
242	0x3db659c1	0.08903838
243	0xbe1d3e43	-0.15355782
244	0x3e788d24	0.24272591
245	0x3a9d6ec8	0.0012011165
246	0x3e1c6760	0.1527381
247	0xbe9cda35	-0.3063523
248	0xbb2fa84d	-0.0026803196
249	0x3e297457	0.16548286
250	0x3deba406	0.11505894
251	0x3a398f89	0.00070785783
252	0x3dba2ecd	0.09090958
253	0xbd7c8d12	-0.061657973
254	0xbb809c86	-0.003924909
255	0xbc7e2069	-0.015510657

fc3.bias f4 [2]
0	0xbe0c9a91	-0.13730837
1	0x3da39f82	0.07989408
