runs/4_400_302_38_42_critic.pth (torch, 496343 bytes, 5 tensors)

fc1.weight f4 [400, 3]
0	0xbdbff7fc	-0.09373471
1	0xbd22a819	-0.03971109
2	0x3da83c57	0.08214634
3	0xbe225e70	-0.15856338
4	0x3e549b9f	0.2076249
5	0xbb2bee4f	-0.0026234572
6	0x3e39a96a	0.18131033
7	0x3de899a2	0.11357428
8	0x3b847d96	0.0040432913
9	0x3e7e0075	0.24804862
10	0x3c6fa5b0	0.014626905
11	0x3c780a8c	0.015139233
12	0xbd4be461	-0.049778346
13	0x3e6bf84e	0.2304394
14	0xbd055702	-0.03255368
15	0x3d2b21e8	0.041780382
16	0x3c9f699d	0.01945954
17	0xbd04ea58	-0.03245005
18	0x3d5effdb	0.05444322
19	0xbd81ef54	-0.06344476
20	0x3cc5427e	0.024079558
21	0xbd1d2c2b	-0.0383722
22	0x3cf9f0da	0.030510355
23	0x3bec98a7	0.007220346
24	0xbc14f400	-0.009091377
25	0x3cd5564a	0.026042122
26	0xbba3291a	-0.004979265
27	0xbd90504d	-0.07046566
28	0x3c986307	0.018601907
29	0x399cffd6	0.0002994525
30	0x3e0740bd	0.1320829
31	0xbd48a505	-0.0489855
32	0x3d3de071	0.046356622
33	0x3e26d5f2	0.16292551
34	0x3d297d33	0.041379165
35	0xbca1dce2	-0.019758645
36	0x3db696b9	0.08915467
37	0x3e69b15e	0.22821566
38	0x3ac1ed5c	0.001479547
39	0xbe141172	-0.1445978
40	0xbd79b4a9	-0.060963307
41	0xbcd16ce5	-0.02556462
42	0x3dbee034	0.09320107
43	0x3e6bd3de	0.2303004
44	0x3ba29ec9	0.0049627763
45	0x3e3e6869	0.18594517
46	0x3e2640c8	0.1623565
47	0x3cac0265	0.020997236
48	0xbdb8f47f	-0.09031009
49	0xbe312ff8	-0.17303455
50	0xbb43c8b2	-0.0029874262
51	0xbc7d57b3	-0.015462804
52	0x3d34b7c0	0.04412055
53	0x3d47ab63	0.04874743
54	0xbe179e9b	-0.14806597
55	0xbdb517d2	-0.08842434
56	0x3d315af0	0.043299615
57	0xbcd25dc7	-0.025679482
58	0xbc4df5b3	-0.012570786
59	0x3cb5ca47	0.02219118
60	0xbc390a7a	-0.011294002
61	0xbd31a0d8	-0.043366283
62	0xbcf2b3f3	-0.029626822
63	0x3c72e6c7	0.014825529
64	0x3b379533	0.0028012514
65	0xbd17b270	-0.037035406
66	0xbc865bad	-0.016401136
67	0xbadc5200	-0.0016809106
68	0x3d1b0950	0.037850678
69	0xbd512136	-0.051057063
70	0xbdb09f4d	-0.08624134
71	0x3cfef433	0.031122303
72	0x3d26e698	0.040747255
73	0x3e6f60cd	0.2337677
74	0x3c7a212f	0.015266701
75	0xbdd99f37	-0.10626071
76	0xbd8ab91f	-0.0677359
77	0x3cb695e4	0.02228827
78	0xbd186eaa	-0.037214912
79	0xbc5ca6ae	-0.013467474
80	0xbc074376	-0.00825583
81	0x3e1e92dc	0.1548571
82	0xbd7e4d50	-0.06208545
83	0x3d2a56b3	0.04158659
84	0x3d1d8293	0.038454603
85	0x3d42306d	0.047409464
86	0x3b9c6a5a	0.0047734203
87	0xbe338c8d	-0.17534085
88	0x3d4ad65f	0.049520846
89	0x3c304790	0.010759249
90	0xbcc9505e	-0.024574455
91	0x3d22206f	0.039581712
92	0x3d0bb87d	0.03411149
93	0x3e417bc5	0.1889487
94	0x3d147359	0.036242817
95	0x3d1413cd	0.036151696
96	0xbc3f7607	-0.011685855
97	0x3d38939b	0.045062643
98	0x3d35ea13	0.044412684
99	0xbe2e1907	-0.17001735
100	0x3be1ac7c	0.006887017
101	0xbc2b84a0	-0.010468632
102	0x3ddf283a	0.108963445
103	0x3e324b36	0.17411503
104	0xbbd26d7e	-0.006421744
105	0x3e299767	0.16561662
106	0x3db38306	0.08765225
107	0x3d6c60f9	0.057709668
108	0x3d9a133f	0.07523202
109	0x3df4e832	0.1195835
110	0xbcaa3ad5	-0.020780006
111	0xbd122f7a	-0.03568981
112	0x3ccc1ce7	0.024916125
113	0x39f12667	0.00045995714
114	0xbd66eaff	-0.056376453
115	0xbd7276cd	-0.05919533
116	0xbc7024a7	-0.014657176
117	0x3e113003	0.14178471
118	0x3e0ba5fb	0.13637535
119	0xba637d94	-0.00086780754
120	0xbd3f52e9	-0.04670993
121	0x3e8b76db	0.27239117
122	0xbce9c8a2	-0.028538052
123	0xbe1ece92	-0.15508488
124	0xbdb4faa0	-0.088368654
125	0xbc9f3381	-0.019433739
126	0xbda4c2f0	-0.08044994
127	0xbd983182	-0.07431318
128	0x3d37a590	0.044835627
129	0xbda5241b	-0.08063527
130	0x3cfd58e4	0.030926175
131	0x3d5fb55a	0.05461631
132	0x3dc483b6	0.09595434
133	0x3de68a29	0.11256821
134	0x3cb3057d	0.021853203
135	0x3dcb0f18	0.09914988
136	0x3ca6ac14	0.020345725
137	0xbd1dba30	-0.03850764
138	0xbe2df6f0	-0.1698873
139	0xbe0a00d5	-0.1347688
140	0x3c4e0b26	0.0125759
141	0x3dcabffa	0.09899898
142	0x3db8beb1	0.090207465
143	0xbd274175	-0.04083391
144	0x3e28534c	0.16438025
145	0x3d7250d1	0.059159104
146	0xbca884a1	-0.020571055
147	0x3e2a8cff	0.16655348
148	0x3e305e01	0.1722336
149	0x3c89cefe	0.016822334
150	0xbd994b13	-0.074850224
151	0xbe305286	-0.1721898
152	0xbc9b1833	-0.018932438
153	0xbd9d4a57	-0.07680195
154	0xbdb8dbb5	-0.09026281
155	0x3d270bdd	0.040782798
156	0xba3c80cd	-0.00071908237
157	0x3c4ec127	0.012619293
158	0x3b8b1a9a	0.0042451145
159	0xbdfed91c	-0.12443754
160	0x3c8d824a	0.01727404
161	0x3d7aa100	0.061188698
162	0xbe553beb	-0.20823638
163	0x3dd960d0	0.10614169
164	0x3c41716f	0.01180683
165	0x3cf1b05d	0.029503042
166	0xbb68d3cd	-0.0035526634
167	0xbca96a4a	-0.020680565
168	0xbc92b1e8	-0.017907098
169	0x3e2b229d	0.16712423
170	0xbd44fe00	-0.048093796
171	0x3e04c7e1	0.12966873
172	0xbd9bace9	-0.07601339
173	0x3cee99e2	0.029126111
174	0xbc96720a	-0.018364925
175	0x3c554780	0.013017535
176	0xbbd8451a	-0.0066000344
177	0xbe0bf025	-0.13665827
178	0x3e355169	0.17706837
179	0x3c160ce6	0.009158349
180	0x3e0bb7c5	0.13644321
181	0x3e40bd40	0.18822193
182	0x3ca898c7	0.020580662
183	0x3be0e95a	0.006863755
184	0x3d2435f3	0.040090512
185	0x3c630333	0.013855743
186	0x3e264863	0.16238551
187	0xbd358870	-0.04431957
188	0x3d4da17b	0.050202828
189	0x3e0255a7	0.12727986
190	0x3e1cd552	0.1531575
191	0xbc57acfb	-0.0131638
192	0x3ad63867	0.0016343714
193	0x3c92b18d	0.017906928
194	0x3c6bef87	0.0144003695
195	0xbda71f29	-0.0816024
196	0xbe2fe083	-0.17175488
197	0x3d1c5dff	0.03817558
198	0x3e17a1de	0.14807841
199	0x3cd7028b	0.02624633
200	0xbd13d4b0	-0.036091506
201	0xbc8e6320	-0.01738125
202	0xbbcd33b3	-0.0062622665
203	0x3c555d00	0.013022661
204	0xbe462c42	-0.1935282
205	0xbde83781	-0.113387115
206	0x3caf4f56	0.021400135
207	0xbc1a2b33	-0.009409714
208	0xbca27dda	-0.019835401
209	0x3d4aac3f	0.049480673
210	0xbdf6562e	-0.12028156
211	0x3c642b68	0.0139263645
212	0xbc6d886f	-0.01449786
213	0x3c7405ad	0.014893931
214	0xbc07bc07	-0.008284575
215	0xbcde6790	-0.027148992
216	0x3e3043d7	0.17213379
217	0x3e4b3c9f	0.19847344
218	0xbadfa79f	-0.0017063505
219	0xbe01bd87	-0.12669955
220	0x3e2a16d4	0.1661027
221	0x3e0dba8b	0.13840692
222	0x3d2657a7	0.040610936
223	0x3d2fa01f	0.042877313
224	0xbb067167	-0.002051437
225	0xbddb6910	-0.107133985
226	0x3e4cfb5b	0.2001776
227	0x3d56dd82	0.05245734
228	0x3e4d04d3	0.20021372
229	0x3e15cc66	0.14628753
230	0x3a56772f	0.0008181212
231	0xbe0f57fa	-0.13998404
232	0xbe28440f	-0.16432212
233	0x3c77c682	0.015123012
234	0xbe0b4de9	-0.13603939
235	0xbb7be424	-0.0038435543
236	0x3ceb4b74	0.028722502
237	0x3af14160	0.0018406324
238	0x3d0b80f4	0.034058526
239	0xbcf539f2	-0.029934857
240	0x3c64dc60	0.013968557
241	0x3d318327	0.043337967
242	0xbcfa688d	-0.030567432
243	0x3e12bd89	0.14330114
244	0xbb30bfce	-0.0026969793
245	0x3cd213f2	0.025644276
246	0xbaaab400	-0.0013023615
247	0xbd3298ea	-0.04360286
248	0x3d381ea2	0.04495109
249	0xbe198119	-0.14990653
250	0xbb2cc75e	-0.002636395
251	0x3d2861ee	0.041109018
252	0x3caf4c0d	0.021398569
253	0x3d4c22cb	0.04983787
254	0x3befdaf3	0.007319802
255	0xbdbd1a0a	-0.09233482

fc1.bias f4 [400]
0	0x3da7e172	0.08197297
1	0x3bc17a26	0.005904454
2	0x3e9fc401	0.31204227
3	0x3ea25d0b	0.3171161
4	0xbe886893	-0.26642284
5	0xbefdcf30	-0.49572134
6	0x3e865d6f	0.2624316
7	0xbe4855c1	-0.19563963
8	0xbf01bf77	-0.5068278
9	0xbdc13f19	-0.09435863
10	0x3f003bdf	0.50091356
11	0xbd9d2c38	-0.0767445
12	0x3e9414ea	0.28922206
13	0xbea882d2	-0.32912308
14	0x3eaf70e3	0.34265813
15	0x3f10d85d	0.56580144
16	0xbe68f86b	-0.22751014
17	0xbe22ca5e	-0.1589751
18	0x3e99a1d8	0.3000629
19	0xbef8f5f7	-0.48625156
20	0xbf04d1e8	-0.5188279
21	0xbf092c4f	-0.53583235
22	0xbe59b5c9	-0.21260752
23	0x3e841b8f	0.25802276
24	0x3ef230a4	0.47302735
25	0xba1ab5ab	-0.00059017044
26	0xbe217703	-0.15768056
27	0x3ed731d5	0.42030206
28	0xbdbf3738	-0.09336704
29	0xbcc9e830	-0.024646848
30	0x3ec03e1f	0.37547395
31	0x3eec7d81	0.46189502
32	0xbf0e142b	-0.55499524
33	0xbe8f837f	-0.2803001
34	0x3e34fcb5	0.17674525
35	0x3ed3e53b	0.41385826
36	0xbd8274df	-0.06369948
37	0xbebecb07	-0.37264273
38	0xbe9b04cc	-0.30277097
39	0x3e54b20f	0.20771049
40	0xbe4bb792	-0.19894245
41	0xbe911b1b	-0.28340992
42	0x3ed2ddaf	0.41184756
43	0x3e9c7dfa	0.30564862
44	0x3eca8b89	0.39559582
45	0xbeb172e2	-0.3465796
46	0xbdac09bb	-0.084002934
47	0xbea3a90d	-0.31964913
48	0xbd450ef8	-0.04810998
49	0x3f026ca5	0.5094703
50	0xbec604d0	-0.38675547
51	0x3e54d3be	0.20783898
52	0xbe161357	-0.14655815
53	0x3e4fc4a9	0.20289864
54	0x3d7979d9	0.06090722
55	0xbed22340	-0.4104252
56	0xbefaa6a2	-0.48955256
57	0x3eca703c	0.39538753
58	0xbee4d3d5	-0.44692865
59	0x3dd87e01	0.10570908
60	0x3f079450	0.5296068
61	0xbe681f7d	-0.22668262
62	0x3f076293	0.5288479
63	0x3dc0cefd	0.0941448
64	0xbf0faca7	-0.5612282
65	0x3e907455	0.28213754
66	0xbe8c9ec5	-0.27464882
67	0xbe4b7399	-0.19868316
68	0x3cfddf2d	0.030990208
69	0xbe1a84af	-0.15089677
70	0xbe9c7d19	-0.30564192
71	0xbeda7f23	-0.42675123
72	0x3e93ddf2	0.28880268
73	0xbdb4b28f	-0.0882312
74	0xbe3ba759	-0.18325557
75	0x3eb8609e	0.36011213
76	0x3ea0aa13	0.31379756
77	0xbd405012	-0.04695136
78	0x3e735d6b	0.23766105
79	0xbee39f51	-0.44457486
80	0xbefe6f26	-0.49694175
81	0x3ef616a9	0.48064163
82	0xbe119d09	-0.1422006
83	0x3eb0e6d3	0.34551105
84	0xbf0c41c8	-0.54787874
85	0xbe4ef985	-0.20212372
86	0x3d697e05	0.057004947
87	0x3e6ecdeb	0.23320739
88	0x3cd92ce3	0.026510661
89	0x3e4010fc	0.18756479
90	0xbdd79300	-0.10526085
91	0xbee091ff	-0.43861386
92	0x3e9c9cc1	0.30588344
93	0x3da56113	0.08075156
94	0x3e042a6e	0.1290681
95	0xbc6288bb	-0.013826544
96	0x3f079592	0.529626
97	0xbe386896	-0.18008646
98	0x3e7b8f72	0.24566439
99	0x3ef1b7ba	0.47210485
100	0xbe246801	-0.160553
101	0xbef2c61b	-0.47416767
102	0x3eae68de	0.34064382
103	0x3edc028f	0.42970702
104	0x3e8736fe	0.26409143
105	0xbf0ca159	-0.54933697
106	0x3d1137b2	0.035453506
107	0xbe1c7b8a	-0.15281501
108	0x3ee96405	0.4558412
109	0xbce8a026	-0.028396677
110	0xbf05cac8	-0.52262545
111	0x3e2c60fd	0.16833873
112	0xbe8df8b2	-0.27728802
113	0x3e809ce3	0.25119695
114	0xbedd2c48	-0.43197846
115	0x3e41334d	0.18867226
116	0x3ec28795	0.37994066
117	0xbeebb328	-0.46035123
118	0xbeb9ea3f	-0.36311528
119	0x3d0f3f1a	0.034972288
120	0xbef431d8	-0.47694278
121	0xbed7171a	-0.42009813
122	0x3e8b83af	0.27248904
123	0x3e2a4c44	0.16630656
124	0xbe904d1c	-0.2818383
125	0x3e6c5f50	0.23083234
126	0x3eec0bd4	0.46102774
127	0xbe53b3ff	-0.20674132
128	0x3d52d62a	0.051473774
129	0x3ec6fa5e	0.3886289
130	0xbeaa4bb3	-0.3326088
131	0x3e54921e	0.20758864
132	0x3e9715bc	0.2950877
133	0x3ef36a00	0.4754181
134	0x3d647d34	0.055783466
135	0x3d6e6303	0.058199894
136	0x3e95d5e8	0.2926476
137	0xbe101eaf	-0.14074205
138	0xbe1e0859	-0.15432872
139	0x3e8e13ff	0.2774963
140	0x3e65bd7d	0.22435565
141	0x3ecf52d7	0.4049289
142	0x3ef4e886	0.4783365
143	0xbef437a5	-0.47698703
144	0x3e8d621b	0.2761391
145	0xbec9d886	-0.39423007
146	0xbe77a490	-0.2418387
147	0x3ea12d19	0.3147972
148	0x3ecc2245	0.39869896
149	0xbe1944f1	-0.14967705
150	0x3ddc7e4a	0.10766275
151	0xbf0d2eaa	-0.5514933
152	0x3f0639cf	0.5243196
153	0x3e7f471b	0.24929468
154	0xbeb0bc0d	-0.3451847
155	0x3ec52015	0.3850104
156	0x3e43ee1c	0.191338
157	0x3eca373c	0.39495265
158	0x3ea8a61d	0.32939234
159	0xbe9c8267	-0.3056824
160	0x3de534f7	0.11191743
161	0xbe731f1c	-0.23742336
162	0xbef31056	-0.474734
163	0x3dec3f64	0.11535528
164	0xbda5e88e	-0.08100997
165	0xbf0e38ad	-0.5555523
166	0x3da9feba	0.08300538
167	0x3c6659ce	0.014059497
168	0xbe23223c	-0.15931028
169	0x3e64b6e0	0.22335386
170	0x3d70aa2b	0.058756035
171	0x3eee3b69	0.465297
172	0x3ea0528f	0.31312987
173	0xbebd741a	-0.3700264
174	0x3c130144	0.00897247
175	0x3f11712b	0.56813306
176	0xbe382016	-0.1798099
177	0xbec39730	-0.38201284
178	0xbef3996f	-0.47577998
179	0xbe209782	-0.15682796
180	0x3e84d0dc	0.25940597
181	0xbef29070	-0.47375822
182	0xbd07a2bb	-0.033114176
183	0xbee0eef5	-0.4393231
184	0xbdc46e6f	-0.09591376
185	0xbe68a8ae	-0.22720596
186	0x3dd3056a	0.10303767
187	0x3eca23ce	0.39480442
188	0xbefe7f8d	-0.4970669
189	0xbf0feeb2	-0.56223595
190	0xbee5010c	-0.4472736
191	0x3e9b7e6b	0.30369887
192	0xbe450e05	-0.1924363
193	0x3cc9fe8a	0.024657506
194	0xbef63421	-0.48086646
195	0x3e191104	0.14947897
196	0xbe87ab6d	-0.26497975
197	0x3e310626	0.17287502
198	0x3e4ee0a0	0.20202875
199	0x3efba719	0.49150923
200	0xbe5a92ce	-0.21345064
201	0xbdf53687	-0.11973291
202	0x3ebef448	0.37295747
203	0xbeba389b	-0.36371312
204	0xbb9db9f0	-0.0048134252
205	0xbc624462	-0.013810249
206	0x3eb1551e	0.34635252
207	0xbdde78e6	-0.10862903
208	0x3e9cdb35	0.30635992
209	0x3dc1d2f5	0.09464065
210	0x3e831dd1	0.25608686
211	0xbe13b416	-0.14424166
212	0xbebd7f6e	-0.37011284
213	0x3bea45d0	0.0071494356
214	0xbe27b9ed	-0.16379519
215	0xbe7232f6	-0.23652253
216	0xbe23cdd5	-0.15996487
217	0xbe9a3563	-0.30118856
218	0xbe68832a	-0.22706285
219	0x3ed781c7	0.420912
220	0xbe3cfbdc	-0.18455452
221	0xbea3fe2d	-0.32029858
222	0xbe14265d	-0.1446776
223	0x3eef6c08	0.4676211
224	0x3eacf312	0.33779198
225	0xbee4efba	-0.44714147
226	0xbea3dd91	-0.3200498
227	0xbe4280af	-0.18994401
228	0x3e6e05c3	0.23244385
229	0x3ec8d9e5	0.3922874
230	0x3de463e8	0.11151868
231	0xbf0c9a90	-0.54923344
232	0x3f03aa24	0.5143149
233	0xbf13515c	-0.5754602
234	0x3eb7ac38	0.3587358
235	0x3e35a878	0.17740047
236	0x3f027e3f	0.50973886
237	0xbe44831c	-0.1919064
238	0x3d3c6143	0.045991194
239	0x3e92360f	0.28556868
240	0x3cc490bf	0.023994802
241	0x3d66d1ed	0.056352545
242	0xbeef9983	-0.46796808
243	0x3e75e248	0.240121
244	0x3eeda1de	0.46412557
245	0x3e99e4f4	0.3005749
246	0x3e02fef6	0.12792572
247	0x3e9b8a4f	0.3037896
248	0xbe03fa38	-0.1288842
249	0xbf087b22	-0.53312886
250	0xbf0a4a6e	-0.5401982
251	0xbe8da622	-0.27665812
252	0xbda01751	-0.07816947
253	0x3e35da0b	0.17758958
254	0xbe8c69f9	-0.274246
255	0xbec2af69	-0.38024452

fc2.weight f4 [302, 402]
0	0x3d50c2d8	0.050967067
1	0xbf443f24	-0.76658845
2	0xbc27444b	-0.010209153
3	0xbeabd86a	-0.33563548
4	0xbe06c1ac	-0.13159817
5	0xbd3b4827	-0.045723107
6	0x3db113bd	0.08646343
7	0xbcc36031	-0.023849579
8	0xbc92af6e	-0.017905917
9	0xbe0ae2fb	-0.13563149
10	0x3dc2b2cb	0.09506758
11	0x3e2c04e2	0.16798738
12	0xbd4a6381	-0.0494113
13	0xbdc58cb7	-0.0964598
14	0x3c7822b2	0.015144991
15	0x3b899b8a	0.00419945
16	0xbee08a17	-0.43855354
17	0x3cf9c4f4	0.030489422
18	0x3de4faf6	0.111806795
19	0x3bc1be27	0.0059125605
20	0xbca76adb	-0.020436695
21	0x3d2f4c81	0.04279757
22	0x3c86f80b	0.016475698
23	0x3debbc66	0.115105435
24	0xbd575fe3	-0.05258168
25	0xbc11cd0d	-0.008898986
26	0xbd4824bb	-0.048863154
27	0xbe287a45	-0.16452892
28	0x3c1cbd48	0.009566613
29	0xbe4643c6	-0.19361791
30	0x3b1338bd	0.0022464239
31	0xbe6d55dc	-0.23177284
32	0xbc6c176a	-0.014409879
33	0xbe5b1158	-0.21393335
34	0xbdc8fb40	-0.09813547
35	0xbdb7615b	-0.08954116
36	0x3e5a72d2	0.21332863
37	0xb8d1159d	-9.9699224e-05
38	0xbdea99d9	-0.11455125
39	0xbdb6404d	-0.08898983
40	0xbeee745b	-0.46573147
41	0xbe253d74	-0.16136724
42	0x3d8b604d	0.06805477
43	0xbe35e121	-0.17761661
44	0x3c17be24	0.009261642
45	0xbd6f1c89	-0.058376823
46	0xbcebe50d	-0.028795743
47	0x3d8d67ee	0.06904589
48	0x3da9f9e1	0.08299614
49	0x3d576a97	0.052591886
50	0xbe3ca6c0	-0.18422985
51	0x3da33158	0.07968396
52	0xbcab9ff5	-0.020950297
53	0xbc6173b5	-0.013760497
54	0xbccc02b4	-0.024903633
55	0xbc0369f0	-0.008020863
56	0xbe8a296d	-0.2698473
57	0x3d93ec46	0.072228
58	0x3b92e623	0.004483001
59	0xbe0d1d37	-0.13780676
60	0x3cfeaad7	0.031087322
61	0x3cf04ae7	0.029332591
62	0x3d9874c0	0.07444143
63	0xbe368824	-0.17825371
64	0xbd1969cd	-0.037454415
65	0x3de6e85e	0.11274789
66	0x3d36083a	0.04444144
67	0x3d3e3525	0.0464374
68	0xbd5620bf	-0.052277323
69	0xbce3f4a4	-0.027826615
70	0xbeef67dc	-0.46758926
71	0x3c431c56	0.011908611
72	0xbd966e2c	-0.07345232
73	0xbda384ee	-0.07984339
74	0x3cff8713	0.031192338
75	0xbe60fd5e	-0.21971652
76	0xbd211ab5	-0.03933211
77	0xbd16c77e	-0.036811344
78	0x3dafe94a	0.08589418
79	0x3d0bbdf5	0.034116704
80	0x3d652b99	0.05594978
81	0x3c80beae	0.015715923
82	0xbbc3e6f9	-0.005978462
83	0x3dbcad7f	0.09212779
84	0x3c00cc79	0.00786125
85	0xbdcb981e	-0.099411234
86	0xbf136f41	-0.57591635
87	0xbd6cbff7	-0.05780026
88	0x3e52d13e	0.20587632
89	0xbe3bfb39	-0.18357553
90	0x3d45ee2b	0.048322838
91	0xbd3259ee	-0.043542795
92	0xbcd6ec08	-0.026235595
93	0x3b8fc6b8	0.004387703
94	0x3df4ef5e	0.11959718
95	0x3effa10c	0.49927557
96	0x3c9a9678	0.018870577
97	0xbd187077	-0.03721663
98	0xbdfb97d1	-0.12284816
99	0xba55f840	-0.00081622973
100	0xbd0a23c5	-0.03372552
101	0xbdb1718f	-0.08664238
102	0xbcc4d068	-0.024025157
103	0x3d0d5985	0.0345092
104	0x3db8390d	0.089952566
105	0x3c270a79	0.010195368
106	0xbd13814e	-0.036011986
107	0x3b9d6088	0.004802767
108	0xbd084820	-0.03327191
109	0xbd23e576	-0.040013753
110	0xbd5365ca	-0.051610745
111	0xbc609d34	-0.013709355
112	0xbe58d172	-0.21173647
113	0x39ca7708	0.00038617128
114	0x3d646aef	0.055766042
115	0xbdfe30dd	-0.12411664
116	0xbd45a019	-0.048248384
117	0xbb2e76a5	-0.002662101
118	0xbd4a49f4	-0.049386933
119	0xbcad3002	-0.021141056
120	0x3c4749ab	0.01216356
121	0xbd3e004c	-0.046387002
122	0xbe1a1c0c	-0.15049762
123	0xbe6790a2	-0.22613767
124	0xbdd6af2e	-0.104826316
125	0xbe8b8bce	-0.272551
126	0xbd14275c	-0.03617035
127	0x3cd3021e	0.025757845
128	0xbe4bbf44	-0.19897181
129	0x3d9e827c	0.07739732
130	0x3d013ec5	0.031554002
131	0xbd8d6c45	-0.069054164
132	0xbe28bb38	-0.16477668
133	0x3d51ebb7	0.051250186
134	0x3c0b7d5c	0.008513775
135	0xbde41104	-0.11136058
136	0xbcf21a34	-0.02955351
137	0x3d6a31c4	0.057176366
138	0xbd9ea4b3	-0.07746258
139	0xbe30a1a7	-0.17249165
140	0xbdb3d124	-0.08780125
141	0x3dd34c51	0.103172906
142	0xbc3a8b89	-0.011385807
143	0x3d046afc	0.03232859
144	0xbd71b128	-0.05900684
145	0xbe5796d1	-0.21053626
146	0xbedc574b	-0.4303535
147	0xbcac347a	-0.021021117
148	0xbeb8fa55	-0.36128488
149	0x3cba8b8a	0.022771616
150	0x3dd90dff	0.10598373
151	0xbcb3cacd	-0.021947289
152	0xbe097082	-0.13421825
153	0xbd315d4c	-0.043301865
154	0xbe164ef0	-0.1467855
155	0xbc905721	-0.017619671
156	0xbe369bdd	-0.17832895
157	0x3ad20334	0.0016022683
158	0x3b84fd98	0.004058551
159	0xbc540d3f	-0.012942611
160	0x3ca9e683	0.0207398
161	0x3c953c51	0.018217238
162	0xbcfbfb87	-0.030759586
163	0x3e03f0da	0.12884846
164	0xbd1284f4	-0.035771325
165	0x3ce8dd2d	0.028425777
166	0x3d66c0d6	0.056336246
167	0xbd454a4f	-0.04816657
168	0x3c586ea0	0.013209969
169	0xbc846060	-0.016159236
170	0xbe1e2a59	-0.15445842
171	0x3cb904e5	0.022585342
172	0xbe222f8f	-0.15838455
173	0xbd34f379	-0.044177506
174	0xbdbd3495	-0.09238545
175	0xbb419c23	-0.0029542528
176	0xbe013eb3	-0.12621574
177	0x3d4c9661	0.0499481
178	0x3d1ab155	0.037766773
179	0xbd2f26ac	-0.04276149
180	0xbe137926	-0.14401683
181	0xbd3fa59c	-0.046788797
182	0xbef1fd58	-0.47263598
183	0xbd1d1728	-0.03835216
184	0x3e6a3e3f	0.22875308
185	0x3cc3eeb3	0.023917532
186	0x3daa7173	0.0832242
187	0x3d2d0cf7	0.042248692
188	0xbce030a4	-0.027366944
189	0x3cf06d92	0.029349122
190	0xbd1997ec	-0.0374984
191	0xbe35e975	-0.17764838
192	0xbdff90a9	-0.124787636
193	0xbd1f0955	-0.03882726
194	0x3b7ade7f	0.003827959
195	0x3d869ad9	0.065725036
196	0xbe81a12a	-0.2531827
197	0x3e158e09	0.14604963
198	0xbbedf9d1	-0.0072624465
199	0x3c007c4d	0.007842136
200	0xbdcc10b8	-0.09964126
201	0xbd78bf96	-0.060729586
202	0xbe3ee3aa	-0.18641534
203	0xbdbff8e7	-0.09373646
204	0xbac3a98f	-0.0014927852
205	0xbd8d9ebc	-0.06915042
206	0xbde6575d	-0.11247132
207	0xbd61c1c7	-0.05511644
208	0xbe8065da	-0.25077707
209	0xbe9539fb	-0.29145798
210	0xbd7f49dc	-0.062326297
211	0xbe60aef7	-0.21941744
212	0x3d33b249	0.043871198
213	0xbd73b0c0	-0.059494734
214	0xbdabf93e	-0.083971485
215	0xbd012cae	-0.03153675
216	0xbcef3960	-0.029202163
217	0xbd179858	-0.03701052
218	0xbef20f93	-0.47277507
219	0x3c17db2b	0.009268562
220	0x3c01cd2d	0.007922453
221	0x3d5e94d3	0.05434115
222	0xbdcda896	-0.10041921
223	0x3dd8be6d	0.10583196
224	0xbbe3c0b1	-0.006950461
225	0xbd06e7b6	-0.03293582
226	0xba5b1c0f	-0.0008358368
227	0xbdc591db	-0.0964696
228	0xbd383c04	-0.04497911
229	0xbd97dd3c	-0.07415244
230	0xbd79c3db	-0.060977798
231	0xbd3784f5	-0.044804532
232	0x3d7a2754	0.061072662
233	0x3be1513d	0.0068761394
234	0xbcd02466	-0.025407981
235	0x3dc69bb4	0.09697667
236	0x3a21cb85	0.00061719894
237	0xbcd86f29	-0.026420193
238	0xbf271b62	-0.6527616
239	0x3d5870f5	0.0528421
240	0x3e7564c3	0.23964219
241	0xbe124ece	-0.14287874
242	0xbd2a4d2b	-0.0415775
243	0x3c922961	0.017841997
244	0x3cf0162e	0.029307451
245	0x3e7ad6fa	0.2449607
246	0x3cb2530a	0.021768112
247	0xbd3b9a93	-0.04580171
248	0xbcfdd263	-0.03098411
249	0xbd6a3116	-0.05717572
250	0x3b9e765a	0.004835886
251	0xbd25ff00	-0.04052639
252	0xbc291438	-0.010319762
253	0xbe30377b	-0.17208664
254	0x3d5ab661	0.053396586
255	0x3c126903	0.00893617

fc2.bias f4 [302]
0	0xbbfca7e1	-0.0077104424
1	0x3d43fddb	0.047849517
2	0xbd33ca5a	-0.04389415
3	0xbc30a680	-0.010781884
4	0x3cd8ca9c	0.0264638
5	0xbcd89c6e	-0.026441779
6	0xbd171d6f	-0.036893304
7	0xbcd6e909	-0.026234167
8	0x3b846589	0.0040404242
9	0x3bc4fcfc	0.0060116034
10	0x3d3f38ca	0.046685018
11	0xbcf9e42d	-0.03050431
12	0xbd072607	-0.03299525
13	0x3c319965	0.010839795
14	0x3c3ea68d	0.0116363885
15	0xbc595a53	-0.013266164
16	0x3d73ad1c	0.05949126
17	0x3c157104	0.009121183
18	0x3b3cf6e7	0.0028833689
19	0xbd5da390	-0.054111063
20	0x3c125f43	0.008933845
21	0xbcb98e2f	-0.022650806
22	0x3d093242	0.033495195
23	0xbc2d9f4c	-0.010597061
24	0xbbf1c4c2	-0.0073781917
25	0xbb47c6ac	-0.0030483408
26	0xbc924025	-0.017852852
27	0xbc407f6e	-0.011749132
28	0xbb8d2718	-0.004307639
29	0xbd214178	-0.039369076
30	0xbcff65b2	-0.031176422
31	0xbc83bbfa	-0.016080845
32	0xbd1a00f4	-0.037598565
33	0x3c416ad0	0.011805251
34	0xbd041ca8	-0.03225389
35	0x3b3fcbc1	0.0029265734
36	0x3b3e5c41	0.0029046687
37	0x3d2e56db	0.0425633
38	0x3d73ac94	0.059490755
39	0x3d09f609	0.033681903
40	0x3a8057a6	0.0009791746
41	0x3bc49b50	0.00599996
42	0x3d1feca2	0.03904403
43	0x3d2a22d3	0.041537117
44	0x3b9c8a96	0.004777263
45	0x3cc66b66	0.024221133
46	0x3d0f7cb0	0.03503102
47	0xbd60dcf1	-0.054898206
48	0xbc2b28c3	-0.01044673
49	0x3d4c6af4	0.049906686
50	0xbcb18e2c	-0.021674238
51	0xbc52f16d	-0.012874943
52	0x3c5f5142	0.013630213
53	0x3d4e1049	0.0503085
54	0xbc829d0f	-0.015944032
55	0x3d4265a9	0.047460232
56	0x3b9fe55d	0.004879637
57	0x3c47367c	0.012158986
58	0x3c3d1b63	0.011542174
59	0x3c587075	0.013210406
60	0xbcaa025a	-0.020753074
61	0x3c0ee609	0.008721837
62	0x3c9f7f7a	0.019469965
63	0xbc56171c	-0.013067033
64	0xbd18b30a	-0.03728012
65	0xbd138613	-0.036016535
66	0x3ccf93c1	0.02533901
67	0x3d366268	0.04452744
68	0x3d2b24f7	0.0417833
69	0xbcad8e10	-0.021185905
70	0x3ba2293c	0.004948763
71	0x3cc83c01	0.024442675
72	0xbcba9773	-0.022777295
73	0xbc9b1d03	-0.018934732
74	0xbd761c4f	-0.06008559
75	0xbca6e86c	-0.0203745
76	0x3cff4e84	0.031165369
77	0xbc8a9cc3	-0.016920453
78	0xbbfcfb3c	-0.007720379
79	0xbc438c78	-0.011935346
80	0x3d2982c2	0.041384466
81	0xbbcd000d	-0.0062561096
82	0x3b5febaa	0.0034167566
83	0xbb30674b	-0.0026917036
84	0x3d113933	0.03545494
85	0x3cf1a50c	0.029497646
86	0xbcc00e19	-0.023444222
87	0x3d32a84f	0.043617543
88	0xbca41171	-0.020027848
89	0x3d0fe63f	0.03513169
90	0xbd16ae46	-0.036787294
91	0x3cac90f6	0.021065217
92	0x3d48f295	0.04905947
93	0x3cdcad28	0.026938036
94	0x3d0e6515	0.034764368
95	0x3c995d5c	0.018721275
96	0x3c7f9d1b	0.015601422
97	0x3d531317	0.051531877
98	0xbd219238	-0.039446086
99	0x3d3a7d48	0.045529634
100	0xbceb8e19	-0.02875428
101	0x3bb617a4	0.0055570174
102	0xbca95f95	-0.02067546
103	0xbc4e14ab	-0.01257817
104	0x3c58a7b4	0.013223577
105	0x3d5ae5b5	0.053441722
106	0x3c21b4fb	0.009869809
107	0xbc623c37	-0.013808302
108	0x3d126718	0.03574285
109	0xbbb08bd5	-0.005387763
110	0xbd2ed5b5	-0.042684276
111	0xbbb9fb5d	-0.005675717
112	0xbd149c43	-0.036281835
113	0xbbd21394	-0.0064110253
114	0x3d639159	0.055558536
115	0xb9ebf403	-0.00045004496
116	0x3d001758	0.031272262
117	0x3d025d81	0.031827454
118	0x3a074fea	0.00051617494
119	0x3c4edbba	0.012625629
120	0x3d408ca9	0.047009144
121	0xbb63fac4	-0.003478692
122	0x3c9dbe87	0.01925589
123	0x3d83fefd	0.064451195
124	0x3c1db259	0.009625041
125	0xbcc65f75	-0.02421544
126	0xbbb42247	-0.0054972502
127	0xbb4afbb0	-0.0030972771
128	0x3b92f9c2	0.00448534
129	0xbcd74fc2	-0.026283149
130	0x3b807ecc	0.0039213654
131	0xbc50c25b	-0.01274165
132	0xbd2ad14c	-0.041703507
133	0x3ccc3452	0.024927292
134	0x3c9dbcfb	0.019255152
135	0x3c150b43	0.009096923
136	0xbbcf3fe2	-0.006324754
137	0x3d6e7b17	0.058222856
138	0x3d0cd671	0.034384195
139	0x3cbbcf0e	0.02292588
140	0x3c8b2d7f	0.016989468
141	0x3ce6d6e6	0.028178643
142	0xbcf8acb2	-0.030355785
143	0xbd4a4c80	-0.049389362
144	0x3b78aae9	0.0037943667
145	0x3d33e00a	0.043914832
146	0xbc0190c8	-0.007908054
147	0xbb7b2b8c	-0.0038325517
148	0x3cf81577	0.030283673
149	0xbccba7be	-0.02486026
150	0xbd1a185c	-0.037620887
151	0xbcd0592c	-0.025433145
152	0xbd14759f	-0.036244985
153	0x3bff34d8	0.007788282
154	0x3c21fe2d	0.00988726
155	0x3cf4b52b	0.029871544
156	0x3cfdbfa0	0.030975163
157	0x3cc04b04	0.02347327
158	0xbd15e93a	-0.036599375
159	0x3c45414e	0.012039496
160	0x3b705644	0.0036672512
161	0xbc616ebc	-0.013759311
162	0x3c516d8d	0.012782467
163	0x3d7c0086	0.061523937
164	0xbd4eeb2d	-0.05051725
165	0xbd031761	-0.032004718
166	0x3d30b5aa	0.043142
167	0x3cff2490	0.031145364
168	0x3c728b14	0.014803667
169	0x3cc8795f	0.024471937
170	0xb81575c2	-3.563404e-05
171	0xbcefd9e0	-0.029278696
172	0x3c82ffde	0.015991148
173	0x3d18bc32	0.037288852
174	0x3d17d78b	0.037070792
175	0xbc99f262	-0.018792335
176	0x3bea957d	0.0071589337
177	0x3d697185	0.056993026
178	0xbc0da2fa	-0.008644814
179	0xbcc30313	-0.023805177
180	0x3d051bc4	0.032497182
181	0x3d27eb24	0.040995732
182	0xbc33ff04	-0.010986093
183	0xbc9c129e	-0.019051846
184	0xbd7e1a67	-0.062036898
185	0xbcc98701	-0.024600508
186	0x3d215815	0.039390642
187	0xbd53d2c2	-0.051714666
188	0x3d0b629a	0.03402958
189	0x3d5206c4	0.051275983
190	0x3cdee9db	0.02721112
191	0x3d178df7	0.037000623
192	0x3ceeca60	0.029149234
193	0xbbb67886	-0.0055685667
194	0x3c62e32f	0.01384811
195	0x3c0bf075	0.008541216
196	0x3ced5e8e	0.028975751
197	0xbcc03c5d	-0.023466283
198	0x3d04e143	0.03244139
199	0x3b833757	0.0040043998
200	0xbd4019f2	-0.046899743
201	0x3cebb406	0.028772365
202	0x3cfbd92c	0.030743204
203	0xbb6b1775	-0.0035872136
204	0xbc1d409d	-0.009597925
205	0x3c1ce6d6	0.00957652
206	0xbd016a14	-0.031595305
207	0x3c28f9eb	0.010313491
208	0x3c8bf8ae	0.017086353
209	0x3bbf6e67	0.0058420184
210	0x3d1b45ad	0.037908245
211	0x3ca76d8c	0.020437978
212	0x3d6a194b	0.057153028
213	0xbc6d74af	-0.014493152
214	0x3cb8a573	0.02253983
215	0xbcb5fefa	-0.022216309
216	0x3cfea309	0.0310836
217	0x3d83e71e	0.064405665
218	0x3c573bef	0.013136848
219	0x3c63852d	0.013886732
220	0xbca13a40	-0.019681096
221	0x3cda6822	0.026660983
222	0x3d03b2be	0.032152884
223	0x3d2b6be9	0.041850958
224	0xbd2ef8c7	-0.04271772
225	0xbb8813b1	-0.004152738
226	0x3cdc3c21	0.02688414
227	0x3d01b8f9	0.031670544
228	0x3d16eb83	0.036845695
229	0xbc517e94	-0.012786526
230	0xbb56ebec	-0.003279443
231	0x3cd1c437	0.025606258
232	0x3c3b66c1	0.011438073
233	0xbd6bea7d	-0.057596672
234	0xbd45a23b	-0.04825042
235	0x3d6879dd	0.056756843
236	0xbc1f1fef	-0.009712203
237	0xbc60aa4e	-0.013712479
238	0xbd448204	-0.047975555
239	0x3c245f15	0.010032435
240	0x3d7cb776	0.0616984
241	0xbcb2ef04	-0.021842487
242	0x3ca2b3ea	0.01986118
243	0x3cb4cab0	0.022069305
244	0xbd328f9a	-0.04359398
245	0x3d56a230	0.052400768
246	0x3d26ace2	0.040692218
247	0x3d800767	0.06251412
248	0x3bb6c6c7	0.0055778953
249	0x3d8211a0	0.06351018
250	0x3ce978a8	0.028499916
251	0xbca1ab02	-0.019734863
252	0x3d5a40f6	0.053284608
253	0x3d29e690	0.041479647
254	0xbcf4aad1	-0.029866608
255	0xbbd88b52	-0.006608405

fc3.weight f4 [1, 302]
0	0xbfdaaab1	-1.7083341
1	0x3e05df84	0.13073546
2	0x3b177a61	0.0023113715
3	0xb9e5224c	-0.00043703837
4	0x3dbd77ff	0.09251403
5	0x3b449ba6	0.003
6	0xba2853a5	-0.00064211554
7	0x3d3a6ed9	0.04551587
8	0x3f61fe1e	0.8827838
9	0x3cc2c8f0	0.023777455
10	0x3da75517	0.081705265
11	0x3d34ba82	0.04412318
12	0x39d65981	0.00040883946
13	0x3d8c4375	0.06848804
14	0x3daa2905	0.08308605
15	0x3b2c2784	0.002626867
16	0x3e0e44f0	0.13893485
17	0xba2b7634	-0.0006540746
18	0x3e0cea94	0.1376136
19	0xbf7be4a4	-0.9839575
20	0x3e25a526	0.1617628
21	0x3c394ecc	0.011310291
22	0xbb15067f	-0.0022739468
23	0xbaa66ea5	-0.001269777
24	0x3b3a6d2e	0.0028446424
25	0x3d32b943	0.04363371
26	0xbb4c880c	-0.003120902
27	0x3ccd16ba	0.025035251
28	0x3da72657	0.081616096
29	0x3acae36d	0.0015479155
30	0x3c66610c	0.014061224
31	0x3b25c759	0.0025295822
32	0x3f1af598	0.60530996
33	0x3dc092b8	0.094029844
34	0x3ab79a78	0.0014007827
35	0xbec71880	-0.3888588
36	0x3a391ccf	0.0007061483
37	0x3c9b6947	0.018971099
38	0x3dbaeb07	0.09126859
39	0x3d62ed7b	0.05540226
40	0x3e043a12	0.12912777
41	0xbf5d1985	-0.86367065
42	0xbe2a9dab	-0.16661708
43	0xbea8b96e	-0.32953972
44	0x3ce04d20	0.027380526
45	0x3da15bfa	0.07878871
46	0x3d5cb132	0.053879924
47	0x3f21c442	0.6319009
48	0x3d0257e0	0.031822085
49	0x3cb257a8	0.021770313
50	0xb8032464	-3.1266725e-05
51	0x3bec4ee5	0.0072115534
52	0x3d9edce6	0.07756977
53	0x3d508172	0.0509047
54	0xbee5e78b	-0.44903216
55	0x3d02a842	0.031898744
56	0x3df4d7f1	0.1195525
57	0x3b5f31d4	0.00340568
58	0x3d980d81	0.07424451
59	0xb92a89a7	-0.00016263743
60	0x3db04181	0.08606244
61	0x3b449ba6	0.003
62	0x3da8641c	0.08222219
63	0xba0a5a92	-0.0005277778
64	0x3a9b3795	0.0011842126
65	0xb855a9b5	-5.094121e-05
66	0x3cf404a7	0.029787375
67	0x3da71555	0.08158366
68	0x3d6fe239	0.058565352
69	0x3f07607f	0.52881616
70	0x3d798afd	0.060923565
71	0x3f1bfb8d	0.6093071
72	0xbe9d3639	-0.3070543
73	0xb9fd56ae	-0.00048320502
74	0xbe96cd8e	-0.294537
75	0x3cfedfce	0.031112578
76	0x3ded2e5e	0.115811095
77	0xba07f67e	-0.00051865715
78	0x3da47d4e	0.080317125
79	0x3ccdd731	0.025127025
80	0x3d3e5c40	0.046474695
81	0x3b0f38b5	0.0021853868
82	0x3cd075b4	0.02544675
83	0x3daf0a9b	0.08546945
84	0x3f16fb0f	0.58976835
85	0x3e220913	0.15823774
86	0x3a3d7de7	0.0007228539
87	0x3e08bd1d	0.13353391
88	0x3a1af68f	0.0005911374
89	0x3d55196d	0.0520262
90	0x3af27750	0.0018498693
91	0x3d253171	0.040330354
92	0x3df40cf3	0.11916532
93	0x3af070cf	0.0018344166
94	0x3d1a32cd	0.037646104
95	0x3d185314	0.037188604
96	0x3ea01d54	0.31272376
97	0x3daf3387	0.0855475
98	0x3a0c7f76	0.00053595693
99	0x3d668d86	0.05628731
100	0x3d02a407	0.03189471
101	0x3e37ec06	0.1796113
102	0x3d157ee2	0.036497958
103	0xb9bdbee1	-0.00036191105
104	0x3dd5008d	0.10400496
105	0x3dd3a579	0.10334296
106	0xbd974548	-0.07386261
107	0x3d9192c5	0.07108072
108	0x3e16e666	0.14736328
109	0x3dfd26e3	0.12360933
110	0x3da2901c	0.07937643
111	0xbe18a93b	-0.14908306
112	0xba7d681f	-0.00096666993
113	0x3d4a9ebd	0.04946779
114	0x3d7a4c5b	0.061107974
115	0xbf20b697	-0.6277861
116	0x3dbfd7be	0.093673214
117	0x3d092393	0.03348119
118	0xbe89071f	-0.26763245
119	0x3d356386	0.044284366
120	0x3d8eb736	0.069685385
121	0x3dd3e20a	0.10345848
122	0x3d834cc9	0.0641113
123	0x3d9c2ccf	0.07625734
124	0x3a10e9a1	0.00055279775
125	0x3b26a81a	0.0025429786
126	0x3d2e6a05	0.042581577
127	0x3a92946d	0.001118315
128	0x3d576daa	0.05259482
129	0x3df59651	0.11991561
130	0xbea2c39f	-0.31789872
131	0xb9aecc0b	-0.0003333989
132	0x3b449ba6	0.003
133	0x3d11ace5	0.035565276
134	0x3c6d7319	0.014492773
135	0xba0c259c	-0.00053461804
136	0x3d447104	0.047959343
137	0x3e32b7c2	0.1745291
138	0x3edb52ea	0.42836696
139	0x3ce447d8	0.027866289
140	0x3ceebd60	0.029143035
141	0x3c76fbc6	0.015074676
142	0x3e18a230	0.1490562
143	0xbec4864b	-0.38383707
144	0x3c92ace1	0.0179047
145	0x3e1b6d88	0.15178502
146	0x3dd968e6	0.10615711
147	0x3d98756a	0.0744427
148	0x3d942d8c	0.0723525
149	0x3f021230	0.50809
150	0xbd8d8f22	-0.06912066
151	0xbf1e7f99	-0.6191345
152	0xbea73430	-0.32657003
153	0x3e2c39ef	0.16818975
154	0x3e0cd75f	0.13754033
155	0xbd445760	-0.04793489
156	0x3d24cc35	0.04023381
157	0x3dca339f	0.09873127
158	0xba075bbd	-0.00051635114
159	0x3d606152	0.054780312
160	0x3e1fce15	0.15605958
161	0x3bfc548f	0.00770051
162	0x3d28609c	0.04110776
163	0x3df86fe9	0.1213072
164	0xbea9ea86	-0.3318674
165	0x3ada86c0	0.0016672239
166	0x3d15d29c	0.036577806
167	0x3c9360fa	0.017990578
168	0x3b6bc660	0.0035976395
169	0x3d85322b	0.065037094
170	0x3d166bf8	0.03672406
171	0xbe74c0a9	-0.23901619
172	0x3b46d1a5	0.003033736
173	0x3e1062b1	0.14100148
174	0xbdf1c84a	-0.1180578
175	0x3de75d32	0.112970725
176	0x3d605e62	0.05477751
177	0x3d9fed12	0.078088894
178	0x3db75047	0.089508586
179	0x3d8d56b5	0.06901304
180	0x3d291c82	0.041286953
181	0x3d1cda7a	0.038294293
182	0x3bd00435	0.006348158
183	0x3d98d589	0.074626036
184	0xbe5858a8	-0.2112757
185	0x3e9a2fd6	0.3011462
186	0x3e438259	0.19092692
187	0x39e7fb52	0.00044247002
188	0x3cd6fd9d	0.02624398
189	0x3ceec069	0.029144483
190	0x3bc733dc	0.00607918
191	0x3e104d6c	0.14092034
192	0x3d8d32fa	0.06894489
193	0xbe1c3b21	-0.15256931
194	0x3e880d04	0.2657243
195	0x3e7100d5	0.23535474
196	0xbe1689a6	-0.14700946
197	0x3b5f9f7f	0.0034122167
198	0x3e49ade1	0.19695236
199	0x3c8960fd	0.01676988
200	0x3d65534a	0.055987634
201	0x3e7d57e6	0.24740562
202	0x3d617e76	0.055052243
203	0x3e2fefe1	0.1718135
204	0x3a384021	0.0007028599
205	0xbedac598	-0.42728877
206	0x3e27573f	0.16341875
207	0x3d0f86aa	0.035040535
208	0x3d32076c	0.04346411
209	0x3aa47627	0.0012547419
210	0x3cbd7d35	0.023130992
211	0x39f1701a	0.00046050624
212	0x3dc7fa51	0.09764541
213	0x3bdcea8c	0.0067418274
214	0x3e9c0e3b	0.30479607
215	0x3d2f553c	0.042805895
216	0x3d9befc4	0.07614091
217	0x3dcc939c	0.09989092
218	0x39f3f15d	0.000465284
219	0xbf01e997	-0.50747055
220	0x3afa5532	0.0019098877
221	0x3a91fd8e	0.0011138187
222	0x3d9aa633	0.07551231
223	0xbf041def	-0.51608175
224	0x3e957323	0.29189405
225	0x3def7c60	0.116936445
226	0x3d20c84a	0.03925351
227	0x3d5921d2	0.05301077
228	0x3d50701a	0.05088816
229	0xbf68518d	-0.90749437
230	0x3b449ba6	0.003
231	0x3df6be6e	0.1204804
232	0xbe8f1037	-0.27942058
233	0xbed15d1e	-0.40891355
234	0x3d1bd8b4	0.03804846
235	0x3da021e9	0.07818968
236	0x3df0f972	0.11766328
237	0x3ca3df90	0.020004064
238	0xbad2a28b	-0.001607017
239	0x3b402ed9	0.0029324798
240	0x3d73d495	0.059528906
241	0x3d094f34	0.0335228
242	0x3d32abae	0.043620758
243	0x3e056dad	0.13030119
244	0xbfccfbf0	-1.6014385
245	0x3db72436	0.089424536
246	0x3d131117	0.03590497
247	0x3e7024d3	0.23451547
248	0x3d386a64	0.045023337
249	0x3ecf6aaa	0.40511066
250	0x3d183465	0.037159342
251	0x3da81770	0.08207595
252	0x3d32caa2	0.043650277
253	0xbf12e5d0	-0.57381916
254	0x3e644eea	0.22295728
255	0x3de68834	0.112564474
