runs/4_400_300_4_456_critic.pth (torch, 493143 bytes, 5 tensors)

fc1.weight f4 [400, 3]
-0.013268697 -0.008194357 0.04340446 0.00832538 -0.0004166901 -0.044784304 0.14757057 0.13777332
0.17918366 0.02404408 0.0019806921 -0.0468643 0.087628506 0.09097009 0.12020331 -0.022306358
-0.0011368155 -0.009634728 0.16926587 0.16963989 0.116913445 -0.04725991 0.016845942 0.019301666
0.09195895 0.16627233 0.2333505 0.14016658 0.13014524 0.19169042 0.04172021 -0.017529888
0.04644317 -0.012451517 -0.019231243 0.04121691 0.015946684 0.010436695 -0.00023259589 0.05287145
0.018210348 0.0064177173 0.019197768 0.04013313 0.014629006 0.03245786 -0.03691223 -0.0072609964
0.005481577 0.019384235 -0.019694442 0.044297304 0.005330255 0.0048155445 0.029196832 0.058359556
0.11514996 0.061090693 0.09829623 0.07108183 -0.037413754 -0.038895447 -0.013687938 0.052022874
0.006562373 0.02121394 0.13826942 0.103969984 0.104269706 0.119611904 0.037330706 0.12141505
0.045182995 -0.035169415 -0.042286098 0.060103722 0.020811426 0.09357201 0.017156387 0.021897405
-0.008090896 0.003202945 0.023672987 0.014425081 -0.012403793 0.043165307 0.025646914 -0.004724128
-0.021624833 0.038464822 0.13330105 0.088097535 0.1881716 0.10817514 0.0799219 0.10504124
-0.036305305 -0.035383165 -0.0018786729 0.06714877 0.101479664 0.12436843 0.014852047 0.0045381426
0.028969157 -0.010495267 -0.020481667 0.019235995 0.11330748 0.05821156 0.1283625 -0.013336355
0.023259288 0.028433347 0.1327158 0.09729923 0.20487891 0.0139606735 0.0055416385 0.022091327
0.118242 0.07198769 0.108411975 -0.03462396 0.03356919 0.031861693 0.025631964 0.031631578
0.0058694603 -0.03222505 -0.02176854 0.029640645 0.07281521 0.041350883 0.07491018 -0.015426964
-0.024554998 -0.024491763 0.030779218 -0.049242575 -0.0010468841 0.0014307678 0.00075152516 0.04634474
0.01575675 0.047584116 -0.01162023 0.02323085 -0.0027367712 0.023764653 0.060657468 0.006031598
0.02913578 -0.0072458982 0.040572673 0.0073671225 0.017783742 0.06140504 0.06941748 0.0019232094
-0.020485962 -0.03941321 0.07862565 0.04718486 0.12722933 -0.024712628 0.03628227 -0.0010485351
0.0002252996 -0.0027935745 -0.027373254 0.073519565 -0.013527943 0.064318776 0.037357356 -0.027875597
0.04484519 0.020633329 -0.009283937 -0.014158243 -0.023368442 0.034939077 -0.04972448 -0.016429234
0.009188122 0.01577211 -0.041595545 0.0028688253 0.043955874 0.016627222 0.020997727 0.007931232
0.019968992 -0.018188005 0.03986726 0.029176874 -0.0048185526 0.0095137535 0.0152793825 -0.032831766
0.008490956 0.021740623 0.0135847 0.07902393 0.035222538 0.01947766 -0.027078396 0.13017617
0.13220397 0.11008568 0.049461044 0.02887749 0.08655117 -0.030798351 0.017421324 0.010807693
0.017639494 0.03914435 -0.009661925 -0.0076074745 0.07746259 0.06256379 0.04980287 -0.009270244
0.059062723 0.021229446 0.03036168 0.05223125 0.045495838 -0.015969107 0.031384762 0.15215735
0.09109562 0.16711552 -0.023479998 0.020437319 0.022881096 0.0092243375 -0.02620759 0.01238758
0.110991724 0.10655685 0.0616322 0.10342626 0.11967184 0.08935301 0.07548119 0.088415384
0.05451426 0.08740552 0.083295 0.04166169 -0.0004790187 0.013784778 -0.03693963 -0.018026728
00000000: f364 59bc a041 06bc e0c8 313d 2d67 083c
00000010: 3377 dab9 bf6f 37bd bd1c 173e 7314 0d3e
00000020: ec7b 373e 17f8 c43c 80ce 013b c8f4 3fbd
00000030: 9376 b33d 874e ba3d 272d f63d d3bb b6bc
00000040: 3301 95ba fada 1dbc 0854 2d3e 14b6 2d3e
00000050: 5170 ef3d 9b93 41bd 8000 8a3c 871e 9e3c
00000060: f954 bc3d 4b43 2a3e 6ff3 6e3e d487 0f3e
00000070: cb44 053e 7e4a 443e d0e2 2a3d d79a 8fbc
00000080: 323b 3e3d 7301 4cbc d78a 9dbc 10d3 283d
00000090: 9fa2 823c acfe 2a3c fce4 73b9 bc8f 583d
000000a0: de2d 953c b74b d23b a344 9d3c a362 243d
000000b0: 80ae 6f3c 88f2 043d 4731 17bd a7ed edbb
000000c0: cd9e b33b b0cb 9e3c 3d56 a1bc 1771 353d
000000d0: 6ba9 ae3b b7cb 9d3b 322e ef3c 6e0a 6f3d
000000e0: bed3 eb3d 3c3a 7a3d 894f c93d 5a93 913d
000000f0: 2a3f 19bd d550 1fbd 6043 60bc f015 553d
00000100: 2d09 d73b dbc8 ad3c 8096 0d3e 37ee d43d
00000110: 5b8b d53d 16f7 f43d 15e8 183d 74a8 f83d
00000120: ce11 393d ce0d 10bd 3034 2dbd 522f 763d
00000130: b97c aa3c afa2 bf3d 8d8b 8c3c 3062 b33c
00000140: ad8f 04bc 80e8 513b daed c13c 2d57 6c3c
00000150: 4739 4bbc 1bce 303d 7a19 d23c dccc 9abb
00000160: 9026 b1bc 4a8d 1d3d 1280 083e 7b6c b43d
00000170: 0eb0 403e ee8a dd3d 18ae a33d dd1f d73d
00000180: dfb4 14bd f0ed 10bd cd3d f6ba 4b85 893d
00000190: 92d4 cf3d e0b4 fe3d 0056 733c b3b4 943b
000001a0: ba50 ed3c 57f4 2bbc 2bc9 a7bc ce94 9d3c
000001b0: c10d e83d 3f6f 6e3d 7671 033e ba80 5abc
000001c0: 438a be3c 0ded e83c a7e6 073e d244 c73d
000001d0: c7cb 513e 4fbb 643c a296 b53b dff8 b43c
000001e0: dd28 f23d 486e 933d 1907 de3d dad1 0dbd
000001f0: d97f 093d 6881 023d 20fa d13c 1d90 013d
00000200: 9a54 c03b 6afe 03bd f053 b2bc f0d0 f23c
00000210: 2420 953d 8b5f 293d 826a 993d 60c1 7cbc
00000220: 9027 c9bc f3a2 c8bc b324 fc3c 95b2 49bd
00000230: 9a37 89ba 9a88 bb3a 0002 453a fbd3 3d3d
00000240: 4d14 813c 90e7 423d c762 3ebc a04e be3c
00000250: 675b 33bb 17ae c23c f773 783d b6a4 c53b
00000260: 29ae ee3c 006f edbb 882f 263d e767 f13b
00000270: 36af 913c da83 7b3d c02a 8e3d 3314 fc3a
00000280: 2dd2 a7bc bf6f 21bd 7c06 a13d e944 413d
00000290: 6848 023e 2372 cabc b89c 143d 006f 89ba
000002a0: 673e 6c39 6714 37bb e03d e0bc 6d91 963d
000002b0: 4ea4 5dbc 90b9 833d 0704 193d 5d5b e4bc
000002c0: 97af 373d 3a07 a93c a71b 18bc faf7 67bc
000002d0: 2d6f bfbc 471c 0f3d e5ab 4bbd 9a96 86bc
000002e0: c789 163c 8334 813c 1760 2abd e702 3c3b
000002f0: 130b 343d d035 883c 6d03 ac3c 00f2 013c
00000300: 0396 a33c 03ff 94bc da4b 233d 5704 ef3c
00000310: f3e4 9dbb 93df 1b3c 6056 7a3c 9a7a 06bd
00000320: a71d 0b3c 6419 b23c 5d92 5e3c 4cd7 a13d
00000330: 8245 103d 9d8f 9f3c 83d3 ddbc e74c 053e
00000340: 7a60 073e 9a74 e13d aa97 4a3d 7c90 ec3c
00000350: bd41 b13d d34c fcbc 2ab7 8e3c c012 313c
00000360: b380 903c d355 203d 0d4d 1ebc 1f48 f9bb
00000370: b5a4 9e3d 7221 803d 18fe 4b3d 39e2 17bc
00000380: c1eb 713d 60e9 ad3c 0fb9 f83c 6ff0 553d
00000390: d859 3a3d a5d1 82bc 4f8d 003d 23cf 1b3e
000003a0: 5790 ba3d 5520 2b3e 2059 c0bc 2a6c a73c
000003b0: 2371 bb3c ad21 173c 4db1 d6bc 47f5 4a3c
000003c0: a14f e33d 7a3a da3d 0c72 7c3d 26d1 d33d
000003d0: 8216 f53d b6fe b63d e295 9a3d 2013 b53d
000003e0: 584a 5f3d aa01 b33d 9296 aa3d 73a5 2a3d
000003f0: cd24 fbb9 8dd9 613c 024e 17bd caac 93bc

fc1.bias f4 [400]
-0.033112574 -0.1425026 0.40448707 -0.40594253 0.40664113 -0.109699816 0.40089142 -0.028472014
0.4213615 0.37913397 -0.55876076 -0.19945483 0.017417239 0.073207445 -0.37253833 -0.35303092
-0.0806973 0.038965102 0.40292212 0.19329225 -0.41411823 0.06550977 0.2950081 0.23587628
-0.025929363 0.14428325 -0.12730876 -0.28233346 -0.010434774 -0.0067570955 0.33913448 0.4304936
-0.3795466 0.25599846 -0.09602171 -0.025948135 0.24440543 -0.5076769 0.340287 0.02949907
0.24126872 0.0035970677 -0.28145346 -0.37804532 0.16416714 -0.36193988 -0.17267819 -0.39095637
-0.05820739 -0.07041029 0.08303395 -0.019870132 0.12626924 -0.4835031 0.21141514 -0.43555552
-0.40015614 0.102005124 -0.5084833 -0.49242473 -0.5274689 -0.20159131 -0.5194271 0.031377416
-0.31001312 -0.35537097 -0.5304484 0.08431457 -0.21372001 0.33805847 0.13343862 -0.11604966
-0.124618575 0.110916436 0.072041266 0.07074102 0.050109636 0.3526061 -0.47937232 -0.5286906
0.2285004 0.27249977 0.19590077 0.18995035 -0.2309449 -0.14536127 -0.3906741 -0.35775
0.39333382 -0.09102656 0.11695645 -0.518372 0.24098691 -0.08381028 0.27372268 -0.19415794
0.393779 0.19844094 -0.25956833 0.18135984 0.2472708 0.07626425 -0.035478726 0.51461506
0.05536419 0.33925655 0.30542478 0.058110207 -0.53864306 0.29903963 -0.5537121 -0.1335195
0.17001799 0.2741379 -0.5690666 -0.31148928 0.39263043 -0.15107751 0.3104544 0.0069760852
0.07896946 0.06268889 -0.029578315 -0.049923208 -0.406198 0.42177892 -0.36901006 0.048201628
-0.3097318 -0.28138775 -0.12474776 0.051818512 -0.5301343 0.2575204 -0.4925778 -0.07542829
0.3100534 -0.25664794 0.32338336 0.37895587 0.08974303 -0.06428303 0.2139077 -0.2487403
-0.55057484 0.4288294 0.1614376 -0.09135279 0.36670694 -0.25201502 -0.5589752 0.106836505
0.103101015 0.123956844 -0.18087503 0.30069134 0.409692 -0.009432537 0.20706305 0.08904736
0.4040424 -0.18564478 -0.03733488 -0.57301646 -0.069773845 -0.028064774 -0.003939683 0.33771652
-0.51436436 -0.043611564 -0.023895046 -0.45429707 -0.51800704 -0.3412046 -0.31435752 -0.09102739
-0.24881077 0.13395469 -0.34803355 0.31622034 -0.57384175 -0.17676327 -0.18328214 0.30794197
-0.05686467 0.0807519 -0.088492475 0.30799326 0.0946028 0.18154031 -0.20441556 -0.017760769
0.19278748 -0.3488154 0.10866142 0.21920915 0.38089168 -0.16605304 0.018968517 -0.2757954
-0.38528013 0.070370734 0.1053975 0.20555021 0.1447175 -0.19100608 0.044281997 0.13613167
0.39173493 0.20556772 -0.14278458 -0.2891052 -0.05547308 -0.34099662 0.41738373 -0.0364098
0.12503758 0.04853107 -0.18549378 0.26167697 0.1616038 0.39458385 0.28245282 0.36934376
-0.34658375 -0.21947989 0.05833057 0.35231718 -0.29211587 0.25925875 0.030622397 0.12722269
0.19928716 0.3627759 0.08388525 0.26008993 0.21765402 0.17832793 -0.096720636 -0.1342706
-0.15517902 0.3442127 -0.28327328 -0.0655541 -0.53618675 0.19689521 -0.48895374 -0.14786199
0.33025748 0.028088994 -0.4964004 0.26133326 0.42038032 -0.019246504 -0.06399678 -0.32398736
00000000: 0da1 07bd 34ec 11be ee18 cf3e b3d7 cfbe
00000010: 4433 d03e 4caa e0bd a441 cd3e 243e e9bc
00000020: b2bc d73e d91d c23e f20a 0fbf e33d 4cbe
00000030: 99ae 8e3c c9ed 953d 58bd bebe 78c0 b4be
00000040: a044 a5bd df99 1f3d cf4b ce3e 67ee 453e
00000050: 4e07 d4be fc29 863d 4d0b 973e 8d89 713e
00000060: d169 d4bc fdbe 133e 3a5d 02be 038e 90be
00000070: 9df6 2abc a06a ddbb 09a3 ad3e a869 dc3e
00000080: ef53 c2be 3b12 833e 08a7 c4bd 2f91 d4bc
00000090: 6b45 7a3e 1df7 01bf 193a ae3e 09a8 f13c
000000a0: 260f 773e c8bc 6b3b ab1a 90be 288f c1be
000000b0: 6e1b 283e 2f50 b9be 8dd2 30be 6f2b c8be
000000c0: df6a 6ebd 4533 90bd b40d aa3d b0c6 a2bc
000000d0: b94c 013e b88d f7be 367d 583e 2201 dfbe
000000e0: 44e1 ccbe 10e8 d03d f62b 02bf 181f fcbe
000000f0: 3408 07bf f46d 4ebe 2df9 04bf 9b85 003d
00000100: 0aba 9ebe 2ff3 b5be 77cb 07bf 1ead ac3d
00000110: 6bd9 5abe 0016 ad3e 22a4 083e 72ab edbd
00000120: 0638 ffbd 2828 e33d 5f8a 933d abe0 903d
00000130: c33f 4d3d c988 b43e 4a70 f5be 4458 07bf
00000140: 02fc 693e 1785 8b3e 369a 483e 5882 423e
00000150: d27c 6cbe 96d9 14be 7006 c8be 022b b7be
00000160: 0d63 c93e 226c babd dd86 ef3d 07b4 04bf
00000170: 46c5 763e b9a4 abbd 6125 8c3e 57d1 46be
00000180: 679d c93e 1a34 4b3e 24e6 84be 65b6 393e
00000190: 8e34 7d3e 6e30 9c3d 2452 11bd d0bd 033f
000001a0: 90c5 623d 09b3 ad3e a360 9c3e f804 6e3d
000001b0: 83e4 09bf b91b 993e 14c0 0dbf 56b9 08be
000001c0: 3219 2e3e ce5b 8c3e 59ae 11bf 867b 9fbe
000001d0: db06 c93e 10b4 1abe e1f3 9e3e a597 e43b
000001e0: beba a13d 0863 803d 394e f2bc 477c 4cbd
000001f0: 2ff9 cfbe 68f3 d73e e3ee bcbe 126f 453d
00000200: 2b95 9ebe 0e12 90be c17b ffbd a63f 543d
00000210: e2b6 07bf b7d9 833e 2833 fcbe 267a 9abd
00000220: 52bf 9e3e 5c67 83be 8192 a53e 8106 c23e
00000230: 32cb b73d d2a6 83bd 9f0a 5b3e c7b5 7ebe
00000240: 79f2 0cbf 878f db3e e64f 253e 2c17 bbbd
00000250: 03c1 bb3e 1d08 81be 0019 0fbf 19cd da3d
00000260: a026 d33d 16dd fd3d 4e37 39be 37f4 993e
00000270: 26c3 d13e ed8a 1abc 5608 543e 765e b63d
00000280: a5de ce3e aa19 3ebe 76ec 18bd 35b1 12bf
00000290: 97e5 8ebd 19e8 e5bc 7518 81bb 2ee9 ac3e
000002a0: 62ad 03bf 0aa2 32bd 8bbf c3bc a099 e8be
000002b0: 1c9c 04bf 5fb2 aebe 78f3 a0be 916c babd
000002c0: 40c8 7ebe 6b2b 093e 7431 b2be a2e7 a13e
000002d0: 4be7 12bf 6e01 35be 50ae 3bbe 92aa 9d3e
000002e0: eeea 68bd 4161 a53d 8b3b b5bd 4bb1 9d3e
000002f0: 1dbf c13d b4e5 393e 5052 51be 087f 91bc
00000300: 156a 453e ef97 b2be e189 de3d 5d78 603e
00000310: 3c04 c33e cf09 2abe dd63 9b3c 0e35 8dbe
00000320: 7043 c5be 881e 903d a5da d73d c17b 523e
00000330: d330 143e 1997 43be 0a61 353d 1a66 0b3e
00000340: 7b91 c83e 5880 523e 1f36 12be 9905 94be
00000350: be37 63bd 1c97 aebe 52b3 d53e 7122 15bd
00000360: da09 003e 84c8 463d 15f2 3dbe 86fa 853e
00000370: 777b 253e e506 ca3e a89d 903e a01a bd3e
00000380: 6d73 b1be 56bf 60be 09ec 6e3d eb62 b43e
00000390: 3690 95be 90bd 843e d2db fa3c aa46 023e
000003a0: ef11 4c3e c3bd b93e 08cc ab3d 822a 853e
000003b0: b2e0 5e3e 999b 363e 7815 c6bd 3b7e 09be
000003c0: 40e7 1ebe a63c b03e 3209 91be 3a41 86bd
000003d0: 8943 09bf e69e 493e 2558 fabe 2269 17be
000003e0: 8217 a93e e41a e63c 3128 febe 79cd 853e
000003f0: 173c d73e d8aa 9dbc be10 83bd ace1 a5be

fc2.weight f4 [300, 402]
0.043757975 -0.0144291725 0.04398117 0.04789396 0.0049991724 0.035959445 -0.0060004746 0.051207263
-0.061041303 0.032424577 0.0058824616 -0.044865604 0.01744347 -0.014081698 -0.012468355 0.05761211
-0.013572344 -0.021331266 -0.06858022 -0.008000065 -0.02436285 -4.711984e-05 -0.038473677 0.011545633
-0.045222178 0.049662273 -0.006553724 0.005399967 -0.0020176682 0.04192461 -0.039839298 -0.062389214
0.012308769 -0.0055676308 0.038153645 -0.059152752 -0.039616644 0.050668433 0.006808336 0.0064899805
-0.06279434 -0.035025056 -0.0052396036 -0.052200593 0.029486932 0.020503052 -0.015927779 0.015221134
-0.032851655 -0.03258512 0.029224718 0.033955798 0.008068373 0.02241784 -0.050831098 -0.016239662
-0.017728165 -0.040435676 -0.028657801 -0.036031168 -0.03521107 -0.055069275 0.010285251 0.05633007
0.02079927 0.046301454 -0.039006818 -0.025917511 -0.041074425 -0.019022264 -0.025090087 -0.038446344
0.033616785 0.044993557 -0.05513929 0.046093855 0.03996489 0.003421845 -0.002961954 0.050973035
0.016388383 -0.040518157 -0.044138882 0.045951925 0.011641395 -0.047744956 0.018216688 -0.023197468
0.05085863 -0.0050317645 -0.00659978 0.023574749 0.01453205 -0.016280366 -0.011942425 0.01267543
-0.030545454 -0.017208511 0.009604504 -0.045294784 -0.057004426 0.03501401 -0.016630597 -0.03464697
-0.0060733673 -0.051452797 -0.06622036 -3.2033957e-05 0.010990458 0.022812668 0.008521603 -0.025278015
0.0182595 0.027796742 -0.0030747866 0.027574247 -0.015132365 -0.028729808 -0.018150983 0.027795115
0.018237919 0.03485807 -0.054479923 -0.0012720332 0.009432468 0.03437917 -0.0023896494 0.05116644
0.038761526 -0.050825957 -0.03378294 -0.036482472 0.032436777 0.012483682 -0.057011675 0.025495311
0.020135824 -0.008160545 0.046970706 0.030204805 -0.0051997895 -0.0524789 -0.006228545 0.004906901
-0.002907348 -0.034025516 -0.053873446 0.001687051 -0.03009749 0.048420973 0.0021339695 -0.034855932
-0.028599704 -0.011088308 -0.042826544 0.03366161 0.016406283 0.045710534 0.015446862 0.023858117
0.027553529 -0.02397675 0.052645043 0.053239625 -0.048815407 -0.00591503 0.034544893 0.046819117
-0.052047677 -0.050740022 -0.06184651 0.03176673 0.047139302 -0.04866657 0.03246333 -0.011580519
-0.036470413 0.018064085 0.007791062 -0.028291067 0.025214689 0.03437177 -0.027455984 0.020353656
-0.048517086 -0.03607148 0.016424397 -0.005067616 -0.052955635 -0.014421459 0.011786776 -0.02151047
0.045439653 -0.020347266 -0.0046826103 -0.012666983 -0.05288865 0.045338504 -0.0251085 -0.010416721
0.035514448 0.044838134 -0.032249708 0.018821357 -0.05956726 0.013765915 -0.02109908 -0.053211097
-0.011603602 -0.02587862 -0.0040688543 -0.005571102 -0.039387584 0.019831192 -0.06183071 -0.010870315
0.04253331 0.025769647 -0.050136957 -0.034775853 -0.052961566 -0.04933536 -0.032522563 0.024694603
0.022686355 -0.015813095 0.04077897 -0.04025469 0.040109776 0.0082628 0.023224635 -0.04164678
0.0038411368 -0.048783157 -0.02266239 0.0032646998 -0.0065993904 -0.009852755 0.05173682 -0.01987972
0.05394852 0.014062513 -0.05542591 0.021776207 0.03853408 -0.005965314 -0.046477407 -0.0029759533
0.04214388 -0.0030650913 -0.046141732 0.039466117 -0.016558345 0.057594333 -0.027112536 0.015639842
00000000: 903b 333d 5668 6cbc 9925 343d 752c 443d
00000010: 19d0 a33b 364a 133d a19f c4bb b5be 513d
00000020: 7206 7abd a2cf 043d aac1 c03b ffc4 37bd
00000030: 9ce5 8e3c ecb6 66bc 1248 4cbc adfa 6b3d
00000040: 895e 5ebc e8be aebc c973 8cbd b412 03bc
00000050: 9994 c7bc 8ba2 45b8 9396 1dbd e529 3d3c
00000060: e43a 39bd ab6a 4b3d 9fc0 d6bb 35f2 b03b
00000070: db3a 04bb 24b9 2b3d 882e 23bd d58b 7fbd
00000080: b8aa 493c ac70 b6bb ff46 1c3d 284a 72bd
00000090: 1045 22bd b489 4f3d 7618 df3b e7a9 d43b
000000a0: 529a 80bd 6f76 0fbd fbb0 abbb 4ad0 55bd
000000b0: 948e f13c 04f6 a73c f97a 82bc 1062 793c
000000c0: 758f 06bd fa77 05bd ad68 ef3c 3c15 0b3d
000000d0: 3631 043c 9ea5 b73c 4534 50bd 0a09 85bc
000000e0: a83a 91bc e19f 25bd c4c3 eabc 6b95 13bd
000000f0: 7c39 10bd 5290 61bd 7883 283c 5cba 663d
00000100: 3b63 aa3c 98a6 3d3d 9dc5 1fbd f650 d4bc
00000110: a83d 28bd 94d4 9bbc ba89 cdbc ea79 1dbd
00000120: c1b1 093d 2a4b 383d bcd9 61bd e9cc 3c3d
00000130: 39b2 233d 0841 603b 581d 42bb 1ac9 503d
00000140: ee40 863c 5ef6 25bd f9ca 34bd 1638 3c3d
00000150: 8dbb 3e3c 3790 43bd 2a3b 953c 9e08 bebc
00000160: 2451 503d 80e1 a4bb f842 d8bb d51f c13c
00000170: d617 6e3c 675e 85bc 29aa 43bc 9bac 4f3c
00000180: 763a fabc ddf8 8cbc 365c 1d3c 0687 39bd
00000190: 797d 69bd da6a 0f3d e43c 88bc fbe9 0dbd
000001a0: 1903 c7bb 2bc0 52bd 8a9e 87bd 335c 06b8
000001b0: 5211 343c a2e1 ba3c 329e 0b3c d713 cfbc
000001c0: f294 953c feb5 e33c 5c82 49bb 63e3 e13c
000001d0: bded 77bc c65a ebbc 5fb1 94bc 95b2 e33c
000001e0: b067 953c 56c7 0e3d 5726 5fbd 5aba a6ba
000001f0: a38a 1a3c 2cd1 0c3d aa9b 1cbb e793 513d
00000200: 68c4 1e3d e12e 50bd fb5f 0abd a56e 15bd
00000210: 6ddc 043d 5b88 4c3c 1385 69bd 8bdb d03c
00000220: e2f3 a43c ceb3 05bc 5b64 403d 1170 f73c
00000230: ff62 aabb 1df4 56bd d318 ccbb 12ca a03b
00000240: 3589 3ebb 575e 0bbd 67aa 5cbd 0a20 dd3a
00000250: 038f f6bc 1255 463d 11da 0b3b 18c5 0ebd
00000260: ed49 eabc bcab 35bc e36a 2fbd c2e0 093d
00000270: 7866 863c f83a 3b3d d614 7d3c 1972 c33c
00000280: f0b7 e13c e46a c4bc 54a2 573d cb11 5a3d
00000290: aaf2 47bd ded2 c1bb f27e 0d3d 67c5 3f3d
000002a0: f22f 55bd c5d4 4fbd c452 7dbd d51d 023d
000002b0: 2415 413d 9956 47bd 45f8 043d 38bc 3dbc
000002c0: 0062 15bd 22fb 933c 2a4c ff3b abc2 e7bc
000002d0: 098f ce3c 6ac9 0c3d 5feb e0bc b6bc a63c
000002e0: dab9 46bd b0bf 13bd 758c 863c 3e0e a6bb
000002f0: 02e8 58bd fc47 6cbc 521d 413c ba36 b0bc
00000300: ee1e 3a3d 4faf a6bc 9570 99bb 2d89 4fbc
00000310: c5a1 58bd deb4 393d 57b0 cdbc e5aa 2abc
00000320: 9977 113d 31a8 373d 4518 04bd 3f2f 9a3c
00000330: cdfc 73bd 6f8a 613c fad7 acbc e1f3 59bd
00000340: 091d 3ebc 66ff d3bc 0654 85bb ca8d b6bb
00000350: e054 21bd 0675 a23c 3342 7dbd 6819 32bc
00000360: 6837 2e3d de1a d33c 695c 4dbd 2071 0ebd
00000370: 3aee 58bd e013 4abd 6136 05bd 564c ca3c
00000380: bcd8 b93c 778a 81bc d907 273d 1ae2 24bd
00000390: 264a 243d b260 073c 9741 be3c d095 2abd
000003a0: 95bb 7b3b d9d0 47bd 7aa6 b9bc 93f4 553b
000003b0: b33f d8bb 736d 21bc fde9 533d cbda a2bc
000003c0: 20f9 5c3d 7466 663c 4706 63bd 0464 b23c
000003d0: e9d5 1d3d ae78 c3bb 185f 3ebd 3608 43bb
000003e0: 109f 2c3d b3df 48bb 1dff 3cbd 39a7 213d
000003f0: 5ea5 87bc 09e8 6b3d 1c1b debc 201f 803c

fc2.bias f4 [300]
-0.07012839 -0.02595668 -0.013143766 -0.013504516 -0.05343324 0.0069723767 -0.04906095 0.22839613
-0.048980266 -0.07323975 -0.055858407 -0.02334451 -0.06310716 -0.037779987 -0.020919668 -0.029276453
-0.06943593 0.0053586895 -0.00878518 -0.018202787 -0.029453646 0.010462378 -0.061995406 0.011003201
-0.03834281 -0.07206774 0.010982707 -0.042221457 -0.0016539037 -0.012592885 -0.030332496 0.0011166916
0.16307405 -0.043092232 -0.11193118 -0.08863679 -0.0047871494 -0.06525689 -0.013353666 -0.06119376
-0.038227152 -0.009549448 0.02396638 0.009597437 -0.035505384 -0.04055452 -0.023481077 0.008830882
-0.07888426 -0.0035008204 -0.001555098 -0.015416819 -0.037229918 -0.04644308 -0.020890092 -0.04399837
-0.06909195 -0.04965538 0.232153 -0.016235566 -0.040017508 -0.03028122 -0.03950875 -0.0165887
0.0025244388 -0.0364332 -0.014777368 0.13531895 -0.01925427 -0.033190228 0.010044857 0.0016386431
-0.015078778 0.010594709 0.0012541662 -0.116950795 0.009669319 0.024372527 -0.04049944 -0.0064428034
-0.072382584 -0.03300374 -0.027266061 -0.04368568 -0.009893156 -0.0702721 -0.03395433 -0.08039997
0.0061232005 -0.018030088 0.00027974055 -0.040841464 -0.059949026 -0.02462922 -0.06649518 -0.030771837
-0.051039647 0.20851015 -0.013888133 -0.084969476 -0.021578657 0.009057301 -0.04199987 0.011676851
-0.040687237 -0.029835757 -0.085472144 -0.067527905 0.026218021 -0.009845486 -0.0056566736 -0.026198324
-0.012296064 0.1543535 -0.04930289 -0.032556374 0.02993891 -0.039231963 -0.03064652 -0.0046436572
-0.027206043 -0.013335073 -0.008572584 0.008985318 0.14086175 -0.06032347 -0.050769676 -0.049033076
-0.06458182 0.007348714 -0.027145071 -0.008219999 -0.013587456 -0.05942915 -0.04637226 -0.06414735
0.12701167 -0.049703665 0.016105847 8.772597e-05 -0.07985111 -0.010066541 -0.04321787 -0.030609597
-0.01101717 0.04210557 -0.04357222 -0.09634371 -0.010268439 0.23050542 0.0016510069 -0.017552136
-0.0072518243 -0.018171206 -0.047809925 -0.058430843 -0.04077697 0.008885432 -0.052840836 -0.036953676
-0.01977304 -0.024009084 -0.0042632245 -0.020828865 -0.017770935 0.08584887 -0.040726133 0.01175129
-0.041726395 -0.107128784 -0.028889667 0.12011409 -0.0027705443 -0.018588306 -0.04324814 -0.07757923
-0.014604783 -0.072412804 0.0011789568 -0.016621666 0.0080693355 -0.02709206 0.018645424 -0.108127855
-0.008016818 0.0069842343 -0.034112122 -0.02913797 0.032553185 0.013684178 -0.049451865 -0.0074493643
-0.05180649 0.15012178 0.028754901 -0.011264393 -0.0017625629 0.004789251 -0.037259262 -0.028634965
-0.011954194 -0.014743323 0.0028396542 -0.08018041 -0.044807952 0.18523718 -0.0061279587 -0.057748392
-0.0813838 0.011992734 -0.01038398 0.007069953 -0.06570885 -0.046617527 -0.04946997 -0.032776073
-0.019173993 0.038883783 0.030322084 -0.046759643 -0.037972845 -0.0022527932 -0.07425366 -0.07800851
-0.029914258 -0.0113790715 -0.072405346 0.011094011 -0.07866819 -0.034189135 -0.05279425 -0.02967735
-0.023368135 0.047176987 -0.06509129 0.010230051 0.010916148 -0.02594577 -0.07356945 -0.027984938
-0.053973548 0.20012203 -0.023209615 -0.067961335 0.13848507 -0.052339703 0.16868608 0.02243656
-0.04684769 -0.016129656 -0.008461798 -0.07037496 -0.054389674 -0.094634466 -0.02402224 0.013060564
00000000: 799f 8fbd 1aa3 d4bc f358 57bc 0c42 5dbc
00000010: d0dc 5abd 8978 e43b 22f4 48bd ade0 693e
00000020: 889f 48bd b9fe 95bd c9cb 64bd fc3c bfbc
00000030: 543e 81bd 30bf 1abd b95f abbc 2cd5 efbc
00000040: 6d34 8ebd f297 af3b b7ef 0fbc 031e 95bc
00000050: c648 f1bc 656a 2b3c e5ee 7dbd c546 343c
00000060: 5a0d 1dbd 4098 93bd d0f0 333c 68f0 2cbd
00000070: cdc7 d8ba 6352 4ebc db7b f8bc f45d 923a
00000080: e2fc 263e 7b81 30bd 2d3c e5bd 3587 b5bd
00000090: 85dd 9cbb 68a5 85bd 56c9 5abc 4fa6 7abd
000000a0: 1394 1cbd 4a75 1cbc 2455 c43c 923e 1d3c
000000b0: 186e 11bd 7f1c 26bd 635b c0bc 67af 103c
000000c0: 128e a1bd 056e 65bb 6ed4 cbba d396 7cbc
000000d0: 667e 18bd 193b 3ebd b321 abbc a337 34bd
000000e0: 1580 8dbd 7163 4bbd 84b9 6d3e 7300 85bc
000000f0: 66e9 23bd 5210 f8bc edd3 21bd 06e5 87bc
00000100: 0e71 253b fb3a 15bd c61c 72bc 0d91 0a3e
00000110: 21bb 9dbc 7af2 07bd 2f93 243c bdc7 d63a
00000120: fb0c 77bc 6e95 2d3c d662 a43a e683 efbd
00000130: 106c 1e3c e5a8 c73c bee2 25bd 271e d3bb
00000140: 523d 94bd ee2e 07bd 135d dfbc c1ef 32bd
00000150: e716 22bc d2ea 8fbd b213 0bbd bda8 a4bd
00000160: 21a5 c83b d6b3 93bc 24aa 9239 6149 27bd
00000170: 1c8d 75bd 38c3 c9bc a02e 88bd 3815 fcbc
00000180: f30e 51bd af83 553e 0d8b 63bc 7a04 aebd
00000190: b9c5 b0bc 1365 143c 0e08 2cbd 4350 3f3c
000001a0: a9a7 26bd 1e6a f4bc 050c afbd 124c 8abd
000001b0: 2dc7 d63c f64e 21bc 9e5b b9bb de9d d6bc
000001c0: 6e75 49bc d80e 1e3e d4f1 49bd d559 05bd
000001d0: 7242 f53c b2b1 20bd 690e fbbc d229 98bb
000001e0: 35df debc 5a7b 5abc 0674 0cbc 2837 133c
000001f0: 103e 103e be15 77bd ddf3 4fbd e8d6 48bd
00000200: 7943 84bd 7bcd f03b 575f debc 2dad 06bc
00000210: ec9d 5ebc fb6b 73bd d7f0 3dbd b05f 83bd
00000220: 590f 023e 1296 4bbd 69f0 833c 86f9 b738
00000230: fb88 a3bd 22ee 24bc 3905 31bd fac0 fabc
00000240: 5c81 34bc e476 2c3d c978 32bd da4f c5bd
00000250: f43c 28bc 9d09 6c3e 9966 d83a 7fc9 8fbc
00000260: b6a0 edbb c8db 94bc 57d4 43bd 2e55 6fbd
00000270: c105 27bd 3494 113c a26f 58bd bd5c 17bd
00000280: 12fb a1bc b3ae c4bc 85b2 8bbb 4ca1 aabc
00000290: 5a94 91bc 88d1 af3d 72d0 26bd 7c88 403c
000002a0: 4ce9 2abd 5666 dbbd 06aa ecbc 60fe f53d
000002b0: 0592 35bb 8146 98bc f624 31bd dce1 9ebd
000002c0: e648 6fbc 2a4d 94bd 3a87 9a3a 292a 88bc
000002d0: 3f35 043c 2bf0 ddbc 4abe 983c 2372 ddbd
000002e0: f958 03bc 01dc e43b 27b9 0bbd c1b2 eebc
000002f0: 7d56 053d 9a33 603c 0a8e 4abd cc19 f4bb
00000300: 0b33 54bd 86b9 193e 668f eb3c 4a8e 38bc
00000310: cc05 e7ba 26ef 9c3b 2b9d 18bd e093 eabc
00000320: 86db 43bc fb8d 71bc 7e19 3a3b a035 a4bd
00000330: 8b88 37bd d1ae 3d3e 0bcd c8bb 9489 6cbd
00000340: 8dac a6bd 2c7d 443c 9221 2abc 10ab e73b
00000350: 5d92 86bd 05f2 3ebd 06a1 4abd 3440 06bd
00000360: c712 9dbc 9a44 1f3d 0566 f83c 0a87 3fbd
00000370: 6a89 1bbd 99a3 13bb 4e12 98bd edc2 9fbd
00000380: bf0e f5bc 496f 3abc 4149 94bd a8c3 353c
00000390: ca1c a1bd e809 0cbd c93e 58bd ea1d f3bc
000003a0: 886e bfbc a83c 413d 954e 85bd f29b 273c
000003b0: a5d9 323c 398c d4bc 94ab 96bd ab40 e5bc
000003c0: 5e13 5dbd caec 4c3e 1722 bebc 502f 8bbd
000003d0: 08cf 0d3e 2862 56bd 0bbc 2c3e e0cc b73c
000003e0: 5de3 3fbd 5722 84bc 5aa3 0abc bf20 90bd
000003f0: b5c7 5ebd b7cf c1bd 4aca c4bc fafb 553c

fc3.weight f4 [1, 300]
0.00010717416 0.014209009 0.0006371009 0.003 0.012123382 -0.0025682293 -0.016857645 0.13267712
0.003 0.100161076 -0.0036916868 0.006550452 -0.038468163 -0.00863338 0.0010536993 0.36581108
-0.002492644 -0.0045271744 0.021049866 -0.026746908 0.008962468 -0.0023421003 -0.014426219 0.033837207
-0.005694919 -0.0048279595 0.038820636 0.003 -0.0020872147 0.38757098 0.08503859 -0.0067754337
0.114079274 5.485735e-05 0.6373889 -0.34462684 -0.00010212172 -0.024613539 0.0039468776 -0.0012243707
-0.0029991684 -0.025373556 0.0045643104 -0.42835698 -0.017663693 -0.006672651 -0.018225288 -0.0035689087
-0.1898163 -0.019545352 0.00016048743 0.004368272 0.038067672 0.00900161 -0.0146106975 0.003
-0.014936869 -0.00017685075 0.120367154 0.01902832 0.062281147 0.0010794208 0.00051291956 -0.014902218
-0.031002283 -0.021836706 -0.0030185604 0.07836493 -0.00025152683 0.061176326 -0.018385835 0.2550172
-0.0010916047 -0.0010937961 -0.3827163 0.3160064 0.0028959967 -0.016326262 0.04563431 -0.014524358
-0.012576966 0.0043241885 -0.005185697 0.003 0.039769936 0.0023344785 0.25469983 0.015621509
-0.0027216356 0.0118881455 -0.008751211 0.003 -0.015580366 -0.0065212557 -0.039064758 0.003
-0.004168443 0.10739818 0.040192984 -0.43134835 0.024923524 -0.0034987733 0.018668013 0.018688591
0.0014826813 -0.019450182 0.18063189 0.0066125686 -0.4164995 -0.00068811496 -0.0039307205 0.003
-0.00049093505 0.08810112 0.0022811415 0.003 -0.011857103 0.093426116 -0.010333357 0.00030708069
0.27396125 -0.00081407255 -0.0010685988 0.022043152 0.098059945 -0.02048092 -0.012409996 0.041771427
-0.4117752 -0.0002634393 0.021309527 0.029399887 0.0069715967 0.004794754 0.3843041 -0.0017197249
0.0888288 0.003 0.10460847 -0.0041533406 0.6800967 0.026527006 -0.002519368 -0.0120906085
0.13249789 -0.3772628 -0.0029991355 -0.007138216 0.023774138 0.13611487 -0.009146552 -0.0072747776
-0.019635055 6.677209e-05 -0.007450388 0.020069538 0.044661824 0.029321952 -0.0066180825 0.0020737958
-0.008417571 -0.005129158 -0.004034839 0.0022584149 0.19887552 0.0522668 -0.00038376095 -0.394749
0.22332217 0.741827 -0.004362708 0.07895294 -0.024701746 -0.02778095 -0.0035456968 -0.0148794465
-0.0008511957 0.04111962 0.003 -0.007443603 0.0006246096 -0.0014003873 0.03125471 -0.4842912
-0.0068217404 0.013153333 -0.0016565737 -0.011758732 0.028836412 -0.0047250525 0.00057467504 0.00086199597
-0.018894006 0.09939669 0.024926417 0.00791135 -0.004999288 0.040349383 -0.0027301062 -0.003878846
0.09474237 0.031092685 0.2139535 0.016625017 -0.018640496 0.10746074 -0.013225637 -0.0053253416
0.00771098 -0.0022157836 -0.02263977 0.026187997 0.024753034 0.030049479 0.003 0.03039617
-0.0048416713 -0.56795144 0.039314568 -0.0077119907 0.003 -0.0045325942 0.21322377 -0.012939058
0.17803058 0.02451882 0.054643646 0.40386912 0.40347666 0.003 -0.00050673564 0.011152274
0.0026270458 -0.00018059213 -0.00442603 0.021511318 0.014230615 -0.003004237 0.02246459 -0.0105783185
0.00775114 0.116429895 0.008930214 0.009575369 0.09918806 -0.013994287 0.07781274 0.0017753765
0.003 0.003 0.026424753 0.071024634 0.009732169 0.009740458 -0.0041130013 0.21519074
00000000: b0c2 e038 e7cc 683c 1e03 273a a69b 443b
00000010: 26a1 463c bd4f 28bb 0b19 8abc 83dc 073e
00000020: a69b 443b 4021 cd3d 3af0 71bb 2da5 d63b
00000030: cb90 1dbd 0573 0dbc 481c 8a3a 974b bb3e
00000040: a05b 23bb b158 94bb c570 ac3c 551c dbbc
00000050: 51d7 123c ec7d 19bb f35b 6cbc e298 0a3d
00000060: 719c babb dc33 9ebb 6302 1f3d a69b 443b
00000070: a7c9 08bb b46f c63e b628 ae3d 7504 debb
00000080: 65a2 e93d a216 6638 eb2b 233f ee72 b0be
00000090: 2e2a d6b8 55a2 c9bc cf54 813b 107b a0ba
000000a0: b28d 44bb 34dc cfbc 3690 953b 9b51 dbbe
000000b0: 73b3 90bc 41a6 dabb 334d 95bc 5ae4 69bb
000000c0: 345f 42be 931d a0bc 8448 2839 b923 8f3b
000000d0: d9ec 1b3d 7d7b 133c b561 6fbc a69b 443b
000000e0: c5b9 74bc 0371 39b9 0e83 f63d 48e1 9b3c
000000f0: 841a 7f3d 5a7b 8d3a 7375 063a 6f28 74bc
00000100: 80f8 fdbc e4e2 b2bc 0ad3 45bb cb7d a03d
00000110: 5cdf 83b9 0794 7a3d e49d 96bc 9d91 823e
00000120: 2d14 8fba b55d 8fba 64f3 c3be 97cb a13e
00000130: c3ca 3d3b a7be 85bc 0beb 3a3d 93f7 6dbc
00000140: 9e0f 4ebc ecb1 8d3b c8ec a9bb a69b 443b
00000150: cde5 223d 0dfe 183b 0468 823e 5cf1 7f3c
00000160: 785d 32bb 7fc6 423c 3d61 0fbc a69b 443b
00000170: cb44 7fbc 42b0 d5bb 5e02 20bd a69b 443b
00000180: 6f97 88bb 94f3 db3d 66a1 243d b1d9 dcbe
00000190: 6b2c cc3c ad4b 65bb a9ed 983c d118 993c
000001a0: 8756 c23a fd55 9fbc 91f7 383e 3fae d83b
000001b0: 6c3f d5be 9d62 34ba 46cd 80bb a69b 443b
000001c0: 18b2 00ba 5c6e b43d 347f 153b a69b 443b
000001d0: 4b44 42bc 3156 bf3d 3e4d 29bc acff a039
000001e0: a644 8c3e 7c67 55ba 3a10 8cba d793 b43c
000001f0: a7d3 c83d 9ac7 a7bc 4c53 4bbc 8418 2b3d
00000200: 33d4 d2be 391e 8ab9 5191 ae3c 08d8 f03c
00000210: fe71 e43b 501d 9d3b 82c3 c43e 6468 e1ba
00000220: e0eb b53d a69b 443b f73c d63d bf18 88bb
00000230: d11a 2e3f 2a4f d93c fb1b 25bb b017 46bc
00000240: 87ad 073e 9728 c1be 258d 44bb b2e7 e9bb
00000250: fbc1 c23c b261 0b3e 6bdb 15bc 4261 eebb
00000260: b2d9 a0bc fe07 8c38 6222 f4bb df68 a43c
00000270: 51ef 363d 9734 f03c 80dc d8bb 85e8 073b
00000280: dae9 09bc 7f12 a8bb af36 84bb ea01 143b
00000290: 06a6 4b3e b615 563d 8633 c9b9 8a1c cabe
000002a0: 91ae 643e 60e8 3d3f 0cf5 8ebb 14b2 a13d
000002b0: 515b cabc e094 e3bc ec5e 68bb ecc8 73bc
000002c0: c722 5fba 0c6d 283d a69b 443b 78e9 f3bb
000002d0: d7bc 233a 338d b7ba f004 003d 04f5 f7be
000002e0: e888 dfbb 1481 573c 6421 d9ba b2a7 40bc
000002f0: 573a ec3c 9dd4 9abb caa5 163a 92f7 613a
00000300: 9ac7 9abc 7e90 cb3d 7c32 cc3c 9b9e 013c
00000310: 11d1 a3bb 6545 253d 95eb 32bb 3d34 7ebb
00000320: 4a08 c23d 16b6 fe3c a016 5b3e 3031 883c
00000330: f4b3 98bc 6014 dc3d 58b0 58bc 3480 aebb
00000340: 63ac fc3b ae36 11bb 0a77 b9bc 3688 d63c
00000350: e0c6 ca3c 532a f63c a69b 443b 6401 f93c
00000360: e2a6 9ebb 4465 11bf 5008 213d deb4 fcbb
00000370: a69b 443b 2886 94bb 5557 5a3e 58fe 53bc
00000380: a64d 363e b1db c83c 04d2 5f3d efc7 ce3e
00000390: 7e94 ce3e a69b 443b 74d6 04ba 07b8 363c
000003a0: 842a 2c3b 555d 3db9 3b08 91bb 8138 b03c
000003b0: 8727 693c bce2 44bb a907 b83c af50 2dbc
000003c0: 46fd fd3b cc72 ee3d 0850 123c 02e2 1c3c
000003d0: 1c23 cb3d 4b48 65bc 495c 9f3d c0b3 e83a
000003e0: a69b 443b a69b 443b b978 d83c 5d75 913d
000003f0: ad73 1f3c 7196 1f3c 5bc6 86bb f65a 5c3e
