runs/4_400_300_32_42_actor.pth (torch, 491927 bytes, 6 tensors)

fc1.weight f4 [400, 3]
000000 b0 10 b0 bb 11 d6 18 3d 58 37 00 3c c3 e4 3c 3d
       -0.005373083 0.037313525 0.007825695 0.0461166
000010 56 64 dd 3c da 75 b8 3c 43 5d d5 bc 75 c6 33 bd
       0.027025383 0.022517134 -0.026045447 -0.043890435
000020 60 e7 4e bb 21 6a 13 3f 31 fc 31 3f 09 4b 52 3e
       -0.0031571016 0.57583815 0.6952544 0.20536436
000030 b4 37 09 bd a0 5f 50 3b 00 f1 80 3a ed 5b 05 bd
       -0.03350039 0.0031795278 0.0009837449 -0.03255837
000040 3f 39 0b 3d a2 da bd 3c 00 f9 54 bf f2 e9 91 be
       0.03399014 0.023175541 -0.83192444 -0.284988
000050 f6 bb 3c 3e d3 a4 86 bf d8 aa d0 3f e2 ac 7c 3c
       0.18431076 -1.051905 1.6302137 0.015422078
000060 5f 3e 9b 3e 4a 1b 2d 40 a2 35 ae 3d 37 46 e9 be
       0.30321023 2.7047906 0.085063234 -0.45561382
000070 d2 3d 2d 3f de d5 07 3f b4 8d 8d 3f 3b d3 b5 bd
       0.67672455 0.5306071 1.1058869 -0.0887818
000080 02 42 2d 3d 79 25 bf bd e1 fd cb 39 44 96 16 bb
       0.042299278 -0.09333319 0.00038908332 -0.002297775
000090 69 8f 3b 3e 2d 46 bf 3e 7d fb 21 3e 0e cd f2 be
       0.18316425 0.37358227 0.15818591 -0.4742207
0000a0 2f 02 8c 3f a6 15 28 3e 62 e8 41 bd ac 84 08 3c
       1.0938166 0.16414508 -0.04734076 0.008332413
0000b0 b4 75 56 3c 0b c1 81 3f 89 c9 05 bf 10 56 1c 3e
       0.013089586 1.0137037 -0.52260643 0.15267205
0000c0 bf 46 1c 3f ed 27 d8 3e 35 92 00 3e b8 12 7a be
       0.6104545 0.4221796 0.12555774 -0.24421203
0000d0 ac 00 4e 3d c2 5a 43 3c 0c a8 c4 3f 0d b4 4e bf
       0.05029361 0.011923494 1.5363784 -0.80743486
0000e0 b7 65 93 3c 57 3f 2c 3d c6 98 f4 3c 62 b5 fb 3c
       0.017992837 0.042052593 0.029858004 0.030726139
0000f0 c1 71 07 3d 3e 4c 09 bd b3 81 ef bc 3f 9f 63 bf
       0.03306747 -0.033519976 -0.02923665 -0.88914865
000100 4c 72 22 3f 74 9c b2 3e 78 b2 81 3f 12 3e 93 3e
       0.63455653 0.3488499 1.0132589 0.28758293
000110 16 5c 49 3f 33 16 2f 3d 82 f7 d2 3c 7a 11 d3 3c
       0.78656137 0.04274578 0.025752787 0.02576517
000120 b5 4c a7 bd 3b e7 f9 3f 6e 84 94 bd 50 0d 3c bd
       -0.081689276 1.9523691 -0.072518215 -0.045911133
000130 09 eb 41 3d b0 0b e6 bc b4 72 c5 3f c9 29 62 be
       0.047343288 -0.028081745 1.542563 -0.22086252
000140 9d 60 5f 3e bb 02 a2 bd 64 96 a2 3f 0a 02 e5 3d
       0.21814199 -0.07910677 1.2702146 0.111820295
000150 28 b9 07 bf 14 84 c9 3f 8b 6f 97 3d 94 56 07 bc
       -0.530169 1.5743432 0.07394322 -0.008260388
000160 b6 0e 98 3c d8 4c bb bb 1a 1c 47 40 a1 ad 29 bf
       0.018561702 -0.0057159476 3.1110902 -0.6628056
000170 8e e3 20 bd 23 58 4d 40 43 51 53 bf e6 0c bf bd
       -0.039279513 3.2085044 -0.8254587 -0.09328632
000180 96 53 e6 3e ff ac cc bf d2 ba 22 3e 11 4a 95 3f
       0.44985646 -1.5990294 0.15891579 1.1663228
000190 5d bb 61 bf 61 79 13 3f a8 b9 4e bf d2 88 05 40
       -0.8817652 0.57607085 -0.8075204 2.0864758
0001a0 e1 81 d5 3c 78 2c 1c bc d1 3d 31 3d e0 9c 28 3b
       0.026062908 -0.009532087 0.043271843 0.002572827
0001b0 14 33 6b be 51 0d 89 bd 43 af 02 3c 5e 1a 0f 40
       -0.22968704 -0.06691993 0.007976356 2.2359843
0001c0 aa 5a e4 be 50 9c dc 3a 06 a3 af 3d 78 7f 11 be
       -0.4460042 0.0016831253 0.08576016 -0.14208782
0001d0 ce 3c 02 3f 29 8d e9 3f 1c f8 1b bf 64 fd c6 3e
       0.5087403 1.8246204 -0.6092546 0.38865197
0001e0 80 4c 52 bb 87 0d 46 bd 40 d6 d0 3a 40 66 9d bf
       -0.0032089055 -0.048352744 0.0015932992 -1.2296829
0001f0 a5 35 92 3f 94 34 51 3d 86 f5 98 be 2c b3 8d bf
       1.1422621 0.051075533 -0.2987482 -1.1070304
000200 25 48 4d 3e ca e2 38 bd 2c 77 1b 3c 57 7c 1e 3d
       0.20047052 -0.045138158 0.009488862 0.0386928
000210 65 a9 06 bf 7d 17 97 40 ce 95 d9 bd 65 8c 1d be
       -0.52602226 4.721617 -0.10624276 -0.15385588
000220 ed 3b 60 3c 2b 70 20 3c 02 13 1d bd 4d 77 4b 3d
       0.013686162 0.009792368 -0.038348205 0.04967432
000230 d6 cb d7 3c 14 d9 1c bf 51 a2 db 3f c5 e5 cf 3e
       0.026342314 -0.61268735 1.715891 0.40604988
000240 34 b2 f7 bb c9 a6 a5 bb c8 04 1d 3c fa 99 d7 bf
       -0.0075590853 -0.0050552827 0.0095836595 -1.6843865
000250 dc af cd 3f 50 97 77 3d 8c fb 1e 3d c7 4a e7 bf
       1.6069293 0.060447037 0.038814113 -1.8069695
000260 76 da b8 3e 90 90 86 bb a2 c9 bb 3c 80 da ad b9
       0.36104172 -0.0041065887 0.022923294 -0.00033159927
000270 d8 cf 1f bf 6c ed 34 3f 27 8e 41 3f 19 d0 be bb
       -0.6242652 0.7067478 0.7560753 -0.005823147
000280 ea bb 78 3e 69 e9 2e 3b 58 3d b4 3b 19 f0 1e 3d
       0.24290434 0.0026689416 0.005500477 0.038803194
000290 ee 3d bf 3c 74 bd 5b 3e 3f 92 86 3f 37 19 06 3e
       0.02334496 0.2145899 1.0513381 0.13095556
0002a0 10 d9 8b 3b 26 93 cf 3c 60 0e cb ba df 27 46 be
       0.004267819 0.02533872 -0.0015491955 -0.19351147
0002b0 e3 a0 3e 3e 02 da 4b 3e 74 89 58 bf de cb be bf
       0.18616061 0.19907382 -0.84584737 -1.4905965
0002c0 fe bc 41 3e fa bb af 3c b0 09 cc 3b 8d 19 e5 bc
       0.18919751 0.021451939 0.006226741 -0.027966285
0002d0 46 69 0a 40 a0 c1 aa bf cb b7 3b 3d fd 60 15 3f
       2.1626754 -1.334034 0.045829576 0.5835112
0002e0 f0 24 1f 3d da cd 25 3e 76 2a b1 be a4 01 c8 bc
       0.038853586 0.16191807 -0.34602708 -0.024414845
0002f0 b6 db a4 3c 85 32 32 bd 65 9c 1e bd 0a ee ad 3c
       0.020124298 -0.04350521 -0.03872337 0.02123167
000300 5b d3 d2 3e 0e 33 f7 3f 29 9f b3 bd 35 14 f1 3e
       0.41176876 1.9312456 -0.08770592 0.4708573
000310 2f 27 77 3f 5b 55 22 3e 7e f3 83 3c e5 c6 e5 bc
       0.96544164 0.15852873 0.016107317 -0.028048942
000320 6c e0 8b bc 5b f7 29 40 15 b3 3d bf 97 0a 42 3c
       -0.017074786 2.6557224 -0.7410138 0.011843345
000330 4e 20 ea 3c f1 7b 94 3b 7e f4 82 3c aa 9a d7 bd
       0.028579857 0.0045313765 0.015985724 -0.10527547
000340 c3 2a 4f 3d 0b 0c c5 bc 6e da 14 3f 37 dc a6 3f
       0.05057789 -0.024053594 0.581458 1.3035954
000350 80 61 ed 3e e8 54 01 40 52 b3 80 bf 3f ed 74 bd
       0.4636345 2.0208073 -1.0054724 -0.059796568
000360 b4 da 98 3c f1 c4 09 3d 5e 4a 09 bc 5b ab 3c bf
       0.018658973 0.033635084 -0.008379547 -0.7369897
000370 d1 79 89 3f dd f6 b3 3e 80 4d 03 bc 7d c2 2e bd
       1.07403 0.3514928 -0.008014083 -0.042665947
000380 4e f8 b4 3c a7 4c 8d bf ed ba 5e 3f d5 f7 e6 3d
       0.022091057 -1.1039017 0.87003976 0.11277739
000390 98 0b 34 bf 81 1f f3 3e b9 07 12 3e d9 e8 5b 3f
       -0.7033019 0.47484973 0.14260758 0.8590217
0003a0 6c cb 88 3f 7e 74 f4 3e 62 c3 84 3f 1c b7 11 3f
       1.068708 0.47745126 1.0372126 0.5692003
0003b0 90 dd 11 3d c5 9b 8b 3f 07 b6 80 bf f6 d7 33 3d
       0.03561169 1.0906912 -1.005555 0.04390713
0003c0 3a 09 2d bd 61 96 07 3d 7a 86 c0 bc e9 99 62 3c
       -0.042245127 0.033102397 -0.023501623 0.01383064
0003d0 cf 16 2e bd 21 28 db bb 46 53 3d bd d4 dd af bf
       -0.04250222 -0.0066881333 -0.046221994 -1.3739572
0003e0 61 6f d8 3e d9 0b 27 3d 77 1c ab bc 00 5f 8c b9
       0.42272475 0.040782783 -0.020887597 -0.0002677366
0003f0 12 8c 3e bd 4c 23 17 bc 90 8a a9 bc cf 45 9d 3f
       -0.0465203 -0.009224724 -0.020695955 1.2286929

fc1.bias f4 [400]
000000 68 5a 95 be 94 d2 3b be a4 dd 55 be 4d 90 15 3f
       -0.29170537 -0.18342048 -0.2088533 0.5842331
000010 44 1e 5b be fa a6 d3 be 2a 84 6e 3f 9a 4b a6 be
       -0.21398264 -0.4133833 0.93170416 -0.32479554
000020 62 df 09 3e b4 a3 b9 3e 75 bb 3a 3f d7 ec ee be
       0.1346412 0.36257708 0.72942287 -0.4666507
000030 a4 72 2e 3f 6b 28 87 3f 6e fa 91 be b7 06 ad 3e
       0.6814368 1.055921 -0.28511375 0.33794186
000040 31 40 88 3e fa df 9b be 51 d2 d3 3d d6 b2 4e be
       0.26611474 -0.30444318 0.10342849 -0.20185408
000050 04 e9 00 bf a3 45 a5 3e 27 5a d4 be b8 31 c1 be
       -0.50355554 0.3227969 -0.4147503 -0.37733245
000060 4a 7f 8c 3e d5 82 fc be 2b 8b 14 3f 78 00 a9 3e
       0.27440864 -0.49318567 0.58024853 0.3300817
000070 88 4d 90 be 54 78 b9 be 60 f8 91 3f e8 48 04 3f
       -0.28184152 -0.36224616 1.1403923 0.51673746
000080 7f 58 25 3f 4a 2d 8d be 65 c1 9b be 32 1f 7e be
       0.6458816 -0.27573615 -0.30420986 -0.24816588
000090 8a c5 af be 14 38 89 3f f5 1a 29 bf 35 19 a5 3e
       -0.34330398 1.0720239 -0.6605676 0.32245794
0000a0 23 43 9b be 16 1f 2d bd 44 ec 7e 3e 9a 04 1d be
       -0.3032466 -0.042265974 0.24894816 -0.15333787
0000b0 b8 da fa be 29 c7 2f be 4d 9a 08 bf 52 75 eb be
       -0.48994994 -0.17165817 -0.53360444 -0.45987946
0000c0 88 34 9a be 34 c7 1e be 7a 25 af be 0a 9c 12 bf
       -0.30118203 -0.15505677 -0.3420828 -0.57269347
0000d0 1b 0b ad be d9 45 86 be 8a 55 2e be fc b1 81 3f
       -0.33797535 -0.26225165 -0.17024818 1.0132442
0000e0 34 00 01 be fb a3 8c 3f cf 60 0a 3e 50 87 f9 be
       -0.12597734 1.0987543 0.13513492 -0.48736048
0000f0 fb ea 19 3e c9 f1 58 3e b5 fa 04 bf 12 12 bf be
       0.15031044 0.21185984 -0.5194505 -0.37318474
000100 22 29 81 3f f2 9a 0f 3f b4 e7 a7 be 2c f8 88 be
       1.0090678 0.560958 -0.32793963 -0.2675184
000110 ac 09 d7 bd 11 08 18 bf aa e8 25 3d 2d 76 b9 3e
       -0.10499892 -0.5938731 0.04050509 0.36222973
000120 37 17 3c be c8 dd fb be 4a c5 fc be 9b 67 7e 3f
       -0.18368231 -0.49192643 -0.4936927 0.9937684
000130 ad dc b9 3f be 30 e0 be 9a 83 df bd 12 41 c3 3d
       1.452047 -0.43787187 -0.10913773 0.095338956
000140 16 e2 d5 be d6 c8 13 be 43 fc d1 be c9 7f a4 be
       -0.41774052 -0.14432082 -0.41012773 -0.32128742
000150 ab 56 da be 39 11 5b 3f cd 98 c1 3e 53 3b 06 bf
       -0.42644247 0.85573155 0.3781189 -0.5243427
000160 08 9a 44 3d 4c 93 83 bd 9b c8 16 3f 34 a0 b4 3e
       0.04799846 -0.06424579 0.5889985 0.35278475
000170 8f be 50 3f 14 8e 41 be b5 d0 aa be 88 5d 0d bf
       0.8154077 -0.18901855 -0.33362356 -0.5522084
000180 c1 92 0b bf 64 48 ed be e1 e5 ec 3e 29 1b 27 bf
       -0.54520804 -0.46344292 0.46269134 -0.6527582
000190 0e dc 92 be ba 07 ed bd 51 7c 9d be 83 7b bc bd
       -0.28683513 -0.11573739 -0.30758908 -0.092032455
0001a0 a3 d7 9e be 87 ef 3b 3f 7c 24 cd 3e 58 1b cd be
       -0.31023893 0.73412365 0.40066898 -0.40059924
0001b0 b3 1e 01 bf 0e 9e a3 be 10 93 ba be f4 2d 7c 3e
       -0.5043747 -0.31956524 -0.36440325 0.24626905
0001c0 7d 18 b7 bd cc 55 06 be 89 d8 d7 3e a2 e3 6b be
       -0.08940218 -0.13118666 0.4215739 -0.23036054
0001d0 74 ab 2b be a5 b1 4c be c4 1a e1 be 30 cb 01 be
       -0.16764623 -0.19989641 -0.43965733 -0.12675166
0001e0 43 8f c8 be 8f 73 31 be b4 bc cd 3d ed c9 c3 bd
       -0.391718 -0.17329238 0.10045758 -0.09559999
0001f0 ee 47 f9 be 34 61 0c bf 90 30 82 3e 63 ba 85 3e
       -0.4868769 -0.5483582 0.25427675 0.26118764
000200 b6 27 03 bf 96 38 30 3f 98 99 d9 be fd 59 b4 be
       -0.5123247 0.68836343 -0.42499995 -0.35224906
000210 42 24 cd 3f 39 f0 e4 3c 9a 20 d8 be 57 a5 37 be
       1.602669 0.027946578 -0.42212373 -0.17934166
000220 b2 a4 98 be 7b 44 92 be 73 1c 37 3f 08 d0 6a be
       -0.29813153 -0.2856787 0.71527785 -0.2293092
000230 3e f8 0f bf f0 66 95 be 32 00 94 3e db 2e 2b bd
       -0.5623816 -0.29180098 0.289064 -0.04179273
000240 70 11 92 be 41 51 a6 be 1a 12 85 be 69 82 4a bf
       -0.2852893 -0.32483867 -0.25990373 -0.7910524
000250 ae 98 01 bf 0a 2c 40 be 65 f4 6c be 5c 35 64 bf
       -0.50623596 -0.187668 -0.23140104 -0.8914392
000260 73 e8 ee 3e 11 a0 3d be 26 99 f8 3e 20 06 52 bd
       0.4666172 -0.18518092 0.48554343 -0.051275373
000270 e3 e5 cc be 46 8e ea be 5c 32 5d 3f 5f c7 2e be
       -0.4001914 -0.4581167 0.8640497 -0.17068242
000280 3e d5 c2 be 45 0c 02 3f 5a f7 0c bf c2 a2 ba 3e
       -0.38053316 0.5079997 -0.5506493 0.364523
000290 4a e0 29 3e d5 a6 01 bf fa 85 c1 be ae 00 de be
       0.16589466 -0.5064519 -0.37797529 -0.43359894
0002a0 94 fb 23 3f 05 67 be be ab ed dc bd 1c bc cc 3e
       0.6405575 -0.37187973 -0.10787519 0.39987266
0002b0 68 00 76 be 38 7d 0f bf 4b 6e 1d 3e 61 11 1e 3f
       -0.24023592 -0.56050444 0.15374105 0.6174527
0002c0 0c ee 53 3b 20 1c 94 be 45 ef 96 3e f5 40 e8 3e
       0.0032337932 -0.28927708 0.29479423 0.45362058
0002d0 36 8e ba be 18 ab 12 bf 78 6a 8c 3f e8 fc fb be
       -0.36436623 -0.5729232 1.0969992 -0.4921639
0002e0 4c 1b 0d be 24 3e 5e be 00 fc 02 bf 37 c9 05 3e
       -0.13779944 -0.21703392 -0.5116577 0.13065039
0002f0 87 a4 84 bf 25 c1 04 bf 54 a6 b5 be b7 26 c8 3d
       -1.036271 -0.51857215 -0.3547846 0.09773009
000300 fb 08 61 3e 24 c1 35 be 36 eb 97 3e 48 8d f2 be
       0.21976082 -0.17749459 0.2967164 -0.47373414
000310 7d 5c db be dd 0e 68 bf c6 fe c1 be 78 b4 f5 be
       -0.42844 -0.9064768 -0.3788969 -0.4798925
000320 5a 8f 06 3c c5 ba 09 bf d3 da 89 be eb bf b3 be
       0.008212889 -0.5380061 -0.26924762 -0.3510736
000330 e6 af c2 be 39 1b 85 be 8c 85 da bd 72 89 a8 bd
       -0.38024825 -0.25997332 -0.10670003 -0.082293406
000340 67 2d a3 be 56 f3 d6 be 09 89 ca bd 6c 79 28 3e
       -0.31870577 -0.41982526 -0.09889419 0.16452569
000350 48 59 51 be 88 9d 93 be 00 8b 4b be 32 13 85 bd
       -0.20444214 -0.28831124 -0.19877243 -0.06497802
000360 bf 73 b8 be 02 bf 4d bf c7 07 0d bf c2 62 98 be
       -0.36025807 -0.8036958 -0.5508999 -0.29762846
000370 84 6b d0 bd f3 6c af 3e 97 84 29 bd 3f 6c da be
       -0.10176757 0.3426281 -0.041386213 -0.4266071
000380 aa 79 a3 be aa c7 c7 be 3c 7b 41 bf 30 6f 3f be
       -0.3192876 -0.3901952 -0.75578666 -0.18694758
000390 82 54 60 be bc 7e 8a bf 7e d5 e0 3e a5 47 aa 3e
       -0.21907237 -1.0819926 0.43912882 0.33257785
0003a0 27 1f b1 3e b5 22 11 3f ed f0 05 bf 91 62 61 3f
       0.3459408 0.56693584 -0.5232075 0.88041025
0003b0 a9 76 dd be 43 b3 38 be cc 41 eb be 5c 45 ed 3d
       -0.43254593 -0.18037133 -0.45948637 0.11585495
0003c0 5e d6 ae be 14 a2 a1 be 76 2d 06 be 6f 2f fd be
       -0.34147924 -0.31568968 -0.1310328 -0.4945025
0003d0 7a fd 0c bf 12 7a c2 be 37 37 86 3e a8 87 18 bf
       -0.55074275 -0.37983757 0.26214 -0.59581995
0003e0 72 8d 00 bf ea 05 5e be 4f 56 95 be c0 48 03 bf
       -0.5021583 -0.21681944 -0.2916741 -0.5128288
0003f0 27 58 54 3f bc 7e 23 3f 81 be e6 bd 3e a3 db be
       0.8294701 0.63865256 -0.112668045 -0.4289798

fc2.weight f4 [300, 400]
000000 98 2f a2 bc 30 76 83 3c 42 e8 12 3d 0a c3 97 3e
       -0.019798085 0.016047567 0.03586603 0.2964099
000010 ac a4 8d 3c 6e 8d c9 bc e9 46 75 3d 8e 1e 59 40
       0.017290436 -0.024603572 0.05988208 3.39249
000020 ba 73 09 bd be f9 4e 3e 6b a7 bf bc 24 c4 09 3c
       -0.03355763 0.20212457 -0.02339526 0.00840858
000030 d0 c8 f6 bd e6 48 2f 3e 60 cf ee bc b7 60 5c 3e
       -0.12050021 0.17117652 -0.029151618 0.21521269
000040 4e d5 d4 3e 18 a3 dd 3c a5 0a b2 3f ec e2 83 3c
       0.4156899 0.027055308 1.3909498 0.016099416
000050 fa 57 8a bc 79 2e ac 3e a4 d6 7e bf 3c 33 8d 3c
       -0.016887654 0.33629206 -0.99546266 0.017236345
000060 4b 68 4a be 10 12 63 bd 13 cc 08 3f 2e 56 2a 3f
       -0.19766347 -0.055437148 0.5343639 0.6653775
000070 f4 0e 83 be 6c d5 5b bc 4e 32 08 bf d9 bb 36 3e
       -0.25597346 -0.013417583 -0.5320176 0.17845096
000080 24 de 46 3d 1e 55 21 bf 99 e7 e1 bd 98 6d 2e 3c
       0.048551694 -0.63020504 -0.11030502 0.010646246
000090 bc f6 27 bd 78 7c b9 3c 6f 57 56 bf 73 d0 14 40
       -0.04100679 0.02264236 -0.83727163 2.3252227
0000a0 94 b4 58 bc 23 e9 72 c0 87 c1 2d bf 00 30 bd 3c
       -0.013226647 -3.7954795 -0.67873424 0.023094177
0000b0 a5 40 70 3d eb 4b 93 3c 0c e4 49 bc 1d c3 9c bf
       0.0586554 0.017980536 -0.012322437 -1.2247044
0000c0 d9 fb 08 bd b2 44 1f c0 d0 2d 0c c0 a0 7e 87 bb
       -0.033443306 -2.4885678 -2.1902962 -0.004134968
0000d0 93 de 3b bf b3 87 08 3e 56 18 aa bc 61 71 e2 bd
       -0.73386496 0.13333015 -0.020763557 -0.110567816
0000e0 38 d6 9d 3c 60 b4 3a 3e d0 06 d8 be d0 10 ed 3b
       0.019267187 0.1823287 -0.42192698 0.00723467
0000f0 f1 0c 48 40 aa 64 68 3c ce 3f 01 bf d0 8a b4 3b
       3.1257899 0.014184156 -0.50487983 0.005509712
000100 6b 3f b0 3c ed 98 17 3f 30 f2 17 bb 5e c6 48 bf
       0.021514615 0.5921772 -0.0023185126 -0.78427684
000110 7e 15 1f 3d c5 7b 01 bc b3 6d b0 bf 2d e8 63 bf
       0.038838856 -0.007903044 -1.3783478 -0.8902615
000120 da 07 02 3d 1b 5e 2b 3f ba c7 39 3d 95 a5 ad 3e
       0.03174577 0.6694047 0.04535649 0.33915392
000130 03 5f 07 3f 88 8c 80 bd e0 ae 88 be 76 95 3d be
       0.5287935 -0.06276804 -0.2669592 -0.18514046
000140 82 8a c3 bc 5b c9 93 bc df 51 f2 bf 1e c5 30 3d
       -0.023869757 -0.01804035 -1.8931235 0.043156736
000150 50 b5 5a 3d 22 5c 8d be 24 0d 4d 3f c8 f7 0d 3d
       0.05339557 -0.27609354 0.80098176 0.03466013
000160 31 2c ac 3d fe a5 97 3e 29 67 72 3e 7c bf 41 3f
       0.08406866 0.2961883 0.23672165 0.75682807
000170 0b a1 cc bb a0 22 e1 3c a7 71 7e bf 2e 0a 50 be
       -0.0062447838 0.02748233 -0.9939217 -0.20316383
000180 09 20 0c bd 62 98 41 bd 96 48 99 3f 32 36 9b 3f
       -0.03421024 -0.047264464 1.1975276 1.2125914
000190 a0 5b 61 3c 43 a0 8f 3d 77 88 4a bd c5 f3 8a bf
       0.013754755 0.07012989 -0.04944655 -1.0855643
0001a0 00 95 8e 3a 7c 69 8e 3e 16 1c b3 bc 50 13 32 3d
       0.0010878146 0.27814853 -0.021863978 0.04347545
0001b0 6c a8 27 c0 54 14 de 3e 4d 76 d9 3f 8c 56 95 3d
       -2.6196547 0.43374884 1.6989228 0.07291898
0001c0 90 9f 0f 3f c0 2b 80 3a d2 1a b4 bd e8 b9 9e 3c
       0.5610285 0.0009778664 -0.08794178 0.019375756
0001d0 f4 a7 20 3d f7 37 20 3e d5 bf 27 bd 20 72 95 3d
       0.039222673 0.15646349 -0.04095443 0.07297158
0001e0 a4 57 40 3d cd df 91 be f3 4c 58 be 62 3f 1f 3d
       0.04695858 -0.2849106 -0.21123104 0.038878806
0001f0 b4 7c db 3c 5c a4 4a bc f9 58 b5 be 83 4f 12 3e
       0.026792862 -0.012368288 -0.35419443 0.14288144
000200 00 ff 3c 3a 95 4a 84 be 1f 26 53 bd 03 93 99 bf
       0.0007209629 -0.25838152 -0.051550027 -1.199799
000210 9f 8c 0c 3f ae 05 b1 bf 18 f3 ac 3c 26 11 04 bf
       0.5490207 -1.3829858 0.02111201 -0.51588666
000220 06 2e 0b bf 1a 11 79 bb 91 cb 37 3d 1c f9 f2 3c
       -0.543671 -0.0038004578 0.04487187 0.0296598
000230 b2 cd 5d bf 02 0a 50 3d 0a 9d 09 3f 09 fd ac be
       -0.8664199 0.050790794 0.5375525 -0.337868
000240 32 27 91 bd d6 93 3f 3d 0c b6 25 bd 55 94 f4 bc
       -0.07087554 0.046771847 -0.040456817 -0.029855886
000250 c4 95 bd bc 8c 45 1d be 07 dd de be 9e e3 d1 be
       -0.023142703 -0.15358561 -0.43528005 -0.4099397
000260 d2 16 3c 3f 95 da 8c bd 02 4c 89 3d dc 30 b6 3c
       0.7347232 -0.06877629 0.067039505 0.022240095
000270 72 2a 9d 3d 51 94 97 be 0a 26 60 3f 50 55 6e bb
       0.076741114 -0.29605344 0.87558043 -0.0036366768
000280 15 49 21 bd 5f 7f d8 be b6 b4 33 3d e5 a1 91 3e
       -0.039376337 -0.42284676 0.04387351 0.28443828
000290 0b 94 a2 3d 99 cc 63 bd 3a 80 a6 bc 95 9d 1a bc
       0.07938393 -0.05561504 -0.020324815 -0.009436985
0002a0 fd b9 e0 3e 45 e8 fb 3e 52 77 f3 3d d9 9c 71 3f
       0.43891898 0.49200645 0.11887993 0.94379956
0002b0 ae 91 c6 bb 80 09 57 3c 9e 49 bd 3e 1e 5d 60 bd
       -0.006059847 0.013124824 0.36970228 -0.054776303
0002c0 fd 3f 79 bf e5 b5 98 3d 82 dd a5 3d 5f b6 86 3e
       -0.97363263 0.07456569 0.0809889 0.26311013
0002d0 39 de ad bc c6 67 5a 3d a6 48 29 be 60 88 26 3c
       -0.021224128 0.053321622 -0.1653162 0.01016435
0002e0 30 58 3c 3e 61 eb 6b bd 56 ac 1b bd f2 2b f2 be
       0.18393016 -0.05759752 -0.03800615 -0.47299153
0002f0 50 df 4d bf 5d 00 fe bc a7 84 5e be 23 79 2e 3f
       -0.8041887 -0.031006033 -0.2173029 0.6815359
000300 46 c1 ea 3e e3 57 16 bd 47 78 dc be 04 22 55 bf
       0.4585058 -0.03670491 -0.43060514 -0.8325503
000310 7b d9 90 3f ad 93 41 be 90 7c 39 bd 57 1c 5e bd
       1.131637 -0.1890399 -0.045284808 -0.054226246
000320 4d 82 a6 c0 40 20 b8 ba cc ad 2f bc 19 f4 2b c0
       -5.203406 -0.0014047697 -0.010722589 -2.6867735
000330 2c 42 3c 3d ba 2a 5b 3d b6 80 55 3d cc 77 47 bc
       0.045961544 0.053507544 0.0521247 -0.012174558
000340 dc 93 de 3c 31 2b 8e bf 06 a1 29 3c 73 8b 2a bd
       0.027170114 -1.1106931 0.010353332 -0.041636895
000350 60 07 fa 3d 97 b3 2d bd 98 cd c5 bb 71 39 83 3c
       0.12208438 -0.0424076 -0.0060364716 0.016018601
000360 57 7b 69 bd d3 ec d1 bf 69 f5 9f 3e c6 9f f5 3f
       -0.05700239 -1.6400398 0.3124192 1.9189384
000370 63 59 9e bf e3 17 98 3e 57 ac ab bc 16 00 43 bd
       -1.2371029 0.29705724 -0.020956201 -0.047607504
000380 f7 ab 3c 3d 68 00 9a 3b 89 05 9c be 32 5f 81 bc
       0.046062436 0.0046997555 -0.30472973 -0.015792463
000390 ad e8 da bc 43 f5 e2 be d7 f2 85 3e d0 a6 4f bd
       -0.026722277 -0.44327745 0.26161835 -0.050696194
0003a0 bc d5 06 be 7a 8e de 3d 84 fe 2b bc df cf 44 3e
       -0.1316747 0.10867019 -0.010497693 0.19219922
0003b0 20 31 43 3e 95 42 e3 be fc 99 83 3c ef 31 29 bf
       0.19061708 -0.44386736 0.016064636 -0.6609182
0003c0 27 bd d6 bd 9e 77 60 bd 60 1b 1b 3b 70 d0 9e 3c
       -0.10485297 -0.054801576 0.002366744 0.0193865
0003d0 94 23 f0 bc 78 9f 00 bc 92 c9 a7 bd 37 9d 62 bf
       -0.02931384 -0.00785052 -0.08192743 -0.8852114
0003e0 2c 3c 3a bd 80 d2 1a 3b 97 05 67 c0 e8 27 76 bc
       -0.04546754 0.0023624003 -3.6097162 -0.015024163
0003f0 4c b7 f3 3e 48 9b b0 3e 30 46 32 be 46 48 01 3d
       0.47600782 0.3449347 -0.17409587 0.031563066

fc2.bias f4 [300]
000000 d3 65 5b 3e 95 f4 fd bd 92 79 d0 bd f2 5f ea bd
       0.21425562 -0.12400166 -0.10179438 -0.11444081
000010 a8 55 9e bd 3c fe 21 bd 72 3f a7 3e eb f7 fa bd
       -0.077311814 -0.039549097 0.32665592 -0.12254318
000020 66 5a d2 bc 39 d6 bd bd 83 e8 6d bf 13 56 a2 bd
       -0.025677871 -0.09269375 -0.9293291 -0.079265736
000030 c7 42 bc bd 56 c1 e0 bd 92 ca 21 be 40 ab b8 bd
       -0.09192424 -0.10974376 -0.1579993 -0.09017038
000040 1f bf 52 bf d4 86 38 bd 49 a8 a5 bd 30 af 96 bd
       -0.8232288 -0.045050457 -0.080887385 -0.07357633
000050 e9 eb da bd 81 03 ea bd fa 9c 77 be 0a 2c ff bd
       -0.106895275 -0.114264496 -0.24180976 -0.12459572
000060 eb b9 e4 bd c6 70 d2 bd 5c 6c b0 bd 03 1c ed bd
       -0.111682735 -0.10275416 -0.08614418 -0.115776084
000070 9a 5c b8 bd 79 b7 24 bd 50 57 b7 bd b4 3c d6 bd
       -0.09002037 -0.040214036 -0.089522004 -0.10460797
000080 b3 eb 92 bd 6e 74 73 bd 49 67 93 bd 0e 64 51 bb
       -0.07173862 -0.059437208 -0.071974345 -0.0031950506
000090 f3 3f 8e bd a3 37 6b bd 24 6d 83 bd 8a b2 b8 bd
       -0.06945791 -0.057426106 -0.06417301 -0.090184286
0000a0 2e 84 ac bd 19 21 af bc ee 7b 25 be 88 23 b2 bd
       -0.08423649 -0.021378087 -0.16160557 -0.08698183
0000b0 8a a9 9a bd cc e6 00 be 08 d9 51 bd 63 98 b8 bd
       -0.07551868 -0.12588042 -0.051232368 -0.090134405
0000c0 59 6e ae bc ea bc ee bd 18 73 9c bd 26 81 c7 bc
       -0.021292852 -0.11657126 -0.0763914 -0.024353575
0000d0 76 83 6c bd 42 55 8f 3e f6 00 eb bd c8 cb bf bc
       -0.05774256 0.27994734 -0.11474793 -0.0234126
0000e0 85 0d 90 bd 5e ba e2 bc f4 17 b0 bd 95 95 94 bd
       -0.07033829 -0.027676757 -0.08598319 -0.07255093
0000f0 b4 2a 1d be 2a 41 08 bd f8 ae 2d bd 98 54 b5 be
       -0.15348321 -0.03326527 -0.04240319 -0.35416102
000100 a1 db d1 bc 5b 77 b9 bd ee 9e d0 bd be 5f b9 bd
       -0.025617423 -0.090559684 -0.101865634 -0.090514645
000110 8d 69 85 bd ac a3 ef bd 5a d0 17 bc 8c af 8a bd
       -0.06514273 -0.1170114 -0.0092659835 -0.06771764
000120 12 d0 cd bd a3 a8 0b be cc b7 a5 bc bb 3a 78 bd
       -0.10049452 -0.13638549 -0.020229243 -0.060602885
000130 56 fd 92 bd d1 d5 ca bd 73 93 7c bd 92 0a f3 bd
       -0.07177226 -0.099040635 -0.061664056 -0.118672505
000140 1d e9 83 bd 82 41 1d bf 19 56 1f bd 22 ba 2c be
       -0.06440947 -0.6142808 -0.03890047 -0.16867879
000150 9a aa 9b bd 38 dc 9e bd 70 14 ed bd 61 43 65 bd
       -0.07600899 -0.07756847 -0.11576164 -0.05597246
000160 04 7f be bd 89 8e a2 bd e4 4e 90 bd 56 32 11 be
       -0.0930157 -0.07937343 -0.07046297 -0.14179358
000170 bd ab 00 be f0 5a 22 be f6 e8 00 3f b2 44 f6 bd
       -0.12565513 -0.15855002 0.5035547 -0.12024821
000180 7c 66 2f 3e cb fd c3 bc 22 5e b5 bd c0 a3 cb bc
       0.17128938 -0.023924729 -0.08855845 -0.024858356
000190 c5 ab 15 bd 98 a5 9b bd e1 e5 9a bd 2a 9d 33 bd
       -0.036540765 -0.07599944 -0.07563377 -0.043851055
0001a0 97 2e 60 bd b5 4a 5e bd 45 02 10 bd 86 50 1c be
       -0.05473193 -0.054270465 -0.035158414 -0.15265092
0001b0 88 4d 6f bd 03 59 ac bd 89 ec a3 bd 25 fc fb bc
       -0.05842355 -0.08415415 -0.080041 -0.03075988
0001c0 d1 f7 d6 bd f0 ee aa bc f9 7b 10 be a1 13 0d bd
       -0.10496486 -0.020865887 -0.14109792 -0.034442548
0001d0 6a 02 aa bd 5d 33 33 bd 3a 0c 4e bd 63 1f d0 bd
       -0.08301242 -0.043750156 -0.05030463 -0.101622365
0001e0 c3 13 b3 bd c8 19 8e bd 66 a7 7f bd 61 93 0b be
       -0.087440036 -0.06938511 -0.062415503 -0.1363044
0001f0 31 3f b5 bd be df ad bd 4f e2 9c bd f0 7f dd bd
       -0.088499434 -0.08489941 -0.076603524 -0.10815418
000200 ca d2 4f bd 4e 3d 58 bd d3 69 d0 bd 08 cc 20 be
       -0.050738133 -0.05279284 -0.10176434 -0.15702832
000210 f9 74 b1 bd af 13 85 bd 1d 59 de bc 70 5b 18 bd
       -0.08664889 -0.06497895 -0.027142102 -0.037196577
000220 0d a8 0d bd 41 9e 09 bc 38 0d 72 bd b3 58 ad bd
       -0.034584094 -0.008399547 -0.059094638 -0.08464184
000230 d9 da 58 bd fc c3 3c bc 7e 4a 09 bd 96 19 94 bd
       -0.052943084 -0.011521336 -0.033518307 -0.07231443
000240 40 4f 84 bd 10 66 ca bd 73 08 bc bd 10 bc ff be
       -0.06460428 -0.09882748 -0.09181299 -0.49948168
000250 72 fa 7a 3e 0c a0 37 be d0 6e 0f bd a8 fe 92 bd
       0.245096 -0.17932147 -0.03501779 -0.07177478
000260 cc d3 94 bd 3e 62 cb bd 77 0b c1 bd c2 0b a0 bd
       -0.072669595 -0.099308476 -0.09426015 -0.078147426
000270 b8 f9 f4 bd d5 fd 24 bd f4 9c fe bc 78 88 ef bd
       -0.119616926 -0.040281136 -0.0310807 -0.11695951
000280 7b 8a a8 bd 54 0d 41 bd 69 fa 9b 3b 2c 93 c3 bc
       -0.08229538 -0.04713185 0.004760076 -0.023873888
000290 f7 a8 8c bd e0 b7 ab bd f2 31 da bd ec c1 70 bd
       -0.06868165 -0.08384681 -0.106540576 -0.05877869
0002a0 9b eb e7 bd c5 4c 0a be bf f3 f3 bc 5e 13 c6 bd
       -0.11324235 -0.13505848 -0.029779313 -0.09671663
0002b0 ec b1 64 bd 9f 88 07 bc cf 71 be bd 22 c8 d3 bd
       -0.055833742 -0.008272319 -0.09299051 -0.10340907
0002c0 1d b1 85 bd f1 71 a3 bd 5d 9d bc bd 00 99 2c be
       -0.06527922 -0.07980717 -0.09209702 -0.1685524
0002d0 e6 af 67 bf d2 b3 81 bd 4f 17 00 3e 95 fe 19 bd
       -0.90502775 -0.06333126 0.12508892 -0.037596304
0002e0 60 57 bb bd ff 5d d3 bd e7 03 86 bd 44 44 1c bd
       -0.09147525 -0.10320663 -0.06543713 -0.03815104
0002f0 d4 57 b0 bd da 98 88 be f1 f3 a3 bd 2f 5a ab bd
       -0.08610502 -0.26679116 -0.080055125 -0.083668105
000300 b7 6b 98 be b8 c2 65 bf 3e 5c 19 bd 16 50 a6 bd
       -0.2976968 -0.8975024 -0.037441485 -0.08120744
000310 9c ef bd bc 72 d7 3a bd 7a a1 b2 bd 92 19 cc 3d
       -0.023185544 -0.04561562 -0.087222055 0.09965815
000320 c3 a4 83 bd 91 8e 91 bd 1f c6 e3 bd 18 ff c7 bd
       -0.0642791 -0.071072705 -0.11121773 -0.09765452
000330 ac e5 6f bd 3f 14 0b 3f 0a 5f 28 bf d4 7f 55 bd
       -0.05856864 0.5432777 -0.6577002 -0.05212386
000340 5e af 3b be 59 f6 51 bd 2b cf e1 bd 11 f3 a4 bd
       -0.18328616 -0.051260326 -0.11025842 -0.08054174
000350 f6 9f 28 bd dc a0 42 bd fe 3f 63 bd 50 7e cb bd
       -0.041168176 -0.04751669 -0.05548095 -0.099362016
000360 3d ea 8d bd 7b ba 6d bd 8f c4 82 bd 31 d7 cc bc
       -0.06929443 -0.05803917 -0.06385147 -0.025004955
000370 db bc 1d bd 2d f4 e2 bc c4 a9 02 bd 20 54 60 bd
       -0.038510185 -0.027704323 -0.031900182 -0.054767728
000380 b3 fd 67 bd 96 dd c7 bd f1 a5 29 be 75 6f 2f bd
       -0.05663843 -0.09759061 -0.16567208 -0.042830903
000390 68 86 3a be d8 23 02 be 01 23 e7 bd ce 7f 20 bc
       -0.18215334 -0.12708986 -0.11285973 -0.009796096
0003a0 68 d4 96 bd 46 1e 92 bd 44 a0 9d bd 53 f8 97 bd
       -0.07364732 -0.071346804 -0.07696584 -0.07420411
0003b0 ca cb 58 bd eb 2a 83 bd a7 0d 58 bd ce 0f 9b bd
       -0.052928723 -0.0640467 -0.052747395 -0.07571374
0003c0 d7 08 b8 bd 0b 10 9c bd d9 27 91 3e 21 66 fd bd
       -0.08986061 -0.076202475 0.28350714 -0.12372995
0003d0 11 2a c0 bd f6 47 3d 3e 47 c8 cc bd f7 2f 9f bc
       -0.093830235 0.18484482 -0.09999137 -0.019432051
0003e0 db 78 55 bd b2 94 92 bd 37 6f a6 be cc 8f 55 bd
       -0.05211721 -0.07157268 -0.32506725 -0.05213909
0003f0 1a 6f 85 bd 62 92 34 bc 94 47 a9 bc 1c 4a 40 bd
       -0.065153316 -0.0110212285 -0.020664014 -0.046945676

fc3.weight f4 [2, 300]
000000 09 ea db bd f9 b1 e4 bc 34 db c3 bc ca 05 f5 bc
       -0.10737998 -0.027916895 -0.023908235 -0.029909987
000010 61 2f 99 bc c5 97 ad 39 11 a0 58 3f 04 7b d6 bc
       -0.01869935 0.00033110208 0.8461924 -0.026181705
000020 36 65 9b 3c a5 db 98 bc 3b 3f 01 3b 4c a8 a6 bc
       0.01896916 -0.018659422 0.0019721526 -0.020343922
000030 b4 49 d7 bd 74 c4 ae 3c 8a f7 91 bc 5d 55 17 3c
       -0.10512105 0.02133391 -0.017818231 0.009236661
000040 4d 12 ec 40 7f eb 15 3d 1d a8 dd bc ee 27 00 bd
       7.377234 0.03660154 -0.027057702 -0.03128808
000050 d1 fd fa bc 3f 00 63 bd 51 90 bf 3d 9d e2 1a bc
       -0.030638607 -0.055420157 0.09353698 -0.009453443
000060 cc a0 e4 bc 70 37 ee bc 58 6b ab bb 90 4b ee bc
       -0.027908705 -0.029079169 -0.005231302 -0.029088765
000070 c6 54 de bc 2e 78 df bc bf ba 18 3c 00 7f dc bc
       -0.027140033 -0.027278986 0.0093218675 -0.026916027
000080 a3 5e f3 3b 5f b0 5d 3c 99 46 a4 bb fb 70 d5 bb
       0.007427053 0.01353082 -0.0050132987 -0.0065137125
000090 32 45 87 bc 5e 61 6f bb 32 1b ce bc 34 17 fc bc
       -0.016512487 -0.0036526541 -0.025159452 -0.030772783
0000a0 2f c9 8c bd 43 eb 81 3c 38 67 bc bc 2d 10 dd bc
       -0.0687431 0.015859252 -0.022998437 -0.026985252
0000b0 6f 85 f7 bb e6 de 07 bd df cc e0 bc b5 d1 ee bc
       -0.0075537483 -0.033171557 -0.02744144 -0.02915273
0000c0 24 5d 0a 3b 9e 91 e3 bc 16 e8 6b 3a 93 0f c7 bc
       0.0021112645 -0.027779397 0.0008999122 -0.024299419
0000d0 33 f6 02 bd 7c 57 d4 bd 50 68 e6 bc 9a 31 62 3c
       -0.031973075 -0.10368249 -0.028125912 0.013805771
0000e0 7b c2 8f bb ad fa bc 3c a4 05 e3 bc 86 65 de 3c
       -0.0043871976 0.02306875 -0.02771265 0.02714802
0000f0 50 fd f4 3d 26 ff 85 bc 53 84 7e 3c 01 2e 34 bd
       0.11962378 -0.016357016 0.015534478 -0.043989185
000100 d2 36 6a 3c 55 dd 3d bd 99 f7 1a bc 0f 9a e3 bc
       0.014295297 -0.046353657 -0.009458446 -0.027783422
000110 1d 83 be bc ba fa c3 bc a9 37 3f bb f0 62 ee bc
       -0.023255879 -0.023923267 -0.0029177463 -0.029099911
000120 1e 95 fa 3c 91 51 ea 3a a5 ce a1 bc 59 c6 1f bd
       0.030588683 0.0017877092 -0.019751856 -0.03900752
000130 fc 54 04 bc 81 2b a5 bc 02 61 57 3c bb 1f 09 3c
       -0.0080769025 -0.020162346 0.013145687 0.008369382
000140 cb 68 97 bb 2f 9f 8c be c5 1f 91 3c 57 37 8c bc
       -0.0046206466 -0.27465197 0.017715344 -0.017116232
000150 9e db d1 3b ab fe bf 3c ac 50 60 3c 8b cb 36 bc
       0.0064043542 0.023436865 0.013691109 -0.011156927
000160 07 e9 5a 3e a9 38 f0 bc 0c 48 00 3b 85 2c 45 be
       0.21377955 -0.029323893 0.0019574193 -0.19255264
000170 c5 fc 08 3e 46 56 d3 be 9f c8 25 be 4d 04 ed bc
       0.13377674 -0.4127676 -0.16189812 -0.028932715
000180 82 6c 8f 3e 1a ab ca 3c 70 8a 80 3c b6 45 f8 bc
       0.28012472 0.02473979 0.015691012 -0.030306678
000190 0a b3 c9 bc c3 55 2e 3b cd 51 75 3d e0 53 79 3c
       -0.024621505 0.002660141 0.059892464 0.015217751
0001a0 2e 25 d9 bc 35 0d d9 bc b7 44 e1 bc e4 53 05 3e
       -0.026506986 -0.026495555 -0.027498586 0.13020283
0001b0 22 f8 03 be 46 15 98 bb 6f c1 f5 bc 18 45 10 bc
       -0.12887624 -0.004641208 -0.029999463 -0.008805536
0001c0 6b 4d 27 3e 20 f2 0b bb b7 9b 61 be 2c 6a ba 3b
       0.16338126 -0.0021354035 -0.22032057 0.005688926
0001d0 40 9c d4 bc a6 b8 a3 3c 03 64 2e 3b b8 a3 ed bf
       -0.025953412 0.019985508 0.0026609905 -1.8565588
0001e0 ba 8a e2 b9 a5 27 7f 3b 26 28 9c b9 23 8e df bc
       -0.00043209438 0.0038933542 -0.00029784552 -0.027289456
0001f0 40 e0 28 bd cd 29 ed bc 9d 19 d2 bc 39 1c 72 3a
       -0.041229486 -0.028950596 -0.025646979 0.0009235773
000200 e0 56 81 bc 5b 63 e1 bc 2a 30 18 bd 6f 5b d6 bc
       -0.015788496 -0.027513197 -0.037155308 -0.026166646
000210 14 bd cd 3c 8a 90 c3 bc 33 c0 d7 bb 84 40 6d 3c
       0.025114574 -0.023872633 -0.006584191 0.014480714
000220 0a a7 b6 bb 47 5c b3 bc 4f a8 e2 bc 32 76 ca bc
       -0.005574112 -0.021894587 -0.027668146 -0.024714563
000230 1f 5f dc 3c 3e 5c 99 bb 9e 93 5c 3c 15 e7 03 bc
       0.026900826 -0.0046801856 0.013462929 -0.0080507
000240 a3 37 09 bd 2a de 9d bc 76 f1 c2 bc d2 8e 9b bf
       -0.033500325 -0.019270975 -0.023796778 -1.215296
000250 f7 df 09 bf 48 10 a9 bd a6 9f dd 3b 95 78 45 c1
       -0.5385737 -0.082550585 0.0067634163 -12.341939
000260 81 21 05 3d 12 39 d4 bc d6 89 fa bc 22 7f ff 3b
       0.032502655 -0.02590612 -0.030583303 0.007797138
000270 85 0f 4a be 9a 24 14 3d 08 ec b5 bc 2c 47 e0 bc
       -0.19732483 0.03616772 -0.022207275 -0.027377687
000280 64 21 bd bb dd 9a 75 3d 81 33 5a 3d c9 66 21 3d
       -0.0057718027 0.059962142 0.053271774 0.039404664
000290 7c fa d9 3c 70 2a c6 bc 81 fe 62 3c d0 fc 31 bf
       0.026608698 -0.024190158 0.013854624 -0.69526386
0002a0 8d ca 80 bc 96 7c d7 bc 9e 76 dd 3c 90 64 cd bc
       -0.015721584 -0.026304524 0.0270341 -0.025072366
0002b0 54 37 02 bd 07 30 8b 3c ec fd 73 3c c2 b8 db bc
       -0.031791046 0.016990675 0.014892083 -0.026821498
0002c0 66 c2 78 3d 2f 65 46 3c 86 61 d0 bc 36 26 31 3c
       0.060732268 0.012109085 -0.025437128 0.010812333
0002d0 93 1b 1b bd b1 f9 b8 bc ee 16 0e be ea a7 f4 bb
       -0.037868094 -0.02258 -0.13875934 -0.007466306
0002e0 b8 f7 d0 3c 01 c6 13 be 6a 76 eb 3c 05 f5 ba 3c
       0.025508747 -0.14431001 0.028742988 0.022821913
0002f0 e1 e7 56 3b 5a 9e 21 40 c1 89 30 3d 67 13 b6 bc
       0.003279202 2.52529 0.043100122 -0.022226049
000300 75 89 bc bd cf 3b cb bf c3 d7 d3 bc a8 4e ab 3c
       -0.09205905 -1.5877627 -0.02585972 0.02091153
000310 08 3c 20 3c 21 fe 2c 3b a7 78 ff 3c 8e 49 96 3e
       0.009779938 0.002639659 0.031185461 0.29352993
000320 5a 2a 58 bb 0b 3c c2 3c f9 e3 81 3a cf 25 5a 3c
       -0.0032984228 0.023710271 0.000990986 0.013314678
000330 13 cb ae 3c cb c4 64 be c4 f4 8b c0 0f 7d a1 3c
       0.021337068 -0.22340696 -4.3736286 0.019712953
000340 97 a2 a2 3e fe 3b 52 3d 82 9d db bb 85 0e 0e 3c
       0.3176467 0.051326744 -0.006702126 0.008670454
000350 64 48 8e bc 23 9f f5 3c 6b 90 f5 bc 18 c2 ec bc
       -0.017368503 0.029983109 -0.02997609 -0.028901145
000360 fd 98 50 be 2d 60 4a 3c c9 17 c1 3c 96 d9 83 3b
       -0.2037086 0.012352032 0.023570912 0.004023741
000370 04 79 5f 3c 5f 59 78 bb 6a 44 31 bb af b6 c0 bc
       0.013639692 -0.0037895066 -0.0027048835 -0.02352461
000380 4c f1 d5 bc d1 99 86 bd 5e d5 d0 bc c1 68 2b 3d
       -0.026116036 -0.06572307 -0.025492366 0.041847948
000390 f5 5d 6d 3e a6 20 ef bc c2 01 ef bc c4 bf a9 bc
       0.23180373 -0.029190373 -0.029175643 -0.020721324
0003a0 32 70 f6 bc 16 d3 97 3c f7 a8 ae bc 93 52 92 bc
       -0.030082796 0.01853327 -0.021320803 -0.01786164
0003b0 8c 07 ca ba 1e f7 c4 bc 55 c7 ca 3b c4 5a be 3c
       -0.0015413626 -0.024043616 0.006188313 0.02323664
0003c0 64 64 b5 3d 9d 12 f3 bc 0c 77 80 be 5c 59 e3 bc
       0.088570386 -0.029671961 -0.25090826 -0.02775257
0003d0 be 53 4d 3b 9d 7a 7b 3e e0 c0 02 3a 1f 67 cb bc
       0.0031330432 0.24558492 0.0004987847 -0.024829445
0003e0 a9 79 4c bc b9 b9 5d 3b c5 c8 82 bc 7e 88 a5 3c
       -0.012480178 0.0033832623 -0.015964875 0.020206686
0003f0 92 d9 2b bd 16 a4 f4 bc 63 1f 19 3c 8b eb e2 ba
       -0.041955538 -0.029863399 0.009345862 -0.0017312629

fc3.bias f4 [2]
000000 bf 4e 27 bf 43 56 26 3e
       -0.6535453 0.16243844
