runs/actor.pkl (torch, 3159 bytes, 5 tensors)

fc1.weight f4 [20, 2]
00000000: 6442 09be 0837 a0bc 5568 e1bd 9c31 bbbd
00000010: 1661 91bd 2498 59be d6df 3b3e 9cf4 3f3e
00000020: e4ac 0fbd 909b d0bc aee5 babd ffc6 4ebe
00000030: fbd2 5ebe 2433 aa3d 136f fbbd a233 13be
00000040: 00ec 8ebc 5a80 98bd c027 94bd 206e eb3b
00000050: bc45 42bd 40ad 9dbd 8144 dbbd 4458 3abe
00000060: ecfe 3f3e ae43 b7bd 68b1 723d 54e4 9ebd
00000070: 78da 943c d278 553e 88fc d23d a16d 46be
00000080: a4c2 b53d f059 593e d0f4 703d 6882 193e
00000090: f2bd 613e 6857 0cbd 0819 3e3d 0025 1fbe
-0.13404232 -0.019557491 -0.11006228 -0.091403216 -0.07098596 -0.21249443 0.18347105 0.18745655
-0.03507699 -0.025464803 -0.09125839 -0.20193098 -0.2176017 0.083105356 -0.12277045 -0.14375165
-0.017446518 -0.07446356 -0.07234144 0.007184759 -0.047429785 -0.076990604 -0.107064255 -0.18197733
0.18749589 -0.08948456 0.05925122 -0.07758394 0.01817058 0.2084687 0.10302073 -0.19377758
0.088750154 0.21225715 0.05882722 0.14991152 0.22045115 -0.034263045 0.04641059 -0.15541458

fc1.bias f4 [20]
00000000: 388c 423e d85a 44be e25d 983e 399e 213f
00000010: aa47 d13e fb45 9ebe fefd d03e 708e 013e
00000020: 1edb b73e 16aa dcbe 4c31 33bf a1e0 8bbe
00000030: 91d8 0abf 8d88 143f 948e 503e 18f6 953e
00000040: 60ff 643e 4089 49bc cfaa 0d3f e09d 00bf
0.18998802 -0.19175279 0.29759127 0.63132054 0.40874988 -0.30912766 0.4081878 0.12651992
0.3590936 -0.43098515 -0.69997096 -0.27319816 -0.54236704 0.5802086 0.20366889 0.29289317
0.22363043 -0.012300789 0.5533876 -0.502409

fc2.weight f4 [10, 20]
00000000: 7076 85bd 56d0 6f3e ea00 263e 72e8 4cbe
00000010: 04d5 81be f248 5dbe b4c8 9fbe b8de 79be
00000020: 8828 a0bd 6e89 5a3e 18ce 583d 124c 76be
00000030: 10e3 81be 5017 213e 5ede 70be b07b 1fbd
00000040: 4c56 1b3e d4dd 15be 683c 0dbd f07d e1bc
00000050: 3438 99bd 8d2f 24be e054 90be 45e1 82be
00000060: 4764 2dbe a160 9c3e 9268 1cbe cc73 59be
00000070: 9cfb 9c3d a87e b23d 306c 313e de23 763e
00000080: 5053 343e 5588 a0be 50c0 e53c 3e27 443e
00000090: 806e efbc 9ad1 3ebe 9b5a 9a3e bc3b f2bd
000000a0: 135d 38be 33f8 91be 006e 673c 807e 0f3e
000000b0: b85c 8f3d cc11 803d 3494 75be 5334 97be
000000c0: 8078 b63b 41a2 933e 2cd1 3a3e 9989 3cbe
000000d0: 1023 28bd 76b6 6ebe 8e37 1cbe 3092 6a3d
000000e0: ba54 303e c11e 863e 37a6 94be 5682 583e
000000f0: c062 64be 9484 f23d af03 893e 4082 913b
00000100: 514e 933e 59f4 89be b45e f7bd 0ade 3c3e
00000110: 4619 8dbd 2892 84bd def6 06be 8e35 5f3e
00000120: 58d5 1e3e d488 cf3d 39f9 35be e36d 83be
00000130: d818 0c3d 60e1 bf3d a182 15be e434 b5bd
00000140: 1ab2 5a3e 905c ce3c 00c3 693c 1862 9fbd
00000150: 6e9f 92be 5c3c 98be 1eca 1abe 6d9a 24be
00000160: d8c5 c93d 8a88 bcbd 725e fdbd 575e 9a3e
00000170: fc95 e13d 9ed9 663e 99c3 1cbe c344 04be
00000180: 2808 ee3d 5ac0 57be 3eae 53be 803e 7abc
00000190: 14e1 ecbd 8ec0 72be 3a13 403e 6d33 823e
000001a0: 701f 523d 0886 61bd b9f8 95be c0e4 ebbd
000001b0: e0e0 a43d 9ab0 183e a0be 23bd a605 00be
000001c0: 7c70 343e a8f1 80be 86a8 4c3e c040 fbbd
000001d0: c098 9e3b 38f7 7fbd 7809 1d3d d0b6 c3bd
000001e0: ca74 6b3e 80b1 06bc 86c5 7c3e 07ac 9b3e
000001f0: c6c2 1dbe 463a 6cbe 4de6 813e 6abf 7d3e
00000200: f13f 77be d041 c8bc 8fa9 9fbe cb89 84be
00000210: e82b 7a3d 0c4b ac3d 4849 893d 6443 b0bd
00000220: 8f5f 953e e831 393d 6214 3fbe 00a9 92bc
00000230: bc86 9b3d fccb e23d 08f7 64be 08ba f23d
00000240: aa6e 25be 5289 86be 13df 30be 6d25 9c3e
00000250: a968 8a3e 95fc 903e 9615 3e3e aaa0 743e
00000260: 185f 2dbd 5b2c 32be 22cc 213e e8cb 27be
00000270: 7f88 5abe cecf cebd 80e9 873d 34b3 263e
00000280: 0c8c fbbd 8196 3ebe 08b9 2e3d 5ede 3ebe
00000290: 2dd3 52be 54ca 283e d095 59bd 1df3 933e
000002a0: 7b80 9d3e 08b6 c13d 6ce3 de3d c423 953d
000002b0: c047 a23b 906a bcbc 406b 8e3b c0d7 f13d
000002c0: b589 963e 22d7 a7bd f6e1 08be 94d5 9cbd
000002d0: a771 1cbe f03e 5c3d 7eb6 713e be37 7d3e
000002e0: 3aac 143e ac4e 6ebe 54cb 2dbe ee4a 8ebd
000002f0: d8bf 6ebd e010 d53c a3a0 94be a492 c93d
00000300: f807 77be c4e4 4cbe a59b 86be fd12 8d3e
00000310: 5651 99be e646 743e 002c 2ebc 60a3 16bd
-0.06516731 0.23419318 0.16211286 -0.20010546 -0.2535783 -0.21609858 -0.31207812 -0.24401367
-0.07820231 0.21341488 0.05293092 -0.24052456 -0.25368547 0.1573155 -0.23522326 -0.038936317
0.15169638 -0.14635402 -0.034481436 -0.027525872 -0.07481423 -0.16033764 -0.28189754 -0.25562492
-0.16932784 0.30542472 -0.15274265 -0.21235579 0.07665178 0.08715564 0.17326427 0.2403712
0.17609906 -0.31354013 0.028045803 0.19155595 -0.029227495 -0.18634644 0.3014725 -0.118278
-0.18004255 -0.28509673 0.014125347 0.140131 0.070001066 0.062533945 -0.23982316 -0.29532108
0.005568564 0.28834727 0.18243855 -0.18411864 -0.041049063 -0.23311791 -0.15255567 0.05726832
0.1721982 0.26195338 -0.29033062 0.21143469 -0.22303295 0.118416935 0.26760623 0.004440576
0.28770688 -0.26944235 -0.1207861 0.18444076 -0.06889586 -0.064731896 -0.1318011 0.21797773
0.15511072 0.1013352 -0.17770852 -0.25669774 0.03420338 0.09369159 -0.14600612 -0.08847979
0.21357003 0.025190622 0.014267683 -0.07782382 -0.2863726 -0.2973355 -0.15116164 -0.16074534
0.09852189 -0.0920573 -0.1237153 0.301501 0.110149354 0.22543952 -0.1530899 -0.12916856
0.116226494 -0.2106947 -0.20671937 -0.01527369 -0.11566368 -0.23706266 0.18757334 0.2542986
0.051299512 -0.055059463 -0.29291323 -0.1151824 0.08050704 0.14911118 -0.039976716 -0.12502155
0.17621034 -0.2518437 0.19986162 -0.122682095 0.0048399866 -0.062491626 0.03833911 -0.09556353
0.2299377 -0.00822103 0.24684724 0.30404684 -0.15406331 -0.23069105 0.25371018 0.2478005
-0.24145485 -0.024445444 -0.3118405 -0.25886378 0.06107703 0.084127516 0.067034304 -0.08606604
0.29174468 0.04521361 -0.18660119 -0.017902851 0.07594058 0.11074063 -0.2235986 0.11851889
-0.16155496 -0.26276642 -0.17272596 0.30497304 0.27032974 0.28317705 0.18562922 0.23889413
-0.042327017 -0.17399733 0.15800527 -0.16386378 -0.21341132 -0.10098229 0.066363335 0.16279298
-0.12282571 -0.186121 0.04265693 -0.18639514 -0.2058837 0.16483432 -0.053121388 0.28896418
0.30762085 0.09458548 0.10883221 0.072822124 0.004952401 -0.023000032 0.0043462813 0.11808729
0.29401937 -0.0819533 -0.13367447 -0.07657924 -0.1527773 0.05377096 0.23604771 0.24728295
0.14518824 -0.23272198 -0.16972095 -0.069478855 -0.058288425 0.026009023 -0.29028806 0.098424226
-0.24124134 -0.20009142 -0.26290622 0.2755355 -0.29944867 0.2385517 -0.010630608 -0.0367769

fc2.bias f4 [10]
00000000: 0896 233e 6ea2 2fbe 4aad 243e bc7e d8bd
00000010: 10ee a93d 4208 573e 902b 01bd 00a8 e2ba
00000020: dcdd 52bd 7030 3fbe
0.15975201 -0.17151806 0.1608173 -0.10571048 0.0829736 0.20999244 -0.031535685 -0.00172925
-0.051481113 -0.18670821

fc3.weight f4 [1, 10]
00000000: bcf2 f53a 4860 91b9 689b f63a 8826 0e3b
00000010: 72b2 2abb a04d 973a 3c76 143a 9417 293a
00000020: e89f e539 101d 573a
0.0018764357 -0.0002772829 0.0018814625 0.0021690447 -0.0026046303 0.001154352 0.000566337 0.0006450352
0.00043797423 0.000820593
