runs/actor.pth (torch, 186839 bytes, 5 tensors)

fc1.weight f4 [300, 2]
00000000: a0d6 f33a 190e 32bd a658 1fbd f446 893b
00000010: fc2a 53bc 2247 0fbd 3019 243b 00b0 b1bc
00000020: c816 453c bc31 4f3d f46f 90bc 25f0 4ebd
00000030: 8850 293c 68a4 793c c834 6ebc 0cea ed3c
00000040: 5940 5cbd 6ec5 573d 9510 4ebd d455 9bbc
00000050: b8b2 7fbd 2c20 983b 0448 20bd 9cff 41bc
00000060: 047b 8b3c d054 2fbb ef50 77bc 7a09 623c
00000070: 8b25 acbc da8a 4bba 9a8f 91bd c296 c4bb
00000080: 002a 1f3b 1548 3cbd 3407 9e3c c490 4a3d
00000090: 9c35 b7bc 7c99 1b3d 6690 843c 9e3c 28bd
000000a0: 50b7 12bc f0c9 60bd 7e26 67bd 08d7 5b3d
000000b0: 705e 04bd a09d 6fbc 3008 743b 6c02 4dbd
000000c0: 688f 22be c1a1 213d 43de 21bd 60a6 ccba
000000d0: 49c2 51bd 2224 bcbc 5b43 02bc 3657 213d
000000e0: 90cc 0a3c ac0a 663d f921 133d 9ebb 593d
000000f0: 8086 61bc e49d ae3c e781 0cbd bc44 a5bc
00000100: 0cd8 a6bc 8e1f 9bbb f666 983c 34bb 333c
00000110: 6b8a 00bd 2085 9c3c 80c0 363d 9ca4 d03c
00000120: 74d9 323d b770 febc 2897 503d 4a92 1cbd
00000130: c2f6 3e3d 447a 0dbd 20f5 e83b 34ba dc3c
00000140: bc9b 5fbc eee5 c13c 1c81 34bd 14c1 dcbc
00000150: 8ae0 363d 35ef 643b cafc 28bc a43c f3bb
00000160: 5059 0bbd 32fa 5bbd 12e4 603d f6d7 013d
00000170: aac3 33bc d86b cabc 1a5f 183d 44e5 f73c
00000180: 84a7 2fbd 982a 2a3c 0097 cf39 b00c 5a3d
00000190: 576f f93c af45 13bd d001 603c e4ca 10bd
000001a0: c362 003d eccb 203d 9973 79bd fcd6 673d
000001b0: 281e aa3c 1ecc 693d dca6 92bd 6ed8 4e3d
000001c0: 5cf3 943c 3035 3cbd 686a 0cbc 12e1 36bd
000001d0: 04aa a23c a26b 9abc ff4a 193c cec4 f6ba
000001e0: d827 d83c 4af2 443d ac47 2abd 9497 6c3d
000001f0: c0d1 3e3d 1f8c 2fbd 3a23 b83c fb02 95ba
00000200: 1c71 4dbd 56d7 243d 9687 a2bd 43bc 783c
00000210: 1516 a7bc 71c9 3f3d bae1 90bd aa0a 6b3d
00000220: 2a09 26bd f02c 57bb 7ee1 123d f49a bf3c
00000230: 7057 dc3c f8d6 973b b36d e4bc 7a5d 8e3c
00000240: 0d8d 5abc c48e b2bc f1b5 1a3d c6a0 1a3d
00000250: d491 86bc c21e 3ebd 1056 2fbb ca5c fa3a
00000260: 1000 43bd 6ae8 373d 409c f33b 1591 10bd
00000270: 5a26 1d3d d0e0 203b b0f1 aa3c d8ef 5e3d
00000280: 6847 8bbd dcd7 ddba d0de d73c 9c9c 9ab9
00000290: 9006 4dbc 00f2 0e3c 394f 8ebd 40e1 373d
000002a0: 7aaf 63bd 454e 01bd bef1 3c3b 5d39 cdbc
000002b0: 7ca8 c23c f6ce 9cbc d097 063d 104b 583d
000002c0: c472 5ebc 24b9 37bd d0a0 343b da9d 283d
000002d0: 364c b7bc 7cba 4ebc 3268 0b3d 80ce 073c
000002e0: 8481 88bd ea10 14bc 0ed4 d23c b893 19bd
000002f0: 4233 183d f2e7 823c 5e6d 69bc 2006 cbbc
00000300: 580f 253b 8ebd a73b 4241 433d 29b9 fcbb
00000310: 16b5 afbc da9e 053d 0310 b4bb 56d5 cdbc
00000320: 44f5 27bc 27a3 1fbd 97b6 33bd 0fa1 edbc
00000330: 5449 a73c fe33 4fbd 98df 07bc b086 3c3d
00000340: 0c69 76bc e624 2ebd cdf8 fcbc ac28 c13c
00000350: 685c 463c 8d51 e2bc bf34 4e3c b4b5 0c3d
00000360: a0bc 083b 8e1e 0b3d 5fe8 363c 0288 82bc
00000370: 4632 f23c b8bc 6b3d 4c13 7abd 1d23 4dbd
00000380: f5d6 f63c a8e2 ce3c 30c6 f93b 304d 473d
00000390: 9ee4 c0bc 61e8 043d 4030 e03b 4eee 773d
000003a0: 827c 08bd e3dd d73c 62ee 9dbc f147 17bd
000003b0: 4afc 4b3d c4e1 abbc 00c4 413a 47a1 4ebd
000003c0: e436 e03c 70e4 3ebb d4e9 92bd 7411 2abd
000003d0: e849 dc3a 003b d3bb 1e04 77bd 5f54 b3bc
000003e0: c8b7 d53c f0cf abbb 9483 303d c8a9 e83c
000003f0: 0e51 86bd 125c 0d3d 800b 9d3b 3043 8c3b
0.0018603392 -0.043470476 -0.0389029 0.0041893665 -0.012888666 -0.034979947 0.0025039427 -0.021690369
0.012029357 0.05058454 -0.017631508 -0.05052199 0.010334142 0.015236951 -0.014538951 0.029042266
-0.053772304 0.052678518 -0.050308783 -0.018961824 -0.0624263 0.004642507 -0.03913118 -0.011840727
0.017026432 -0.0026753433 -0.01509498 0.013796205 -0.021013996 -0.0007764526 -0.07107468 -0.005999417
0.0024286509 -0.04596718 0.019290544 0.049454466 -0.02236443 0.03798817 0.016182136 -0.041073434
-0.008954838 -0.054880083 -0.056433193 0.053671867 -0.032316625 -0.014624983 0.0037236325 -0.050051138
-0.15875018 0.0394609 -0.039518606 -0.0015613548 -0.051210675 -0.022966448 -0.007950629 0.03938981
0.008471623 0.05616252 0.03592107 0.05315744 -0.013764977 0.021315522 -0.034303572 -0.020174377
-0.020366691 -0.004733986 0.018603783 0.010969926 -0.031382006 0.019106448 0.044617176 0.025469117
0.04366441 -0.031059606 0.050925404 -0.03822545 0.046622045 -0.03454043 0.0071092993 0.026944257
-0.01364797 0.02366921 -0.04406844 -0.026947536 0.04464773 0.0034932618 -0.010314176 -0.0074230004
-0.034020722 -0.0537054 0.054905005 0.031700097 -0.010971943 -0.024709627 0.03720007 0.03026069
-0.042884365 0.010386132 0.0003959462 0.053234756 0.030448599 -0.035955127 0.013672307 -0.03534974
0.031344187 0.039256975 -0.06090126 0.05660151 0.020766333 0.057079427 -0.07160732 0.050499372
0.018182449 -0.04594916 -0.008570291 -0.044648238 0.01985646 -0.018850151 0.009356259 -0.0018826963
0.026386186 0.048082627 -0.041572258 0.057761744 0.046586752 -0.04285824 0.022477735 -0.0011368686
-0.050156698 0.040244423 -0.07936017 0.015181604 -0.020396272 0.04682297 -0.07074304 0.057383217
-0.040536083 -0.0032833181 0.035859577 0.023389317 0.026897162 0.0046337806 -0.02788434 0.017378557
-0.013339293 -0.021796592 0.03777117 0.03775098 -0.016426958 -0.04641605 -0.0026754178 0.001910114
-0.04760748 0.04489938 0.007434398 -0.03529461 0.038366653 0.0024548061 0.020867199 0.05442795
-0.06800729 -0.0016925293 0.026351362 -0.00029489852 -0.012513772 0.0087246895 -0.06948704 0.04489255
-0.05558727 -0.031568784 0.0028830613 -0.025051767 0.02376198 -0.019141655 0.032859623 0.05280596
-0.013577167 -0.0448543 0.0027561672 0.041166164 -0.022375207 -0.0126177035 0.034034915 0.0082889795
-0.06665328 -0.009037236 0.025735881 -0.03749439 0.03715826 0.01597974 -0.014247267 -0.024783194
0.0025186148 0.005119032 0.047669657 -0.0077125025 -0.021448653 0.032622196 -0.005495073 -0.02512614
-0.010251347 -0.038973954 -0.043875303 -0.029007463 0.020420708 -0.050586693 -0.008293055 0.046026886
-0.015039694 -0.042515658 -0.030880356 0.023578964 0.012106992 -0.027626777 0.012585818 0.034352973
0.0020864382 0.033964686 0.0111638 -0.015933994 0.029564988 0.057553023 -0.06105356 -0.050082315
0.030131796 0.025254562 0.0076225027 0.048657596 -0.023546513 0.032448176 0.0068416893 0.06053
-0.033321865 0.026350921 -0.019278709 -0.036933843 0.04980115 -0.020981677 0.0007391572 -0.050446775
0.027369924 -0.0029127859 -0.071735054 -0.04152055 0.0016806694 -0.0064462423 -0.06030666 -0.021890817
0.02608861 -0.005243294 0.043094233 0.02840127 -0.06558429 0.034511633 0.0047926307 0.0042804703

fc1.bias f4 [300]
00000000: a81f c3be 4ab8 c83e 5e52 2bbf 4909 8cbe
00000010: 5810 0dbe 3cd2 19bf 5737 e6be a85d ecbd
00000020: 1f50 0d3f 9efb 323f 7c5b f03e 962e d8be
00000030: 76da ecbe 0920 203f 4180 893e 558b 233d
00000040: 84a4 ee3d 127c 11bf 46c2 71be 401b 313f
00000050: b094 32be 904a 0abd 554e 16bf ea86 cabe
00000060: 9368 ec3d 3ce2 e0be c895 b3bd d4d6 993e
00000070: aa11 31bf 48b2 5f3e 0762 efbe 80b1 b0be
00000080: 5d93 943e 4145 133f 88e5 45be 52a4 94be
00000090: 26af 23bf 22b0 babe d981 1ebf 50b8 25be
000000a0: ea08 293e b697 29bf caca 203f 2e33 ec3e
000000b0: 4835 31bf efeb acbe d128 783e c4c4 14be
000000c0: 98d0 9dbd 5477 a3be 8e6a 153f 0461 cabe
000000d0: bc55 1a3f 14a5 923d bda6 1d3e 699f 133f
000000e0: 289b eebd d21f cebe 5837 eabd ccaa 183f
000000f0: 6650 06bf a02d 323e 7de7 31bf a303 c23e
00000100: 940c 8e3e 999b 8b3d b841 a33e 08f4 a33c
00000110: e276 d03e 724c 0fbf 48aa d4bd f070 a63e
00000120: e086 373f 50f0 c13e f4a1 03bf ba46 0f3f
00000130: cc77 21be d899 1abe bd87 24bf d8f5 e3bd
00000140: ea96 033f e640 f13d f0de d2be ba72 6d3e
00000150: dc2b 68be 2602 293f d71d 1dbf e4b7 64be
00000160: 98c9 2ebf ee94 8ebe 384a 6e3e 5a84 323f
00000170: 3747 073e bfbf 333f 8b73 203e eaa7 d63e
00000180: 7c63 163f c1f0 183f 42a4 cabe 47bf 283f
00000190: 5ab4 e23e 1c48 a9be 1dc4 acbe 4bd4 17bf
000001a0: dfe1 443e 9fb9 12bf 1278 a33e 1840 7a3e
000001b0: 1e45 1dbf ccfc 513e 7e3b 6bbd 8e6d ac3e
000001c0: f940 db3e a0f5 33bf 7875 2a3f 8058 1d3f
000001d0: 1851 963e d371 25bf e653 81be 14d8 51be
000001e0: 1c16 3abe ae26 d53e ac78 8b3e 4a0d 133f
000001f0: 8597 87be 56bb 7d3e 367d 883e 0cb7 16bf
00000200: a497 2fbf a0db bbbe 0325 ff3e 226c 2abf
00000210: bb90 1dbf 4f43 d03e 3e60 ca3e 5c2b 193f
00000220: 94a8 08bf ee7c 04bf 38bb c03e 2af8 1f3f
00000230: 7ce6 e03e 1e1c 013e 10c5 7e3e 10af 313f
00000240: c396 e9be ad5e a4be 1240 033f a0b8 f7be
00000250: f7a1 c7be 2eb7 073f 64d6 773e b169 763e
00000260: 5572 99be ae58 21bc 83f2 273f 894d d9be
00000270: c0d6 f538 740c b63e 87ef f9be 4e2e 333f
00000280: dbe0 b4be 88e0 2dbe f0e9 43be fcec ebbe
00000290: bca0 31bf 60ca d63e c2a3 5a3e f88a 29bf
000002a0: 8e04 e9be 947c 353f f5e5 8f3e 706f 9c3e
000002b0: 679b d8be 62b7 9ebe e09a dabd 506b 04be
000002c0: 1f16 f8be 7476 b13d 69bd b33d e85d b7bd
000002d0: b009 023e 877e 8fbe 000b 4d3e ef5d 943e
000002e0: 2cb3 bebe b77e 33bf 1a2a c33e 6ad2 3d3e
000002f0: e620 b8be aa6e 313f 33bb a3be 5cbf fd3e
00000300: 986c be3e a1c4 17bf eade ed3e 4071 26bf
00000310: 2293 c8be d06d f1bd e907 f4be aef6 353f
00000320: 343c 11be 3e69 933e 63a2 21bf b25b d73e
00000330: 0e08 61be 3ab2 09bf 3275 ed3d 6412 b73e
00000340: aa6c 1e3f 6c21 ddbe 2929 b2be 3ce9 1e3e
00000350: 98aa 503e 341e 923e 64be d23e ec2f 24be
00000360: 70d3 cd3e 6c93 083f 0425 3dbe 7451 033f
00000370: 88ee b93e 68cd 213f b4bc cdbe 27c7 b2be
00000380: e45b 51be d5ff 483d 646e df3e a2ac cebe
00000390: c26d bb3e 78bf 81be da3b e13e 4082 09bd
000003a0: b396 1ebf d535 c7be 5b03 03bf 6bba b73e
000003b0: aec3 f2be bc6a 71bd 368d 283e 438a c6be
000003c0: 2a0f 573e 63c0 30bf 5785 01bf 9e06 24bf
000003d0: 5a04 5bbe c6e3 83be bb55 f03d 74e4 05be
000003e0: f18c b33e 00ee 273f fac7 883e a8a1 8ebe
000003f0: 0081 29bf bc5a 883e fa5f b3be ac7d bb3e
-0.3811009 0.392031 -0.6692256 -0.27350834 -0.13775766 -0.6008642 -0.44964096 -0.11541301
0.5520038 0.6991519 0.46944797 -0.42223042 -0.46260422 0.6254888 0.26855662 0.0399278
0.116524726 -0.5682994 -0.23609266 0.69182205 -0.17439532 -0.033762515 -0.58713275 -0.39556056
0.115433834 -0.43922603 -0.08768803 0.30046713 -0.6916758 0.21845353 -0.46754476 -0.34510422
0.2901868 0.5752755 -0.1932584 -0.29031616 -0.6393913 -0.36462504 -0.6191688 -0.16183591
0.16507307 -0.6624712 0.6280943 0.46132797 -0.69221926 -0.33773753 0.2423432 -0.14528185
-0.07705802 -0.31926978 0.58365715 -0.39527142 0.6028707 0.071603924 0.15395637 0.57665116
-0.116506875 -0.40258652 -0.11436337 0.59635615 -0.5246643 0.17400217 -0.6949385 0.378934
0.2774397 0.06816787 0.31886077 0.020013824 0.407157 -0.5597602 -0.10384041 0.3250804
0.7169018 0.37878656 -0.51418996 0.55967295 -0.15768355 -0.15097749 -0.6426962 -0.11130875
0.5140215 0.117799565 -0.41185713 0.23188296 -0.22672981 0.66018903 -0.61373657 -0.22335774
-0.6827636 -0.27848 0.232705 0.697332 0.1321076 0.70214456 0.15669076 0.41924983
0.5874555 0.5974236 -0.39578444 0.65916866 0.44278222 -0.33062828 -0.33743373 -0.5930831
0.19226788 -0.57314485 0.31927544 0.24438512 -0.6143359 0.2050659 -0.057429783 0.33677334
0.42823008 -0.7029667 0.66585493 0.61463165 0.29358745 -0.64626807 -0.25259322 -0.20492584
-0.18172497 0.41631073 0.27240503 0.5744215 -0.26482788 0.24778494 0.26658028 -0.5887306
-0.6859076 -0.36690998 0.49832925 -0.6657125 -0.61548966 0.40676352 0.39526552 0.59831786
-0.5338223 -0.5175313 0.37642837 0.62488043 0.43925846 0.12608382 0.24879861 0.6940775
-0.45622835 -0.32103482 0.5126964 -0.48383045 -0.38990757 0.53013885 0.24202877 0.24063756
-0.2997004 -0.009847803 0.6560442 -0.42441967 0.00011722511 0.35556376 -0.48815557 0.6999253
-0.353278 -0.16980183 -0.19132209 -0.46079242 -0.69385886 0.41951275 0.21351531 -0.66227674
-0.45511287 0.70893216 0.2810513 0.3055377 -0.42306063 -0.30999285 -0.10674071 -0.12931561
-0.48454377 0.08665171 0.087763615 -0.08953458 0.12699008 -0.2802622 0.20023727 0.28977916
-0.37246072 -0.70115227 0.38118058 0.18537298 -0.359626 0.69309485 -0.3197876 0.49560058
0.37192225 -0.59284407 0.46459132 -0.65016556 -0.39174753 -0.11788523 -0.47662285 0.7107953
-0.14183122 0.2879123 -0.6313841 0.42062145 -0.21975729 -0.5378758 0.11594619 0.35756218
0.6188456 -0.4318956 -0.34797028 0.1551866 0.20377576 0.28538668 0.41160882 -0.16033906
0.40200377 0.5334995 -0.18471152 0.5129616 0.36314797 0.6320405 -0.40183032 -0.34917566
-0.2044521 0.049072105 0.4363891 -0.40366083 0.36607176 -0.25341392 0.43990976 -0.03357148
-0.619487 -0.38908258 -0.51176995 0.35884413 -0.47414917 -0.05893968 0.16460118 -0.3877736
0.21001878 -0.6904356 -0.50594085 -0.640726 -0.21388379 -0.25759715 0.11735102 -0.13075429
0.35068467 0.65597534 0.2671507 -0.2785771 -0.66212463 0.26631725 -0.35034162 0.36619318

fc2.weight f4 [150, 300]
00000000: 18b0 773c 8634 2e3d 3cfc 913d acd7 7fbd
00000010: 182d 29bc 52f0 833d 5392 8dbd 40dd 26bc
00000020: 0057 2dba 103c 8cbd 4c35 82bd 328c 2e3d
00000030: 52ed aabc 149f 81bd 4e3b 8d3d 1456 2d3d
00000040: 7a77 9d3d 84c9 49bd eccd b5bc cc58 9b3c
00000050: 4772 9fbd c04a b13b 603c 22bc 6ecb 2e3d
00000060: 1405 27bd 2f31 09bd 74f5 813d 9c15 11bd
00000070: ce78 0bbd 70fb 493d 78e5 0a3d 8828 ab3c
00000080: cad4 0f3d e4aa 93bc 50d8 66bd 8850 6ebc
00000090: 08b8 96bc 7a2c 303d c930 0ebd 3c1a 80bc
000000a0: 64c9 803d 484e 42bc e025 4ebb de73 2fbd
000000b0: 3035 4dbc f8f8 84bc 744a 423d 6444 96bd
000000c0: aed0 51bd 70ae 09bc 6eb0 a1bd b810 59bd
000000d0: c0dd c63a f005 973d 2055 4bbb 00b4 e438
000000e0: 089d 5f3d 9c27 93bc 04e8 a53d f086 eebb
000000f0: c4b9 c3bc 6600 57bd ba8b 67bd 3006 51bd
00000100: 34a5 9cbc 4018 3dbb 68a3 323d 42d9 0a3d
00000110: 98d0 093d cc25 8d3c d856 443d a8ba 68bd
00000120: 649d f7bc 1076 72bc 5867 fb3c c0b1 813b
00000130: 74a4 693d c08d 223d ca6f 873d c8da 003c
00000140: f02d a2bd 1697 153d a835 85bd 0095 163a
00000150: 4c02 8a3d b0b1 86bb 64fd 00bd aed9 8f3d
00000160: 1459 d7bc 7424 2c3d 2299 913d 50e2 e63c
00000170: dc07 343d 68da a6bd 22ca d0bc c825 35bc
00000180: 2424 9e3d 643a 923c 21d3 63bd 9c5d 8ebc
00000190: 4086 3fbb 7822 d73c a683 89bd fe40 9c3d
000001a0: 76ab 86bd ba5f 90bd 4cd9 663d 2055 673c
000001b0: 0073 c2b9 9834 87bd b634 a33d accc bd3c
000001c0: b0a8 14bc ced3 a5bc b08b 353c ac25 513d
000001d0: 947b 78bd fa9a c9bc 007a 963a d200 8c3d
000001e0: 785f 07bc d8ed 5f3d f898 983d 22f2 1b3d
000001f0: ce0e 69bd 96ab 23bd 007b 63ba bef3 b3bc
00000200: 12e9 8b3d d0d0 063d e0b0 5fbb 3862 6f3d
00000210: d65c a33d 0a72 17bd 60f5 423d 1cf3 81bc
00000220: 94d0 a43d 284c 153c 0851 a73c 120b 9ebd
00000230: ccc6 453d b8ad 6c3c 200d 273b a847 af3c
00000240: d413 513d 31c4 03bd cc68 9e3d 509c a33c
00000250: 04ae b83c c474 983d b8e5 72bc 10c9 4dbc
00000260: d0f7 793d ce1d e0bc 2859 7b3c 8811 903d
00000270: 486f 453d 54d4 a13d dce2 1f3d dc19 7e3d
00000280: 1cfc 483d ce7c a23d 8388 06bd 582b 54bd
00000290: f865 503c 0440 0a3d 4009 7abd 28bd dcbc
000002a0: 9e78 203d 5e9f 9dbc a6ba d7bc 3075 303d
000002b0: d0a3 69bc c09e adbc ab7b 47bd 805c 423a
000002c0: 463c b5bc 3672 0dbd 7a7a babc c39e 10bd
000002d0: 106c 3abc a20a 903d f8a3 68bc 1208 11bd
000002e0: a68c cebc 9c0e f1bc ba28 12bd f69d 8bbd
000002f0: a41d 843d 9287 42bd a400 3b3d a87c 7c3d
00000300: d2ef 153d c60b 0a3d 86c3 263d 4aca 79bd
00000310: 021c 9bbd 9068 95bd 40c3 953c ece2 fb3c
00000320: e4a6 a03c a009 7cbd 240c 8fbc 40cf aebb
00000330: 18d4 993d 4cfa f03c 5280 b9bc 8aba 4abd
00000340: d8b2 95bd d003 a5bb 48c1 543d 5056 51bc
00000350: 1cbc df3c 3021 ecbb 62ca 32bd 8e79 1a3d
00000360: 1029 393d aa24 953d ba20 71bd c67d b6bc
00000370: 9845 813d 00d2 4eb9 7461 7f3d 3649 143d
00000380: d4fa d13c ae0d 75bd bc87 993d 1ec2 ecbc
00000390: 3688 98bd 2d01 67bd c89d 8c3c ec5e a43d
000003a0: d86d 743d 40c0 58bc 20a5 b63c 50a0 abbc
000003b0: 9897 34bc 60cb 0abb 70f9 9e3d d9e8 75bd
000003c0: 5c81 cbbc 40bf adba 323a fdbc 2689 9ebc
000003d0: 28a6 11bd a080 cc3c 949b 98bd 1090 943b
000003e0: d808 b13c 38af 753d 68ff a83c d013 113c
000003f0: 8250 d9bc b477 9ebd 99f0 15bd 2806 3f3c
0.015117668 0.04253056 0.07128188 -0.06246154 -0.010325693 0.06442322 -0.06912675 -0.010184586
-0.000661239 -0.068473935 -0.06357822 0.04261417 -0.020865116 -0.0632917 0.06896077 0.04231842
0.07688804 -0.049264446 -0.022192918 0.01896324 -0.077854685 0.005410522 -0.00990209 0.042674474
-0.040776327 -0.03349417 0.063456446 -0.035421 -0.034050755 0.049312055 0.033910245 0.02089335
0.03511504 -0.018025823 -0.056358635 -0.014545567 -0.0183983 0.043011166 -0.034714494 -0.01563751
0.06288412 -0.011859484 -0.003145568 -0.04283511 -0.012524888 -0.016231999 0.047434285 -0.07337263
-0.051224403 -0.008403406 -0.078949794 -0.05299446 0.0015172288 0.07374179 -0.003102608 0.00010905415
0.054593116 -0.017963223 0.08100894 -0.0072792694 -0.02389229 -0.052490614 -0.056529738 -0.05103129
-0.019121744 -0.0028853565 0.043612868 0.0338986 0.033646196 0.017229937 0.047934383 -0.056818634
-0.030226417 -0.014798656 0.030688927 0.003957957 0.0570416 0.039685965 0.06613119 0.0078646615
-0.07918918 0.03652104 -0.06504375 0.00057442486 0.06738719 -0.0041105375 -0.031491652 0.07023941
-0.026287593 0.042026952 0.07109286 0.028184086 0.043952808 -0.081471264 -0.02548701 -0.011056371
0.07721737 0.017850108 -0.05562127 -0.01737862 -0.0029224306 0.026261553 -0.06714563 0.07629584
-0.06575672 -0.070495084 0.056359574 0.0141194165 -0.00037088245 -0.06601828 0.07969038 0.023168884
-0.009073421 -0.020242598 0.011080667 0.051061317 -0.06066473 -0.024610031 0.0011480451 0.06836094
-0.008262508 0.054670185 0.074510515 0.038072713 -0.056898884 -0.03995856 -0.0008677691 -0.021966811
0.06831564 0.032913983 -0.0034132525 0.058443278 0.079766914 -0.03697399 0.04759729 -0.015862994
0.080475956 0.009112395 0.02042438 -0.07716955 0.04828529 0.014445715 0.002549 0.021396473
0.0510443 -0.032169525 0.07734832 0.019971997 0.022543915 0.07444146 -0.014825277 -0.012560144
0.061027348 -0.027357962 0.015341081 0.07034594 0.04820183 0.079018265 0.03903471 0.06203638
0.049068555 0.07933961 -0.03284503 -0.05179915 0.012719624 0.033752456 -0.061043978 -0.026945665
0.03917753 -0.019241031 -0.026334118 0.04308051 -0.014260247 -0.021193862 -0.048701923 0.0007414296
-0.022123467 -0.03453275 -0.02276348 -0.035307657 -0.011378303 0.07033278 -0.014199249 -0.035408087
-0.02521355 -0.029425912 -0.03568337 -0.06817238 0.06450966 -0.04749257 0.045654908 0.06164232
0.036605664 0.033702634 0.04071381 -0.060983934 -0.075737014 -0.07295334 0.018281579 0.030747853
0.01961083 -0.061532617 -0.017461844 -0.0053347647 0.07511157 0.029416226 -0.022644196 -0.049494304
-0.07309502 -0.005035855 0.05194214 -0.012776926 0.027311377 -0.0072061047 -0.04365004 0.03771358
0.045205176 0.07282384 -0.0588691 -0.02227677 0.06312102 -0.00019723922 0.062348798 0.036202632
0.0256323 -0.0598275 0.074965924 -0.028901156 -0.07447855 -0.056397606 0.01716508 0.080259174
0.059675068 -0.01322943 0.022295535 -0.020950466 -0.011022471 -0.002117835 0.0776242 -0.060036514
-0.024841957 -0.001325585 -0.030911539 -0.019352507 -0.03555885 0.024963677 -0.07451549 0.004533775
0.021610662 0.059981555 0.0206296 0.008854821 -0.026527647 -0.07737675 -0.036606405 0.011659183

fc2.bias f4 [150]
00000000: 628b 4f3d 2c99 3dbd a4a6 1ebd b711 9d3c
00000010: f067 2fbd 682e ba3a f8e8 59bd dc67 823c
00000020: a67d cfbc 2823 883c 70f2 533d a449 d93c
00000030: 5bee 64bd 006c 76bc 64f7 f33c 6143 633d
00000040: 8cad 413d 21b2 803c 3ea4 153d b428 46bd
00000050: 9c11 3dbd c204 96ba 3409 00bd ad02 89bb
00000060: be96 bc3d 60bc 48bd ac91 1e3c e841 b13d
00000070: a029 5c3c 3431 4fbc 94fa d9bc c2dd 603d
00000080: f33b 973b b2e6 b8bc 5296 343d 60f4 c43b
00000090: 821e 393d a82b 8dbc de9d 873c 8eef 613d
000000a0: 2443 3d3d 2c00 1ebc bc82 5b3d 6cc4 1e3d
000000b0: 38a7 82bb 84bf 493d 58ce db3c 0f58 2abd
000000c0: 208c e73b dcab 18bd ae0c 97bc b418 6cbd
000000d0: ffc7 bf3c 8056 07bd c4b5 d93c 4623 f8bc
000000e0: c17a a13c 5ae7 39bd 7cd0 3ebc dc88 543c
000000f0: 62b3 133d 4fa1 5abd a241 e73d ae18 3a3d
00000100: 0bda 52bc 1809 68bd 3ad0 0ebd aa22 44bd
00000110: ea07 403d c315 86bc 1af8 323d 3cd3 08bc
00000120: fa2a ba3c d061 093d 8225 663d 2eff 3a3d
00000130: 9010 cb3c 98ee 3cbd 7130 a13d b5c1 b5bc
00000140: 94f7 3bbc ec3d 083d 017e 743d 741a 223d
00000150: 6bb2 4e3d 26b8 143c 3099 40bd d055 4cbc
00000160: 9c89 2d3d 53c4 493d c80d 39bc 34d1 5c3d
00000170: 5aba 133c 6022 03bd 38fa f4bc 99d2 233c
00000180: 3ca6 a13b 2a81 66bd 322d 3cbd e17c afbc
00000190: eaa5 743d eed4 4cbd 0674 5b3d 7660 893d
000001a0: f6f8 57bd df04 4cbd 092a 38bd 5623 4a3c
000001b0: f822 1fbd 2ec2 1d3c 81f6 fdbc 9434 c73c
000001c0: 1dad 5d3d 5f3b 25bd c07b b139 94d4 2cbd
000001d0: 1ea4 3b3d 54b7 313c aa49 8dbc a43d 11bd
000001e0: 808e 253d 2d1c b03c d297 203d c40a 333c
000001f0: 6f20 393d 5086 a73c b052 e7bb 1e82 5bbd
00000200: 9e40 833d 150f 2e3d 130e 953c e4f8 893d
00000210: aa69 5f3d 7c52 b83c 4e2a 66bd 4cfc 0dbd
00000220: a04a 313c f8ce d7bc 986a db3c 0e7d febc
00000230: 71a6 1e3c 9029 32bd 82db 63bd c326 3b3d
00000240: b878 403d c681 203d c4e8 8a3c c06b 953a
00000250: 9a11 d4bc 08c5 24bd
0.050670035 -0.046288654 -0.03873314 0.019173486 -0.042823732 0.0014204504 -0.053200692 0.015918665
-0.025328469 0.016618326 0.05174488 0.026524372 -0.055891376 -0.015040398 0.029781051 0.05548418
0.047284648 0.015709938 0.036533587 -0.04837866 -0.04615937 -0.001144551 -0.031258777 -0.004181227
0.09208439 -0.049007773 0.009678286 0.08655149 0.013437659 -0.012646008 -0.026608743 0.054898985
0.004615301 -0.022570942 0.04408867 0.006010577 0.04519511 -0.017232731 0.01655477 0.055160098
0.04620661 -0.009643596 0.053591475 0.03876154 -0.003987219 0.04925491 0.02683179 -0.041587885
0.0070662647 -0.037273273 -0.018438663 -0.057640746 0.023410795 -0.033041477 0.02657593 -0.030290257
0.019711854 -0.04538665 -0.011646386 0.012972083 0.036059745 -0.053376492 0.11291815 0.045433693
-0.012869368 -0.056649297 -0.03486655 -0.04788462 0.046882547 -0.016367799 0.04369364 -0.008351143
0.022725571 0.033540547 0.056188114 0.045653515 0.024788171 -0.04612598 0.078705676 -0.022187093
-0.011472601 0.03326218 0.05969048 0.03957601 0.05046312 0.0090771075 -0.04702109 -0.012471631
0.042367563 0.049259495 -0.01129479 0.05391045 0.009016598 -0.032015204 -0.02990447 0.009998941
0.0049331468 -0.056275524 -0.04594154 -0.021421852 0.05972854 -0.050007753 0.053577445 0.067078516
-0.052727662 -0.049809333 -0.044961963 0.012337526 -0.03885171 0.009628816 -0.031001331 0.024317063
0.05412017 -0.040339824 0.00033852272 -0.042194918 0.04581081 0.0108469315 -0.01724704 -0.035459176
0.0404191 0.02149781 0.039207287 0.01092786 0.045196947 0.020449787 -0.0070594177 -0.053590886
0.06408809 0.042494852 0.018195188 0.06736925 0.05454413 0.02250027 -0.05619269 -0.034664437
0.010821015 -0.026343808 0.026784226 -0.03106549 0.009683237 -0.04349667 -0.05562926 0.045691263
0.046990126 0.03918626 0.016956694 0.001139991 -0.0258873 -0.040226966

fc3.weight f4 [1, 150]
00000000: 709b 6439 dcc9 f23a 6eb1 1c3b ece9 983b
00000010: 339c 07bb cc8e c93c f020 843a c4b5 20ba
00000020: 790f 993b 424c 843b 8a82 043d 4eee 963a
00000030: 02ba 033a e446 0fba cc14 f23a 8ebe 8f3b
00000040: 064d f33a 4a57 f03b 4c24 75ba 441f 073c
00000050: eee1 2bbb 51bf ab3a 907c 753a 7e79 893b
00000060: 3622 213d 34f9 66ba 2ee4 fc3b ce91 3c3d
00000070: 3e64 84ba 28f7 d03a 462e b2ba c849 b0ba
00000080: 88b7 0b3c 78e2 5c3a 0cdd c63c 776d 1f3c
00000090: c82b 7b3a 0027 33b7 483e 073c 14cc f03a
000000a0: b0f3 a039 b088 b13b 6027 07bb f0fe bab9
000000b0: a8a6 8739 db29 cf3a 59d1 313b 2c1f a03c
000000c0: e8e9 9639 0eb1 2e3a 94fd e73a 2ee8 3a3b
000000d0: 382e 083c 6874 4aba e528 0f3c 331a 9e3b
000000e0: 9ae8 ba3b 8ca0 103c 0004 ec37 a546 503d
000000f0: da0d 223b 7cf2 943a 8ea2 7a3d 2041 803a
00000100: 1201 993b 126f 1cbb 2c8c 0e3b 22d4 aa3b
00000110: 442f 223c 5c2b ac3b 0013 8bb7 6d4a d2ba
00000120: b3a5 023c b476 d63c 6d3a 3bbb ac40 183a
00000130: 807c 26ba 6096 daba 84c1 0d3d f817 783a
00000140: 90d4 09bb b662 1cbb 3e09 973b 9bdb 36bb
00000150: a213 fe3a 66f4 933c ace8 5aba 625c 2cbb
00000160: 2890 db3b 606c dfb9 4a78 9fba 6464 953a
00000170: 904a a03b 61e0 5f3b 3adf 9e3b 2b84 3b3a
00000180: 0252 573c 4250 2abb 5823 a13b 7a08 16bb
00000190: 3d7f 0b3c f8cd 1b3b 7912 923d 5ab0 ba3d
000001a0: 2cf1 a53b cc22 cdba 52d0 d23b 982a a03b
000001b0: 8c70 dcba 808f 0437 3894 cc3a 22a6 25bb
000001c0: 528c f43b ec29 053b 0d90 0c3d 00a6 a6b8
000001d0: faef 9e3b 45ba 6d38 d8d2 fbb9 4ff9 483b
000001e0: 9379 d53b c50a ed3b 116e 073c d4aa 883d
000001f0: 2b33 7f3c 6f38 0ebb a023 c5b9 af3c 8739
00000200: 4ae6 e03c 7472 9b3b 486d 853c 48e9 b53c
00000210: 36ba ca3b c093 02bb 0a9b 073b 7d17 ea3b
00000220: 948d e43a df69 3a3c 7c03 b03b 0407 d23a
00000230: ba6f a0ba cafe 98ba f0d6 18ba 3087 dd3b
00000240: b613 203b f436 613a 5cf6 39bb 6e88 003b
00000250: 0499 a43b d40e a83a
0.0002180168 0.0018523294 0.0023909467 0.0046665575 -0.0020692467 0.024604224 0.0010080617 -0.0006130601
0.004671034 0.004037411 0.032351054 0.0011515112 0.0005024971 -0.00054655806 0.0018469333 0.0043867296
0.0018562383 0.0073346244 -0.0009351417 0.0082472 -0.0026227194 0.0013103281 0.00093645696 0.004195391
0.039339267 -0.0008810938 0.007717631 0.046037488 -0.0010100675 0.0015942799 -0.0013594113 -0.0013449723
0.008527644 0.00084260805 0.024275325 0.009730688 0.0009581414 -1.0678312e-05 0.008254595 0.0018371367
0.0003069914 0.0054179057 -0.0020622835 -0.00035666628 0.00025873375 0.001580532 0.0027132838 0.019546114
0.00028784503 0.00066639564 0.0017699474 0.0028519738 0.008311801 -0.00077230344 0.008737777 0.0048249005
0.005703998 0.00882734 2.8135255e-05 0.050848622 0.0024727494 0.001136377 0.06119018 0.0009785034
0.004669317 -0.0023869914 0.002175103 0.0052132765 0.009898964 0.0052541923 -1.6578939e-05 -0.0016043909
0.007974076 0.026179649 -0.002856876 0.00058079767 -0.00063509494 -0.0016676895 0.03460838 0.0009464021
-0.0021031238 -0.0023862547 0.004609256 -0.002790189 0.0019384513 0.018060874 -0.0008350711 -0.0026300182
0.0067005344 -0.0004261462 -0.0012166586 0.0011397717 0.004891701 0.003416084 0.004848388 0.00071531784
0.013142111 -0.0025987779 0.0049175434 -0.0022893236 0.008514223 0.002377389 0.0713243 0.09115668
0.0050641503 -0.0015650629 0.006433525 0.00488789 -0.001681821 7.901224e-06 0.0015608137 -0.0025276025
0.0074630165 0.0020319177 0.034317065 -7.946417e-05 0.004850385 5.667868e-05 -0.00048031542 0.0030666178
0.006514737 0.00723395 0.008265988 0.06673208 0.015576164 -0.0021701118 -0.0003760131 0.0002579442
0.02745356 0.0047438685 0.01628746 0.022205964 0.006186749 -0.0019924492 0.0020691776 0.0071439133
0.0017437213 0.011377781 0.005371509 0.0016023819 -0.0012240328 -0.0011672613 -0.0005830368 0.0067605004
0.002442581 0.00085912575 -0.0028375601 0.0019612568 0.0050231237 0.0012821802
