runs/actor.pth (torch, 491927 bytes, 6 tensors)

fc1.weight f4 [400, 3]
0	0xbbb010b3	-0.0053730845
1	0x3d18d610	0.03731352
2	0x3c00375a	0.007825697
3	0x3d3ce4c3	0.0461166
4	0x3cdd6457	0.027025385
5	0x3cb875da	0.022517134
6	0xbcd55d43	-0.026045447
7	0xbd33c675	-0.043890435
8	0xbb4ee767	-0.0031571032
9	0xbe15b74c	-0.14620703
10	0x3f1c5173	0.6106178
11	0x3deda65c	0.11603996
12	0xbd0937b3	-0.033500385
13	0x3b505f9a	0.0031795264
14	0x3a80f100	0.0009837449
15	0xbd055bed	-0.03255837
16	0x3d0b393f	0.03399014
17	0x3cbddaa0	0.023175538
18	0xbf19a38f	-0.60015196
19	0x3f9bd5a8	1.2174578
20	0x3d32820b	0.04358105
21	0x3f0ca3cd	0.5493744
22	0xbece1d26	-0.40256613
23	0x3ea528f6	0.32257813
24	0xbd9b1a1d	-0.0757334
25	0x3f3c4e6d	0.7355717
26	0x3dc0a7e3	0.09407022
27	0x3ed83bc5	0.422331
28	0xbe8a3d25	-0.26999775
29	0x3f771ef3	0.965316
30	0x3f8cace0	1.0990257
31	0x3dbff63d	0.09373138
32	0x3cbde29a	0.023179341
33	0xbf52b00e	-0.8229989
34	0xbdc04fd7	-0.09390228
35	0x3d7a0adf	0.061045524
36	0x3f1637ef	0.586791
37	0x3e135b45	0.14390285
38	0x3c4e6532	0.012597369
39	0xbcc797de	-0.024364408
40	0x3ead283b	0.33819756
41	0x3e222394	0.15833884
42	0xbd41e862	-0.04734076
43	0x3c0884ad	0.008332414
44	0x3c5675b3	0.013089585
45	0xbe2ad581	-0.16683008
46	0x3f52f04a	0.823979
47	0x3e3cbe20	0.18431902
48	0x3ed5f092	0.41785103
49	0xbe10b805	-0.14132698
50	0x3d288119	0.041138742
51	0xbf5c1694	-0.8597195
52	0x3e8f9d1c	0.28049552
53	0x3d7c8f27	0.06165996
54	0x3f4405d1	0.76571375
55	0xbed80def	-0.4219813
56	0x3e936ec4	0.28795445
57	0x3d2c3f57	0.042052593
58	0x3cf498c7	0.029858006
59	0x3cfbb563	0.03072614
60	0x3d0771c0	0.033067465
61	0xbd094c3f	-0.03351998
62	0xbcef81b3	-0.02923665
63	0xbf27247f	-0.65290064
64	0x3f7e1acb	0.9925963
65	0x3dc49e7c	0.09600541
66	0x3ef06605	0.46952835
67	0xbf160cfa	-0.5861355
68	0x3de731ae	0.112887725
69	0x3d2f1633	0.04274578
70	0x3cd2f780	0.025752783
71	0x3cd3117a	0.02576517
72	0xbdcdaee2	-0.10043122
73	0x3fa4d024	1.287602
74	0xbd0e3746	-0.03472068
75	0xbd3c0d50	-0.045911133
76	0x3d41eb08	0.047343284
77	0xbce60bb0	-0.028081745
78	0x3f14a502	0.5806428
79	0x3e62cb67	0.22147904
80	0x3da77090	0.081757665
81	0xbf053447	-0.52032894
82	0x3f62b5b3	0.885585
83	0x3c60aedf	0.0137135675
84	0xbfb0bd9e	-1.3807867
85	0x3f6d0de8	0.92599344
86	0x3d8ab107	0.067720465
87	0xbc075693	-0.008260387
88	0x3c980eb7	0.018561704
89	0xbbbb4cda	-0.0057159485
90	0x3fa82765	1.3137022
91	0x3e782e2c	0.24236363
92	0x3eff8393	0.4990507
93	0x3f2eb958	0.6825156
94	0x3fa707c5	1.3049246
95	0x3ca972b4	0.020684578
96	0x3f94972d	1.1608635
97	0xbfa49761	-1.2858697
98	0x3ea28992	0.31745583
99	0x3eeadd1e	0.45871824
100	0x3d9828e4	0.07429674
101	0x3e0d502c	0.13800114
102	0x3f18c204	0.59671044
103	0x3e18a998	0.14908445
104	0x3f3461ad	0.7046154
105	0xbc1c2c7a	-0.009532088
106	0x3d313dd0	0.04327184
107	0x3b289ce7	0.0025728287
108	0xbd830f7d	-0.063994385
109	0xbe5382e4	-0.206554
110	0x3c2fa14e	0.01071961
111	0xbcbfa983	-0.02339626
112	0x3f66e3cf	0.9019136
113	0x3edbb204	0.42909253
114	0xbf64322a	-0.89139044
115	0x3f8199e6	1.0125091
116	0x3cead75f	0.02866715
117	0x3f323492	0.69611466
118	0x3eb5b372	0.35488468
119	0x3d71b80c	0.05901341
120	0xbb524c80	-0.0032089055
121	0xbd460d87	-0.048352744
122	0x3ad0d633	0.0015932977
123	0xbf776194	-0.9663327
124	0x3e0b5c2d	0.13609381
125	0x3e08133c	0.13288587
126	0x3e671071	0.22564866
127	0xbf70a84b	-0.94006795
128	0x3d900c2c	0.070335716
129	0xbd38e2ca	-0.045138158
130	0x3c1b772d	0.009488863
131	0x3d1e7c57	0.0386928
132	0x3f68b5c3	0.90902346
133	0x3fa95f87	1.3232278
134	0xbe183c88	-0.14866841
135	0xbdf20373	-0.11817064
136	0x3f85675d	1.0422169
137	0x3d19631a	0.037448026
138	0xbd1d1302	-0.038348205
139	0x3d4b774d	0.04967432
140	0x3cd7cbd7	0.026342316
141	0xbf7c9968	-0.9867158
142	0x3e0bd2e3	0.13654666
143	0x3e1738e0	0.1476779
144	0xbc9b8f8e	-0.01898935
145	0x3ca9684e	0.02067962
146	0xbc90aeec	-0.017661534
147	0xbf3b1520	-0.7307911
148	0x3fa93d3f	1.3221816
149	0x3d9796e1	0.07401825
150	0x3cde279a	0.027118493
151	0x3e11e6d7	0.14248215
152	0x3d070f75	0.032973725
153	0xbb86908d	-0.0041065873
154	0x3cbbc9a0	0.02292329
155	0xb9adda67	-0.00033159854
156	0xbe73437c	-0.23756212
157	0xbec416dc	-0.3829869
158	0x3f8c3480	1.0953522
159	0x3ac0ecd3	0.0014719017
160	0x3d436cd7	0.04771122
161	0x3cd763dc	0.026292734
162	0x3bb43d5a	0.0055004777
163	0x3d1ef018	0.03880319
164	0x3cbf3ded	0.023344958
165	0xbe0ef209	-0.13959517
166	0x3f854536	1.0411747
167	0x3dae1d7c	0.085017174
168	0x3b8bd90d	0.004267818
169	0x3ccf9327	0.025338722
170	0xbacb0e67	-0.0015491963
171	0x3f824070	1.0175915
172	0xbec511ce	-0.38490146
173	0x3e708453	0.23487978
174	0xbf983375	-1.1890703
175	0xbcc14660	-0.023593128
176	0x3e8f70c1	0.28015712
177	0x3cafbbfa	0.021451939
178	0x3bcc09b3	0.006226742
179	0xbce5198d	-0.027966285
180	0x3eb53011	0.35388234
181	0x3e8f17bb	0.27947792
182	0x3e0257fe	0.12728879
183	0x3ef6f86c	0.48236406
184	0x3f0042bc	0.5010183
185	0x3d532b7d	0.051555146
186	0xbf38b6c4	-0.7215388
187	0xbee18a05	-0.44050613
188	0x3d2fb1e6	0.042894267
189	0xbd323285	-0.04350521
190	0xbd1e9c65	-0.03872337
191	0x3cadee0a	0.02123167
192	0x3a5bafa6	0.00083803607
193	0xbe78ffef	-0.24316381
194	0x3eb0534d	0.34438553
195	0x3e8fe795	0.2810637
196	0xbea2b222	-0.3177653
197	0x3e2d1437	0.16902243
198	0x3c83f384	0.016107328
199	0xbce5c6dd	-0.028048927
200	0xbc8be0a9	-0.0170749
201	0x3f88bed9	1.0683242
202	0xbebbe165	-0.366954
203	0x3dd7a470	0.10529411
204	0x3cc7fd04	0.02441264
205	0x3ac1f7bd	0.0014798563
206	0x3c9be0c2	0.019028071
207	0xbf88f6bf	-1.0700301
208	0xbe6efb55	-0.23338063
209	0xbc806517	-0.015673203
210	0x3fb84709	1.4396678
211	0xbeb95cb2	-0.36203533
212	0x3d9bd0cc	0.07608184
213	0xbc80a3b4	-0.01570306
214	0xbf79d577	-0.97591347
215	0x3e392dda	0.18083897
216	0x3c98d9b5	0.018658498
217	0x3d09c77d	0.033637512
218	0xbc093fee	-0.008377058
219	0x3fe1be1f	1.7636145
220	0x3ea4e520	0.32206059
221	0x3e1254e8	0.14290202
222	0xbc034d80	-0.008014083
223	0xbd2ec27d	-0.042665947
224	0x3cb4f84d	0.022091055
225	0xbf2c59fd	-0.6732481
226	0x3fb6d0ec	1.4282508
227	0x3ce840fc	0.0283513
228	0x3ee987b7	0.45611355
229	0xbedf03a2	-0.4355746
230	0x3e31ee23	0.17375998
231	0x3f28f719	0.6600204
232	0x3f0fed08	0.56221056
233	0x3f8b04ca	1.0860837
234	0xbe192043	-0.14953713
235	0xbec69b5f	-0.38790414
236	0x3e6fa660	0.23403311
237	0x3f563b66	0.83684385
238	0xbf7575ea	-0.9588305
239	0x3f6de22e	0.9292325
240	0xbd2d093a	-0.042245127
241	0x3d079662	0.0331024
242	0xbcc0867a	-0.023501623
243	0x3c611685	0.013738279
244	0xbd2db53f	-0.042409178
245	0xbbb1abe6	-0.005422103
246	0x3db9c268	0.09070283
247	0x3e53cc47	0.20683394
248	0x3f96a28e	1.1768358
249	0x3d270bd8	0.04078278
250	0xbcab1c77	-0.020887597
251	0xb98c5f33	-0.0002677381
252	0xbd3e8c12	-0.0465203
253	0xbc17234d	-0.009224725
254	0xbca98a90	-0.020695955
255	0xbf3df58d	-0.74202806

fc1.bias f4 [400]
0	0xbe955a68	-0.29170537
1	0xbe3bd294	-0.18342048
2	0xbe55dda3	-0.20885329
3	0x3f76ff2b	0.96483105
4	0xbe5b1e45	-0.21398266
5	0xbed3a6fa	-0.4133833
6	0xbe864c76	-0.2623021
7	0xbdfefc5d	-0.12450478
8	0x3ee90ce9	0.45517662
9	0xbda25862	-0.07927014
10	0x3f25bf31	0.6474486
11	0xbf67c8aa	-0.90540564
12	0xbf3e9f58	-0.7446189
13	0x3ef206d8	0.47270846
14	0xbe91fa6e	-0.28511375
15	0x3f1098c2	0.5648309
16	0x3d0b985e	0.034080856
17	0xbec7da44	-0.3903371
18	0x3dc31b5c	0.09526703
19	0xbe4eb2d6	-0.20185408
20	0xbf00e904	-0.50355554
21	0xbe2c6cd5	-0.16838391
22	0x3f2c714f	0.67360395
23	0xbec131b8	-0.37733245
24	0xbee115e4	-0.43962014
25	0xbefc82d5	-0.49318567
26	0x3f85be09	1.0448619
27	0xbdb9ebb7	-0.09078162
28	0xbdd72f48	-0.10507065
29	0xbeb97854	-0.36224616
30	0xbdfbbfc4	-0.12292436
31	0xbe9ebd17	-0.3100364
32	0xbdbe8984	-0.09303573
33	0x3dc2b0a4	0.09506348
34	0xbe9c3c54	-0.30514777
35	0xbe7e1f32	-0.24816588
36	0xbe8603b3	-0.26174697
37	0x3bac2a0c	0.005254036
38	0xbeba8846	-0.36432093
39	0xbec160a0	-0.37769032
40	0xbe9b4323	-0.3032466
41	0xbed7d56e	-0.4215502
42	0xbebf3ba4	-0.3735019
43	0xbe1d049b	-0.15333788
44	0x3e29dcdf	0.16588162
45	0xbf85de7a	-1.045852
46	0xbf089a4d	-0.53360444
47	0xbee91fd5	-0.45532098
48	0xbe8ca448	-0.27469087
49	0xbe9bad66	-0.3040573
50	0xbe738887	-0.2378255
51	0xbf129c0a	-0.57269347
52	0xbe8b3794	-0.2719084
53	0xbdccb91c	-0.09996244
54	0xbe2e5589	-0.17024817
55	0x3f1b178c	0.60582805
56	0xbe010033	-0.12597732
57	0x3eb9bb35	0.3627564
58	0xbd9b0e56	-0.07571094
59	0xbef98750	-0.48736048
60	0xbe4cdf2f	-0.20007013
61	0x3f157a91	0.58390146
62	0xbf6b22ff	-0.91850275
63	0xbebf1212	-0.37318474
64	0x3efcb3f3	0.4935604
65	0xbd4ac4de	-0.049504153
66	0xbea7e7b4	-0.32793963
67	0x3e4b3662	0.19844964
68	0xbdd0ce9c	-0.101956576
69	0xbf8db44a	-1.1070645
70	0xbe9ff1d3	-0.31239185
71	0x3bae9ebf	0.0053289826
72	0xbe3c17dc	-0.18368477
73	0x3ed5c7db	0.4175404
74	0xbefcc54a	-0.4936927
75	0x3f748c82	0.955269
76	0x3c224674	0.009904493
77	0xbea530f1	-0.32263902
78	0x3e9b049c	0.30276954
79	0xbe6047d6	-0.21902403
80	0xbed5e216	-0.41774052
81	0xbe13e31c	-0.14442104
82	0xbed4fadd	-0.41597643
83	0xbea47fc9	-0.32128742
84	0xbeda56ab	-0.42644247
85	0xbe86cef1	-0.2632976
86	0x3e0bba0c	0.1364519
87	0xbf063b53	-0.5243427
88	0xbdd117af	-0.102095954
89	0x3e8b8a96	0.2725417
90	0x3f35c440	0.7100258
91	0x3e8ac433	0.27102813
92	0x3f479cb3	0.7797348
93	0xbe418e13	-0.18901853
94	0x3e97df9f	0.29662797
95	0x3f14b539	0.58089024
96	0xbf0b92c1	-0.54520804
97	0xbeed4864	-0.46344292
98	0x3eb6c2f3	0.3569561
99	0xbf16aba6	-0.58855665
100	0xbe92dc0e	-0.28683513
101	0xbf278699	-0.65439755
102	0xbed5ef87	-0.41784307
103	0xbd37e896	-0.044899546
104	0xbe9ed7a3	-0.31023893
105	0x3cd7e1ba	0.026352752
106	0x3e551641	0.2080927
107	0xbecd1b58	-0.40059924
108	0xbeb21c45	-0.34787193
109	0xbe79c78c	-0.24392527
110	0xbf10d336	-0.5657228
111	0x3f4471db	0.7673623
112	0x3ec608e6	0.38678664
113	0xbe0655cc	-0.13118666
114	0x3ef7568e	0.48308223
115	0xbe6be407	-0.23036204
116	0xbe2bab73	-0.16764621
117	0x3dfa50f7	0.12222474
118	0xbee11ac4	-0.43965733
119	0xbf2b270d	-0.6685646
120	0xbec88f43	-0.391718
121	0xbdbeee0e	-0.09322749
122	0xbed6ba77	-0.41939136
123	0xbef6937e	-0.48159403
124	0xbef947ee	-0.4868769
125	0xbf0c6134	-0.5483582
126	0xbf0b1c23	-0.5433981
127	0x3e818339	0.25295427
128	0xbf0327b6	-0.5123247
129	0x3e078736	0.13235173
130	0xbed99998	-0.42499995
131	0x3e8133d6	0.2523486
132	0x3f8c8231	1.0977231
133	0x3f138e8d	0.5763939
134	0xbed8209a	-0.42212373
135	0xbdacfe02	-0.08446886
136	0x3d8ff5d9	0.070293136
137	0xbf047bc1	-0.51751333
138	0x3f7bbd9d	0.983362
139	0xbe6ad008	-0.2293092
140	0xbec3914b	-0.38196787
141	0xbe9566f0	-0.29180098
142	0x3e139149	0.1441089
143	0xbe32b6c0	-0.17452526
144	0xbdd4a0b5	-0.10382215
145	0xbea65141	-0.32483867
146	0xbe85121a	-0.25990373
147	0x3ebb544c	0.3658775
148	0xbf0198ae	-0.50623596
149	0xbf473979	-0.7782207
150	0xbf029786	-0.51012456
151	0xbf21a408	-0.63140917
152	0xbe02aa9f	-0.127604
153	0xbefd0d60	-0.49424267
154	0xbe4babd3	-0.19889764
155	0xbd52061b	-0.051275354
156	0xbf0a5e3d	-0.54050046
157	0x3f1b67cc	0.60705256
158	0x3ecf26b7	0.40459225
159	0xbe2ec13f	-0.17065905
160	0xbec2d53e	-0.38053316
161	0x3d9526c5	0.07282785
162	0xbf0cf75a	-0.5506493
163	0xbda9712c	-0.08273539
164	0xbf64e7fd	-0.89416486
165	0xbf01a6d5	-0.5064519
166	0xbec185fa	-0.37797529
167	0xbede73dc	-0.4344777
168	0x3f77c2d1	0.9678164
169	0x3e2bcbe4	0.16776997
170	0xbe6ba7bc	-0.23013204
171	0x3eb500ac	0.35352075
172	0xbe5de2d1	-0.21668555
173	0xbf0f7d38	-0.56050444
174	0xbf22c959	-0.6358848
175	0xbea257cc	-0.3170761
176	0x3f81a00a	1.0126965
177	0xbeb37580	-0.35050583
178	0x3e090581	0.13381006
179	0x3e03791a	0.12839165
180	0x3f0f631e	0.56010616
181	0xbf12ab18	-0.5729232
182	0x3e810f36	0.25206918
183	0xbefbfce8	-0.4921639
184	0x3f142fa5	0.578852
185	0xbf2b6b77	-0.66960853
186	0xbf02fbff	-0.51165766
187	0x3c8d682e	0.01726159
188	0xbe3059f1	-0.1722181
189	0xbf04c125	-0.51857215
190	0xbf5b4d58	-0.8566489
191	0xbe850922	-0.2598353
192	0x3d89f8b7	0.06736892
193	0xbe35c125	-0.1774946
194	0x3e3cc52d	0.18434592
195	0x3f1252ed	0.57157785
196	0xbdd43342	-0.10361339
197	0x3d750ab7	0.05982467
198	0xbec1fec7	-0.37889692
199	0xbef5b478	-0.4798925
200	0xbebeaf8c	-0.37243307
201	0xbf09bac5	-0.5380061
202	0xbe89dad3	-0.26924762
203	0xbeccf5d3	-0.400313
204	0xbec2afe5	-0.38024822
205	0xbe851af0	-0.25997114
206	0xbe077f3c	-0.1323213
207	0xbda88990	-0.08229363
208	0xbea32d67	-0.31870577
209	0xbeab7552	-0.33487946
210	0xbeb94614	-0.36186278
211	0xbd9cbbda	-0.07653017
212	0xbe8486cf	-0.258841
213	0xbe939d88	-0.28831124
214	0xbe4b8aff	-0.19877242
215	0xbec5f889	-0.3866618
216	0xbeb873bf	-0.36025807
217	0xbea0d586	-0.31412905
218	0xbeca8850	-0.39557123
219	0xbc27211f	-0.010200768
220	0xbe0dc2ae	-0.13843796
221	0x3e608749	0.21926607
222	0xbd10204f	-0.035187062
223	0xbeda6c3f	-0.4266071
224	0x3ea90706	0.3301317
225	0xbec7c7a9	-0.39019516
226	0xbefe514e	-0.49671406
227	0xbe3f6f30	-0.18694758
228	0xbe605482	-0.21907237
229	0xbf2f8d2d	-0.6857479
230	0x3e440bfb	0.19145195
231	0x3dde0109	0.10840041
232	0xbd612436	-0.054966174
233	0x3f69415c	0.91115355
234	0xbf05f0ed	-0.5232075
235	0xbcc276ba	-0.023738254
236	0xbe2facaf	-0.17155717
237	0x3ecd660b	0.40116915
238	0xbeeb41cc	-0.45948637
239	0x3ef4e919	0.4783409
240	0xbf5c1c56	-0.8598074
241	0xbed94af0	-0.42439985
242	0xbe062d11	-0.13103129
243	0xbefd2f76	-0.49450272
244	0xbf0cfd7a	-0.55074275
245	0xbec27a11	-0.37983754
246	0x3e8eefd8	0.2791736
247	0x3df391b7	0.11893027
248	0xbf008d73	-0.50215834
249	0xbe5e05ea	-0.21681944
250	0xbe94d1d0	-0.29066324
251	0xbf0348b2	-0.512828
252	0x3d5d810f	0.054078158
253	0x3ebaf5d7	0.36515686
254	0xbe00a911	-0.12564494
255	0xbedba33d	-0.42897978

fc2.weight f4 [300, 400]
0	0xbca22f98	-0.019798085
1	0x3c837632	0.01604757
2	0x3d12e842	0.03586603
3	0x3ddedac7	0.10881572
4	0x3c8da4ac	0.017290436
5	0xbcc98d6f	-0.024603574
6	0x3f125cf8	0.5717311
7	0x3f2ef2be	0.68339145
8	0xbec5847a	-0.38577634
9	0xbf8e0f50	-1.1098423
10	0x3eefb158	0.4681499
11	0xbe88ab2f	-0.26693103
12	0x3da3c58d	0.07996664
13	0xbf46183d	-0.77380735
14	0xbceecf60	-0.029151618
15	0xbec41f54	-0.3830515
16	0x3eb88021	0.36035255
17	0xbf020a6d	-0.5079716
18	0xbfa4df51	-1.2880651
19	0x3c83e2ec	0.016099416
20	0xbc8a57fa	-0.016887654
21	0xbd9e39fb	-0.07725903
22	0x3f0d01fa	0.5508114
23	0x3c8d333c	0.017236345
24	0xbf97e9f4	-1.1868272
25	0xbd631210	-0.055437148
26	0xbed6f83f	-0.41986272
27	0xbfb2cb45	-1.3968283
28	0xbeddae0b	-0.43296847
29	0xbc5bd56b	-0.013417582
30	0x3f7331d3	0.949979
31	0x3f9cb4e9	1.2242709
32	0x3fdcf7b2	1.7263091
33	0xbf46e658	-0.77695227
34	0x3efb525e	0.4908628
35	0x3c2e6d99	0.010646247
36	0x3c719b6a	0.014746526
37	0xbf7caa22	-0.986971
38	0xbd6ce941	-0.057839636
39	0xbe355a7f	-0.17710303
40	0xbc58b493	-0.013226646
41	0xbb36ccab	-0.0027892988
42	0x3f13ccfb	0.5773465
43	0x3cbd2ffe	0.023094174
44	0xbfa1ff52	-1.2656043
45	0x3f0779b7	0.529201
46	0xbc49e40c	-0.012322437
47	0x3cb60795	0.022220412
48	0xbd445f89	-0.047942672
49	0xbdd02589	-0.10163409
50	0xbde64682	-0.11243917
51	0xbb877ea0	-0.004134968
52	0xbeeb3c97	-0.45944664
53	0xbc90a5a2	-0.017657105
54	0xbcaa1855	-0.020763556
55	0x40298fb1	2.6493952
56	0x3c9dd638	0.019267187
57	0x3d15025c	0.036379203
58	0xbe3e66a4	-0.18593842
59	0x3bed10cf	0.0072346698
60	0x3e8cb10b	0.27478823
61	0xbec67a67	-0.3876526
62	0x3f31a3bd	0.6939047
63	0x3bb48acb	0.0055097095
64	0xbec4475c	-0.38335693
65	0x3e64ab12	0.22330883
66	0xbb17f22a	-0.0023185113
67	0xbe39853f	-0.18117236
68	0x3cd2122f	0.025643436
69	0xbed32181	-0.412365
70	0x3ef39367	0.47573397
71	0x3e5ca4f3	0.21547298
72	0x3d0207da	0.03174577
73	0x3f088dea	0.53341544
74	0x3d39c7ba	0.04535649
75	0xbfebeb4c	-1.8431182
76	0x3dea2974	0.11433688
77	0x3e8fc613	0.28080806
78	0x3f4d51f1	0.8020316
79	0x3ea47e03	0.3212739
80	0xbcc38a81	-0.023869755
81	0xbc93c071	-0.0180361
82	0x3f3d9142	0.7404977
83	0x3d30c51e	0.043156736
84	0x3d5ab550	0.05339557
85	0xbf6f58a3	-0.93494624
86	0x3eae51ed	0.3404688
87	0x3d0df7c8	0.03466013
88	0x3f61db37	0.8822512
89	0x3ef795bc	0.48356426
90	0xbf870db5	-1.0551058
91	0x3f43f09d	0.7653902
92	0xbf4ea37e	-0.8071822
93	0x3ce122a0	0.02748233
94	0x3ebb7db0	0.3661933
95	0x3f13bc5d	0.57709295
96	0xbd0c2009	-0.03421024
97	0xbd419862	-0.047264464
98	0xbf135ca3	-0.5756323
99	0x3f908ca2	1.1292918
100	0x3c615ba3	0.013754758
101	0x3f36f6c3	0.7147028
102	0x3b546387	0.0032407956
103	0xbecd3541	-0.40079692
104	0x3a8e9502	0.0010878148
105	0x3f7711bd	0.9651144
106	0xbdbf7a51	-0.09349502
107	0x3d32134f	0.043475445
108	0x3e34f354	0.17670947
109	0xbf193124	-0.5984061
110	0xbf196ea0	-0.59934425
111	0x3fd668fd	1.675079
112	0xbf6b23a2	-0.91851246
113	0x3a802bbd	0.000977866
114	0x3eec59d2	0.46162277
115	0x3c9eb9e9	0.019375758
116	0x3d20a7f3	0.03922267
117	0x3f3caba8	0.73699427
118	0xbd27bfd5	-0.04095443
119	0xbf379419	-0.71710354
120	0x3d4057a4	0.04695858
121	0xbf297392	-0.6619197
122	0x3f03e77b	0.51525086
123	0xbd7e2e9a	-0.06205616
124	0x3cdb7cb5	0.026792863
125	0xbc4aa45d	-0.012368289
126	0x3f25b22d	0.64725
127	0xbf09a9f3	-0.53774947
128	0x3a3cfee0	0.000720961
129	0x3e9ec879	0.31012323
130	0xbd53261f	-0.051550027
131	0x3d6aec89	0.057354484
132	0xbe9f7b12	-0.31148583
133	0xbf5a3ee5	-0.8525222
134	0x3cacf31a	0.021112014
135	0xbf861686	-1.0475624
136	0xbe3650bc	-0.17804235
137	0x3cd1e7c4	0.02562321
138	0x3e179b69	0.14805378
139	0x3cf2f91b	0.029659798
140	0xbea885f8	-0.3291471
141	0x3d500a02	0.050790794
142	0xbed9dd2e	-0.4255156
143	0xbefcaaa5	-0.4934894
144	0x3eedfd39	0.46482256
145	0x3d3f93d5	0.046771843
146	0xbd25b60b	-0.040456813
147	0xbe310e50	-0.17290616
148	0xbcbd95c4	-0.023142703
149	0x3f06bc15	0.5263074
150	0xbf2da546	-0.6783031
151	0xbd5f0ef2	-0.054457612
152	0xbf836032	-1.0263731
153	0xbf90815c	-1.1289477
154	0x3e77aa22	0.24185994
155	0x3cb630de	0.022240099
156	0xbd25a5f2	-0.04044146
157	0xbec1e971	-0.37873414
158	0xbe7bb500	-0.24580765
159	0xbb6e5556	-0.0036366782
160	0xbd214915	-0.039376337
161	0xbf262235	-0.64895946
162	0x3d33b4b6	0.04387351
163	0x3e92fb62	0.28707415
164	0xbf7345f1	-0.950286
165	0xbd63cc99	-0.05561504
166	0xbca6803a	-0.020324815
167	0xbcae1a19	-0.021252679
168	0xbf3360a3	-0.7006933
169	0xbe1cc5a4	-0.15309769
170	0x3ed2841b	0.41116413
171	0xbf613350	-0.8796892
172	0xbc8de905	-0.017323026
173	0x3c570983	0.013124826
174	0x3f275083	0.65357226
175	0x3f38e615	0.7222608
176	0x3e51232d	0.20423575
177	0xbdd79f2a	-0.10528405
178	0xbeb3d558	-0.35123706
179	0xbef0c97a	-0.47028714
180	0xbecf89d5	-0.40534845
181	0x3d5a67c7	0.053321626
182	0x3ddaa8fb	0.10676762
183	0x3c268861	0.010164351
184	0xbf7adabf	-0.9799003
185	0xbcdf8e6a	-0.027289588
186	0xbd1bac56	-0.03800615
187	0x3d0ac4de	0.033879153
188	0xbedcffab	-0.4316381
189	0xbcfe005d	-0.031006033
190	0x3f1d735d	0.61504155
191	0xbdb6de38	-0.089291036
192	0xbeb601e6	-0.35548323
193	0xbd1657e3	-0.03670491
194	0xbe1c7531	-0.1527908
195	0x3d1d30a3	0.03837646
196	0xbedb1539	-0.4278963
197	0xbe5fa7d9	-0.21841373
198	0xbd397c90	-0.045284808
199	0xbd5e1c57	-0.054226246
200	0xbed0c556	-0.40775555
201	0xbab82043	-0.0014047701
202	0xbc2fadcc	-0.010722589
203	0xbe8d2a38	-0.27571273
204	0x3d3c422d	0.045961548
205	0x3d5b2aba	0.053507544
206	0x3d532a48	0.051553994
207	0xbc4777cd	-0.012174559
208	0x3cde93de	0.027170118
209	0xbeda7a99	-0.4267166
210	0xbe109b90	-0.14121842
211	0xbe6783d0	-0.22608876
212	0x3e86041f	0.2617502
213	0xbd2db397	-0.0424076
214	0xbbc5cd9a	-0.0060364725
215	0xbee61d0e	-0.44944042
216	0xbd697b57	-0.05700239
217	0x3cbfcf52	0.023414288
218	0xbe678ba8	-0.22611868
219	0x3f86cee5	1.0531889
220	0x3f5ee099	0.8706146
221	0x3f35726d	0.70877725
222	0xbcd5f699	-0.026118563
223	0xbd430016	-0.047607504
224	0xbd7e59ef	-0.062097486
225	0x3b9a006c	0.0046997573
226	0x3eab7e40	0.3349476
227	0xbc815f31	-0.015792461
228	0xbcdae8ad	-0.026722277
229	0x3f272f47	0.65306515
230	0xbe98dbc0	-0.29855156
231	0x3e14f3a7	0.14546071
232	0xbf467461	-0.7752133
233	0x3e3355c1	0.17513181
234	0xbc2bfe85	-0.010497694
235	0x3ef71901	0.48261264
236	0x3e51b094	0.20477515
237	0xbf338841	-0.7012978
238	0x3c8399fd	0.016064638
239	0xbc6220c3	-0.013801756
240	0x3e1132be	0.14179513
241	0xbf132862	-0.57483494
242	0x3b1b1b61	0.0023667442
243	0x3c9ed071	0.019386502
244	0xbcf02394	-0.02931384
245	0xbc009f78	-0.00785052
246	0xbf574ec6	-0.84104574
247	0xbf84807f	-1.0351714
248	0xbd3a3c2b	-0.045467537
249	0x3b1ad285	0.0023624015
250	0xbe768955	-0.24075826
251	0xbc7627e8	-0.015024163
252	0x3e56f0bb	0.20990269
253	0x3e3a336b	0.18183677
254	0xbdc8950f	-0.09794056
255	0x3d014846	0.031563066

fc2.bias f4 [300]
0	0xbef27385	-0.4735376
1	0xbe80e47e	-0.25174326
2	0xbd9380a0	-0.07202268
3	0xbe80506e	-0.25061363
4	0xbdc764d6	-0.0973603
5	0xbe2e4be8	-0.17021143
6	0xbd86d353	-0.06583276
7	0xbf03d6e8	-0.51499796
8	0x3d911eae	0.0708593
9	0xbd41c04e	-0.047302537
10	0xbda1c6b4	-0.07899228
11	0xbdc109bd	-0.094256856
12	0x3d6a2fa0	0.057174325
13	0xbd4d3d25	-0.05010714
14	0xbdcd6b03	-0.100301765
15	0x3e53787b	0.20651428
16	0xbeec1098	-0.4610641
17	0xbd2923b3	-0.04129381
18	0x3e60332c	0.2189452
19	0xbd9c79e8	-0.07640439
20	0x3d22e272	0.039766736
21	0xbdb067cc	-0.08613548
22	0xbd957f20	-0.07299638
23	0x3cdce575	0.026964882
24	0x3d01c3bf	0.03168082
25	0x3d9a1500	0.07523537
26	0xbda955b1	-0.082682975
27	0x3d10f49d	0.03538953
28	0xbe1cf37f	-0.15327261
29	0xbd85bbf7	-0.06529992
30	0xbdbee497	-0.09320944
31	0xbe188535	-0.14894564
32	0xbd6469dd	-0.05576502
33	0xbd812c3f	-0.063072674
34	0xbe12d42a	-0.14338747
35	0xbd26da3a	-0.04073546
36	0xbd6afbbd	-0.057368983
37	0xbd053369	-0.03251973
38	0xbeaab375	-0.3334004
39	0x3deb57a5	0.11491326
40	0xbd38fe57	-0.045164432
41	0xbe32f405	-0.17475899
42	0xba7dc702	-0.00096808386
43	0x3e0d9795	0.13827355
44	0xbdf13b9a	-0.11778946
45	0xbe0e9067	-0.13922273
46	0x3e267079	0.16253842
47	0xbd560e85	-0.05225994
48	0xbceb192b	-0.028698524
49	0xbe523c68	-0.20530856
50	0xbd416133	-0.047211837
51	0xbd76ee3f	-0.060285803
52	0xbe0fac15	-0.14030488
53	0xbd70978b	-0.058738273
54	0xbf0b6d52	-0.54463685
55	0xbcb218aa	-0.021740276
56	0xbd8325c3	-0.06403687
57	0xbcc07921	-0.023495259
58	0xbd9f6a94	-0.07784
59	0xbd9a1d43	-0.075251125
60	0xbd2c748e	-0.042103343
61	0xbcb19c84	-0.021681078
62	0xbcb98463	-0.022646135
63	0xbe28e272	-0.16492632
64	0xbd70c6f9	-0.058783505
65	0x3daf11ca	0.08548315
66	0xbca1d7e9	-0.019756274
67	0xbe930d09	-0.28720883
68	0xbd883f1d	-0.06652663
69	0x3d9c302b	0.07626375
70	0xbd0c169b	-0.034201246
71	0xbe2bf292	-0.16791752
72	0x3dcebed5	0.10094992
73	0xbdff08ef	-0.12452876
74	0xbeda8814	-0.42681944
75	0xbce164d9	-0.027513908
76	0xbd49b8b4	-0.049248412
77	0xbd0cc7fb	-0.034370404
78	0xbd77a7f9	-0.060462926
79	0xbda2d2e6	-0.07950382
80	0xbd19dd70	-0.037564695
81	0xbd4b5606	-0.049642585
82	0xbcfc7788	-0.030818716
83	0xbec4e10f	-0.38452956
84	0xbd1d57a2	-0.03841365
85	0xbda2d764	-0.07951239
86	0xbda4c99d	-0.08046267
87	0xbda0c2c3	-0.07849648
88	0x3dbbb45a	0.09165259
89	0xbed8ccfe	-0.42343897
90	0xbecb8630	-0.39750814
91	0xbdb5bb10	-0.0887357
92	0xbe30c16a	-0.17261282
93	0xbdaba338	-0.08380741
94	0xbd0362b2	-0.032076545
95	0x3b1c0a1b	0.0023809734
96	0xbd5a68c9	-0.053322587
97	0xbcf2a6ba	-0.029620517
98	0xbd4902f6	-0.04907509
99	0xbd84b85d	-0.06480477
100	0xbd3be4ec	-0.045872614
101	0xbe2465d0	-0.16054463
102	0xbe148e75	-0.14507468
103	0xbca92011	-0.020645173
104	0xbda966d9	-0.0827157
105	0xbf06ce4a	-0.5265852
106	0xbd86203d	-0.06549118
107	0xbd92cd33	-0.07168045
108	0xbd8c39e8	-0.06846982
109	0xbd806a16	-0.06270234
110	0xbea3c921	-0.31989387
111	0x3cd628c3	0.026142484
112	0xbe00e17c	-0.12586015
113	0xbd6cd265	-0.057817835
114	0xbe41713f	-0.18890856
115	0xbef5ea1e	-0.4803018
116	0x3d0c30b3	0.03422613
117	0xbd350c5c	-0.04420124
118	0xbe1b3dee	-0.15160343
119	0xbe688173	-0.22705631
120	0xbd8b8096	-0.06811635
121	0xbd62af08	-0.055342704
122	0xbe576216	-0.2103351
123	0x3e3187cf	0.17336963
124	0x3e40774f	0.18795513
125	0x3d5363d4	0.051608875
126	0xbdfce3d7	-0.123481445
127	0xbe2c02ec	-0.1679799
128	0xbd8a1974	-0.06743136
129	0x3d458651	0.048223797
130	0xbd282cd9	-0.041058395
131	0xbe5da9f7	-0.21646868
132	0xbd9e1d7b	-0.07720467
133	0xbdffd198	-0.12491149
134	0xbd48a5e2	-0.048986323
135	0xbc2a4ba6	-0.010394013
136	0xbd898a09	-0.06715781
137	0xbed7d743	-0.4215642
138	0x3d86b9d6	0.06578414
139	0xbd807bf9	-0.06273646
140	0xbd5c1bed	-0.05373757
141	0xbd237614	-0.03990753
142	0xbd30e6d6	-0.043188892
143	0xbd701f36	-0.058623515
144	0xbd8c9ae1	-0.06865478
145	0x3e6c5f79	0.23083295
146	0xbd6b8a84	-0.057505146
147	0xbd9b2ecf	-0.075772874
148	0xbd3b2aef	-0.04569524
149	0xbd83d49d	-0.06437037
150	0xbd902fa2	-0.07040335
151	0xbeb5f7c4	-0.35540593
152	0xbcbc9758	-0.023021385
153	0xbd96ff26	-0.073728845
154	0xbe17768d	-0.14791317
155	0xbf16d833	-0.58923644
156	0xbee93d97	-0.45554802
157	0xbd250a24	-0.040292874
158	0xbb5995b2	-0.0033200798
159	0xbdc8219a	-0.09772034
160	0xbd79a121	-0.06094468
161	0xbd24c75c	-0.040229186
162	0xbf177c1d	-0.59173757
163	0xbd0c95ae	-0.034322433
164	0xbda3af76	-0.07992451
165	0x3e23e375	0.16004737
166	0xbd7cb93d	-0.061700094
167	0xbe823a35	-0.25435033
168	0xbe56b662	-0.20968011
169	0xbe257815	-0.16159089
170	0xbcb8a3f7	-0.022539122
171	0xbd8f975f	-0.070112936
172	0xbd9a073a	-0.075209096
173	0xbd864d60	-0.06557727
174	0xbea856be	-0.3287868
175	0xbf8947b7	-1.0725011
176	0xbd89e113	-0.067323826
177	0xbe12e19d	-0.14343877
178	0xbd5c5bb6	-0.0537984
179	0x3d29f772	0.041495748
180	0xbe9eb7cf	-0.3099961
181	0x3e1edb9f	0.15513466
182	0xb9657653	-0.00021883221
183	0xbe4dc355	-0.20094045
184	0xbed17736	-0.40911263
185	0x3dade652	0.08491196
186	0xbd608caa	-0.054821648
187	0xbefa45ce	-0.48881382
188	0xbe2a8c04	-0.16654974
189	0x3e67dd76	0.22643074
190	0xbdb414d9	-0.08793039
191	0x3d554742	0.05206991
192	0xbd35b3bc	-0.04436086
193	0xbd441442	-0.04787088
194	0xbd3a6d68	-0.045514494
195	0xbe4f9eae	-0.20275375
196	0xbc9f674a	-0.019458432
197	0xbd7756ae	-0.0603854
198	0xbd08a9f8	-0.03336522
199	0xbd888aac	-0.066670746
200	0x3e267996	0.16257319
201	0xbd9c95ff	-0.07645797
202	0xbd3f864b	-0.04675893
203	0xbd6ae8e6	-0.057351016
204	0xbd8822a4	-0.06647232
205	0xbeb54b1e	-0.35408872
206	0xbd9155eb	-0.07096466
207	0xbd9bfe3a	-0.07616849
208	0xbe7f952c	-0.24959248
209	0xbd42eb78	-0.04758784
210	0x3e1bb1be	0.15204522
211	0xbe8eb9c5	-0.27876106
212	0xbd11a0f9	-0.035553906
213	0xbd3ed98a	-0.04659418
214	0xbd66c369	-0.0563387
215	0xbe103cdf	-0.1408572
216	0xbdc351f4	-0.09537116
217	0xbd7f0deb	-0.062269133
218	0xbf1fed1c	-0.62471175
219	0xbd2b8ea6	-0.041884087
220	0xbcb484f5	-0.022036055
221	0xbc4474f7	-0.011990777
222	0xbd6a952d	-0.05727117
223	0xbdb2a46f	-0.087227695
224	0xbdc448d8	-0.09584206
225	0xbe086a80	-0.13321877
226	0xbe9a72bc	-0.3016566
227	0xbdab5084	-0.083649665
228	0xbe82a04c	-0.25512922
229	0xbece4a45	-0.40291038
230	0xbe3a4a34	-0.18192369
231	0xbd17ca91	-0.037058417
232	0x3eb0ae73	0.34508094
233	0xbe13939d	-0.14411779
234	0xbd4f838d	-0.050662566
235	0x3e30efab	0.17278926
236	0xbc8577e2	-0.016292516
237	0xbe000b6f	-0.12504362
238	0xbdf446d6	-0.119275734
239	0xbd8672eb	-0.065648876
240	0xbec09e09	-0.3762057
241	0xbd43a2fe	-0.047762863
242	0xbd2fd5c8	-0.042928487
243	0xbe7abca4	-0.24486023
244	0xbd545e0d	-0.051847506
245	0xbd35bf87	-0.044372108
246	0xbd800abd	-0.06252048
247	0x3dc2ec79	0.0951776
248	0xbd5d54f8	-0.05403611
249	0xbecd376e	-0.40081352
250	0x3d86b0e4	0.06576708
251	0xbd75a848	-0.05997494
252	0x3ed8c8bb	0.42340645
253	0xbc4b910f	-0.012424721
254	0xbb108792	-0.0022053462
255	0xbd9e96bd	-0.07743595

fc3.weight f4 [2, 300]
0	0x3d6457d4	0.055747822
1	0x3eb64921	0.35602668
2	0x3d1b4733	0.037909698
3	0x40819ee8	4.0506477
4	0xbccd8bea	-0.02509113
5	0xbcf5d78f	-0.030010013
6	0x3dbaeba0	0.09126973
7	0x3cfd8c1a	0.030950595
8	0x3daff18d	0.08590994
9	0xbbdab701	-0.006674648
10	0x3c3b567d	0.011434195
11	0x3be9b6bb	0.007132379
12	0xbe3c3c01	-0.18382265
13	0xbb0c135d	-0.0021373846
14	0xbf84f7b4	-1.0388093
15	0xbef582c6	-0.47951335
16	0x3b723cff	0.0036962626
17	0xbd7ffbcb	-0.062495988
18	0x3da6736a	0.08127482
19	0x3d10a1ef	0.035310682
20	0x3df092dd	0.11746762
21	0xbbff2eea	-0.007787575
22	0xbcf95188	-0.030434385
23	0xbf188a96	-0.59586465
24	0x3eb85f4b	0.36010203
25	0xbed042ad	-0.4067587
26	0xbb893a19	-0.004187834
27	0xbf6c8a45	-0.9239848
28	0xbc4a5205	-0.012348657
29	0xbcc8f0ed	-0.024528945
30	0xbbfbaf57	-0.0076808142
31	0xbf96d32d	-1.1783196
32	0xbcc46c5f	-0.023977457
33	0x3cd2d49d	0.025736148
34	0x3cf233f8	0.029565796
35	0x3d092762	0.033484824
36	0x3c89e804	0.016834266
37	0xbd1f78ed	-0.038933683
38	0xbc2fb81d	-0.010725048
39	0xbe9634c6	-0.29337138
40	0xbf82ca39	-1.0217963
41	0xbf76e678	-0.9644542
42	0xbe2d9ab5	-0.16953547
43	0x3e9d838e	0.3076443
44	0xbc6c799e	-0.014433293
45	0x3bbcd388	0.005762521
46	0xbef8dbec	-0.48605287
47	0x3ecc935d	0.3995618
48	0xbce12a8f	-0.027486114
49	0xbb8a64a4	-0.004223423
50	0xbcfcd5ce	-0.030863669
51	0x3d8ed688	0.06974512
52	0x3f0bc5bd	0.545986
53	0xbad03c93	-0.0015887193
54	0xbe2b654c	-0.1673786
55	0x3c64466f	0.013932808
56	0xbc2bbd24	-0.010482106
57	0xbb958ed2	-0.0045641446
58	0x3b488409	0.0030596277
59	0x3d40d073	0.047073793
60	0xbd1ea9b7	-0.03873607
61	0xbd2c36b4	-0.042044356
62	0x3b079a9c	0.002069152
63	0xbdf11e28	-0.1177333
64	0x3d0706af	0.03296536
65	0x3f8e7444	1.1129231
66	0xbcc7dda2	-0.024397675
67	0xbd4fa893	-0.050697874
68	0xbd179fd3	-0.037017655
69	0xbe7da49e	-0.24769828
70	0xbc07c27b	-0.008286114
71	0x3d7aa911	0.06119639
72	0xbc0cf995	-0.008604427
73	0x3c531c06	0.012885099
74	0x3ceaf91b	0.028683236
75	0x3c2017ce	0.0097713005
76	0xbca781fc	-0.020447724
77	0x3ce759f7	0.02824114
78	0x3a951c4a	0.0011376229
79	0x3cbc5b71	0.022992821
80	0xbd3a87f3	-0.045539808
81	0xbb2a4808	-0.0025982875
82	0xba55162c	-0.0008128609
83	0xbb8e1728	-0.0043362565
84	0x4066a9f8	3.604124
85	0xbd1f1493	-0.03883798
86	0xbc36d36c	-0.011158805
87	0x3ca87649	0.020564215
88	0x3db5b464	0.088722974
89	0x40206f8c	2.5068083
90	0x403b4ae0	2.926445
91	0x3d6c7414	0.05772789
92	0x3cd5a87c	0.026081316
93	0x38a1d509	7.716759e-05
94	0x3d909c84	0.07061103
95	0x3dad3b79	0.08458609
96	0xbbb2c1ae	-0.0054552173
97	0x3cfbb563	0.03072614
98	0x3c372a0d	0.011179459
99	0xbcc2a751	-0.023761423
100	0xbc3e51e8	-0.011616208
101	0x3e3f95df	0.18709515
102	0xbdf40b14	-0.119161755
103	0xbb8819dd	-0.004153474
104	0x3b904b4b	0.004403507
105	0x3d19fb52	0.037593193
106	0xbbd74fae	-0.006570778
107	0xbebccf23	-0.36876783
108	0x3d859b8b	0.06523808
109	0x3c478cfb	0.012179608
110	0x3d37a9d1	0.044839684
111	0x3d0fd8a6	0.03511872
112	0x3e0bb544	0.13643366
113	0xbc95bfe7	-0.018279983
114	0x3cc6b5d2	0.02425662
115	0xbc972c81	-0.018453838
116	0xbd4b50b1	-0.0496375
117	0xbcfb4d66	-0.030676555
118	0xbdaa07a0	-0.083022356
119	0x408c19e0	4.3781586
120	0xbcb7ca64	-0.022435375
121	0xbc26fa87	-0.010191566
122	0x3ef04b2e	0.46932358
123	0x3c89fb90	0.016843587
124	0x3e9403d7	0.2890918
125	0xbf15d984	-0.5853503
126	0x3d5d7937	0.054070678
127	0x40262eee	2.5966144
128	0xbbd0058b	-0.006348317
129	0xbea5f37e	-0.32412332
130	0x3c7cc9db	0.0154289855
131	0xbcc28828	-0.023746565
132	0xbc277612	-0.010221021
133	0xbb9eed86	-0.0048500923
134	0x3d1e5f1e	0.03866493
135	0xbc77df25	-0.015128885
136	0xbc0ee793	-0.008722204
137	0x4113b7bf	9.23236
138	0x3e3e0ea9	0.1856028
139	0xbc139072	-0.009006606
140	0xbc1ad199	-0.009449386
141	0xbd332bc6	-0.043742917
142	0x3bb7dc19	0.0056109545
143	0x3d29eabc	0.041483626
144	0xbebc7f76	-0.36815995
145	0xbe98fdcd	-0.29881135
146	0x3eccd324	0.40004838
147	0xbcc3a907	-0.02388431
148	0xbd14cf82	-0.036330707
149	0x3c402f81	0.011730076
150	0xbd26c675	-0.040716607
151	0x3d000b3e	0.03126072
152	0xbc78e0aa	-0.015190283
153	0x3b8bfb77	0.0042719203
154	0x3e03069d	0.12795492
155	0x3c9012a1	0.017587008
156	0xbd4eaf8c	-0.050460383
157	0x3d2512f6	0.040301286
158	0x3bc96f26	0.006147283
159	0xbd494d87	-0.0491462
160	0xbcb67115	-0.022270719
161	0x3d14176f	0.03615516
162	0xbfdad3cd	-1.7095886
163	0x3d484991	0.048898283
164	0xbbd3fec7	-0.006469581
165	0xbebb9421	-0.3663645
166	0x3c87e243	0.016587382
167	0x3b96972f	0.004595659
168	0xbe5bf14c	-0.21478766
169	0xbd8933dc	-0.066993445
170	0xbb948e54	-0.0045335684
171	0xbf129796	-0.5726255
172	0x3bc08321	0.005875007
173	0xbc5559d7	-0.013021908
174	0xbc9232a5	-0.017846415
175	0xbdad2ced	-0.084558345
176	0xbccb46b0	-0.02481398
177	0x39f1d7a0	0.00046127755
178	0xbe8d46db	-0.2759312
179	0xbdccb7d8	-0.09996003
180	0x3c4fe3df	0.012688606
181	0xbef8b18b	-0.48572955
182	0xbc8b6f95	-0.01702098
183	0x3edeb186	0.43494815
184	0xbe1db2e6	-0.15400276
185	0xbd4a7c0a	-0.0494347
186	0xbcfc31ca	-0.03078546
187	0x3fc0982f	1.5046443
188	0xbd212cda	-0.039349414
189	0x3ed8364c	0.42228925
190	0xbabf196d	-0.0014579721
191	0x3d75cf24	0.060011998
192	0xbc9b30a8	-0.0189441
193	0xbbca6271	-0.006176286
194	0x3b10046e	0.0021975297
195	0xbf265c98	-0.64985037
196	0xbc03f73d	-0.008054552
197	0x3bae52c9	0.0053199274
198	0xbd1fdc32	-0.039028354
199	0x3bf456e6	0.007456648
200	0xbe10d4d9	-0.14143695
201	0x3c127e2b	0.008941214
202	0x3c5d8aaf	0.013521834
203	0x3a80917f	0.0009808986
204	0xbd0045b0	-0.03131646
205	0xc0555eed	-3.3339188
206	0xbbfa5648	-0.00763968
207	0x3ca375e8	0.019953683
208	0x409e2f74	4.9432926
209	0x3d247712	0.040152617
210	0xbf2f82da	-0.6855904
211	0x409c2bb5	4.8803353
212	0xbd37e78f	-0.044898566
213	0xbcea039c	-0.028566174
214	0xbcd54bf4	-0.026037194
215	0x3e115538	0.14192665
216	0xbdc6a020	-0.0969851
217	0x3cf16553	0.02946726
218	0x40b385da	5.6100893
219	0x3bd2131e	0.0064109704
220	0xbcfe6dec	-0.031058274
221	0xbb3ff447	-0.0029289888
222	0x3c0a3caa	0.008437315
223	0x3c802b01	0.015645506
224	0xc0009eba	-2.009688
225	0x3caca263	0.021073526
226	0xbc09c8a5	-0.008409654
227	0xbcb3cac4	-0.021947272
228	0x3f400a41	0.75015646
229	0x3fccc536	1.5997684
230	0x3dbb9024	0.09158352
231	0x3cb46e80	0.022025347
232	0xbe3c93c9	-0.1841575
233	0x3d07b2ec	0.033129618
234	0x3cd444ae	0.025911655
235	0xbe960c2c	-0.2930616
236	0x3d036c87	0.03208592
237	0xbcb03686	-0.021510374
238	0xbc01e467	-0.0079279905
239	0x3c693fff	0.014236449
240	0xbe54ced9	-0.20782031
241	0x3df08e54	0.11745897
242	0x3a394649	0.0007067663
243	0x40a686c7	5.2039523
244	0xbd25e893	-0.040505003
245	0xbd228a1b	-0.03968249
246	0xbce31276	-0.027718764
247	0x3d4c752b	0.049916428
248	0xbc31d0f5	-0.010853042
249	0xbe17a085	-0.14807327
250	0xbd426570	-0.04746002
251	0x3b8f2e40	0.004369527
252	0xbd8b53ea	-0.06803115
253	0xbbc7b19d	-0.006094171
254	0xbd12ae8b	-0.03581099
255	0x404bb9fc	3.1832266

fc3.bias f4 [2]
0	0xbec6beb6	-0.38817376
1	0x3e326218	0.17420232
