runs/actor.pkl (torch, 5847 bytes, 5 tensors)

fc1.weight f4 [40, 2]
00000000: 80c5 813a d87f fbbd 70e5 0dbd 5415 32bd
00000010: 7728 0c3e a098 483d 88db e1bc e0ce da3c
00000020: 22f3 3abd b074 7e3d 2417 803d 74eb 2d3d
00000030: d86e 7cbd e921 0a3e 78ff babc 8822 7cbd
00000040: aecf ca3d f7f6 033e fb1f 213e fcdd 3f3d
00000050: 4ec6 5cbd d476 a43d 05e9 0a3e 35ce 1ebe
00000060: 8877 a0bc 09d5 dcbd d062 f13c 08ed 853d
00000070: 20cb 05bd 90b7 58bc eec0 913d 08b2 d9bc
00000080: b0f7 07be 858c 013e 5efb a2bd d84b 8ebc
00000090: 205b 743c e0ae 1bbc 1f4e 18be 3c91 943d
000000a0: 8616 93bd 6ff3 a7bd d8ba 1a3d e8fc a8bd
000000b0: bfa7 95bd 6c38 5abd 404d 73bd fb3c 87bd
000000c0: 6aa8 2ebd f44d 283d f404 03be 0c00 c4bd
000000d0: 0033 173b 7021 b43c 82d7 b23d a576 e3bd
000000e0: 14b9 4e3d ee0d b83d 86cd b33d 20ce 16be
000000f0: d823 77bd cc2b 0bbe 4eea ccbd 545c b43d
00000100: 8868 c1bc 6287 893d 3015 bebd 38d4 c43c
00000110: 09dd c3bd a6df a13d 80a1 8dbd 7666 22bd
00000120: 1c7a 0cbe 00ed 083a a1ba 193e 7e2c 9d3d
00000130: 0fc5 acbd 805b 0b3b 3806 8ebc 3459 02be
0.0009900779 -0.12280244 -0.034642637 -0.04347737 0.13687311 0.04897368 -0.027570501 0.026709974
-0.045642026 0.062123 0.06254414 0.042460874 -0.061629146 0.13489498 -0.022826895 -0.06155637
0.09902893 0.12887178 0.15734856 0.04684256 -0.053900056 0.08030477 0.13565452 -0.15508349
-0.019588247 -0.10782821 0.029466063 0.06539351 -0.03266442 -0.013227358 0.071168765 -0.02657415
-0.13278079 0.1265126 -0.07958101 -0.01737015 0.014914304 -0.009502143 -0.14873551 0.07254264
-0.071820304 -0.08200728 0.037775844 -0.08251363 -0.07307386 -0.053276464 -0.059399843 -0.06603428
-0.04264108 0.041089967 -0.12794858 -0.095703214 0.002307117 0.0219886 0.08732511 -0.11106614
0.050469473 0.08987032 0.08779435 -0.14727068 -0.060336918 -0.13590926 -0.100056276 0.08806673
-0.023609415 0.06715275 -0.09281385 0.024026975 -0.095636435 0.07903986 -0.06915569 -0.039648496
-0.13718456 0.0005223304 0.150126 0.07674502 -0.084360234 0.0021264255 -0.01733695 -0.12729341

fc1.bias f4 [40]
00000000: 49f7 babe 58ce f6be fe16 c03e 7056 92be
00000010: daba db3e f4d2 2bbe 4e1a cf3e 6fa5 0cbf
00000020: e6b3 b6be 10c1 5c3e 5013 193e 209c 38be
00000030: dacc d73e 021e f63e 3945 03bf eb47 c1be
00000040: a5c0 253f c653 74be 4059 80be 4127 2fbf
00000050: 2a54 cfbe 90e0 343e 8025 bfbd 3f66 03bf
00000060: 20e0 873c 4a4d f7be 8293 19bf 755c c7be
00000070: 286e 1ebf 1886 e6be d3f2 343f 94c2 083e
00000080: a821 5f3e 7ad5 28bf 0bc7 edbe 6c03 71be
00000090: 1873 e23d 6448 1fbf 22fe 9bbe bdbd d8be
-0.3651679 -0.48204303 0.37517542 -0.28581572 0.42915994 -0.16779691 0.40449756 -0.5493993
-0.35684127 0.21558022 0.14948773 -0.18028307 0.42148477 0.4806977 -0.512775 -0.37750182
0.6474708 -0.23860082 -0.25068092 -0.6841927 -0.404939 0.17663789 -0.093333244 -0.5132789
0.016586363 -0.48301154 -0.59990704 -0.38937727 -0.61886835 -0.4502418 0.7068302 0.13355476
0.21790183 -0.6595074 -0.4644092 -0.23536462 0.11057109 -0.62219834 -0.30467325 -0.4233226

fc2.weight f4 [20, 40]
00000000: 3689 333e c03c 6c3b 68e2 403d a2ee b8bd
00000010: 3248 d6bd 7005 173d d44e a93d e06e 4d3d
00000020: 85b4 dcbd 4a4f 5e3e d4d2 06bd 0c3a 0cbe
00000030: fe2f d6bd f867 613e 00c0 3437 88a7 f8bc
00000040: 7694 bebd e418 70bd 10d9 40be 1af6 35be
00000050: 0404 063e 08e0 433e 6682 5a3e 394e 25be
00000060: c4af f73d 14ba 0dbe ae98 083e 7a37 253e
00000070: 2232 313e 60df 243e 583d 0f3e 009d 8e3b
00000080: 206b d23d 0cd7 a3bd ec67 c73d 5a2f 93bd
00000090: c010 76bb 274b 47be 9c7b 6fbd 61d2 f0bd
000000a0: 9679 9abd 2438 12be e2f2 4dbe 208f 6e3c
000000b0: 5499 143e 9089 503e 4c9e 053e f35e edbd
000000c0: f674 62be 9cb4 ad3d 064c 003e 8e93 44be
000000d0: 9c36 a43d 7e97 413e 40ed 5d3c 70f2 09be
000000e0: d6ba 3b3e f08c c33d 5ea0 173e f3d9 1abe
000000f0: 0240 053e da67 1cbe 5e91 623e 2a08 c2bd
00000100: c8f8 093e 6066 373d a8b8 723d f474 0cbd
00000110: 4c18 bc3d fcdb bebd 57d3 57be cef1 afbd
00000120: d268 333e 8020 71bd ecf0 8f3d a450 a9bd
00000130: a2c3 2b3e d009 093e 54a9 a13d b615 eabd
00000140: d919 3bbe 70ee 093c 3954 06be ae42 3c3e
00000150: b009 5cbe 50a4 cc3d 4a44 643e 4c5a e53d
00000160: 6c26 9c3d 534e 5cbe 783f 5c3e 4ca9 1cbd
00000170: 63f4 55be b408 623e 425a babd 3898 81bc
00000180: 1a93 513e 78b9 1ebe 11ff 21be b0f0 143d
00000190: 2031 f5bc f0f7 523d 8a0a 40be 6021 db3b
000001a0: 1fad cbbd 7321 e1bd 0ea8 51be d0cf f23d
000001b0: 386f 303d 8095 41be c6b3 353e 5420 8a3d
000001c0: c8f4 293d 4870 06be f01e 0a3d 02a0 5c3e
000001d0: 9e0c 1d3e 2d57 32be 0003 513e 38fb 8d3c
000001e0: a441 dc3d 92d6 313e ae33 433e 227e 32be
000001f0: f280 483e 5183 1bbe 6852 893c 8eff 1fbe
00000200: 58cb 48bd 907b 26bc 8025 dbbc 68b0 10bd
00000210: 5879 903c 16dd 613e 4209 053e 8c1a 003e
00000220: c04a b73d 5044 313e 0012 29bc 40a6 913c
00000230: f87c 3c3d d5b1 47be 7973 38be 6094 e03c
00000240: fa2b b3bd a073 86bb e828 52bd 1092 0e3d
00000250: 40f9 143e d4df 97bd 3260 373e e2c9 343e
00000260: 94bc 2fbe b9d1 30be b041 39be cdf6 fabd
00000270: 8e44 b2bd a8e0 89bc f8bc 5ebd 7d60 e7bd
00000280: 9a7c 91bd e4a8 a5bd b2a1 603e 70ba a9bd
00000290: f4f1 23be 085e be3d 209d 53bc 344b 2f3e
000002a0: ee11 0f3e 4a5d 523e dab0 27be d632 133e
000002b0: d029 403e 0526 e2bd bc77 523e f4a5 2b3e
000002c0: 407b 203b d4cc dc3d a81b a0bd f4b4 47be
000002d0: 0885 673d 8886 883d c8a5 15be a01a de3d
000002e0: 2098 43be 5c0f 453e 50bc 5d3e 185c 793d
000002f0: 1baa 0fbe 98de de3d 2815 1c3d 700c 793d
00000300: 7881 963d 8454 2e3e 8ad7 c4bd 9406 4ebd
00000310: 00c5 793d f097 c73c 96a3 383e 0088 f0bd
00000320: 406a 05bc 3823 2b3d 5040 73bd 5018 1c3e
00000330: 185d c83c c19f 53be c072 c6bc 74b4 cfbd
00000340: 38ff b13c 00e2 d4bc 6220 63be 24e6 26bd
00000350: 8072 afbc e409 87bd 5260 523e e0d8 47bd
00000360: b018 133e 10e2 623d b448 41be e038 573d
00000370: 24c2 3d3e 89c5 15be ad00 14be 5e21 603e
00000380: 7cfb 373e 587c ffbd 98c8 093e 2058 eabc
00000390: 66c0 61be e0a0 893c b8f5 933d b85d 89bd
000003a0: e44f 9f3d 9acb 43be a4ae 1e3e 2835 433e
000003b0: d88a fc3d 683c 1b3d 04d3 963d 55ac 25be
000003c0: 80db 64bd 50e0 aebc 4cd7 febd d31f 29be
000003d0: f202 1a3e 4664 1b3e 6ff3 4fbe 60b9 913d
000003e0: 304b ba3d 7684 593e 3079 043e ec80 523e
000003f0: 52ed 95bd ac5e 203e 4a3f 3a3e d939 58be
0.1753281 0.0036046952 0.047090918 -0.090298906 -0.10462989 0.03687042 0.082669884 0.050154567
-0.10776619 0.21709934 -0.032915905 -0.13694018 -0.104583725 0.22012317 1.07735395e-05 -0.030353323
-0.093056604 -0.058617488 -0.18832803 -0.17769662 0.1308747 0.1912843 0.21338806 -0.16143121
0.120940715 -0.13840514 0.13339493 0.16134444 0.1730428 0.16100836 0.13988245 0.004352212
0.10274339 -0.08000001 0.097366184 -0.07186766 -0.0037546605 -0.19462262 -0.058467492 -0.117588766
-0.07542722 -0.14279228 -0.20112184 0.014560491 0.14511615 0.20364976 0.13048667 -0.11590376
-0.2211493 0.08481714 0.12529 -0.19196913 0.080182284 0.18905446 0.013545334 -0.13471389
0.18332991 0.09548366 0.14807269 -0.15122204 0.13012698 -0.15273991 0.22125766 -0.094742134
0.13473809 0.044775367 0.059258133 -0.034291223 0.09184322 -0.093193024 -0.21076714 -0.085910425
0.17520455 -0.058868885 0.07028374 -0.08267334 0.16773847 0.1338265 0.07893625 -0.11429922
-0.18271579 0.008418664 -0.13118066 0.18384811 -0.2148807 0.099922776 0.22291675 0.111988634
0.07624516 -0.21514253 0.21508586 -0.03824739 -0.20894007 0.22073632 -0.090992466 -0.015819654
0.20466271 -0.15500438 -0.15819956 0.03636235 -0.029930651 0.051505983 -0.1875402 0.006687328
-0.099451296 -0.10992708 -0.20474264 0.11856043 0.043074816 -0.18904686 0.1774436 0.06744447
0.041493207 -0.1312877 0.03372091 0.21545413 0.15336844 -0.17416067 0.204113 0.017331704
0.107547075 0.17367008 0.19062683 -0.17430928 0.19580439 -0.15186812 0.016762927 -0.1562483
-0.04902205 -0.0101612955 -0.02675128 -0.035324484 0.017635986 0.22056994 0.12991813 0.12510127
0.08949804 0.17311215 -0.010319233 0.01777947 0.046017617 -0.19501431 -0.180128 0.0274145
-0.08748622 -0.004103139 -0.051308542 0.034807265 0.14548206 -0.07415739 0.1790779 0.17655137
-0.1716178 -0.17267503 -0.18091464 -0.12254105 -0.08704482 -0.016830757 -0.054379433 -0.112977006
-0.07103844 -0.08088854 0.21936682 -0.08287513 -0.16010267 0.09295279 -0.0129158795 0.17118531
0.13971683 0.205434 -0.16376057 0.14374861 0.1876595 -0.11042408 0.20553488 0.16762525
0.0024487525 0.10781255 -0.07817775 -0.19502622 0.056523353 0.06666285 -0.14614022 0.10844922
-0.19101 0.1924414 0.21653867 0.060878843 -0.14029734 0.108823 0.038106114 0.060802877
0.07348913 0.17024428 -0.09611423 -0.050299242 0.06097889 0.024364442 0.18031153 -0.1174469
-0.008143008 0.041781634 -0.059387505 0.1524365 0.024458453 -0.2066641 -0.024224639 -0.101418406
0.021728143 -0.025986671 -0.22180322 -0.040746823 -0.021416903 -0.06593683 0.20544556 -0.048790812
0.14364886 0.05539137 -0.1887539 0.052544475 0.1853109 -0.14626135 -0.14453383 0.21887729
0.17967027 -0.124748886 0.13455427 -0.028606474 -0.2204605 0.016800344 0.072246015 -0.067073286
0.0777891 -0.19120637 0.15496308 0.19063246 0.1233117 0.037899405 0.07364467 -0.1617902
-0.055873394 -0.021347195 -0.12443408 -0.16516046 0.15040186 0.1517497 -0.20307706 0.071154356
0.09096372 0.21241936 0.12936854 0.20556992 -0.07320656 0.15661114 0.18188205 -0.21115817

fc2.bias f4 [20]
00000000: d2d3 05be 88fe 2d3d 0ab1 c3bd 806a bc3b
00000010: 61db 1d3e 105a 47bd 0821 4cbd f25c c33d
00000020: dc1a 6ebd 0078 5ebc 292e 173e aec1 84bd
00000030: 84a9 e7bd e838 b5bd c88d 33bd 9fa6 99bd
00000040: ff09 a8bd e0cd 823d 781d dc3c 6c48 4fbd
-0.13069084 0.042479068 -0.09555252 0.0057500005 0.15415718 -0.048669875 -0.04983619 0.09539212
-0.058131084 -0.013578415 0.14763702 -0.06482254 -0.113116294 -0.08848745 -0.043836385 -0.075024836
-0.082050316 0.06386924 0.02686952 -0.050606176

fc3.weight f4 [1, 20]
00000000: 4a3a 053b dc13 de3a f26f c1ba 177f 42bb
00000010: 60e4 113a 3cca ce3a 4cd8 3b3a f674 0b3b
00000020: dc00 1cbb 184b c63a 4a74 f4ba fc4d dd3a
00000030: 5e38 123b 6013 793a 0e12 1f3b 2f98 01bb
00000040: 68d7 2fbb 240a 3dbb 94df f63a 5cbf 893a
0.0020328932 0.0016943174 -0.0014758094 -0.0029677802 0.00055653416 0.0015776823 0.00071657146 0.002127943
-0.0023804223 0.0015128581 -0.001865038 0.0016884203 0.002231143 0.00095014833 0.0024272236 -0.0019774546
-0.0026831273 -0.0028845156 0.0018834942 0.00105093
