runs/actor.pth (torch, 489175 bytes, 5 tensors)

fc1.weight f4 [400, 2]
0	0xbd346202	-0.04403878
1	0x3c5c3ca0	0.0134421885
2	0x3d99fd7f	0.07519054
3	0xbd83fbe2	-0.06444527
4	0x3d22446b	0.03961603
5	0xbca2bb20	-0.019864619
6	0x3de65b2b	0.11247858
7	0xbdc33164	-0.09530905
8	0x3be42d1a	0.0069633843
9	0x3d2dfb3a	0.042475916
10	0xbb499fb3	-0.0030765354
11	0xbb96a41a	-0.004597199
12	0xbd6e4c4f	-0.058178242
13	0xbcb40310	-0.021974117
14	0x3e098607	0.13430034
15	0xbdeaf6f2	-0.11472882
16	0x3e3ddad2	0.18540505
17	0xbe20dd79	-0.15709485
18	0x3cbba003	0.022903448
19	0x3c0f805a	0.008758629
20	0x3d424a1f	0.04743397
21	0xbb497a9a	-0.0030743242
22	0x3c3e486b	0.0116139455
23	0xbc12d854	-0.008962709
24	0x3e00b4c2	0.12568954
25	0xbdda2fa9	-0.10653622
26	0x3dc5e77f	0.09663295
27	0xbda7bda0	-0.08190465
28	0xbd3629bd	-0.0444734
29	0xbdc20c82	-0.09475042
30	0x3ce8c977	0.028416378
31	0xbd4a43f3	-0.049381208
32	0x3e4e018d	0.20117779
33	0xbd86c63c	-0.06580779
34	0x3e08768d	0.13326474
35	0xbdbf9039	-0.0935368
36	0x3d3d0807	0.046150234
37	0xbd1f1822	-0.038841374
38	0x3ccba588	0.024859205
39	0xbe043542	-0.12910941
40	0x3e039143	0.12848382
41	0xbdf327ac	-0.11872801
42	0xbd6e3625	-0.058157105
43	0xbe0e3116	-0.13885912
44	0x3d04ee5d	0.032453883
45	0xbd27a2df	-0.04092681
46	0x3c13ddf3	0.009025085
47	0xbbd30e80	-0.0064409375
48	0x3d051657	0.032492008
49	0x3cd9c01c	0.026580863
50	0xbe3d513b	-0.18488018
51	0xbe9ee700	-0.31035614
52	0x3e25791c	0.16159481
53	0xbdd55ba3	-0.10417869
54	0x3cc05127	0.023476196
55	0x3cb38030	0.02191171
56	0x3d84dcb5	0.06487409
57	0xbd6014e6	-0.05470743
58	0x3c5d810d	0.013519538
59	0x3c8d3f5d	0.017242128
60	0x3e4f5402	0.2024689
61	0xbd85487e	-0.065079674
62	0xbbe96b5f	-0.0071233953
63	0x3c056c78	0.008143537
64	0xbce6b89d	-0.028164202
65	0xbcba50dd	-0.022743637
66	0xbc488fc7	-0.01224131
67	0x3ca7bb2d	0.020474995
68	0xbc4cf687	-0.012509949
69	0xbb67a600	-0.0035346746
70	0x3e6555a4	0.2239595
71	0xbdc9772c	-0.09837183
72	0xbcd37fbd	-0.025817746
73	0x3ca46d17	0.02007155
74	0x3d195731	0.037436668
75	0xbc9fecbb	-0.019522062
76	0x3cc188bb	0.023624768
77	0xbc9ecc3f	-0.019384502
78	0xbd454578	-0.048161954
79	0xbb990080	-0.004669249
80	0x3d0664f1	0.03281111
81	0xbce5de68	-0.028060153
82	0xbd49527b	-0.049150925
83	0xbb949080	-0.0045338273
84	0xbce3b68a	-0.027797002
85	0xbd17df30	-0.037078083
86	0x3d3e224a	0.04641942
87	0x3d368bdb	0.04456697
88	0x3cd4ff47	0.026000632
89	0x3c08d3a7	0.008351243
90	0x3cd90550	0.026491791
91	0x3bfc4c9a	0.0076995613
92	0xbd253653	-0.04033501
93	0xbdfe5265	-0.12418059
94	0xbb4d5a00	-0.0031334162
95	0x3caabc47	0.02084173
96	0x3d041e6d	0.03225558
97	0xbce2d54d	-0.0276896
98	0x3dbf231d	0.09332869
99	0xbe201798	-0.15634
100	0x3de1e43f	0.110298626
101	0xbdc1d640	-0.09464693
102	0x3cb338e7	0.02187772
103	0xbd089772	-0.033347555
104	0x3ba24b27	0.0049528065
105	0xbc87d66a	-0.016581733
106	0x3d2d2eba	0.04228089
107	0xbe026d41	-0.1273699
108	0x3d3daf33	0.04630966
109	0xbc8af160	-0.0169608
110	0x3cca540b	0.024698278
111	0xbca8f039	-0.02062236
112	0x3e6b7320	0.22993135
113	0xbe23a15b	-0.15979521
114	0xbe991e5e	-0.2990598
115	0xbf0a2adc	-0.5397165
116	0x3e002f2c	0.12517995
117	0xbe5d1218	-0.21588933
118	0x3e42086c	0.18948525
119	0xbde3d87e	-0.11125277
120	0x3c1dd7bb	0.009633954
121	0xbc993cc9	-0.018705742
122	0xbd1c5023	-0.03816236
123	0x3c9ff9a3	0.019528216
124	0x3e59cfbd	0.21270652
125	0xbd9cd785	-0.076582946
126	0xbc2a1aa7	-0.010382331
127	0x3c8c7d4d	0.017149592
128	0x3c547f4d	0.012969804
129	0x3c3d8b2d	0.011568827
130	0x3db8eaf3	0.09029188
131	0xbe3c1bbb	-0.18369953
132	0x3e291e8e	0.16515562
133	0xbe528ee1	-0.20562316
134	0x3cbb55db	0.022868088
135	0xbca9fe98	-0.020751283
136	0xbe41203a	-0.1885995
137	0xbea3eee7	-0.32018206
138	0x3c79bbc0	0.015242517
139	0x3ca5f667	0.020259095
140	0xbcc00e1d	-0.02344423
141	0x3c0331e7	0.008007503
142	0x3e23f791	0.16012408
143	0xbdbbac36	-0.09163706
144	0xbd095b02	-0.033534057
145	0xbd924b27	-0.071432404
146	0xbe3191c5	-0.17340763
147	0xbe958cb0	-0.292089
148	0xbd2dc44d	-0.042423535
149	0x3ce26773	0.027637219
150	0x3d40ec3f	0.0471003
151	0x3c2dbefa	0.010604614
152	0xbd24f1ed	-0.04026978
153	0xbe58f671	-0.2118776
154	0xbdebf859	-0.11521978
155	0xbe83b75d	-0.25725833
156	0x3dd6f190	0.10495293
157	0xbe1ef360	-0.15522528
158	0xbc55c2cd	-0.013046932
159	0xbd0b7ccb	-0.03405456
160	0x3e40dd05	0.18834312
161	0xbdc16e45	-0.0944486
162	0xbe68fd42	-0.2275286
163	0xbf0d4935	-0.5518983
164	0xbb3cf9d9	-0.0028835444
165	0xb8a775d0	-7.985125e-05
166	0x3dfd9056	0.123810455
167	0xbdfc3dac	-0.123164505
168	0xbc78dcc9	-0.015189358
169	0xbde18854	-0.11012331
170	0x3e76fa9b	0.24119036
171	0xbe0572be	-0.13032052
172	0x3e48dbc3	0.19615082
173	0xbe280f61	-0.16412117
174	0xbc35060d	-0.011048806
175	0xbcb9315d	-0.022606546
176	0xbc23a3c7	-0.009987778
177	0x3d47a957	0.04874548
178	0xbc25ce72	-0.010120021
179	0xbc2979ae	-0.010343952
180	0xbe5ad3df	-0.21369885
181	0xbe6ff609	-0.23433699
182	0x3d389bc2	0.045070417
183	0x3d007450	0.031360924
184	0xba6b1b5a	-0.0008968614
185	0x3d1041bb	0.035218935
186	0xbe43c615	-0.19118531
187	0xbe82082f	-0.2539687
188	0x3e298abd	0.1655683
189	0xbe0ff897	-0.14059673
190	0x3c42bd6e	0.011885984
191	0xbdd298c6	-0.102830455
192	0xbd413a73	-0.047174882
193	0xbd2a6ead	-0.041609455
194	0xbd12f6bb	-0.03587983
195	0x3d47631d	0.048678506
196	0xbba2b6f3	-0.004965657
197	0x3c191e3a	0.0093455855
198	0x3c278933	0.010225582
199	0x3d495a7f	0.04915857
200	0x3dd73124	0.1050742
201	0xbe49b88f	-0.1969931
202	0x3d9b81d8	0.07593125
203	0xbd9c1f3e	-0.076231465
204	0x3e0199a3	0.12656264
205	0xbe013515	-0.12617905
206	0xbe3dfe87	-0.18554126
207	0xbe8277cd	-0.25482026
208	0xbcb66895	-0.022266665
209	0x3c2fabf1	0.010722146
210	0x3e3b0355	0.1826299
211	0xbe1cdfa6	-0.1531969
212	0xbc21560d	-0.009847176
213	0x3d331e8f	0.043730315
214	0xbe098c91	-0.13432528
215	0xbe8a0072	-0.26953465
216	0xbe4ba8ee	-0.1988866
217	0xbe7d74ba	-0.24751559
218	0xbd4b66b3	-0.04965849
219	0x3d2163e0	0.03940189
220	0x3d232733	0.039832305
221	0x3c5f02d3	0.013611513
222	0x3e2cb336	0.16865239
223	0xbe340987	-0.1758176
224	0x3e31d463	0.17366175
225	0xbe06cbfd	-0.13163753
226	0x3cd74e30	0.0262824
227	0xbcb4f78f	-0.022090701
228	0x3e20914c	0.15680426
229	0xbdc911b6	-0.09817831
230	0xbc9095f0	-0.01764962
231	0x3ce8ec30	0.028432935
232	0x3d156f06	0.036482833
233	0xbbb84bb7	-0.0056242603
234	0x3cbaf134	0.022820093
235	0xbc9b23cf	-0.018937973
236	0xbc39e2fa	-0.011345619
237	0x3cdc2eba	0.02687775
238	0x3d40698b	0.046975654
239	0x3c12ca8d	0.008959425
240	0xbd119b58	-0.035548538
241	0x3b7dc700	0.003872335
242	0x3d03ae03	0.032148372
243	0xbce0560b	-0.027384778
244	0xbd401b23	-0.04690088
245	0x3d0f17fb	0.03493498
246	0xbe5b92bc	-0.21442693
247	0xbe8f53b3	-0.27993545
248	0x3e0a8fb7	0.13531385
249	0xbe15ea98	-0.14640272
250	0x3d1101d3	0.03540213
251	0xbd3027fd	-0.043006886
252	0xb834b99a	-4.30882e-05
253	0xbb92e30d	-0.004482633
254	0x3d0d5665	0.03450622
255	0xbe04de68	-0.12975466

fc1.bias f4 [400]
0	0xbe113c34	-0.14183122
1	0x3c098302	0.008393051
2	0xbf21a263	-0.6313841
3	0x3c57cc15	0.013171216
4	0xbe61080e	-0.21975729
5	0xbf09b23a	-0.5378758
6	0xbdad3988	-0.08458239
7	0x3c7a991a	0.015295291
8	0x3cadb1e6	0.021202993
9	0xbedd216c	-0.4318956
10	0xbeb22929	-0.34797028
11	0xbaec64c5	-0.0018035403
12	0x3c6ae1de	0.0143360775
13	0x3c32d3f9	0.010914796
14	0x3e9204c3	0.28519258
15	0xbe242fee	-0.16033909
16	0x3e8c9fcf	0.27465674
17	0x3ebcb831	0.36859277
18	0xbe3d2504	-0.18471152
19	0x3e925774	0.28582346
20	0xb9d22aef	-0.0004008631
21	0x3ef3dfcd	0.47631684
22	0xbecdbcb4	-0.40183032
23	0xbeb2c727	-0.34917566
24	0xbe5f7a13	-0.21823911
25	0xbe979681	-0.29607013
26	0x3e875b35	0.26436773
27	0xbeceaca2	-0.40366083
28	0x3bdeaf37	0.0067957896
29	0xbe81bf78	-0.25341392
30	0x3e975c6f	0.2956271
31	0xbd8ae349	-0.067816325
32	0xbf1e96b3	-0.619487
33	0xbec735d5	-0.38908258
34	0xbf03035b	-0.51176995
35	0x3e288df1	0.16460396
36	0xbef2c3ae	-0.47414917
37	0xbd8a5d5b	-0.067560874
38	0x3a7a02de	0.00095371704
39	0xbec68a43	-0.3877736
40	0x3b7113b5	0.0036785428
41	0xbf30c063	-0.6904356
42	0xbf018557	-0.50594085
43	0xbf24069e	-0.640726
44	0xbe5b045a	-0.21388379
45	0xbe83e3c6	-0.25759715
46	0xbe227b34	-0.15867311
47	0xbe05e473	-0.13075428
48	0xbad715c2	-0.0016409683
49	0x3e992db4	0.2991768
50	0x3c48c2d9	0.012253487
51	0xbe8ea1a8	-0.2785771
52	0xbf298100	-0.66212463
53	0x3d6c4c0b	0.057689708
54	0xbeb35ffa	-0.35034162
55	0x3a499444	0.0007689635
56	0x3e7ccacb	0.24686734
57	0xbdafe81b	-0.085891925
58	0x3e7d5ced	0.2474248
59	0x3edb66c3	0.42851838
60	0xbc1ec455	-0.009690364
61	0xbf03e5b8	-0.515224
62	0x3edb1afc	0.42794025
63	0xbeabc92b	-0.33551916
64	0xbeab02a0	-0.3340044
65	0x3d9f0f37	0.07766574
66	0x3d9b12ca	0.07571943
67	0x3a83c4dc	0.0010053176
68	0xbe9be76a	-0.30449992
69	0xbf18446d	-0.5947941
70	0xbd96530c	-0.07340059
71	0x3f0e00a8	0.5546975
72	0x3dd16bd7	0.10225647
73	0xbe8ef32f	-0.2791991
74	0xbe165afb	-0.14683144
75	0xbe7c8b9d	-0.24662633
76	0xbdb906a9	-0.090344734
77	0xbe851bb6	-0.25997704
78	0x3d97356f	0.073832385
79	0xbe002923	-0.12515692
80	0x3e43abfa	0.19108573
81	0xbe1b3b7d	-0.15159412
82	0xbbb62609	-0.0055587334
83	0x3a868ba8	0.001026501
84	0x3e77d72d	0.24203177
85	0x3ef9e733	0.48809204
86	0x3c894ac0	0.016759276
87	0xbe3924e7	-0.18080483
88	0xbf19412f	-0.5986509
89	0xbca61b43	-0.020276671
90	0xbe887fb3	-0.26659927
91	0xbe448cf4	-0.19194394
92	0xbe064eec	-0.13116044
93	0xbe8a91c2	-0.2706433
94	0x3c9ae580	0.018908262
95	0xbdbfdf48	-0.093687594
96	0xbe808ed1	-0.2510896
97	0xbe94e11c	-0.29077995
98	0xbe334de1	-0.17510177
99	0xbe8bedd4	-0.27329886
100	0x3e7a4ad0	0.24442601
101	0xbb4b2322	-0.0030996283
102	0x3eb83e26	0.35984915
103	0xbe865010	-0.26232958
104	0xbc7f20b1	-0.015571759
105	0x3d469627	0.04848304
106	0xbf2b582b	-0.6693141
107	0xbe7706f6	-0.24123749
108	0xbe88d468	-0.26724553
109	0xbecafa7b	-0.39644226
110	0xbf0c7623	-0.5486776
111	0x3e5450ca	0.20733944
112	0x3ed79c09	0.42111233
113	0x3b25e413	0.0025312945
114	0x3f0a373d	0.53990537
115	0xbe92eb0b	-0.2869495
116	0xbe08bfbd	-0.13354392
117	0x3a54fa26	0.0008124433
118	0xbdef460d	-0.11683283
119	0xbe0e16d5	-0.13875897
120	0xbf159fa4	-0.5844672
121	0x3b6e40a6	0.0036354451
122	0xbedaca31	-0.42732385
123	0xbe992503	-0.2991105
124	0x3ef4f765	0.47844997
125	0xbe5ee1d1	-0.2176583
126	0xbe643924	-0.22287422
127	0x3e468873	0.19387989
128	0xbe851acd	-0.2599701
129	0xbe93d696	-0.28874654
130	0x3f03d88b	0.51502293
131	0xbe946d25	-0.2898952
132	0xbf0180ca	-0.5058714
133	0xbeca9cd8	-0.39572787
134	0xbe48bf4e	-0.19604227
135	0xbeabc972	-0.33552128
136	0xbebbdf94	-0.36694014
137	0x3c300ec4	0.010745708
138	0xbbf6fc1e	-0.007537379
139	0xbe67bfd4	-0.2263177
140	0xbf0ca2d0	-0.5493593
141	0xbe63fb9f	-0.22263955
142	0xbe98cb64	-0.29842675
143	0xbe6ba0e4	-0.23010594
144	0xbf234d3c	-0.63789725
145	0x3be22134	0.006900931
146	0xbf04ffca	-0.51952803
147	0xbf0cfa4b	-0.55069417
148	0xbf13e618	-0.5777297
149	0xbd7c5d23	-0.06161226
150	0xbed9f4fa	-0.42569715
151	0xbe956e88	-0.2918589
152	0x3ebf4e68	0.37364507
153	0x3c639520	0.013890535
154	0x3d240249	0.04004124
155	0xbf2be109	-0.6714025
156	0xbf01cf16	-0.50706613
157	0xbe88ac70	-0.2669406
158	0x3edce8f8	0.4314649
159	0xbe788f45	-0.24273403
160	0xbf076244	-0.52884316
161	0xbe677684	-0.22603804
162	0xbf0c97aa	-0.5491892
163	0xbe1ea513	-0.15492658
164	0xbe471a6c	-0.19443673
165	0x3e9b038e	0.3027615
166	0xb9f90a79	-0.00047500784
167	0xbdfc8430	-0.123299
168	0xbbdac89c	-0.0066767465
169	0xbe510424	-0.20411736
170	0x3b9fca67	0.004876423
171	0x3c419426	0.0118151065
172	0x3c42abb5	0.011881758
173	0xbe8d1d44	-0.2756139
174	0x3f00e761	0.50353056
175	0xbdd111ee	-0.10208498
176	0xbe8cf29c	-0.27528846
177	0x3e8427f5	0.25811735
178	0x3eabe42d	0.33572522
179	0x3f071075	0.52759486
180	0x3afe1951	0.0019386207
181	0xbe76d562	-0.24104837
182	0x3c94e849	0.018177168
183	0x3c76e495	0.015069147
184	0xbf318cc9	-0.69355446
185	0xbdd6e251	-0.10492385
186	0xbef6e5db	-0.4822224
187	0xbcada41f	-0.021196423
188	0xbceffadd	-0.029294426
189	0xbe1be29d	-0.15223165
190	0xbd724c06	-0.059154533
191	0x3bb321b2	0.0054666633
192	0xbef8878b	-0.4854091
193	0xbf18042e	-0.5938138
194	0x3e915de6	0.2839195
195	0xbeb63825	-0.3558971
196	0xbef3d54e	-0.47623676
197	0xbe914457	-0.28372452
198	0xbd9dfc36	-0.07714121
199	0xbf2a4848	-0.6651654
200	0x3c8ec431	0.017427536
201	0xbea4730a	-0.32119018
202	0xbebbc65b	-0.3667477
203	0x3c3ed576	0.011647573
204	0xbebcef2a	-0.36901218
205	0xbea751d5	-0.3267962
206	0xbe73fa52	-0.23825958
207	0xbe880283	-0.26564416
208	0xbe97336f	-0.29531428
209	0xbe4345ff	-0.1906967
210	0x3c0f8e36	0.008761933
211	0xbf127bed	-0.57220346
212	0xbedb2287	-0.4279978
213	0xbe87ba1a	-0.26509172
214	0xbe66c7ab	-0.22537105
215	0x3e137450	0.14399838
216	0xbefe4fd7	-0.49670288
217	0x3c6d6618	0.014489673
218	0x3c87db42	0.016584042
219	0x3c68f2d1	0.014218048
220	0xbf289af5	-0.65861446
221	0xbe8a27cd	-0.2698349
222	0xbf1b9916	-0.60780466
223	0xbee51a2a	-0.44746524
224	0x3c26a34d	0.01017077
225	0xbe05728f	-0.13031982
226	0x3c32db6a	0.01091657
227	0xbed484dc	-0.41507614
228	0xbb3b6597	-0.0028594488
229	0xbedafb61	-0.42769912
230	0x3de9aa88	0.114094794
231	0xbe9e591e	-0.30927366
232	0xbe3591aa	-0.17731348
233	0xbf1d0edc	-0.613508
234	0xbe65a3ae	-0.2242572
235	0x3edc5a39	0.43037584
236	0xbdfd0bb2	-0.12355746
237	0xbec12997	-0.37727043
238	0xbe8b5660	-0.27214336
239	0xbd9ec9b6	-0.07753317
240	0xbf11bbe7	-0.5692734
241	0x3d3d7128	0.046250492
242	0xbe8692b2	-0.26283795
243	0x3c02b9bc	0.007978853
244	0xbe9233a3	-0.2855502
245	0xbea967a2	-0.33086878
246	0xbe55e035	-0.2088631
247	0x3c0c43d7	0.008561096
248	0xba63762b	-0.0008676971
249	0xbeae7b95	-0.3407866
250	0x3edb1182	0.42786795
251	0xbdd52cbc	-0.10408923
252	0xbeddb7cb	-0.43304285
253	0xbea9547f	-0.33072278
254	0x3f07aba0	0.52996254
255	0xbe889e9a	-0.26683503

fc2.weight f4 [300, 400]
0	0x3baecc75	0.005334432
1	0xbbc35895	-0.0059614875
2	0x3cd633f3	0.026147818
3	0xbd339831	-0.043846313
4	0x3c580775	0.013185372
5	0xbc376f72	-0.011196004
6	0xbceceeaf	-0.028922407
7	0x3d0ba71a	0.034094907
8	0xbcb22b87	-0.021749271
9	0x3d26468e	0.04059463
10	0xbc558459	-0.013032042
11	0xbd5c3b09	-0.053767238
12	0x3c69455b	0.014237727
13	0x3d072049	0.032989774
14	0x3c98efb0	0.01866898
15	0xbc405a1e	-0.011740236
16	0xbcd13a0b	-0.025540372
17	0xbd13f6db	-0.03612409
18	0x3cdb52a2	0.0267728
19	0xbd7d6d97	-0.06187209
20	0xbd3f18ed	-0.04665463
21	0xbca77510	-0.020441562
22	0xbd64b114	-0.055832937
23	0x3af124d4	0.0018397816
24	0xbd531384	-0.051532283
25	0xbbab0d90	-0.0052201226
26	0xbd725d9a	-0.059171297
27	0xbd3fdf5f	-0.046843883
28	0xbd95c688	-0.073132575
29	0x3ccffdde	0.025389608
30	0xbd747af8	-0.059687585
31	0x3cda0a98	0.02661638
32	0x3d3700e6	0.04467859
33	0x3d5d7c6e	0.054073744
34	0x3d3c2054	0.045929268
35	0xbd887b18	-0.06664103
36	0xbc6266d6	-0.013818463
37	0xbc4b93bb	-0.012425358
38	0xbd59c7ad	-0.05316894
39	0xbd355fab	-0.04428069
40	0x3d2cb3ab	0.042163532
41	0x3cf92e16	0.030417483
42	0xbd658256	-0.0560325
43	0x3d0b5d81	0.03402472
44	0xbd3d4c80	-0.046215534
45	0xbd1045a5	-0.03522267
46	0xbc89b90d	-0.016811872
47	0xbd0fa611	-0.035070483
48	0xbd9e9261	-0.07742763
49	0x3cfb72a8	0.03069432
50	0xbd8fa5ba	-0.07014032
51	0x3c847518	0.016169116
52	0x3d2d6e05	0.04234125
53	0x3d091246	0.033464693
54	0xbb9b61c2	-0.0047418782
55	0xbb5a7e32	-0.0033339378
56	0xbc3efe42	-0.0116572995
57	0xbd7ede23	-0.062223565
58	0xbd8f918f	-0.07010185
59	0xbd444556	-0.047917686
60	0xbdd65518	-0.10465449
61	0x3cdf961a	0.027293254
62	0xba0c9571	-0.00053628447
63	0x3bd01f71	0.0063514044
64	0x3d378690	0.044806063
65	0x3b93b70b	0.0045079044
66	0xbcef77f6	-0.029232007
67	0x3b0fba57	0.0021931136
68	0x3d251922	0.04030717
69	0x3ba17b7e	0.0049280515
70	0x3cefafce	0.029258635
71	0xbc717e69	-0.014739611
72	0x3d0c6560	0.034276366
73	0xbcec8afa	-0.028874863
74	0x3d2d2655	0.042272884
75	0xbd5e315b	-0.054246288
76	0xbd56e9a8	-0.052468926
77	0x3ddfe4d7	0.109323196
78	0x3c2824b7	0.01026266
79	0x3beb9a48	0.0071900226
80	0xbd4803a1	-0.048831586
81	0xbd08b154	-0.03337224
82	0xbc5f2cd2	-0.013621526
83	0xbcc79159	-0.0243613
84	0xbbec2873	-0.0072069704
85	0xbd34a5bd	-0.044103373
86	0x3cb4eadd	0.022084648
87	0xbce4d3ef	-0.027933089
88	0xbd56774f	-0.052359875
89	0xbdac3ff6	-0.08410637
90	0x3e1af8f3	0.15134029
91	0xbd3725ea	-0.044713892
92	0x3cc469c8	0.023976222
93	0xbda78731	-0.081800826
94	0x3bf81c20	0.007571712
95	0xbda7317c	-0.08163735
96	0x3d094ce0	0.03352058
97	0xbc938762	-0.018008891
98	0xbc8a85a2	-0.016909424
99	0x3c41f62c	0.011838477
100	0xbd824710	-0.0636121
101	0xbd50e2eb	-0.050997656
102	0x3d04e365	0.032443423
103	0x3e2a258d	0.16615887
104	0xbd2590d4	-0.040421322
105	0xbb66ddc0	-0.0035227388
106	0xbcfb84af	-0.030702917
107	0x3c8e4d7b	0.01737093
108	0x3dff4aa7	0.12465411
109	0x3d2964c2	0.041355856
110	0xbd632dc3	-0.055463564
111	0x3d0eff61	0.034911517
112	0xbd555f8e	-0.05209308
113	0xba88f393	-0.0010448567
114	0x3d079e8c	0.033110186
115	0x3d06d6d0	0.032919705
116	0xbd230712	-0.039801665
117	0xbd3539b7	-0.044244494
118	0x3cda6644	0.026660092
119	0xbcb48d31	-0.022039982
120	0x3bb277dd	0.0054464177
121	0xbd578a11	-0.052621905
122	0xbbfc0290	-0.007690735
123	0xbce13965	-0.027493188
124	0xbd790c01	-0.060802463
125	0x3cd0f750	0.025508553
126	0xbd4811a1	-0.048844937
127	0xbc0592a4	-0.008152638
128	0xbd322f06	-0.043501876
129	0x3e67c467	0.22633515
130	0x3d2281fa	0.039674737
131	0x3d4e68c7	0.050392892
132	0xbb05943a	-0.002038254
133	0xbbac3a0c	-0.005255943
134	0xbd1b0eb3	-0.037855815
135	0x3ca251bf	0.01981437
136	0x3cbbbf79	0.02291845
137	0x3d1c5ccd	0.03817444
138	0xbd363387	-0.044482734
139	0x3b24100a	0.0025033974
140	0x3d288966	0.04114666
141	0xbd47ce07	-0.048780467
142	0x3d1c9018	0.038223356
143	0xbcde4f1e	-0.027137335
144	0x3c83449d	0.016023928
145	0xbd670b78	-0.05640742
146	0xbc0c4231	-0.008560703
147	0x3c5fe1c3	0.013664666
148	0x3d09cbed	0.033641744
149	0xbba2cac9	-0.0049680215
150	0x3d40e36f	0.047091898
151	0xbcc59509	-0.024118917
152	0xbc1f28ac	-0.009714287
153	0xbd95683b	-0.07295271
154	0xbcdf6372	-0.027269099
155	0xbcc3c4f6	-0.02389763
156	0x3d67fc4e	0.0566371
157	0xbcf77d40	-0.030211091
158	0x3cda16e6	0.026622247
159	0x3e29101f	0.16510056
160	0x3d4a2560	0.04935205
161	0xbd04d12c	-0.032426044
162	0xbd0122e5	-0.03152742
163	0x3d4410fa	0.047867753
164	0xbc344617	-0.011003039
165	0xbd118d55	-0.035535175
166	0xbcf0ece6	-0.029409837
167	0xbc873c76	-0.016508322
168	0xbd533ceb	-0.051571768
169	0xbbc0180a	-0.0058622407
170	0xbd083dcf	-0.03326207
171	0x3cc0e27a	0.023545492
172	0xbd100665	-0.03516235
173	0xbc9f7dec	-0.019469224
174	0xbccd7b13	-0.0250831
175	0x3cc08c81	0.023504497
176	0x3d01a545	0.031651754
177	0x3d02afc5	0.03190591
178	0x3d223ad0	0.03960687
179	0x3abd8ccd	0.0014461518
180	0xbd8791af	-0.06619584
181	0x3c3f3524	0.011670385
182	0x3c6a2438	0.014290862
183	0xbd9fc699	-0.07801551
184	0x3d693c8e	0.056942515
185	0xbc737595	-0.014859577
186	0x3cbc8ef8	0.023017392
187	0xbd63dfab	-0.05563323
188	0x3d105e52	0.0352462
189	0x3cd015c5	0.025401006
190	0x3d1574aa	0.036488213
191	0x3bbdef0a	0.005796318
192	0xbe0b4582	-0.13600734
193	0xbc7c8e8a	-0.015414843
194	0xbc827d06	-0.015928756
195	0x3ca9a92e	0.020710554
196	0xbdef1d78	-0.116755426
197	0xbda01176	-0.078158304
198	0x3c83c532	0.016085241
199	0xbc767150	-0.015041664
200	0xbd360eb0	-0.0444476
201	0xbcdbcac1	-0.026830079
202	0xbd3e8df1	-0.046522085
203	0x3d10a751	0.035315815
204	0x3d287625	0.041128296
205	0x3b17682e	0.0023102867
206	0xbd12a9b0	-0.035806358
207	0xbd4134c2	-0.047169454
208	0x3cb54321	0.022126736
209	0x3d0d52a7	0.03450265
210	0xbd40caba	-0.047068335
211	0x3caf84d1	0.021425636
212	0xbd1db6c1	-0.038504366
213	0x3e4e64b4	0.20155603
214	0x3c012547	0.007882423
215	0x3c3fd089	0.0117074335
216	0x3d4e77a9	0.050407086
217	0x3cb01d80	0.021498442
218	0x3cb8f050	0.022575527
219	0xbd3b2d12	-0.04569728
220	0xbd5a6fda	-0.053329326
221	0x3d693162	0.05693186
222	0xba1f15d3	-0.0006068621
223	0x3cc0022c	0.023438536
224	0x3a1a2238	0.0005879733
225	0xbd534df0	-0.051588
226	0xbd2cb7b2	-0.042167373
227	0xbcda42e4	-0.026643224
228	0xbd022576	-0.031774007
229	0x3bd180aa	0.006393512
230	0xbd4c7e39	-0.049925063
231	0x3cec8fe6	0.02887721
232	0xbcd0562c	-0.025431715
233	0xbc838a1d	-0.016057068
234	0xbda0616c	-0.07831082
235	0x3b2c03a2	0.0026247283
236	0xbd258940	-0.040414095
237	0x3d129c75	0.03579374
238	0x3e3c80dd	0.18408532
239	0xbc425f14	-0.011863489
240	0x3d2805da	0.041021205
241	0x3b61b395	0.0034439315
242	0x3e340a3d	0.1758203
243	0xbcce368b	-0.025172492
244	0x3b7728f8	0.0037713628
245	0x3d22a210	0.039705336
246	0x3b19e639	0.002348317
247	0x3bcc3758	0.0062321834
248	0xbd15e4cc	-0.03659515
249	0x3c89c8a7	0.016819311
250	0x3d013603	0.03154565
251	0x3bc4d69c	0.0060070287
252	0x3d53f00f	0.05174261
253	0xbd4a2f50	-0.049361527
254	0x3d146b68	0.036235243
255	0x3dfc41d9	0.12317247

fc2.bias f4 [300]
0	0xbcca8c4a	-0.024725098
1	0xbc60c789	-0.013719448
2	0x3cc028f9	0.023457037
3	0xbe09c770	-0.13454986
4	0xbc19baa8	-0.009382881
5	0x3d0ea2d6	0.03482326
6	0xbd43e810	-0.047828734
7	0xbe563efb	-0.20922463
8	0xbce8dbe6	-0.028425168
9	0xbbf69492	-0.007525035
10	0xbc8ce8fa	-0.017200936
11	0xbd7718ae	-0.06032627
12	0x3cad3994	0.02114562
13	0xbce32c35	-0.02773104
14	0xbd85727a	-0.06515975
15	0xbd959101	-0.07303048
16	0xbc1f5c18	-0.009726547
17	0x3b901a00	0.0043976307
18	0xbd298b35	-0.041392524
19	0xbce19b0d	-0.027539754
20	0xbdf15faf	-0.11785828
21	0xbcfa28d2	-0.030537043
22	0xbd30d4bf	-0.04317164
23	0xbc8afbb8	-0.016965732
24	0xbd2042ae	-0.03912609
25	0x3c5f19b8	0.013616972
26	0x3d05cea9	0.03266779
27	0xbad89295	-0.0016523177
28	0x3ca1b8f9	0.019741522
29	0xbd2f887b	-0.042854767
30	0xbd71e67a	-0.05905769
31	0xbcc6e9eb	-0.024281463
32	0xbd99c6bc	-0.07508609
33	0xbd055098	-0.032547563
34	0xbd178978	-0.036996335
35	0x3e0989d2	0.1343148
36	0x3bc38fa6	0.005968052
37	0xbd065a85	-0.03280117
38	0x3c11284e	0.008859707
39	0xbce2fce7	-0.027708484
40	0xbd738a00	-0.05945778
41	0xbcc16616	-0.023608249
42	0xbc1f932d	-0.009739679
43	0x3cb019d3	0.021496689
44	0xbd2a1c49	-0.04153088
45	0xbcb29857	-0.021801157
46	0xbabd2189	-0.001442955
47	0xbbce5ed4	-0.0062979255
48	0xbc9c35ca	-0.019068617
49	0xbc4b5709	-0.0124108875
50	0xbd3c750a	-0.046010055
51	0xbd907879	-0.07054228
52	0xbd9fcfd4	-0.07803312
53	0xbda2b8b9	-0.07945389
54	0xbd2a09a0	-0.041513085
55	0xbcfced67	-0.030874921
56	0xbcd41367	-0.025888158
57	0xbd87e62b	-0.06635698
58	0xbdc55790	-0.09635842
59	0x3c3152d1	0.010822968
60	0xbc7a5ed4	-0.015281398
61	0x3d55c4e9	0.05218974
62	0xbb3cac29	-0.002878914
63	0xbd153a13	-0.036432337
64	0x3e051771	0.12997223
65	0x3be74589	0.00705785
66	0xbd5740e0	-0.052552104
67	0x3d0dcdfe	0.034620278
68	0xbd3ae106	-0.045624755
69	0xbd1deb43	-0.03855444
70	0xbd308249	-0.043093
71	0x3d108455	0.03528245
72	0xbcbbbfdb	-0.022918632
73	0xbcbdbff5	-0.023162821
74	0xba8710eb	-0.0010304725
75	0x3bd5a785	0.006520214
76	0x3c540d79	0.012942665
77	0xbcc48fd1	-0.023994358
78	0x3c5c780a	0.013456354
79	0x3c5385a0	0.012910277
80	0xbd27f383	-0.041003715
81	0xbd946d73	-0.07247438
82	0xbc92d0ed	-0.01792189
83	0xbd22efc7	-0.03977945
84	0x3c17bc57	0.009261212
85	0xbd280eff	-0.041029926
86	0xbd49451e	-0.04913818
87	0x3c852b15	0.016255895
88	0x3cfc44a4	0.03079445
89	0xbd35641f	-0.044284936
90	0xbd169f86	-0.036773227
91	0xbe4c204a	-0.19934192
92	0xbdd2ffbd	-0.103026845
93	0x3ba9e40a	0.005184655
94	0xbd123a1a	-0.03569994
95	0x3d917181	0.07101727
96	0x3cb6efd3	0.022331154
97	0xbcf530fc	-0.029930584
98	0x3c58274c	0.013192963
99	0xbe1c69ab	-0.15274684
100	0xbd31f4ab	-0.043446224
101	0xbc753ff9	-0.014968866
102	0xbcf85ac3	-0.030316716
103	0x3c2418c9	0.010015675
104	0xbd4a8750	-0.04944545
105	0x3d1de8c9	0.03855208
106	0xbd3d12eb	-0.04616062
107	0xbcb2f9d8	-0.02184765
108	0xbd03e753	-0.03220303
109	0xbbf221d1	-0.007389285
110	0xbcd912c7	-0.026498212
111	0xbc3dcf89	-0.011585125
112	0x3bb6a2e5	0.0055736178
113	0xbbede291	-0.007259675
114	0xbc62cf73	-0.013843405
115	0x3c355550	0.011067703
116	0x3dd04198	0.10168761
117	0x3cf8eeb0	0.030387253
118	0x3c9ecac6	0.0193838
119	0xbd1b3c6f	-0.03789943
120	0xbce59c8c	-0.028028749
121	0xbdaa10fe	-0.08304022
122	0xbc70689e	-0.01467338
123	0xbcdd1cf5	-0.026991347
124	0x3bd6d816	0.006556521
125	0x3c109023	0.008823427
126	0xbc870a4e	-0.016484406
127	0x3d08e127	0.033417847
128	0xbcd78b56	-0.026311558
129	0xbd81e840	-0.06343126
130	0xbcac744a	-0.021051545
131	0x3d58229b	0.052767377
132	0x3922d2a7	0.00015527998
133	0x3c243a4b	0.010023664
134	0xbd0b0b13	-0.033946108
135	0x3d00809a	0.031372644
136	0xbd1a3b38	-0.03765413
137	0x3a983833	0.0011613428
138	0x3b69ed97	0.0035694593
139	0x3c89b676	0.016810637
140	0xbd9cd525	-0.076578416
141	0xbd273c98	-0.04082927
142	0x3d0ece89	0.034864936
143	0xbdae4961	-0.0851009
144	0x3cb7e4ad	0.022447908
145	0xbd1719ea	-0.036889948
146	0xbc333be9	-0.010939577
147	0xbba98556	-0.0051733656
148	0xbd986e47	-0.07442909
149	0xbd91f151	-0.071261056
150	0xbd5c292a	-0.053750195
151	0xbd9c999f	-0.076464884
152	0xba43e256	-0.00074723864
153	0xbd050da3	-0.032483708
154	0x3c13b66f	0.0090156635
155	0xbcf965c5	-0.030444035
156	0xbc7768bc	-0.015100654
157	0xbe35608e	-0.17712614
158	0x3d252a6a	0.040323652
159	0x3cfed157	0.03110568
160	0x3bffde9a	0.0078085186
161	0x3b7ba591	0.0038398246
162	0x3c1e61ee	0.009666903
163	0x3ad219b9	0.0016029394
164	0xbd279e7f	-0.040922638
165	0xbc2c3b20	-0.010512143
166	0xbbe38d4a	-0.006944333
167	0xbd5e6dc5	-0.054303903
168	0xbcacae74	-0.02107928
169	0xbc9b006d	-0.018921101
170	0xbe810d55	-0.25205484
171	0x3c4c78fc	0.012480017
172	0xba0b75dc	-0.00053199916
173	0xbcfeb146	-0.03109039
174	0xbd1c1e29	-0.0381147
175	0xbd354771	-0.044257585
176	0xbc104b4f	-0.0088070175
177	0xbd68099d	-0.056649793
178	0xbc918392	-0.017762933
179	0xba9e0fe4	-0.0012059179
180	0xbcc04b17	-0.023473306
181	0xba93ba0e	-0.0011270659
182	0xbcfb2f3a	-0.030662168
183	0xbd9b496b	-0.07582363
184	0xbd0ba23d	-0.03409027
185	0x3d196bce	0.037456326
186	0xbc55a9fa	-0.013041014
187	0x3c236fda	0.009975398
188	0xbd30a1ba	-0.043122984
189	0x3b30c1e0	0.0026971027
190	0xbbe11dcd	-0.0068700076
191	0xbc9b1c94	-0.018934526
192	0xbc1b74a2	-0.009488257
193	0x3ca2d0aa	0.01987489
194	0x3d3ec2f2	0.046572633
195	0xbc4781db	-0.012176956
196	0xbd3d2bf0	-0.04618448
197	0x3c44c342	0.012009444
198	0x3cc32e78	0.023825869
199	0x3a641b86	0.0008701611
200	0x3be10aef	0.0068677585
201	0xbd58c082	-0.052917965
202	0xbc28996e	-0.010290487
203	0x3d4635d8	0.048391193
204	0xbd383810	-0.04497534
205	0xbd8c329f	-0.06845593
206	0x3b74f9e6	0.0037380396
207	0xbc9ed23a	-0.019387353
208	0x3d49584a	0.049156465
209	0x3cea3fd0	0.028594881
210	0xbbe8021c	-0.0070803296
211	0x3cf065fc	0.029345505
212	0x3ad77ada	0.0016439811
213	0xbc458d50	-0.012057617
214	0x3cb6347a	0.02224182
215	0xbc8733cf	-0.016504196
216	0x39d599ff	0.00040741262
217	0xbe3a81cb	-0.18213575
218	0xbe5c6c61	-0.21525718
219	0xbd8100f6	-0.062990114
220	0x3ca85ef8	0.020553097
221	0x3c24445a	0.010026062
222	0xbd9a01b4	-0.07519856
223	0xbd324635	-0.043523986
224	0xbbd0e112	-0.0063744867
225	0x3cf27f6d	0.029601777
226	0xbd35c57f	-0.0443778
227	0x3c23c36a	0.009995321
228	0xbbde0751	-0.0067757745
229	0xbd11b746	-0.035575174
230	0xbd0a6153	-0.03378422
231	0xbd19c5d3	-0.037542176
232	0x3c718b64	0.014742706
233	0xbc7e9e99	-0.015540742
234	0x3ab23899	0.001359719
235	0x3d3b3518	0.04570493
236	0xbd48cc77	-0.049023118
237	0xbd3c3aa6	-0.04595437
238	0xbab8dd9a	-0.0014104128
239	0xbba5d158	-0.005060356
240	0xbd49ff4c	-0.049315736
241	0xbcf5df50	-0.03001371
242	0xbcf31450	-0.029672772
243	0x3aa62a26	0.0012677356
244	0xbbe28cb0	-0.006913744
245	0xbd48d8ed	-0.049035
246	0x3d45e5e2	0.048314936
247	0xbcbd45ed	-0.023104632
248	0x3cdee49d	0.02720862
249	0xbc0bcb1a	-0.00853231
250	0x3bdd7308	0.0067580976
251	0xbcbc784d	-0.023006583
252	0xbd990c5d	-0.07473061
253	0x3c4ba60d	0.012429726
254	0xbd084da0	-0.033277154
255	0xbd1c100b	-0.038101237

fc3.weight f4 [1, 300]
0	0xbc2a1d86	-0.0103830155
1	0xba04b7bc	-0.0005062779
2	0xbab2b85a	-0.0013635263
3	0x3ed2e71e	0.41191953
4	0xbbd37844	-0.0064535458
5	0xb9a1ac9d	-0.0003083692
6	0xbc5a497b	-0.013323183
7	0xbebce60a	-0.36894256
8	0x3c2cdc4e	0.010550572
9	0xbb71a505	-0.003687204
10	0xbbfebd63	-0.0077740415
11	0x3c34d4e1	0.011037082
12	0x3bf38fd6	0.007432918
13	0xbd47ccb0	-0.04877919
14	0x3af6edb4	0.0018839152
15	0xbbc191b5	-0.005907262
16	0xbcfbe13e	-0.030747052
17	0xbbb853dd	-0.0056252317
18	0x3a9ab7c1	0.001180403
19	0x3c5cb7e8	0.013471581
20	0xbb387788	-0.0028147418
21	0x3b2ee63e	0.0026687528
22	0xb8dda720	-0.00010569231
23	0x3ca289a0	0.019841015
24	0x383711c9	4.3647164e-05
25	0xba8bb921	-0.0010660031
26	0xbb913f96	-0.004432629
27	0xbb932ede	-0.004491671
28	0xbaf1e5a9	-0.0018455285
29	0xba99f00f	-0.0011744517
30	0xbc401d82	-0.011725785
31	0x3c26669f	0.010156303
32	0xba16c8bf	-0.00057519594
33	0xbb31cbd7	-0.0027129555
34	0xbca13095	-0.019676486
35	0xbe052623	-0.13002829
36	0x3b217784	0.0024637887
37	0x3baa88c4	0.005204292
38	0xbb802c06	-0.003911498
39	0x3c2fe710	0.010736242
40	0x3ad2c506	0.0016080446
41	0x3c1943d9	0.009354555
42	0xbaf4bf70	-0.0018672775
43	0x3c0d9ce2	0.008643361
44	0xbabc6f8b	-0.0014376504
45	0xbd59faf5	-0.053217847
46	0x3c9b8b74	0.018987395
47	0x3c108c2e	0.008822484
48	0xbcb10502	-0.021608833
49	0x3c906458	0.017625973
50	0x3a96ca0d	0.0011504308
51	0x3ac370fa	0.0014910989
52	0x3bfdda47	0.007746968
53	0xbc2f5d43	-0.010703388
54	0xba85c6d3	-0.0010206349
55	0xbaa0fdc3	-0.0012282658
56	0xbca159fd	-0.01969623
57	0x3ab5d3f2	0.0013872369
58	0x3b5c3eff	0.0033606885
59	0x3be93c1c	0.0071177613
60	0xbb69bddc	-0.0035666144
61	0x3eb29a4d	0.34883347
62	0x3c894f9d	0.016761595
63	0x3ac7bdf4	0.0015239106
64	0xbdcde3f4	-0.10053244
65	0xb9f60afd	-0.00046928963
66	0xbb269d0e	-0.0025423202
67	0xbc132c69	-0.008982756
68	0xbc55bf09	-0.013046035
69	0xbbdeaf87	-0.006795827
70	0x3bdaa7a5	0.006672817
71	0x3a3de425	0.0007243774
72	0xbc934776	-0.017978411
73	0x3a5a9dde	0.0008339564
74	0xbdb9ef69	-0.09078867
75	0x3a61dfee	0.0008616437
76	0x3c4bfa26	0.012449777
77	0xbb364d67	-0.0027817131
78	0xbc5ef598	-0.013608359
79	0xbb0e5289	-0.0021716675
80	0xbc120373	-0.008911955
81	0x3c9389d2	0.018010054
82	0xbce90e5a	-0.028449226
83	0x3a63238d	0.000866466
84	0x3c842899	0.01613264
85	0x3a0ea462	0.0005441365
86	0x3a98d502	0.0011660161
87	0xba9ca980	-0.001195237
88	0x3daa5baf	0.083182685
89	0x3b1a0459	0.0023501127
90	0x3c35b807	0.011091239
91	0xbeb5a68c	-0.35478628
92	0xbdcfe926	-0.101518914
93	0xbc92f908	-0.017941013
94	0xbb00c4b7	-0.0019648501
95	0x3d827043	0.063690685
96	0xbc4d34af	-0.012524768
97	0x3c1b1e2d	0.009467644
98	0x3cacc2be	0.021088954
99	0xbed9dffa	-0.42553693
100	0xbc9ba145	-0.018997798
101	0x3c2c892c	0.010530751
102	0x3aadb30e	0.0013252215
103	0xbc6c544a	-0.014424393
104	0x3b5f6bde	0.0034091393
105	0xbc2592d7	-0.01010581
106	0x3ab6dbd8	0.0013951017
107	0x3c3afc48	0.011412688
108	0x3ba791bf	0.00511381
109	0x3b790147	0.0037995146
110	0xbcad05ff	-0.021121023
111	0xbc4864ac	-0.012231033
112	0xbb8f5597	-0.004374217
113	0xbae9ea89	-0.0017846386
114	0xbaa366cd	-0.001246655
115	0xbcb5d216	-0.022194903
116	0xbdd0ead4	-0.1020104
117	0x3abca9ad	0.0014393829
118	0xba36f492	-0.0006979193
119	0x3c1c18af	0.009527369
120	0xbb8c4f0d	-0.0042818845
121	0x3cd75fb7	0.026290758
122	0xbc6d2f71	-0.014476643
123	0xbca22579	-0.019793259
124	0x3c7fc2ae	0.01561038
125	0xbc93dc07	-0.018049253
126	0x3b00f54d	0.001967746
127	0xbb561bfb	-0.0032670486
128	0xbadb7b1f	-0.0016745067
129	0xbbb9afe9	-0.005666722
130	0xbcba87f9	-0.022769915
131	0xbd6dbdb4	-0.058042243
132	0x3a567dcb	0.0008182197
133	0x3ad91713	0.0016562663
134	0x3d040d29	0.032239113
135	0xbb8ccd46	-0.0042969314
136	0x3a4394f8	0.0007460858
137	0x3c09bc63	0.008406731
138	0xbaacbdd8	-0.0013179136
139	0xbabf940c	-0.0014616265
140	0xbce1f5d9	-0.02758305
141	0x3ddb2fb4	0.10702458
142	0xbd6bce41	-0.057569746
143	0xbb2e215e	-0.0026570181
144	0xbab2805f	-0.001361858
145	0x38d2adc3	0.00010045946
146	0xbb4478e5	-0.0029979285
147	0x3bba0224	0.0056765247
148	0x3bb5768a	0.0055378126
149	0xbae534b8	-0.0017487025
150	0xbc3bf911	-0.011472956
151	0xbd66774f	-0.056266125
152	0x3a684b53	0.0008861322
153	0x3c52651e	0.012841491
154	0x3bf92349	0.0076030833
155	0x3a8b1d01	0.0010613502
156	0xbc2624c3	-0.010140601
157	0xbee66291	-0.44997075
158	0xbb2e0f89	-0.0026559553
159	0x3c3d97f8	0.011571877
160	0x3b3fd743	0.0029272593
161	0x3c37aa74	0.011210073
162	0x3b36880f	0.0027852093
163	0xba50fb95	-0.0007972059
164	0xbc825f43	-0.015914565
165	0xbc3b6c9d	-0.01143947
166	0xbc668473	-0.014069664
167	0x3ad7f46a	0.0016476039
168	0xbc96fa1e	-0.018429812
169	0xb961dbbe	-0.00021539532
170	0xbec4abea	-0.3841241
171	0xbc6e2f85	-0.014537697
172	0x3c3bfd6d	0.011473996
173	0x3ac7a35b	0.0015231179
174	0xbadcee99	-0.0016855776
175	0x3adc5fb8	0.0016813194
176	0x3aa5fdc4	0.0012664129
177	0xbb7feb54	-0.0039050179
178	0x3c19cf38	0.009387784
179	0x39c9decd	0.00038503707
180	0x3b942797	0.004521321
181	0x38c9e612	9.627281e-05
182	0xba623964	-0.00086297677
183	0xbd899e9e	-0.06719707
184	0x3ae3f929	0.0017392981
185	0x3ccace28	0.024756506
186	0x3a0b759c	0.00053199544
187	0x3b0d6053	0.0021572306
188	0xbc98f502	-0.018671516
189	0xbc1cd803	-0.009572986
190	0x3ab39bd3	0.0013703055
191	0xbb30007a	-0.0026855753
192	0x3c5023a5	0.012703811
193	0xbc3eb05f	-0.01163873
194	0xbb141c30	-0.002259981
195	0x3c1fdfd6	0.0097579565
196	0x3b39ae25	0.0028332558
197	0x3da9532e	0.082678184
198	0xbc1ad17c	-0.009449359
199	0xbb350747	-0.0027622746
200	0xbb236450	-0.0024931617
201	0xbc54e567	-0.012994147
202	0x3d00e2ed	0.031466413
203	0x3ae6d496	0.0017610963
204	0x3b0f50bc	0.002186819
205	0xbc26e731	-0.010186956
206	0x3b00e526	0.0019667833
207	0xbbcc94fb	-0.006243346
208	0xba96abe3	-0.0011495318
209	0x3cb831ec	0.022484742
210	0x3bc0bda1	0.0058819805
211	0xbb881f95	-0.0041541555
212	0x3c24217e	0.010017751
213	0x3ae584ed	0.0017510928
214	0x3c8b5ff5	0.01701353
215	0xbb87920f	-0.0041372846
216	0xba99c298	-0.0011730967
217	0xbeb7f351	-0.35927823
218	0xbebc302c	-0.36755502
219	0x39fb72dc	0.00047960028
220	0xbb31078a	-0.002701255
221	0xbb3b9b42	-0.0028626476
222	0x3cfa7e3d	0.030577773
223	0xbaf169ef	-0.0018418411
224	0x3ad985d3	0.0016595669
225	0xbb9e2e04	-0.004827263
226	0xbab836a5	-0.0014054371
227	0xbc21e20f	-0.009880557
228	0x3a9d6693	0.0012008719
229	0xba5081e1	-0.0007953924
230	0xbc2a1c0d	-0.010382664
231	0x3a0c67e3	0.00053560565
232	0xbb51d28b	-0.0032016363
233	0x3c4ae35d	0.012383309
234	0xbc5ea7fc	-0.013589855
235	0x3b2cbc62	0.0026357402
236	0x3c1bd5b2	0.009511398
237	0xbb915faa	-0.004436453
238	0x39af5d89	0.0003344829
239	0xbbb7edc4	-0.0056130607
240	0x3db7f229	0.08981735
241	0x3ab3ad8f	0.0013708341
242	0x3a01c031	0.0004949598
243	0xbbda329a	-0.006658864
244	0xbc717990	-0.014738455
245	0x3de2912b	0.11062845
246	0xbb60b5b8	-0.0034288
247	0x3c76b4ec	0.015057784
248	0xbae11bc2	-0.001717441
249	0xbcf38fb4	-0.029731609
250	0x3ba921ab	0.0051614842
251	0xbc20fd90	-0.009826079
252	0x3c6c34a1	0.014416845
253	0xbb279bf4	-0.0025575133
254	0x3c3053ee	0.010762198
255	0x3a8d615e	0.0010786464
