runs/actor.pth (torch, 5911 bytes, 5 tensors)

fc1.weight f4 [40, 2]
00000000: 783f 92bc 05db 66be f9b7 06bd 281f 2dbd
00000010: 7828 0c3e 9f98 483d 85db e1bc e3ce da3c
00000020: e8d5 cabc 15bb 163e 2417 803d 72eb 2d3d
00000030: ec3f b0bd 08bd 433e 78ff babc 8922 7cbd
00000040: b0cf ca3d f6f6 033e fc1f 213e fbdd 3f3d
00000050: 9621 86bd ec07 193e 05e9 0a3e 35ce 1ebe
00000060: 62c6 183b 6f02 9abd dbf4 953b 21c7 fe3d
00000070: 20cb 05bd 8db7 58bc eec0 913d 0bb2 d9bc
00000080: b747 1dbe e4b1 3e3e 2815 c7bd 1a5e 2f3d
00000090: 265b 743c e6ae 1bbc fdb4 0abe 1560 ae3d
000000a0: 2cf6 d0bd 41d4 43bd 5106 2c3d 9237 28be
000000b0: fdf8 7dbd df20 00be f5bd a6bd 0375 84bc
000000c0: 378c 6bbd ebb6 c93d d21e 14be ab3b 23bd
000000d0: e932 173b 7021 b43c 81d7 b23d a576 e3bd
000000e0: 12b9 4e3d ed0d b83d 85cd b33d 1fce 16be
000000f0: 249e afbd b034 b6bd 7499 fcbd 738d 143e
00000100: 24ac 27bd cc2b 023e 3b2c 10be 22a5 6e3d
00000110: 1ed3 11be d3c4 ea3d 1517 acbd d0f3 b23c
00000120: 799a 20be 0511 6f3d a1ba 193e 7f2c 9d3d
00000130: a94c ddbd f486 723d 4fef d1bc 29f8 59be
-0.01785253 -0.22544487 -0.032890294 -0.04226604 0.13687313 0.048973676 -0.027570495 0.02670998
-0.024760202 0.14719804 0.06254414 0.042460866 -0.08605942 0.19115078 -0.022826895 -0.061556373
0.099028945 0.12887177 0.15734857 0.046842556 -0.06549375 0.14944428 0.13565452 -0.15508349
0.0023311605 -0.075199954 0.004576308 0.124403246 -0.03266442 -0.013227356 0.071168765 -0.026574155
-0.15359388 0.18622547 -0.09720832 0.04281435 0.01491431 -0.009502148 -0.13545604 0.0851442
-0.102032036 -0.047809843 0.04199821 -0.16427448 -0.06200503 -0.1251254 -0.081417 -0.016169077
-0.057506766 0.09849342 -0.14464882 -0.039851826 0.0023071116 0.0219886 0.0873251 -0.11106614
0.050469466 0.08987031 0.08779434 -0.14727066 -0.08575085 -0.08896768 -0.12333956 0.14507084
-0.04093565 0.1271202 -0.14079373 0.05826295 -0.14240691 0.114633225 -0.0840284 0.021844774
-0.15683927 0.05836584 0.150126 0.076745026 -0.108056374 0.059210733 -0.025626807 -0.21286072

fc1.bias f4 [40]
00000000: 385e aabe 080a f7be fd16 c03e 7056 92be
00000010: a6ee c83e f2d2 2bbe 5489 d53e 6fa5 0cbf
00000020: e6b3 b6be 0ec1 5c3e 5432 1e3e 1f9c 38be
00000030: 3542 ce3e d2db fc3e 3945 03bf eb47 c1be
00000040: f413 283f 25f1 6ebe 4059 80be 0879 32bf
00000050: 3791 c3be f007 3c3e 1d2e b8bd eb57 00bf
00000060: f460 c43c fd5c f4be 8293 19bf 755c c7be
00000070: 296e 1ebf 1886 e6be 80fc 383f ac92 153e
00000080: 36f2 643e 4dc7 1fbf 7cb9 dabe 245a 6ebe
00000090: 4e9b f13d 6448 1fbf bca6 95be 155a cebe
-0.33275008 -0.4824984 0.3751754 -0.28581572 0.39244574 -0.16779688 0.41706336 -0.5493993
-0.35684127 0.2155802 0.15448886 -0.18028305 0.40284887 0.4938646 -0.512775 -0.37750182
0.65655446 -0.23334177 -0.25068092 -0.6971593 -0.38196728 0.18362403 -0.089931704 -0.5013415
0.023972012 -0.47727194 -0.59990704 -0.38937727 -0.6188684 -0.4502418 0.72260284 0.14606732
0.22358021 -0.62413484 -0.42719638 -0.23276573 0.117972 -0.62219834 -0.2922877 -0.40303102

fc2.weight f4 [20, 40]
00000000: 6a4b 803e 61ca 6c3b 6be2 403d a2ee b8bd
00000010: 64f9 1dbe 7205 173d b975 833d dd6e 4d3d
00000020: 85b4 dcbd 4a4f 5e3e e2a8 d9bd 0b3a 0cbe
00000030: 7f0a 8dbd e5f4 273e 9eac 3437 8ba7 f8bc
00000040: 77e4 b6bd 9580 64bd 10d9 40be 6a4f 22be
00000050: 53fa 1c3e 759e 8a3e 6279 803e 0327 1fbe
00000060: 20e6 503d adeb f1bd ae98 083e 7a37 253e
00000070: 2232 313e 60df 243e 3dc6 2e3e 0261 a2bb
00000080: d521 873d 7b0c 12be 7335 173d b32a 7dbd
00000090: bd90 133c 274b 47be 2dd9 8fbd a727 34bd
000000a0: 5c50 63be 0a3a 12be e2f2 4dbe 278f 6e3c
000000b0: bc46 773e 9089 503e 1b0a 503e f35e edbd
000000c0: f674 62be 9db4 ad3d 1454 893e 8e93 44be
000000d0: e09c 913d fe1e a03e 3bed 5d3c 70f2 09be
000000e0: 2144 663e 49bf fa3d 5da0 173e 2b47 1dbe
000000f0: 86a5 013e 1ad6 85be 9418 533e 5a81 c1bd
00000100: 64d4 8c3e 184b 443d abb8 723d f374 0cbd
00000110: 4c18 bc3d fcdb bebd 0df7 5abe 7cdc f4bc
00000120: a3a7 843e 7962 6d3d 8017 413e 4fc8 88bd
00000130: 08e0 423e cf09 093e 4271 fc3d 91eb 79be
00000140: c2e6 a8be a7d1 093c 3954 06be ae42 3c3e
00000150: 3eab f4bd 52a4 cc3d ad8a 963e 4b5a e53d
00000160: 6d26 9c3d 534e 5cbe 5b51 b73e 4ea9 1cbd
00000170: 93b4 61be a409 af3e 425a babd 3498 81bc
00000180: 1131 7a3e 4d14 05be 11ff 21be 8b5c 043d
00000190: e9a6 12bd 668b 84bd 5eb5 51be c31d 9f3b
000001a0: 5b72 2f3d 6b92 dfbd 0da8 51be cfcf f23d
000001b0: 3b6f 303d 8095 41be e42e 303e aa4b f93d
000001c0: 10cd fd3d aabe 78bc 216a 1a3e 4999 6a3e
000001d0: 9c12 323e 2d57 32be ce69 7c3e 9564 f6bd
000001e0: eab3 14bd 2fd5 313e ae33 433e 227e 32be
000001f0: 1da3 933e 5183 1bbe c227 af3d 8dff 1fbe
00000200: 58cb 48bd 917b 26bc 09fb e63d 69b0 10bd
00000210: ff3f a43b 3f04 ac3e 4209 053e 8d1a 003e
00000220: 9070 023e 4527 493e 0112 29bc 7748 313c
00000230: c164 203d 3a45 a0be 8810 4bbe 4299 c73c
00000240: 70c6 523d 024e 96bb ea28 52bd 0d92 0e3d
00000250: 40f9 143e d4df 97bd dda9 303e f24f 6a3e
00000260: 8e72 bcbd be71 6dbd 42a9 87bd d942 e2bd
00000270: c251 8bbd abe0 89bc 0007 64bc 2200 81be
00000280: 1d04 60be fba9 a5bd b1a1 603e 6fba a9bd
00000290: 8cf8 9cbd 0a5e be3d 680d 453d 334b 2f3e
000002a0: ed11 0f3e 4b5d 523e 0103 11bd d732 133e
000002b0: c31b 2f3e be75 42bb bc77 523e f5a5 2b3e
000002c0: 731b 063d 59a0 023e a81b a0bd e283 48be
000002d0: e1a5 3f3d c352 42bd ff15 2dbe 16f7 db3d
000002e0: a612 80bd a9ec 403e 50bc 5d3e 145c 793d
000002f0: 1baa 0fbe 96de de3d 4566 d93c 0cd6 d83d
00000300: 09d2 163e 115f 8d3e f1e6 2c3c 2551 27bd
00000310: 4aa3 973d f197 c73c 66f3 5d3e 8144 80be
00000320: eda7 14be 071d 2b3d 5040 73bd 4f18 1c3e
00000330: 4bb2 f53d c19f 53be c62a 4e3d 74b4 cfbd
00000340: 35ff b13c 02e2 d4bc 83f6 a5bd 25e6 26bd
00000350: 291a c1bc 5819 663d 5260 523e dfd8 47bd
00000360: ebd5 413e a80d b03d b448 41be 74d1 4f3d
00000370: 441a 403e e099 7bbe b0f3 1bbe ff99 633e
00000380: bc22 a33e 6db8 edbd 98c8 093e 2358 eabc
00000390: 66c0 61be e2a0 893c 033c 9b3d cc41 06bc
000003a0: e5b0 243e 57cb 9abd d635 8b3e 06be 573e
000003b0: 846a 1a3e 683c 1b3d 3170 f63d 29bf 90be
000003c0: cfbf 44be a3ef aebc 4cd7 febd d31f 29be
000003d0: 8511 7d3e 4564 1b3e 8174 02be 5fb9 913d
000003e0: 314b ba3d 7784 593e c098 8b3e ec80 523e
000003f0: 81d3 9bbd 234b 903e 4b3f 3a3e d939 58be
0.25057536 0.003613137 0.04709093 -0.090298906 -0.15427166 0.036870427 0.06418938 0.050154556
-0.10776619 0.21709934 -0.10627915 -0.13694017 -0.068867676 0.16402014 1.0769027e-05 -0.030353328
-0.08930295 -0.055786688 -0.18832803 -0.15850607 0.15329866 0.27074018 0.25092608 -0.15542226
0.051000714 -0.1181253 0.13339493 0.16134444 0.1730428 0.16100836 0.1706781 -0.004955412
0.0659825 -0.14262573 0.036916208 -0.0618083 0.009006676 -0.19462262 -0.07023845 -0.043983128
-0.22198623 -0.14279953 -0.20112184 0.014560497 0.24148077 0.20364976 0.20316355 -0.11590376
-0.2211493 0.08481715 0.2682196 -0.19196913 0.0711 0.31273645 0.01354533 -0.13471389
0.22486927 0.12243516 0.14807267 -0.1535918 0.12660798 -0.2613991 0.20614845 -0.094485
0.2750579 0.047923177 0.059258144 -0.03429122 0.09184322 -0.093193024 -0.21383305 -0.029890291
0.25909147 0.05795524 0.18856621 -0.06678831 0.19030774 0.13382648 0.1232629 -0.24406268
-0.32988554 0.008411801 -0.13118066 0.18384811 -0.11946724 0.09992279 0.29402676 0.11198863
0.07624517 -0.21514253 0.35804257 -0.0382474 -0.2204154 0.34187043 -0.090992466 -0.015819646
0.2443278 -0.12996025 -0.15819956 0.03231482 -0.03580371 -0.06471901 -0.20479342 0.004855843
0.042833667 -0.10916599 -0.20474263 0.118560426 0.043074828 -0.18904686 0.17205387 0.12172635
0.12392628 -0.015182177 0.15079547 0.22910036 0.17389911 -0.17416067 0.24649736 -0.12030903
-0.036304392 0.1736648 0.19062683 -0.17430928 0.28835383 -0.15186812 0.08552505 -0.15624829
-0.04902205 -0.010161296 0.1127835 -0.035324488 0.0050125117 0.3359699 0.12991813 0.12510128
0.12738252 0.19643886 -0.010319234 0.0108205 0.039158586 -0.31302816 -0.19830525 0.024365071
0.051458776 -0.004586936 -0.05130855 0.034807254 0.14548206 -0.07415739 0.17252298 0.22882059
-0.09201537 -0.0579698 -0.0662408 -0.110479064 -0.068027034 -0.016830763 -0.013917685 -0.25195414
-0.21876569 -0.08089062 0.2193668 -0.082875125 -0.07664594 0.0929528 0.04810849 0.1711853
0.13971682 0.20543401 -0.035403255 0.14374863 0.17100434 -0.002967223 0.20553488 0.16762526
0.03274102 0.1275648 -0.07817775 -0.1958156 0.046789054 -0.04744221 -0.16902922 0.10740487
-0.06253557 0.18840279 0.21653867 0.06087883 -0.14029734 0.10882299 0.026538024 0.10587701
0.1472856 0.27611592 0.010553108 -0.04084887 0.07404192 0.024364443 0.2167488 -0.25052264
-0.14517184 0.04177573 -0.059387505 0.15243648 0.11996897 -0.2066641 0.05033376 -0.101418406
0.021728138 -0.025986675 -0.08103659 -0.040746827 -0.023572044 0.056176513 0.20544556 -0.04879081
0.1892926 0.08596355 -0.1887539 0.05073686 0.1876002 -0.24570417 -0.15229678 0.22226714
0.31862438 -0.11607442 0.13455427 -0.02860648 -0.2204605 0.016800348 0.07579806 -0.008194398
0.16083105 -0.07558315 0.2718951 0.21068582 0.15079695 0.037899405 0.120331176 -0.28270844
-0.19213794 -0.021354502 -0.12443408 -0.16516046 0.24713714 0.15174969 -0.12739755 0.07115435
0.09096373 0.21241938 0.27264977 0.20556992 -0.076087005 0.28182325 0.18188207 -0.21115817

fc2.bias f4 [20]
00000000: c25d d0bd 2e18 503d 6791 b6bd 6a3f 313c
00000010: b873 1c3e 8131 0bbd 5d04 11bd 8f5d cd3d
00000020: dc1a 6ebd e729 2b3b dc96 143e 34af 82bd
00000030: 8502 bbbd 2692 76bd c88d 33bd 9fa6 99bd
00000040: deba b7bd 935a 763d 751d dc3c b334 e9bc
-0.10174133 0.05080431 -0.08914452 0.010818342 0.15278518 -0.033982757 -0.03540455 0.100276105
-0.058131084 0.0026117505 0.14510673 -0.063810736 -0.0913134 -0.06019797 -0.043836385 -0.075024836
-0.08971189 0.060144972 0.026869515 -0.028467512

fc3.weight f4 [1, 20]
00000000: ea88 babd 70fa 9e3d 68ca 953d d89a 643d
00000010: 0ac5 b53c ce34 803d b646 9f3d 1aa6 6e3d
00000020: dc00 1cbb 8c3a 8b3d 8459 913c dabd d73c
00000030: b5ec 19bd d862 e93d 0e12 1f3b 2f98 01bb
00000040: a6f8 8e3b c6d8 233d 96df f63a 30ed 533d
-0.091081455 0.07762611 0.073139966 0.055811733 0.022188682 0.06260072 0.07777159 0.058263876
-0.0023804223 0.06798276 0.01774288 0.026335645 -0.037579257 0.11395806 0.0024272236 -0.0019774546
0.0043631373 0.040001653 0.0018834944 0.05173987
