runs/actor.pkl (torch, 186839 bytes, 5 tensors)

fc1.weight f4 [300, 2]
0.0018603392 -0.043470476 -0.036703907 0.013624204 -0.012888666 -0.034979947 0.0025039427 -0.021690369
0.012029357 0.05058454 -0.017631508 -0.05052199 0.010334142 0.015236951 -0.014538951 0.029042266
-0.053434756 0.06068514 -0.05237127 -0.0070001488 -0.057188965 0.011117202 -0.03913118 -0.011840727
0.017026432 -0.0026753433 -0.024854666 0.024898607 -0.022473952 0.009575589 -0.08890632 0.015818115
-0.005347252 -0.031475507 0.019290544 0.049454466 -0.02236443 0.03798817 0.01036278 -0.029073559
-0.008954838 -0.054880083 -0.05488403 0.05431635 -0.032316625 -0.014624983 0.0037236325 -0.050051138
-0.13171867 0.06748374 -0.039518606 -0.0015613548 -0.051210675 -0.022966448 -0.01472193 0.05109065
0.008471623 0.05616252 0.020809636 0.0654718 -0.013764977 0.021315522 -0.034303572 -0.020174377
-0.022479877 0.0054460373 0.01602027 0.018225424 -0.031382006 0.019106448 0.044617176 0.025469117
0.04366441 -0.031059606 0.050925404 -0.03822545 0.046622045 -0.03454043 0.0071092993 0.026944257
-0.014597543 0.033437587 -0.04406844 -0.026947536 0.040427208 0.011444494 -0.009334262 0.00017538806
-0.034020722 -0.0537054 0.054905005 0.031700097 -0.018343866 -0.013563691 0.03720007 0.03026069
-0.042884365 0.010386132 0.0003959462 0.053234756 0.030446703 -0.027076386 0.013672307 -0.03534974
0.033705365 0.045447845 -0.0766191 0.07450189 0.013857545 0.06724932 -0.064516045 0.0571866
0.018182449 -0.04594916 -0.008570291 -0.044648238 0.01985646 -0.018850151 0.018276958 0.0050992426
0.026386186 0.048082627 -0.043184225 0.06505894 0.046586752 -0.04285824 0.01667598 0.006239997
-0.051164422 0.046043064 -0.06934373 0.02683487 -0.01907514 0.053077962 -0.092980996 0.0714238
-0.042170066 0.0052113943 0.035859577 0.023389317 0.026897162 0.0046337806 -0.032202255 0.025698822
-0.018337013 -0.011494431 0.03846703 0.04375715 -0.016426958 -0.04641605 -0.0022037588 0.011821914
-0.04760748 0.04489938 0.007434398 -0.03529461 0.038366653 0.0024548061 0.020867199 0.05442795
-0.07138504 0.0067280615 0.020708092 0.012073343 -0.012513772 0.0087246895 -0.07701052 0.057061605
-0.05558727 -0.031568784 -0.0036861822 -0.012931688 0.02376198 -0.019141655 0.032859623 0.05280596
-0.013577167 -0.0448543 0.0027561672 0.041166164 -0.03335037 4.2266212e-05 0.0324481 0.019631557
-0.07323085 0.0021294001 0.014625248 -0.024644619 0.03283413 0.026694842 -0.024414921 -0.012825016
0.008044271 0.010519333 0.04168383 -0.00090713287 -0.021448653 0.032622196 -0.01532268 -0.013453985
-0.01867784 -0.027084623 -0.043875303 -0.029007463 0.020420708 -0.050586693 -0.008293055 0.046026886
-0.024418768 -0.028976532 -0.030880356 0.023578964 0.016279526 -0.01972953 0.012454584 0.043247264
0.0020864382 0.033964686 0.0015171375 -0.0041986383 0.0296432 0.059154917 -0.06624024 -0.037656754
0.029097356 0.03471634 0.0076225027 0.048657596 -0.02622629 0.04196088 0.012439106 0.06484459
-0.03787525 0.035453174 -0.019278709 -0.036933843 0.04980115 -0.020981677 0.0007391572 -0.050446775
0.027369924 -0.0029127859 -0.07955503 -0.028222544 0.00936713 -0.0046250634 -0.061251834 -0.014104756
0.02608861 -0.005243294 0.030888434 0.043074224 -0.0670481 0.04197929 0.0047926307 0.0042804703
00000000: a0d6 f33a 190e 32bd d656 16bd 0e38 5f3c
00000010: fc2a 53bc 2247 0fbd 3019 243b 00b0 b1bc
00000020: c816 453c bc31 4f3d f46f 90bc 25f0 4ebd
00000030: 8850 293c 68a4 793c c834 6ebc 0cea ed3c
00000040: 67de 5abd fb90 783d 4283 56bd 8161 e5bb
00000050: fa3e 6abd ed24 363c 0448 20bd 9cff 41bc
00000060: 047b 8b3c d054 2fbb 039c cbbc 2af8 cb3c
00000070: 4b1b b8bc eee2 1c3c 8414 b6bd fe94 813c
00000080: 0038 afbb 76ec 00bd 3407 9e3c c490 4a3d
00000090: 9c35 b7bc 7c99 1b3d a6c8 293c ac2b eebc
000000a0: 50b7 12bc f0c9 60bd 14ce 60bd d27a 5e3d
000000b0: 705e 04bd a09d 6fbc 3008 743b 6c02 4dbd
000000c0: 42e1 06be ea34 8a3d 43de 21bd 60a6 ccba
000000d0: 49c2 51bd 2224 bcbc 4034 71bc 6e44 513d
000000e0: 90cc 0a3c ac0a 663d f878 aa3c 1416 863d
000000f0: 8086 61bc e49d ae3c e781 0cbd bc44 a5bc
00000100: b827 b8bc ac74 b23b f13c 833c 7c4d 953c
00000110: 6b8a 00bd 2085 9c3c 80c0 363d 9ca4 d03c
00000120: 74d9 323d b770 febc 2897 503d 4a92 1cbd
00000130: c2f6 3e3d 447a 0dbd 20f5 e83b 34ba dc3c
00000140: 882a 6fbc daf5 083d 1c81 34bd 14c1 dcbc
00000150: 0097 253d b081 3b3c bcee 18bc 60e8 3739
00000160: 5059 0bbd 32fa 5bbd 12e4 603d f6d7 013d
00000170: e045 96bc 3e3a 5ebc 1a5f 183d 44e5 f73c
00000180: 84a7 2fbd 982a 2a3c 0097 cf39 b00c 5a3d
00000190: 5d6b f93c 4ccf ddbc d001 603c e4ca 10bd
000001a0: a30e 0a3d 8527 3a3d 7aea 9cbd 7294 983d
000001b0: c20a 633c 03ba 893d fd20 84bd 7f3c 6a3d
000001c0: 5cf3 943c 3035 3cbd 686a 0cbc 12e1 36bd
000001d0: 04aa a23c a26b 9abc 8fb9 953c 8c17 a73b
000001e0: d827 d83c 4af2 443d f1e1 30bd 9f3d 853d
000001f0: c0d1 3e3d 1f8c 2fbd 119c 883c e478 cc3b
00000200: c991 51bd a797 3c3d 1604 8ebd cdd4 db3c
00000210: 7843 9cbc 4768 593d d26c bebd a446 923d
00000220: 85ba 2cbd 58c4 aa3b 7ee1 123d f49a bf3c
00000230: 7057 dc3c f8d6 973b 83e6 03bd 5686 d23c
00000240: 8137 96bc 2353 3cbc 9b8f 1d3d b33a 333d
00000250: d491 86bc c21e 3ebd f06c 10bb b4b0 413c
00000260: 1000 43bd 6ae8 373d 409c f33b 1591 10bd
00000270: 5a26 1d3d d0e0 203b b0f1 aa3c d8ef 5e3d
00000280: 5232 92bd 1277 dc3b 04a4 a93c 45cf 453c
00000290: 9006 4dbc 00f2 0e3c b1b7 9dbd 6eb9 693d
000002a0: 7aaf 63bd 454e 01bd e093 71bb 6edf 53bc
000002b0: 7ca8 c23c f6ce 9cbc d097 063d 104b 583d
000002c0: c472 5ebc 24b9 37bd d0a0 343b da9d 283d
000002d0: 669a 08bd 0047 3138 4de8 043d 5cd2 a03c
000002e0: 0efa 95bd 688d 0b3b bc9e 6f3c 83e3 c9bc
000002f0: 157d 063d 24af da3c cd01 c8bc 0420 52bc
00000300: 1ecc 033c 4859 2c3c aabc 2a3d a8cc 6dba
00000310: 16b5 afbc da9e 053d fa0b 7bbc 1a6e 5cbc
00000320: 4502 99bc 92e0 ddbc 97b6 33bd 0fa1 edbc
00000330: 5449 a73c fe33 4fbd 98df 07bc b086 3c3d
00000340: de09 c8bc 3160 edbc cdf8 fcbc ac28 c13c
00000350: a45c 853c d39f a1bc 500e 4c3c 0b24 313d
00000360: a0bc 083b 8e1e 0b3d b0da c63a bb94 89bb
00000370: 4cd6 f23c 6d4c 723d f7a8 87bd f83d 1abd
00000380: 945d ee3c b932 0e3d 30c6 f93b 304d 473d
00000390: 84d8 d6bc 2cdf 2b3d 64cd 4b3c 3ecd 843d
000003a0: 1423 1bbd 5937 113d 62ee 9dbc f147 17bd
000003b0: 4afc 4b3d c4e1 abbc 00c4 413a 47a1 4ebd
000003c0: e436 e03c 70e4 3ebb bfed a2bd f732 e7bc
000003d0: 9778 193c d88d 97bb 34e3 7abd a217 67bc
000003e0: c8b7 d53c f0cf abbb be09 fd3c 996e 303d
000003f0: 8450 89bd 7af2 2b3d 800b 9d3b 3043 8c3b

fc1.bias f4 [300]
-0.3811009 0.39617193 -0.6692256 -0.27350834 -0.13775766 -0.6008642 -0.44964096 -0.11541301
0.5565903 0.7078937 0.46958798 -0.42223042 -0.46260422 0.641078 0.27587658 0.07212059
0.13304263 -0.5682994 -0.23609266 0.7031083 -0.17439532 -0.03499783 -0.58713275 -0.39556056
0.11228007 -0.43922603 -0.08768803 0.31432545 -0.6916758 0.24129993 -0.46754476 -0.34510422
0.29873648 0.5826285 -0.1932584 -0.29031616 -0.6393913 -0.36462504 -0.6191688 -0.16183591
0.1723263 -0.6624712 0.63679457 0.46630377 -0.69221926 -0.33773753 0.2554977 -0.14528185
-0.07705802 -0.31926978 0.5895486 -0.39527142 0.6052604 0.0982223 0.16749229 0.5748024
-0.116506875 -0.40258652 -0.11436337 0.59314644 -0.5246643 0.18137932 -0.6949385 0.3897444
0.28419968 0.06792066 0.32183135 0.056324862 0.41390434 -0.5597602 -0.10384041 0.33529204
0.7281332 0.38351348 -0.51418996 0.56495273 -0.15768355 -0.15097749 -0.6426962 -0.11130875
0.52271163 0.1337414 -0.41185713 0.24649185 -0.22672981 0.6730984 -0.61373657 -0.22335774
-0.6827636 -0.27848 0.2502692 0.70502377 0.14463186 0.7200401 0.16735202 0.4361733
0.5871501 0.608436 -0.39578444 0.67501616 0.4580501 -0.33062828 -0.33743373 -0.5930831
0.20880547 -0.57314485 0.3211227 0.25344795 -0.6143359 0.22192712 -0.05742254 0.34872574
0.43560213 -0.7029667 0.6743331 0.61297995 0.3040873 -0.64626807 -0.25259322 -0.20492584
-0.18172497 0.43161407 0.2679515 0.58078694 -0.26482788 0.26703155 0.27282953 -0.5887306
-0.6859076 -0.36690998 0.50987947 -0.6657125 -0.61548966 0.42085418 0.40403003 0.60196257
-0.5338223 -0.5175313 0.39410794 0.6462511 0.45087916 0.13909334 0.26083374 0.68798864
-0.45622835 -0.32103482 0.51467454 -0.48383045 -0.38990757 0.5340277 0.25369945 0.25741526
-0.2997004 -0.010379198 0.6719178 -0.42441967 -9.980146e-05 0.36604834 -0.48815557 0.7042956
-0.353278 -0.16980183 -0.19132209 -0.46079242 -0.69385886 0.42320502 0.22091155 -0.66227674
-0.45511287 0.7255869 0.2880638 0.3070762 -0.42306063 -0.30999285 -0.10674071 -0.12931561
-0.48454377 0.1031626 0.11459838 -0.08953458 0.12411138 -0.2802622 0.21544603 0.29233405
-0.37246072 -0.70115227 0.39788553 0.19672933 -0.359626 0.71125007 -0.3197876 0.49607345
0.37071767 -0.59284407 0.47925588 -0.65016556 -0.39174753 -0.11788523 -0.47662285 0.7157622
-0.14183122 0.31127703 -0.6313841 0.43424457 -0.21975729 -0.5378758 0.1391876 0.37155998
0.64112854 -0.4318956 -0.34797028 0.16190559 0.22565198 0.29381317 0.4135242 -0.16033906
0.41901934 0.54271674 -0.18471152 0.5307529 0.36358708 0.6540545 -0.40183032 -0.34917566
-0.2044521 0.092663065 0.44547153 -0.40366083 0.38033098 -0.25341392 0.44376457 -0.03357148
-0.619487 -0.38908258 -0.51176995 0.38024405 -0.47414917 -0.058941104 0.18842998 -0.3877736
0.22794504 -0.6904356 -0.50594085 -0.640726 -0.21388379 -0.25759715 0.13439356 -0.13075429
0.36159807 0.67151964 0.2887447 -0.2785771 -0.66212463 0.28294274 -0.35034162 0.3861782
00000000: a81f c3be 0cd7 ca3e 5e52 2bbf 4909 8cbe
00000010: 5810 0dbe 3cd2 19bf 5737 e6be a85d ecbd
00000020: b47c 0e3f 8638 353f d66d f03e 962e d8be
00000030: 76da ecbe b01d 243f b23f 8d3e f6b3 933d
00000040: 543c 083e 127c 11bf 46c2 71be e8fe 333f
00000050: b094 32be e259 0fbd 554e 16bf ea86 cabe
00000060: 18f3 e53d 3ce2 e0be c895 b3bd 44ef a03e
00000070: aa11 31bf 5417 773e 0762 efbe 80b1 b0be
00000080: fdf3 983e 2427 153f 88e5 45be 52a4 94be
00000090: 26af 23bf 22b0 babe d981 1ebf 50b8 25be
000000a0: 4e76 303e b697 29bf f804 233f 5ebf ee3e
000000b0: 4835 31bf efeb acbe 98d0 823e c4c4 14be
000000c0: 98d0 9dbd 5477 a3be a8ec 163f 0461 cabe
000000d0: 58f2 1a3f c628 c93d 1983 2b3e 4026 133f
000000e0: 289b eebd d21f cebe 5837 eabd 72d8 173f
000000f0: 6650 06bf 80bb 393e 7de7 31bf 948c c73e
00000100: 9f82 913e fd19 8b3d 14c7 a43e e6b4 663d
00000110: 45eb d33e 724c 0fbf 48aa d4bd 66ab ab3e
00000120: f066 3a3f e15b c43e f4a1 03bf bea0 103f
00000130: cc77 21be d899 1abe bd87 24bf d8f5 e3bd
00000140: 6ed0 053f 81f3 083e f0de d2be 5c68 7c3e
00000150: dc2b 68be 2d50 2c3f d71d 1dbf e4b7 64be
00000160: 98c9 2ebf ee94 8ebe 4923 803e 707c 343f
00000170: 601a 143e 8c54 383f 545e 2b3e 1b52 df3e
00000180: 784f 163f 76c2 1b3f 42a4 cabe dccd 2c3f
00000190: 8b85 ea3e 1c48 a9be 1dc4 acbe 4bd4 17bf
000001a0: 1ad1 553e 9fb9 12bf 326a a43e eec3 813e
000001b0: 1e45 1dbf dd40 633e e633 6bbd 2e8c b23e
000001c0: 3e07 df3e a0f5 33bf 18a1 2c3f 41ec 1c3f
000001d0: 55b1 9b3e d371 25bf e653 81be 14d8 51be
000001e0: 1c16 3abe 85fc dc3e f030 893e 74ae 143f
000001f0: 8597 87be 5cb8 883e 50b0 8b3e 0cb7 16bf
00000200: a497 2fbf a0db bbbe 7687 023f 226c 2abf
00000210: bb90 1dbf 337a d73e 06dd ce3e 381a 1a3f
00000220: 94a8 08bf ee7c 04bf 84c8 c93e b670 253f
00000230: a2d9 e63e 7c6e 0e3e 008c 853e 0620 303f
00000240: c396 e9be ad5e a4be b6c1 033f a0b8 f7be
00000250: f7a1 c7be 0ab6 083f e5e4 813e efcb 833e
00000260: 5572 99be 830d 2abc ce02 2c3f 894d d9be
00000270: 804c d1b8 b06a bb3e 87ef f9be b74c 343f
00000280: dbe0 b4be 88e0 2dbe f0e9 43be fcec ebbe
00000290: bca0 31bf 54ae d83e a336 623e f88a 29bf
000002a0: 8e04 e9be 10c0 393f 197d 933e 1739 9d3e
000002b0: 679b d8be 62b7 9ebe e09a dabd 506b 04be
000002c0: 1f16 f8be ea46 d33d 8eb2 ea3d e85d b7bd
000002d0: 1b2e fe3d 877e 8fbe e29d 5c3e cfac 953e
000002e0: 2cb3 bebe b77e 33bf a7b7 cb3e 6a73 493e
000002f0: e620 b8be 7c14 363f 33bb a3be 57fd fd3e
00000300: b5ce bd3e a1c4 17bf 0761 f53e 4071 26bf
00000310: 2293 c8be d06d f1bd e907 f4be 313c 373f
00000320: 343c 11be b45f 9f3e 63a2 21bf 4e55 de3e
00000330: 0e08 61be 3ab2 09bf 3287 0e3e 1c3d be3e
00000340: 0021 243f 6c21 ddbe 2929 b2be 94ca 253e
00000350: 5011 673e ae6e 963e 72b9 d33e ec2f 24be
00000360: b489 d63e 7cef 0a3f 0425 3dbe 6cdf 073f
00000370: 1628 ba3e 1e70 273f b4bc cdbe 27c7 b2be
00000380: e45b 51be 22c6 bd3d d814 e43e a2ac cebe
00000390: beba c23e 78bf 81be 1c35 e33e 4082 09bd
000003a0: b396 1ebf d535 c7be 5b03 03bf 59af c23e
000003b0: aec3 f2be 3a6c 71bd caf3 403e 438a c6be
000003c0: 6d6a 693e 63c0 30bf 5785 01bf 9e06 24bf
000003d0: 5a04 5bbe c6e3 83be 779e 093e 74e4 05be
000003e0: 6223 b93e b6e8 2b3f 58d6 933e a8a1 8ebe
000003f0: 0081 29bf dfdd 903e fa5f b3be 26b9 c53e

fc2.weight f4 [150, 300]
0.015117668 0.04253056 0.07128188 -0.06246154 -0.010325693 0.06442322 -0.06912675 -0.010184586
-0.000661239 -0.06847392 -0.06357822 0.04261417 -0.020865116 -0.063291684 0.06896077 0.04231842
0.07688804 -0.049264446 -0.022192918 0.01896324 -0.077854685 0.005410522 -0.00990209 0.042674474
-0.040776327 -0.03349417 0.063456446 -0.03542099 -0.034050755 0.049312055 0.033910245 0.02089335
0.03511504 -0.018025823 -0.056358635 -0.014545567 -0.0183983 0.043011166 -0.034714494 -0.01563751
0.06288412 -0.011859484 -0.003145568 -0.04283511 -0.012524888 -0.016231999 0.047434285 -0.07337263
-0.051224403 -0.008403406 -0.078949794 -0.05299446 0.0015172288 0.07374179 -0.003102608 0.00010905416
0.054593116 -0.017963223 0.08100894 -0.0072792694 -0.02389229 -0.052490607 -0.056529738 -0.05103129
-0.019121744 -0.0028853565 0.043612868 0.0338986 0.033646196 0.017229937 0.047934383 -0.056818634
-0.030226417 -0.014798656 0.030688927 0.003957957 0.0570416 0.039685965 0.06613119 0.0078646615
-0.07918918 0.03652104 -0.06504375 0.00057442486 0.06738719 -0.0041105375 -0.031491652 0.07023941
-0.026287593 0.042026952 0.07109286 0.028184086 0.043952808 -0.081471264 -0.02548701 -0.011056371
0.07721737 0.017850108 -0.05562127 -0.01737862 -0.0029224306 0.026261553 -0.06714563 0.07629584
-0.06575671 -0.070495084 0.056359574 0.0141194165 -0.00037088245 -0.06601828 0.07969038 0.023168884
-0.009073421 -0.020242598 0.011080667 0.051061317 -0.06066473 -0.024610031 0.0011480451 0.06836094
-0.008262508 0.054670185 0.074510515 0.038072713 -0.056898884 -0.03995856 -0.0008677691 -0.021966811
0.06831564 0.032913983 -0.0034132525 0.058443278 0.079766914 -0.036973983 0.04759729 -0.015862994
0.080475956 0.009112395 0.02042438 -0.07716955 0.04828529 0.014445715 0.002549 0.021396473
0.0510443 -0.032169525 0.07734832 0.019971997 0.022543915 0.07444146 -0.014825277 -0.012560144
0.061027348 -0.027357962 0.015341081 0.07034594 0.04820183 0.079018265 0.03903471 0.06203638
0.049068555 0.07933961 -0.03284503 -0.05179915 0.012719624 0.033752456 -0.061043978 -0.026945665
0.03917753 -0.019241031 -0.026334118 0.04308051 -0.014260247 -0.021193862 -0.048701923 0.0007414296
-0.022123467 -0.03453274 -0.02276348 -0.035307657 -0.011378303 0.07033278 -0.014199249 -0.035408087
-0.02521355 -0.029425912 -0.035683364 -0.06817238 0.06450966 -0.047492564 0.045654908 0.06164232
0.036605664 0.033702634 0.04071381 -0.060983934 -0.075737014 -0.07295334 0.018281579 0.030747853
0.01961083 -0.061532617 -0.017461844 -0.0053347647 0.07511157 0.029416226 -0.022644196 -0.049494296
-0.07309501 -0.005035855 0.05194214 -0.012776926 0.027311377 -0.0072061047 -0.04365004 0.03771358
0.045205176 0.07282384 -0.0588691 -0.02227677 0.06312102 -0.0001972392 0.062348798 0.036202632
0.0256323 -0.0598275 0.074965924 -0.028901156 -0.07447854 -0.056397606 0.01716508 0.080259174
0.059675068 -0.01322943 0.022295535 -0.020950466 -0.011022471 -0.002117835 0.0776242 -0.060036514
-0.024841957 -0.001325585 -0.030911539 -0.019352507 -0.03555885 0.024963677 -0.07451549 0.004533775
0.021610662 0.059981555 0.0206296 0.008854821 -0.026527647 -0.07737674 -0.036606405 0.011659183
00000000: 18b0 773c 8634 2e3d 3cfc 913d acd7 7fbd
00000010: 182d 29bc 52f0 833d 5392 8dbd 40dd 26bc
00000020: 0057 2dba 0e3c 8cbd 4c35 82bd 328c 2e3d
00000030: 52ed aabc 129f 81bd 4e3b 8d3d 1456 2d3d
00000040: 7a77 9d3d 84c9 49bd eccd b5bc cc58 9b3c
00000050: 4772 9fbd c04a b13b 603c 22bc 6ecb 2e3d
00000060: 1405 27bd 2f31 09bd 74f5 813d 9a15 11bd
00000070: ce78 0bbd 70fb 493d 78e5 0a3d 8828 ab3c
00000080: cad4 0f3d e4aa 93bc 50d8 66bd 8850 6ebc
00000090: 08b8 96bc 7a2c 303d c930 0ebd 3c1a 80bc
000000a0: 64c9 803d 484e 42bc e025 4ebb de73 2fbd
000000b0: 3035 4dbc f8f8 84bc 744a 423d 6444 96bd
000000c0: aed0 51bd 70ae 09bc 6eb0 a1bd b810 59bd
000000d0: c0dd c63a f005 973d 2055 4bbb 02b4 e438
000000e0: 089d 5f3d 9c27 93bc 04e8 a53d f086 eebb
000000f0: c4b9 c3bc 6400 57bd ba8b 67bd 3006 51bd
00000100: 34a5 9cbc 4018 3dbb 68a3 323d 42d9 0a3d
00000110: 98d0 093d cc25 8d3c d856 443d a8ba 68bd
00000120: 649d f7bc 1076 72bc 5867 fb3c c0b1 813b
00000130: 74a4 693d c08d 223d ca6f 873d c8da 003c
00000140: f02d a2bd 1697 153d a835 85bd 0095 163a
00000150: 4c02 8a3d b0b1 86bb 64fd 00bd aed9 8f3d
00000160: 1459 d7bc 7424 2c3d 2299 913d 50e2 e63c
00000170: dc07 343d 68da a6bd 22ca d0bc c825 35bc
00000180: 2424 9e3d 643a 923c 21d3 63bd 9c5d 8ebc
00000190: 4086 3fbb 7822 d73c a683 89bd fe40 9c3d
000001a0: 74ab 86bd ba5f 90bd 4cd9 663d 2055 673c
000001b0: 0073 c2b9 9834 87bd b634 a33d accc bd3c
000001c0: b0a8 14bc ced3 a5bc b08b 353c ac25 513d
000001d0: 947b 78bd fa9a c9bc 007a 963a d200 8c3d
000001e0: 785f 07bc d8ed 5f3d f898 983d 22f2 1b3d
000001f0: ce0e 69bd 96ab 23bd 007b 63ba bef3 b3bc
00000200: 12e9 8b3d d0d0 063d e0b0 5fbb 3862 6f3d
00000210: d65c a33d 0872 17bd 60f5 423d 1cf3 81bc
00000220: 94d0 a43d 284c 153c 0851 a73c 120b 9ebd
00000230: ccc6 453d b8ad 6c3c 200d 273b a847 af3c
00000240: d413 513d 31c4 03bd cc68 9e3d 509c a33c
00000250: 04ae b83c c474 983d b8e5 72bc 10c9 4dbc
00000260: d0f7 793d ce1d e0bc 2859 7b3c 8811 903d
00000270: 486f 453d 54d4 a13d dce2 1f3d dc19 7e3d
00000280: 1cfc 483d ce7c a23d 8388 06bd 582b 54bd
00000290: f865 503c 0440 0a3d 4009 7abd 28bd dcbc
000002a0: 9e78 203d 5e9f 9dbc a6ba d7bc 3075 303d
000002b0: d0a3 69bc c09e adbc ab7b 47bd 805c 423a
000002c0: 463c b5bc 3472 0dbd 7a7a babc c39e 10bd
000002d0: 106c 3abc a20a 903d f8a3 68bc 1208 11bd
000002e0: a68c cebc 9c0e f1bc b828 12bd f69d 8bbd
000002f0: a41d 843d 9087 42bd a400 3b3d a87c 7c3d
00000300: d2ef 153d c60b 0a3d 86c3 263d 4aca 79bd
00000310: 021c 9bbd 9068 95bd 40c3 953c ece2 fb3c
00000320: e4a6 a03c a009 7cbd 240c 8fbc 40cf aebb
00000330: 18d4 993d 4cfa f03c 5280 b9bc 88ba 4abd
00000340: d6b2 95bd d003 a5bb 48c1 543d 5056 51bc
00000350: 1cbc df3c 3021 ecbb 62ca 32bd 8e79 1a3d
00000360: 1029 393d aa24 953d ba20 71bd c67d b6bc
00000370: 9845 813d ffd1 4eb9 7461 7f3d 3649 143d
00000380: d4fa d13c ae0d 75bd bc87 993d 1ec2 ecbc
00000390: 3488 98bd 2d01 67bd c89d 8c3c ec5e a43d
000003a0: d86d 743d 40c0 58bc 20a5 b63c 50a0 abbc
000003b0: 9897 34bc 60cb 0abb 70f9 9e3d d9e8 75bd
000003c0: 5c81 cbbc 40bf adba 323a fdbc 2689 9ebc
000003d0: 28a6 11bd a080 cc3c 949b 98bd 1090 943b
000003e0: d808 b13c 38af 753d 68ff a83c d013 113c
000003f0: 8250 d9bc b277 9ebd 99f0 15bd 2806 3f3c

fc2.bias f4 [150]
0.050670035 -0.046288654 -0.03873314 0.048596073 -0.042823732 -0.012956776 -0.053200692 0.015918665
-0.0022026692 0.042409312 0.07308379 0.024425019 -0.058550015 -0.015040398 0.029781051 0.067362726
0.054881357 0.0268089 0.036533587 -0.048486754 -0.04615937 0.0021809563 -0.031258784 0.0097870715
0.058655374 -0.049007773 0.021562211 0.039236657 0.013360079 -0.012646008 -0.026322443 0.054898985
0.019307597 -0.022570942 0.027409889 0.017490251 0.04519511 -0.017232731 0.030144125 0.055160098
0.04620661 0.016832553 0.053591326 0.03876154 -0.003987219 0.046045236 0.03012684 -0.052541718
0.0070662647 -0.028846823 -0.018438663 -0.057640743 0.031574167 -0.033041477 0.041601524 -0.02379592
0.035267435 -0.048906203 -0.011646386 -0.03706305 0.036059745 -0.053376492 0.070882395 0.045433693
0.001394704 -0.056566462 -0.03486655 -0.035169613 0.04011418 0.0059320936 0.04369364 -0.008030107
0.022072244 0.009045422 0.056188114 0.04565443 0.024788171 -0.04612598 0.044208262 -0.022187192
-0.011472601 0.03326218 0.0719673 0.03957601 0.059238728 -0.0016170058 -0.04702109 -0.012471631
0.047281235 0.048989758 -0.01129479 0.05391045 0.026712302 -0.030694326 -0.01996573 0.0126059195
0.001395626 -0.05593415 -0.02620358 -0.021553501 0.06951204 -0.050007753 -0.03913258 0.00659037
-0.044201907 -0.049809333 -0.019571647 0.042588506 -0.03885171 0.0075381305 -0.031001331 0.024317063
0.074289195 -0.040339824 -0.03311231 -0.042194918 0.05305436 0.010974714 -0.01724704 -0.02287631
0.055615544 0.017546345 0.050888967 -0.03872575 0.0323451 0.020449787 -0.0070594177 -0.0535924
0.049132746 0.058698576 0.002402886 0.045617726 0.07526362 0.02250027 -0.05619269 -0.040402174
0.010821015 -0.03927122 0.038376503 -0.03106549 0.0095466 -0.043496665 -0.05562926 0.059792466
0.046990126 0.03918626 0.016956694 0.001139991 -0.016015463 -0.040226966
00000000: 628b 4f3d 2c99 3dbd a4a6 1ebd ad0c 473d
00000010: f067 2fbd a848 54bc f8e8 59bd dc67 823c
00000020: a85a 10bb 63b5 2d3d f4ac 953d fa16 c83c
00000030: 24d2 6fbd 006c 76bc 64f7 f33c 78f5 893d
00000040: 46cb 603d 579e db3c 3ea4 153d 0c9a 46bd
00000050: 9c11 3dbd 60ee 0e3b 3609 00bd f459 203c
00000060: 9e40 703d 60bc 48bd 3ca3 b03c 9eb6 203d
00000070: 3ce4 5a3c 3431 4fbc 2aa2 d7bc c2dd 603d
00000080: f72a 9e3c b2e6 b8bc b48a e03c b747 8f3c
00000090: 821e 393d a82b 8dbc d0f0 f63c 8eef 613d
000000a0: 2443 3d3d 6ce4 893c 9482 5b3d 6cc4 1e3d
000000b0: 38a7 82bb ee99 3c3d 90cc f63c fc35 57bd
000000c0: 208c e73b 2c50 ecbc ae0c 97bc b318 6cbd
000000d0: ea53 013d 8056 07bd 5c66 2a3d a9ef c2bc
000000e0: 9674 103d df51 48bd 7cd0 3ebc 6dcf 17bd
000000f0: 62b3 133d 4fa1 5abd ca2a 913d ae18 3a3d
00000100: 80ce b63a 3cb2 67bd 3ad0 0ebd 030e 10bd
00000110: c44e 243d 0262 c23b 1af8 323d b690 03bc
00000120: dad0 b43c 4033 143c 8225 663d 2400 3b3d
00000130: 9010 cb3c 98ee 3cbd b913 353d eac1 b5bc
00000140: 94f7 3bbc ec3d 083d 9763 933d 741a 223d
00000150: 4fa4 723d b6f1 d3ba 3099 40bd d055 4cbc
00000160: f8a9 413d 7ca9 483d c80d 39bc 34d1 5c3d
00000170: c2d3 da3c ab72 fbbc 2c8f a3bc 0f89 4e3c
00000180: 70ed b63a 351b 65bd e4a8 d6bc f890 b0bc
00000190: 545c 8e3d eed4 4cbd 7c49 20bd 08f4 d73b
000001a0: 0f0d 35bd df04 4cbd b854 a0bc 4971 2e3d
000001b0: f822 1fbd 6c02 f73b 81f6 fdbc 9434 c73c
000001c0: ef24 983d 5f3b 25bd c6a0 07bd 94d4 2cbd
000001d0: 874f 593d 49cf 333c aa49 8dbc 1967 bbbc
000001e0: 20cd 633d 5abd 8f3c f370 503d e49e 1ebd
000001f0: 4c7c 043d 5086 a73c b052 e7bb b483 5bbd
00000200: 6b3f 493d eb6d 703d bd79 1d3b a7d9 3a3d
00000210: d023 9a3d 7c52 b83c 4e2a 66bd c07c 25bd
00000220: a04a 313c dcda 20bd ae30 1d3d 0e7d febc
00000230: 5869 1c3c 8f29 32bd 82db 63bd f2e8 743d
00000240: b878 403d c681 203d c4e8 8a3c c06b 953a
00000250: dc32 83bc 08c5 24bd

fc3.weight f4 [1, 150]
0.0002180168 0.0018523294 0.0023909467 0.035743188 -0.0020692467 0.0056022583 0.0010080617 -0.0006130601
0.029766513 0.03148099 0.0698916 -0.0011687393 -0.0018421216 -0.00054655806 0.0018469333 0.022952072
0.0153321335 0.021786053 -0.0009351417 0.010293103 -0.0026227194 -0.0020867952 0.00093645696 0.025518283
0.0047076615 -0.0008810938 0.02276826 -0.0004105612 -0.0010014756 0.0015942799 -0.0013755359 -0.0013449723
0.019784372 0.00084260805 0.01781896 0.023063015 0.0009581414 -1.0678312e-05 0.021520512 0.0018371367
0.0003069914 0.0319292 -0.0020622767 -0.00035666628 0.00025873375 -0.0012926745 -0.00068357633 0.0040259627
0.00028784503 0.010656325 0.0017699474 0.0028519738 0.025700197 -0.00077230344 0.021889962 0.014987407
0.025744846 0.006284336 2.8135255e-05 0.0014031472 0.0024727494 0.001136377 0.026493562 0.0009785034
0.026273225 -0.0024319887 0.002175103 0.02032972 0.004274445 0.027206354 -1.6578939e-05 -0.0016772056
0.012743789 0.003191923 -0.002856876 0.00058101123 -0.00063509494 -0.0016676895 -0.0005272028 0.00094639754
-0.0021031238 -0.0023862547 0.023540124 -0.002790189 0.011334704 0.00603059 -0.0008350711 -0.0026300182
0.018067852 -0.0004336484 -0.0012166586 0.0011397717 0.02472792 0.0054317275 0.017495506 0.003986869
0.013588006 -0.002734589 0.02665363 -0.0023138053 0.025313357 0.002377389 0.0021278653 0.02489372
0.020158358 -0.0015650629 0.03096887 0.03689757 -0.0016818208 -0.0018968848 0.0015608137 -0.0025276025
0.026059948 0.0020319177 9.299966e-05 -7.946417e-05 0.016275465 0.00024376264 -0.00048031542 0.016133664
0.01819593 0.0036807586 0.022632169 0.006483212 0.008794933 -0.0021701118 -0.0003760131 0.00025778072
0.023825007 0.02313853 -2.0082865e-05 0.015878605 0.028522449 -0.0019924492 0.0020691776 0.0012219961
0.0017437213 0.0052650864 0.019919433 0.0016023819 -0.0012309812 -0.0011672613 -0.0005830368 0.021104272
0.002442581 0.00085912575 -0.0028375601 0.0019612568 0.021588247 0.0012821802
00000000: 709b 6439 dcc9 f23a 6eb1 1c3b 7367 123d
00000010: 339c 07bb 2693 b73b f020 843a c4b5 20ba
00000020: e7d8 f33c 36f2 003d 5423 8f3d 6230 99ba
00000030: 5873 f1ba e446 0fba cc14 f23a fc05 bc3c
00000040: a133 7b3c aa78 b23c 4c24 75ba 67a4 283c
00000050: eee1 2bbb 9dc2 08bb 907c 753a b80b d13c
00000060: ba42 9a3b 34f9 66ba 8184 ba3c 9740 d7b9
00000070: f243 83ba 28f7 d03a 534b b4ba c849 b0ba
00000080: d612 a23c 78e2 5c3a 11f9 913c a6ee bc3c
00000090: c82b 7b3a 0027 33b7 c94b b03c 14cc f03a
000000a0: b0f3 a039 31c8 023d 4327 07bb f0fe bab9
000000b0: a8a6 8739 f56e a9ba 0832 33ba 39ec 833b
000000c0: e8e9 9639 de97 2e3c 94fd e73a 2ee8 3a3b
000000d0: 3889 d23c 6874 4aba 9452 b33c be8d 753c
000000e0: dbe6 d23c d5ec cd3b 0004 ec37 cfe9 b73a
000000f0: da0d 223b 7cf2 943a 0709 d93c 2041 803a
00000100: f23a d73c 0062 1fbb 2c8c 0e3b 838a a63c
00000110: a510 8c3b dcdf de3c 0013 8bb7 aed5 dbba
00000120: 53cb 503c 952f 513b 6d3a 3bbb 014f 183a
00000130: 807c 26ba 6096 daba fb33 0aba aa17 783a
00000140: 90d4 09bb b662 1cbb 38d7 c03c 9bdb 36bb
00000150: 32b5 393c 419c c53b ace8 5aba 625c 2cbb
00000160: 0803 943c 4e5b e3b9 4a78 9fba 6464 953a
00000170: 3592 ca3c a2fc b13b bc52 8f3c 48a4 823b
00000180: 3aa0 5e3c ca36 33bb b758 da3c 36a3 17bb
00000190: f55d cf3c f8cd 1b3b a873 0b3b eaed cb3c
000001a0: 2423 a53c cc22 cdba 6db2 fd3c e821 173d
000001b0: 8b70 dcba e4a0 f8ba 3894 cc3a 22a6 25bb
000001c0: ac7b d53c ec29 053b d008 c338 00a6 a6b8
000001d0: 2054 853c 899a 7f39 d8d2 fbb9 bf2a 843c
000001e0: a20f 953c e238 713b 1967 b93c 2071 d43b
000001f0: 9f18 103c 6f38 0ebb a023 c5b9 be26 8739
00000200: a92c c33c 048d bd3c a077 a8b7 d913 823c
00000210: e9a7 e93c c093 02bb 0a9b 073b 632b a03a
00000220: 948d e43a bf86 ac3b 142e a33c 0407 d23a
00000230: e058 a1ba cafe 98ba f0d6 18ba dee2 ac3c
00000240: b613 203b f436 613a 5cf6 39bb 6e88 003b
00000250: d6d9 b03c d40e a83a
