runs/critic.pth (torch, 11223 bytes, 5 tensors)

fc1.weight f4 [64, 2]
0.00064714777 -0.016429232 0.12977943 -0.009556283 0.2825427 0.29448298 0.5304503 0.42088452
0.09449493 -0.085349634 0.101096675 -0.020752683 -0.05621375 0.008331522 0.33027184 0.21838184
0.3944924 0.305254 -0.04876958 -0.009866626 0.106464595 0.11448276 0.35137683 0.46129835
-0.08260059 -0.06603844 0.47738406 0.44544142 -0.030493692 0.045185715 0.48289365 0.5369026
-0.038110554 0.10671186 0.023698002 0.0789258 0.28655353 0.21798779 0.19591647 0.12469274
-0.061861876 0.017619854 0.1532855 0.29559183 0.13654906 0.18678916 -0.051456343 -0.12112418
0.23344243 0.089328475 -0.011867689 0.084383026 0.0021998733 -0.104986936 0.20099771 0.1794057
0.030140387 0.10594461 0.14993551 0.37319046 0.047794625 0.109534994 -0.11003298 -0.09958083
0.15132338 0.08557774 -0.0024520596 -0.08800341 -0.073768094 -0.04329279 0.05356229 0.16148423
-0.003299281 0.07810637 0.10867362 0.08254993 0.01440021 0.17748715 0.31807885 0.21451733
-0.02632412 0.04201603 0.090116814 0.035803903 0.27339634 0.23071676 0.5007658 0.5180058
0.10950316 0.06448622 0.13323875 0.34001604 0.54766387 0.59917486 0.015370166 0.149605
0.9249783 0.4210486 0.20521991 0.28939807 0.2118816 0.25993845 0.04255438 0.010643318
0.23641787 0.16866802 0.972948 0.4987529 -0.12463696 0.113977045 0.095562354 -0.010328714
-0.0035404197 0.20203213 0.21061893 0.24285612 0.08420634 0.079470225 0.34131435 0.3493249
0.08685742 -0.38825873 0.06113383 0.08895798 0.063659385 0.19072658 0.11411287 -0.101230815
00000000: 5aa5 293a 9996 86bc e6e4 043e f591 1cbc
00000010: 70a9 903e 79c6 963e 97cb 073f 2d7e d73e
00000020: 8f86 c13d cacb aebd c60b cf3d 8801 aabc
00000030: 6440 66bd f080 083c 6419 a93e 7d9f 5f3e
00000040: e8fa c93e 414a 9c3e 9cc2 47bd a1a7 21bc
00000050: 1c0a da3d f075 ea3d aae7 b33e 4c2f ec3e
00000060: 802a a9bd 293f 87bd af6b f43e e610 e43e
00000070: e8cd f9bc a814 393d d63d f73e 7372 093f
00000080: d019 1cbd bf8b da3d 5022 c23c daa3 a13d
00000090: 25b7 923e 3138 5f3e 549e 483e e85e ff3d
000000a0: e162 7dbd 8357 903c e0f6 1c3e d057 973e
000000b0: 84d3 0b3e a845 3f3e e3c3 52bd f40f f8bd
000000c0: 880b 6f3e d9f1 b63d b270 42bc 02d1 ac3d
000000d0: c02b 103b 6403 d7bd 58d2 4d3e 21b6 373e
000000e0: f9e8 f63c 7df9 d83d b288 193e d212 bf3e
000000f0: 4cc4 433d e253 e03d f958 e1bd 09f1 cbbd
00000100: 84f4 1a3e 6243 af3d bcb2 20bb 223b b4bd
00000110: ba13 97bd c853 31bd 2264 5b3d 1f5c 253e
00000120: c038 58bb 3cf6 9f3d 4690 de3d f00f a93d
00000130: dcee 6b3c 31bf 353e 3bdb a23e 6eaa 5b3e
00000140: aea5 d7bc 0019 2c3d 2a8f b83d 1da7 123d
00000150: 9bfa 8b3e 0441 6c3e 3032 003f 079c 043f
00000160: 3143 e03d 5a11 843d bd6f 083e 9516 ae3e
00000170: b333 0c3f 8663 193f 26d3 7b3c 0e32 193e
00000180: 61cb 6c3f af93 d73e 2b25 523e fc2b 943e
00000190: 7df7 583e a716 853e 804d 2e3d 5061 2e3c
000001a0: 8717 723e 4fb7 2c3e 1f13 793f 8a5c ff3e
000001b0: aa41 ffbd cc6c e93d 32b6 c33d c439 29bc
000001c0: 6306 68bb 83e1 4e3e 7dac 573e 46af 783e
000001d0: 6074 ac3d 49c1 a23d c1c0 ae3e b7da b23e
000001e0: 4ee2 b13d d9c9 c6be 7867 7a3d 9a2f b63d
000001f0: da5f 823d d44d 433e 02b4 e93d 1a52 cfbd

fc1.bias f4 [64]
0.21934934 0.41570997 0.6012242 0.6445117 -0.31924468 -0.093927145 -0.36308104 0.502478
0.28717592 0.3755068 -0.47507235 0.6907648 -0.6224672 0.6127874 -0.61681205 0.8012045
-0.41920394 -0.5502892 0.36239728 0.55361575 -0.06645304 0.35055166 0.6405995 -0.5746409
0.27184284 0.24238962 -0.40233532 0.52066946 0.6945276 0.6413029 -0.50804526 0.58875346
0.6344025 0.005708524 -0.12851377 0.52380043 -0.45826733 -0.42961302 0.3851763 0.5667643
-0.07138783 0.569652 0.40440157 0.5639424 0.5908993 0.6847803 0.81171864 0.64585346
-0.35347947 0.62318397 0.4158475 -0.34773982 0.47721073 -0.3704652 -0.24408555 0.51428413
0.20587373 0.43022442 0.24138533 0.3350749 0.122055955 -0.17630583 0.37458545 -0.36546484
00000000: 1d9d 603e f0d7 d43e d4e9 193f b8fe 243f
00000010: 0a74 a3be e05c c0bd c2e5 b9be 66a2 003f
00000020: b908 933e 6d42 c03e af3c f3be f6d5 303f
00000030: 035a 1fbf a3df 1c3f 65e7 1dbf bd1b 4d3f
00000040: e6a1 d6be c1df 0cbf 238c b93e c3b9 0d3f
00000050: 8818 88bd 827b b33e 54fe 233f ab1b 13bf
00000060: fc2e 8b3e fc34 783e e5fe cdbe 984a 053f
00000070: 90cc 313f 6d2c 243f 410f 02bf 8cb8 163f
00000080: 3468 223f 920e bb3b 1d99 03be c917 063f
00000090: 04a2 eabe 3df6 dbbe d435 c53e 7717 113f
000000a0: c833 92bd b7d4 113f b90d cf3e 875e 103f
000000b0: 2d45 173f c34d 2f3f cbcc 4f3f a756 253f
000000c0: 43fb b4be fc88 1f3f f7e9 d43e f40a b2be
000000d0: f754 f43e 9dad bdbe 90f1 79be 20a8 033f
000000e0: 90d0 523e 6046 dc3e b72d 773e f08e ab3e
000000f0: 79f8 f93d 8489 34be aac9 bf3e 351e bbbe

fc2.weight f4 [32, 65]
0.08882363 0.042127565 0.020001486 0.13031794 0.009491473 -0.065836035 0.15096648 0.10243316
0.0857542 -0.04759328 -0.14745222 -0.024644375 -0.03311324 -0.035546616 -0.09021634 0.1269332
-0.029409856 -0.17316817 -0.11334177 -0.1748855 0.097826615 -0.020281509 -0.09009982 -0.1355738
0.08614977 -0.15278605 -0.16078629 -0.015928775 0.10555197 -0.13958867 -0.11444536 0.056992844
-0.17170738 0.11743891 0.09449493 0.08626987 0.1504731 0.1535746 -0.08164803 0.099858455
0.09653281 0.080035165 -0.048251674 -0.09727688 -0.11475715 0.037935786 -0.004843235 0.008948445
0.15832709 -0.14363384 0.04089494 0.031817436 -0.007835433 0.11702691 0.11475715 -0.11900327
0.031433642 -0.1063821 -0.09774668 -0.1476914 0.0659083 -0.01808165 -0.11228222 -0.035100058
-0.013035521 0.033970285 0.11424078 -0.15375195 -0.048677575 0.17110704 0.1165681 0.08148272
-0.091361955 -0.008626311 -0.021116933 0.0025962293 0.07912147 -0.060209326 -0.078131154 0.12321077
0.009241345 -0.16783373 -0.034666568 0.08203727 0.07031541 0.11796036 -0.1374786 -0.16667078
0.056460842 0.096632175 0.11148833 0.06791942 0.068292394 -0.15606822 0.00860294 -0.018217474
-0.03579058 0.047608834 -0.16373894 0.017052516 -0.096649155 0.08871989 -0.15783952 -0.13081339
-0.1633587 0.13237484 0.07492905 0.112065375 0.13715667 0.017212918 -0.011525705 0.013922658
-0.005956522 -0.019904949 -0.16797966 0.097956136 -0.119711354 0.08711077 0.038239583 0.0458294
0.030942354 0.005055253 -0.12058184 -0.12727228 -0.12846541 -0.12486373 0.08054574 -0.022450184
-0.0018196851 0.13024232 0.15631811 -0.021888131 -0.0954174 -0.1393155 0.14605783 -0.15620346
0.08626552 0.14503956 0.08627095 -0.010103224 -0.022953292 0.100238785 -0.093998305 0.05135034
-0.05463753 0.080802895 -0.039137244 -0.11796036 -0.07551357 0.09438809 0.06451242 -0.13394213
-0.12525429 -0.036279097 -0.02348286 -0.05795798 0.11885391 0.0024340365 -0.058273125 -0.021619866
0.080937125 -0.13337688 -0.18407004 -0.14596038 0.0777228 0.009581484 -0.15811363 0.14448456
0.085564345 -0.17492747 0.10861887 -0.016174281 0.005907451 0.13477945 0.12649035 0.02743052
-0.096798755 0.12191396 0.1451505 -0.036886796 -0.15034501 0.16559891 -0.08615853 -0.107434206
-0.16690482 0.062498983 0.059727207 -0.08546909 -0.17880021 0.11554828 0.008958299 0.15693639
-0.025403459 0.1595263 -0.03274879 -0.09033054 0.094750814 0.03360322 0.15115 0.013285905
-0.13530223 -0.125254 -0.047455296 -0.028306007 -0.10656986 0.14995097 -0.10560595 0.016770335
0.09325994 0.036356717 -0.0009179519 0.06890926 -0.09168756 -0.18210022 0.042511355 -0.13076396
-0.15949635 -0.13999768 0.14308776 -0.123008616 0.13002178 0.11748399 0.02188124 -0.114693455
-0.17110196 -0.13680042 0.10276843 -0.12685502 -0.030174347 0.028670663 -0.031652704 0.039573506
-0.13966216 0.13575268 -0.13523485 -0.10331765 -0.15756994 0.106033735 -0.09425931 -0.07017318
0.08177439 -0.02779383 0.13506223 0.054041997 -0.024769558 -0.12515971 -0.16857865 0.040093422
0.0135483295 0.16098033 -0.17244883 0.028100614 0.055948764 0.09082535 0.08331288 -0.017151179
00000000: 2ae9 b53d f48d 2c3d 28da a33c 1172 053e
00000010: 2082 1b3c 0bd5 86bd f596 1a3e 7ac8 d13d
00000020: e69f af3d 2cf1 42bd b7fd 16be 00e3 c9bc
00000030: c0a1 07bd 5499 11bd 58c3 b8bd c7fa 013e
00000040: f0ec f0bc ff52 31be bb1f e8bd 2f15 33be
00000050: 5259 c83d 6825 a6bc 4186 b8bd dcd3 0abe
00000060: 4a6f b03d f273 1cbe 29a5 24be 107d 82bc
00000070: a22b d83d 55f0 0ebe 5462 eabd 5471 693d
00000080: 0fd4 2fbe d083 f03d 8f86 c13d 42ae b03d
00000090: 9f15 1a3e a942 1d3e 1537 a7bd 9782 cc3d
000000a0: feb2 c53d 7ae9 a33d 8ca3 45bd 1a39 c7bd
000000b0: cc05 ebbd 8e62 1b3d 00b4 9ebb 809c 123c
000000c0: 7f20 223e c014 13be 7481 273d 0053 023d
000000d0: 3060 00bc ceab ef3d cc05 eb3d fdb7 f3bd
000000e0: 90c0 003d dcde d9bd 692f c8bd 6a3c 17be
000000f0: eefa 863d f81f 94bc 38f4 e5bd 14c5 0fbd
00000100: f092 55bc 6d24 0b3d 12f7 e93d 2771 1dbe
00000110: 2362 47bd af36 2f3e 42bb ee3d 6ae0 a63d
00000120: fa1b bbbd 5f55 0dbc 6bfd acbc 8025 2a3b
00000130: 700a a23d 0e9e 76bd 3a03 a0bd ee55 fc3d
00000140: 0369 173c 9bdc 2bbe 88fe 0dbd 2803 a83d
00000150: 8701 903d 3495 f13d 31c7 0cbe bfab 2abe
00000160: 7c43 673d 17e7 c53d fe53 e43d 5619 8b3d
00000170: e2dc 8b3d 59d0 1fbe 58f3 0c3c d03c 95bc
00000180: 2599 12bd 7b01 433d 2eab 27be b8b1 8b3c
00000190: feef c5bd c6b2 b53d afa0 21be f2f3 05be
000001a0: 8147 27be 458d 073e 6774 993d 8882 e53d
000001b0: cc72 0c3e 1b02 8d3c 50d6 3cbc dc1b 643c
000001c0: ee2e c3bb b40f a3bc dc02 2cbe 3a9d c83d
000001d0: 3a2b f5bd 2267 b23d 1ca1 1c3d 9cb7 3b3d
000001e0: d27a fd3c 89a6 a53b 9df3 f6bd aa53 02be
000001f0: 708c 03be 8eb8 ffbd 2af5 a43d 73e9 b7bc
00000200: 8082 eeba 3e5e 053e db11 203e bd4e b3bc
00000210: 336a c3bd b9a8 0ebe 2f90 153e cdf3 1fbe
00000220: faab b03d 4085 143e d3ae b03d fe87 25bc
00000230: 8b08 bcbc fe49 cd3d 2f82 c0bd bc54 523d
00000240: 9acb 5fbd fd7b a53d 604e 20bd 3495 f1bd
00000250: dca6 9abd 8b4e c13d 161f 843d 2028 09be
00000260: a942 00be 6499 14bd 205f c0bc 5965 6dbd
00000270: ae69 f33d 5b84 1f3b cdaf 6ebd 251c b1bc
00000280: 5dc2 a53d f393 08be db7c 3cbe a376 15be
00000290: 222d 9f3d a8fb 1c3c 8ae8 21be c3f3 133e
000002a0: 5c3c af3d 3020 33be 9273 de3d ed7f 84bc
000002b0: 4a93 c13b a003 0a3e b086 013e f8b5 e03c
000002c0: 6d3e c6bd 07ae f93d 55a2 143e 9c16 17bd
000002d0: 0bf4 19be c392 293e e273 b0bd 7706 dcbd
000002e0: 19e9 2abe effe 7f3d 84a4 743d 6b0a afbd
000002f0: 6717 37be 94a4 ec3d d4c5 123c efb3 203e
00000300: ea1a d0bc dd5a 233e 9823 06bd 38ff b8bd
00000310: b70c c23d 88a3 093d 11c7 1a3e 20ad 593c
00000320: ab8c 0abe 9642 00be 7c60 42bd 00e2 e7bc
00000330: 4c41 dabd bf8c 193e ef47 d8bd f161 893c
00000340: 11ff be3d c8ea 143d b6a2 70ba 4c20 8d3d
00000350: b0c6 bbbd 7b78 3abe 6320 2e3d fde6 05be
00000360: 0353 23be 8d5b 0fbe 9985 123e f1eb fbbd
00000370: 6e24 053e 729b f03d 4940 b33c 67e4 eabd
00000380: 5a35 2fbe 6915 0cbe 4178 d23d 48e6 01be
00000390: 3130 f7bc bdde ea3c 44a6 01bd d417 223d
000003a0: 9903 0fbe c002 0b3e 017b 0abe 3498 d3bd
000003b0: 045a 21be 3728 d93d 060b c1bd f5b6 8fbd
000003c0: 5579 a73d e3af e3bc c14d 0a3e 245b 5d3d
000003d0: 87e9 cabc de29 00be e29f 2cbe 0039 243d
000003e0: d0f9 5d3c 07d8 243e 6d96 30be 4233 e63c
000003f0: 882a 653d a402 ba3d f19f aa3d a180 8cbc

fc2.bias f4 [32]
0.043048978 -0.11006987 0.08056068 0.07643632 0.060700066 -0.009281602 0.03907667 0.09115192
-0.09987061 0.027389398 -0.053534262 0.031993687 -0.06365465 -0.03446964 -0.09769815 -0.033445314
0.34355646 0.03077247 -0.06309522 0.12517583 0.08852647 -0.06910491 -0.11924713 0.083583765
-0.11250222 -0.1067392 -0.11736249 -0.079968706 -0.08393207 0.0037595928 -0.074116394 0.11534679
00000000: 2054 303d 506c e1bd fffc a43d a58a 9c3d
00000010: a2a0 783d dc11 18bc dc0e 203d dcad ba3d
00000020: f688 ccbd bb5f e03c be46 5bbd d00b 033d
00000030: 5e5d 82bd 0a30 0dbd f815 c8bd f4fd 08bd
00000040: a2e6 af3e 8c16 fc3c 1138 81bd 182e 003e
00000050: 5e4d b53d e086 8dbd d737 f4bd f72d ab3d
00000060: 9067 e6bd 159a dabd bf5b f0bd a2c6 a3bd
00000070: 94e4 abbd 8063 763b 56ca 97bd f03a ec3d

fc3.weight f4 [1, 32]
0.002999525 -0.038741417 0.00011123811 0.0028724985 -0.0033639378 -0.086166 0.010554908 0.22761324
-0.052882124 0.0005417372 0.002999525 0.002999525 0.002999525 -1.6081644 0.002999525 0.002999525
0.37209228 0.0059085786 -0.015375529 -1.4075153 0.002999525 -0.044513717 0.0014900065 0.010624165
0.002999525 0.005302421 0.010015202 0.002999525 0.002999525 0.002999525 -0.0049340143 -0.27911803
00000000: ae93 443b 52af 1ebd 8148 e938 8740 3c3b
00000010: 8375 5cbb cd77 b0bd 7eee 2c3c 7213 693e
00000020: ed9a 58bd 5e03 0e3a ae93 443b ae93 443b
00000030: ae93 443b 55d8 cdbf ae93 443b ae93 443b
00000040: e182 be3e c09c c13b a5e9 7bbc 7629 b4bf
00000050: ae93 443b 0454 36bd 524c c33a fa10 2e3c
00000060: ae93 443b eebf ad3b cd16 243c ae93 443b
00000070: ae93 443b ae93 443b 83ad a1bb 8fe8 8ebe
