runs/critic.pkl (torch, 5975 bytes, 5 tensors)

fc1.weight f4 [40, 2]
0.040738553 0.100816265 0.001998371 0.052759822 0.15596668 -0.051512834 -0.06434103 0.114776365
0.0604626 -0.14924505 0.056235228 -0.15507086 -0.08584362 0.06187691 0.08329044 -0.03570131
0.13383806 0.15713103 0.1232932 -0.14522086 -0.05751198 0.009619782 0.12851053 -0.026523208
0.033029873 0.083221965 -0.08272508 -0.09575305 0.1563642 -0.003528089 0.11187946 -0.15417556
-0.060351886 0.110946395 -0.015307662 0.053256728 -0.13245517 0.15389647 -0.07891631 -0.007994935
-0.103564024 -0.07015094 -0.13554901 -0.13839516 -0.032301996 -0.06974236 0.11679848 -0.00076499104
0.122948796 -0.02648242 0.03354465 0.15185298 -0.12234856 -0.068495765 0.13517182 -0.036250297
-0.04258227 0.012689246 -0.08488219 0.011371217 -0.06571672 0.050159972 -0.033563703 -0.05305731
-0.059562504 0.041079316 0.07934785 -0.14455403 -0.11027333 -0.15174468 0.07380696 0.118581645
-0.15191606 0.04110337 0.03206612 -0.08484905 0.03416081 0.12191796 0.15508907 0.06837246
00000000: 78dd 263d c278 ce3d 1af7 023b af1a 583d
00000010: bbb5 1f3e 1fff 52bd 3bc5 83bd df0f eb3d
00000020: a2a7 773d b2d3 18be e956 663d e5ca 1ebe
00000030: c8ce afbd a572 7d3d 2e94 aa3d 893b 12bd
00000040: d80c 093e f5e6 203e 2581 fc3d c7b4 14be
00000050: af91 6bbd 4a9c 1d3c 4498 033e 3347 d9bc
00000060: 554a 073d 4770 aa3d c46b a9bd 2d1a c4bd
00000070: f01d 203e 8337 67bb 0f21 e53d 33e0 1dbe
00000080: 8a33 77bd dd37 e33d fdcc 7abc ba23 5a3d
00000090: 54a2 07be 0997 1d3e e09e a1bd 30fd 02bc
000000a0: 6019 d4bd 4cab 8fbd 5ccd 0abe 76b7 0dbe
000000b0: 194f 04bd 15d5 8ebd 0b34 ef3d ae89 48ba
000000c0: 94cc fb3d a9f1 d8bc 1d66 093d 597f 1b3e
000000d0: e291 fabd 8247 8cbd 7b6a 0a3e 317b 14bd
000000e0: bf6a 2ebd 8ee6 4f3c b7d6 adbd 574e 3a3c
000000f0: 7d96 86bd 8b74 4d3d 187a 09bd 9f52 59bd
00000100: d0f7 73bd c942 283d 2081 a23d f905 14be
00000110: fcd6 e1bd f562 1bbe 1a28 973d efda f23d
00000120: e28f 1bbe 025c 283d c457 033d 57c5 adbd
00000130: 35ec 0b3d 20b0 f93d abcf 1e3e dc06 8c3d

fc1.bias f4 [40]
-0.22799851 -0.56535506 0.4435461 -0.6635767 -0.65095323 -0.47206536 0.57678604 0.4583376
0.47379372 0.542554 -0.32978112 -0.39434445 -0.43440047 0.23331577 0.27505454 0.14672893
-0.5439909 0.06281415 -0.37521973 -0.13905045 -0.109466575 0.035148617 -0.6200048 0.6035854
-0.30088913 0.22093698 0.4869448 0.28494263 0.49520075 0.39929122 0.5177729 0.14924072
0.45162827 -0.30736104 -0.38102067 0.33764726 0.18553413 -0.026516352 -0.5964508 0.23105694
00000000: 7178 69be 1cbb 10bf 7918 e33e 2ae0 29bf
00000010: dfa4 26bf 8db2 f1be 40a8 133f 3aab ea3e
00000020: 1795 f23e d2e4 0a3f 12d9 a8be 84e7 c9be
00000030: bd69 debe 54ea 6e3e f3d3 8c3e 1c40 163e
00000040: fd42 0bbf b4a4 803d cd1c c0be 3e63 0ebe
00000050: 0330 e0bd fff7 0f3d a2b8 1ebf 9384 1a3f
00000060: 240e 9abe 4e3d 623e d450 f93e 00e4 913e
00000070: f48a fd3e e66f cc3e c48c 043f 8fd2 183e
00000080: d23b e73e 6d5e 9dbe 2415 c3be 1ae0 ac3e
00000090: a9fc 3d3e d238 d9bc 00b1 18bf 319a 6c3e

fc2.weight f4 [20, 41]
-0.044337817 -0.12722795 -0.08516259 0.0018340133 -0.016420847 0.16316181 -0.20207557 0.019958312
-0.071117856 0.018646916 0.21502958 0.0065414906 -0.038781904 -0.07578849 -0.22314572 -0.20259005
0.09742968 -0.1365493 0.12695207 -0.06339529 0.08067158 0.16323192 0.032710813 0.076777406
0.18896465 -0.0702651 0.16444494 -0.18805909 0.20475586 -0.07334621 -0.008416074 0.12544069
0.01641645 0.19552487 -0.098279074 -0.12324543 0.19961463 -0.13496718 0.15388279 0.21535954
0.15136649 -0.08453995 -0.003305425 -0.20151454 -0.1217572 -0.04628181 -0.14773649 0.12900169
0.11716819 -0.063987985 -0.0351665 0.21599539 -0.013772919 0.18992354 0.2071298 -0.07843608
-0.21356297 0.20857304 -0.12022281 0.2138294 -0.14274982 0.040556207 0.06611361 -0.052820317
0.17437176 -0.20273842 -0.092917055 -0.035198618 0.17125677 0.10356338 0.14383592 0.09624933
0.20111838 -0.05568749 -0.06903005 -0.030705428 0.0879641 -0.06557284 0.08212654 0.061306123
0.052576948 0.18218166 0.035614878 0.14838172 -0.06234195 -0.20093986 0.13665952 0.09273697
0.18784638 0.08543858 0.0044687996 -0.16140023 -0.21199872 0.044876 0.18241931 -0.017383022
-0.07294854 0.111866094 -0.10825804 0.07890266 -0.18145245 -0.20264822 -0.13045183 -0.038285863
0.07539998 0.11313881 -0.14153183 -0.045924008 0.07362605 -0.04931236 0.0033602563 0.14476435
-0.06450687 0.11528318 0.18168959 0.074542485 -0.03973243 -0.14158362 -0.14779231 -0.043446865
0.0698808 0.12229451 -0.010786859 0.18019253 -0.08856448 0.044590037 -0.11448014 0.060085386
0.19084156 0.078351654 0.014982276 -0.08229376 -0.18345898 -0.1530163 -0.19180802 0.15892743
-0.09328334 -0.033457343 -0.2003755 -0.062350452 0.19019213 0.041110147 -0.039928008 0.11654582
0.17239034 0.1740034 -0.1654459 0.016054273 -0.18361922 -0.15417099 0.17170411 -0.17815183
-0.10966057 0.1072352 0.21756345 -0.21721524 -0.14428905 -0.08768371 0.17321879 0.1303116
0.13940181 0.1432785 -0.05596053 0.16487344 -0.006283434 0.021008665 -0.059298795 0.09485644
0.09985439 -0.023702415 0.19684984 -0.057911083 0.056597047 0.20309305 0.12598364 -0.081424505
-0.10128965 0.04315509 -0.0016946823 0.0157372 0.1440395 0.07816168 -0.12540849 -0.18256721
0.2114018 -0.024616877 -0.08809296 -0.16423047 0.21472488 0.112833254 -0.1417523 -0.19312173
0.19425206 0.09627206 -0.032845587 -0.18583648 0.13552946 -0.15178898 0.10988102 -0.21237715
-0.19936995 -0.21451157 0.20270908 0.20320018 -0.19080003 0.17285573 -0.1359141 -0.2078096
0.107613124 0.12675424 0.12674654 0.039242387 0.21459717 -0.19262747 0.103170104 -0.070857614
0.011043557 0.15421891 -0.16012588 0.0979917 -0.044663154 0.14463344 -0.0058718384 0.11093964
0.21454893 -0.07983882 -0.22026312 0.21092302 -0.12310877 0.051100712 0.13906962 -0.034724887
0.17475636 0.1449093 -0.04501837 0.058626983 0.01694573 0.21875204 0.1548095 -0.14893146
0.021544931 0.12060441 0.17094828 0.07634654 0.095014326 -0.04128533 0.004850007 -0.15475929
0.18408228 0.17607675 -0.12312812 -0.19143963 0.17436582 -0.19818518 0.1434039 -0.21780191
00000000: 929b 35bd 0b48 02be b969 aebd 4663 f03a
00000010: 0385 86bc e413 273e e6ec 4ebe 9d7f a33c
00000020: 3da6 91bd 6bc1 983c b730 5c3e 005a d63b
00000030: c6d9 1ebd ff36 9bbd 5080 64be c473 4fbe
00000040: 3689 c73d 94d3 0bbe b9ff 013e 64d5 81bd
00000050: 2437 a53d 4526 273e c6fb 053d 793d 9d3d
00000060: f37f 413e 26e7 8fbd 4164 283e 9092 40be
00000070: 85ab 513e 8a36 96bd 93e3 09bc 8673 003e
00000080: ca7b 863c ac37 483e 8a46 c9bd 1a68 fcbd
00000090: c767 4c3e d634 0abe 7393 1d3e 3687 5c3e
000000a0: d1ff 1a3e 4823 adbd d49f 58bb d459 4ebe
000000b0: d75b f9bd ff91 3dbd 3c48 17be 0519 043e
000000c0: e0f5 ef3d 220c 83bd bf0a 10bd e52d 5d3e
000000d0: cfa7 61bc 517b 423e d619 543e 18a3 a0bd
000000e0: 40b0 5abe 2c94 553e 6037 f6bd 18f6 5a3e
000000f0: 022d 12be 441e 263d 9366 873d 1e5a 58bd
00000100: 838e 323e a99a 4fbe 4c4b bebd 6d2c 10bd
00000110: ef5d 2f3e 0a19 d43d b949 133e 5e1e c53d
00000120: faf1 4d3e 9118 64bd a05f 8dbd f389 fbbc
00000130: 8626 b43d 0e4b 86bd f631 a83d 211c 7b3d
00000140: ed5a 573d d48d 3a3e e8e0 113d 61f1 173e
00000150: 465a 7fbd 2ec3 4dbe 79f0 0b3e e1ec bd3d
00000160: cd5a 403e 6cfa ae3d 026f 923b 1a46 25be
00000170: 3116 59be e6cf 373d 21cc 3a3e d766 8ebc
00000180: 0b66 95bd 0d1a e53d 64b6 ddbd b897 a13d
00000190: acce 39be 0483 4fbe 2a95 05be a3d1 1cbd
000001a0: 4e6b 9a3d 52b5 e73d b8ed 10be d01a 3cbd
000001b0: 41c9 963d c2fb 49bd bf37 5c3b 1b3d 143e
000001c0: 2e1c 84bd 9619 ec3d d60c 3a3e bba9 983d
000001d0: 79be 22bd 4cfb 10be de56 17be 57f5 31bd
000001e0: aa1d 8f3d 8b75 fa3d 5ebb 30bc 6484 383e
000001f0: 4b61 b5bd 0ba4 363d 9074 eabd 181c 763d
00000200: f86b 433e d576 a03d 3878 753c a189 a8bd
00000210: acdc 3bbe 4eb0 1cbe 5269 44be dfbd 223e
00000220: 560b bfbd 910a 09bd 3c2f 4dbe 3063 7fbd
00000230: bac1 423e 1d63 283d 8d8b 23bd 93af ee3d
00000240: 1887 303e f32d 323e a66a 29be 4084 833c
00000250: ad06 3cbe 00df 1dbe 34d3 2f3e 6f6d 36be
00000260: b995 e0bd 219e db3d f4c8 5e3e ac6d 5ebe
00000270: 82c0 13be 8493 b3bd 4460 313e 6770 053e
00000280: 59bf 0e3e 99b7 123e de36 65bd 95d4 283e
00000290: 44e5 cdbb 5d1a ac3c 4be3 72bd 1844 c23d
000002a0: 7580 cc3d 912b c2bc 0193 493e 2c34 6dbd
000002b0: 4ed2 673d a0f7 4f3e db01 013e e4c1 a6bd
000002c0: f370 cfbd 64c3 303d 1a20 deba 4deb 803c
000002d0: 177f 133e 3b13 a03d 156b 00be e6f2 3abe
000002e0: b779 583e 55a9 c9bc 156a b4bd 082c 28be
000002f0: d7e0 5b3e 1f15 e73d 8427 11be b4c1 45be
00000300: 03ea 463e 492a c53d 1889 06bd eb4b 3ebe
00000310: 3cc8 0a3e 926e 1bbe 4d09 e13d 6579 59be
00000320: a327 4cbe eca8 5bbe f892 4f3e b513 503e
00000330: 1561 43be 1801 313e 112d 0bbe 0acc 54be
00000340: 4564 dc3d ddcb 013e d8c9 013e a0bc 203d
00000350: 5cbf 5b3e 2340 45be d94a d33d cc1d 91bd
00000360: 09f0 343c 90eb 1d3e 0af8 23be dfaf c83d
00000370: b6f0 36bd ca1a 143e 8d68 c0bb 5234 e33d
00000380: b7b2 5b3e 8982 a3bd a88c 61be 34fc 573e
00000390: 7320 fcbd fb4e 513d 4468 0e3e af3b 0ebd
000003a0: 55f3 323e 1b63 143e 2f65 38bd d922 703d
000003b0: c6d1 8a3c 8900 603e 6286 1e3e 7d81 18be
000003c0: ff7e b03c 72ff f63d 110d 2f3e 935b 9c3d
000003d0: df96 c23d ce1a 29bd cfec 9e3b 3879 1ebe
000003e0: 1180 3c3e 774d 343e 992a fcbd c008 44be
000003f0: f48c 323e 0ef1 4abe 79d8 123e 7707 5fbe

fc2.bias f4 [20]
-0.08173369 -0.036533225 0.022375055 -0.11587531 0.08340253 0.06675593 -0.059710186 -0.057853773
-0.074103124 0.12208046 0.09262566 0.044389214 -0.007004578 0.039014325 0.15067647 0.049447384
-0.077888586 0.06041273 -0.061976105 -0.0055455915
00000000: fe63 a7bd dda3 15bd e44b b73c 0950 edbd
00000010: f2ce aa3d 55b7 883d ab92 74bd 14f8 6cbd
00000020: 61c3 97bd 5205 fa3d 86b2 bd3d 77d1 353d
00000030: a986 e5bb 7ccd 1f3d ef4a 1a3e 5789 4a3d
00000040: 0d84 9fbd 5773 773d a8da 7dbd cbb7 b5bb

fc3.weight f4 [1, 20]
0.003 0.003 0.003 0.003 0.003 0.003 0.003 0.003
0.003 0.003 0.003 0.003 0.003 0.003 0.003 0.003
0.003 0.003 0.003 0.003
00000000: a69b 443b a69b 443b a69b 443b a69b 443b
00000010: a69b 443b a69b 443b a69b 443b a69b 443b
00000020: a69b 443b a69b 443b a69b 443b a69b 443b
00000030: a69b 443b a69b 443b a69b 443b a69b 443b
00000040: a69b 443b a69b 443b a69b 443b a69b 443b
