runs/critic.pth (torch, 187415 bytes, 5 tensors)

fc1.weight f4 [300, 2]
00000000: bfec bdbc 8c34 823c 3e56 323d a854 3bbd
00000010: 76d1 48bd b0e4 273c 5ab2 6abd f7d1 59bd
00000020: 6f7d 25bd 5ecb c43c 7852 613c d000 5bb9
00000030: 6816 933c 7c06 1a3d 2e5f 7cbc be25 2cbd
00000040: feac 1f3d 9409 a73c 7cb6 69bc d1d6 07bd
00000050: b0a6 1dbd 2a0b c8bc ec9f 08bd 1c5e 45bd
00000060: 802f 5cbd 80b9 8b3c b72c 183c 9041 d4bc
00000070: 3094 02bd b0d0 91bc 9c1d 5cbd 5a05 9d3b
00000080: 5f29 1cbb 0798 13bc b777 c5bc 0e3e 303d
00000090: 08ea c23c 5ea0 553d 224f 7abb 228b 1c3d
000000a0: 2b64 23bd 4074 39ba 00b3 49bc e1c9 60bd
000000b0: 547a 3a3d a2cb 3fbd d567 4e3d 4209 323c
000000c0: 6ee0 2cbd a6bc a0ba 141f 2ebc 8b10 0c3d
000000d0: 052a 5abd e80a b63b 305e 26bb 1e06 233d
000000e0: a8b1 0a3d 1fbe 14bb dc44 25bd 4294 3abd
000000f0: 0e67 063d 3c36 393d b011 153a e8b7 a83c
00000100: 9c88 0fbb 447b bb3b 4283 153d b220 f93c
00000110: fb50 07bc b03e 1e3d 98d2 84bc 3034 e03b
00000120: 00c7 67b9 781e 493d 26a9 c03c 2970 623c
00000130: c94b 56bd 80f9 afbb 2073 003d 2e30 a9bc
00000140: b445 813b 82bc 58bd 2787 093d b88e 63bd
00000150: 6003 54bd 0068 27bb 7842 c13b 6d6e ebbc
00000160: 082b 3f3d 7fcd bc3c 6cd4 f7bc a949 693d
00000170: c887 c2ba b513 03bd 2825 b8bc e0ec a4bc
00000180: c077 663b 4076 9ebb 10a0 d83c 4492 f2bc
00000190: c409 bdbc 8add 66bd 28fc 50bd 6e70 ed3c
000001a0: caf9 0b3d c67a 49bd 0e63 0cbd 6078 3ebd
000001b0: d6c0 033d cb85 cdba 4a2e 283c 20ee dcbc
000001c0: c22d 65bd f660 54bd 2f1a 26bb 727e 64bd
000001d0: 4f94 553d e016 91bb 50e1 67bd 04f8 a8bc
000001e0: 9f08 debb 9c1f f43b f435 77bc 6af7 12bd
000001f0: 40c0 1ebd 14f9 00bc 3c83 413d 4aa0 463d
00000200: f7ec 2dbd b2e7 1d3d 28c3 453c 6c55 15bc
00000210: 6e94 3a3d 6809 aabc 1883 ed3c 7265 493d
00000220: 18b5 63bc d6d3 c6bc b0ed dc3c cfe1 2cbd
00000230: 14f3 0d3d fc1d 2bbc 8076 96bc 7cc1 8cbc
00000240: ecf0 ab3c c5f9 1fbd aa47 c1bc c41e 353d
00000250: 978f 083d 7825 a83c dad0 0abd 2058 8bbb
00000260: ccc1 603d 101b 913c 68e7 083c 1e2d 3b3d
00000270: 9a80 20bd d0f8 933c 7ecd 093d 90ed 033c
00000280: 3a6b 1e3d 50ef 0dbd 6063 1c3d 3051 4dbd
00000290: 04ef 073d 4c3a 513d 0890 bbbb 8229 0cbd
000002a0: 9260 b8bc da1e 383d 70ac 12bb 0e69 23bd
000002b0: 01e3 71bc 68c8 3ebc f0d8 26bd 5d8a 4fbd
000002c0: 6ac5 c0bc 3dff 69bc 9c9a 60bd 9cb1 4d3d
000002d0: 38bd e7bb 5e2c 273d d829 53bd b29b c93c
000002e0: 9ca6 593d 5e12 463d 1a02 aebc e4d9 113c
000002f0: 3303 f03b 0f99 27bd 8455 6bbd 4969 f13c
00000300: d312 06bd 22f2 65bd e4e3 383d 0446 5fbd
00000310: 1277 043d 16b3 97bc d629 e63b 2502 e93c
00000320: 2f6c d63c 36b1 8b3a 5b0d f8bc 807d 4a3d
00000330: a29a 093d 1e7c 4f3d 4221 5bbd 46f6 2f3d
00000340: d191 123c 5a64 293d b2db a4bc f8e5 9f3c
00000350: af66 4e3d 46fc 583c 99dd dc3b 1af6 f2bc
00000360: e4c2 623d 4ab5 42bd 4897 d4bb 1bcb 06bd
00000370: 2054 4b3c af0b dabb ac61 c53b a82a 4a3d
00000380: 6e54 1bbd f694 613d a1e0 ddbc 367f 4cbd
00000390: 845b d73c c8db 423d 883f 183d 2a8e 5d3d
000003a0: 2127 503c e6a5 c33c c3e2 5f3d 54b8 82bc
000003b0: 249c 08bd ea90 8b3b fafe bdbc 5d47 38bd
000003c0: a887 253d 9ec3 683d 4877 713c 4823 023d
000003d0: c4d2 633d 68e2 fabc 5607 05bd 6665 c8bc
000003e0: 3198 1fbd ea19 11bd 3a2d 553d 5bd9 5abc
000003f0: d8da 313d 04d5 d83c 4aa0 5bbc a756 303c
-0.023184178 0.015894197 0.04353928 -0.04573503 -0.049027883 0.010247394 -0.057298996 -0.053178754
-0.040402826 0.024022754 0.013752572 -0.0002088577 0.01795502 0.03760384 -0.015403552 -0.04202818
0.038983338 0.02039031 -0.014264699 -0.03316385 -0.038489044 -0.024419386 -0.03335564 -0.048185453
-0.053756237 0.017056227 0.009288005 -0.025910169 -0.031879604 -0.017799705 -0.053739175 0.0047918977
-0.002382837 -0.009008414 -0.024104936 0.04302793 0.023793235 0.05215489 -0.003819414 0.038218625
-0.03989045 -0.00070745125 -0.012310743 -0.054880027 0.045526817 -0.04682506 0.05039199 0.010866465
-0.04220622 -0.0012263253 -0.010627527 0.034195464 -0.05326273 0.0055554993 -0.002538573 0.039800756
0.033860832 -0.0022696329 -0.040348873 -0.045551546 0.032813124 0.045217738 0.00056865346 0.020595506
-0.0021901494 0.0057214815 0.03650213 0.030411098 -0.008259053 0.038634002 -0.0162137 0.0068421587
-0.0002210401 0.049101323 0.023518156 0.013820686 -0.052318368 -0.005370319 0.03135979 -0.020652857
0.003945077 -0.05291415 0.033576157 -0.05555603 -0.05176103 -0.0025544167 0.0058978163 -0.028739179
0.046671897 0.023047207 -0.030252658 0.056955013 -0.0014841491 -0.032001216 -0.022478655 -0.020132482
0.0035166591 -0.004835874 0.026443511 -0.02961076 -0.023075946 -0.05636362 -0.051021725 0.028984275
0.034173764 -0.04918935 -0.034274153 -0.046501517 0.032166325 -0.0015680132 0.010264942 -0.026969016
-0.05595184 -0.05185028 -0.0025345196 -0.05578465 0.05214339 -0.0044277757 -0.05661136 -0.020626076
-0.00677593 0.007450057 -0.015088547 -0.035880484 -0.038757563 -0.007871885 0.047244295 0.048492707
-0.042462315 0.03855104 0.012070455 -0.009114604 0.04555171 -0.020756438 0.028993174 0.04916901
-0.013898157 -0.024270933 0.026968807 -0.042207535 0.034655645 -0.010444161 -0.018367052 -0.017182104
0.020988904 -0.03905656 -0.023593742 0.044218794 0.033340063 0.020525679 -0.033890583 -0.0042524487
0.05487232 0.0177131 0.008355953 0.045697324 -0.039185144 0.018062979 0.03364324 0.008052245
0.038676478 -0.034652054 0.03818071 -0.050126255 0.033186927 0.051080987 -0.005723957 -0.034219272
-0.022506986 0.044951297 -0.0022380613 -0.03989511 -0.014763595 -0.01164446 -0.04073423 -0.050669063
-0.023531634 -0.014282045 -0.054834947 0.05021821 -0.007072117 0.040813796 -0.051553577 0.024610374
0.053137407 0.04835736 -0.021241236 0.008902047 0.0073246 -0.040917452 -0.0574546 0.02946915
-0.032732796 -0.05613912 0.04513921 -0.05451013 0.032340117 -0.018518012 0.00702403 0.028443405
0.026174633 0.0010657671 -0.030279806 0.049436092 0.033594735 0.050655477 -0.053498514 0.042959474
0.008945898 0.04135547 -0.02012429 0.019518837 0.050390895 0.01324374 0.0067402837 -0.029658366
0.055361643 -0.047536172 -0.0064877607 -0.03290854 0.012410194 -0.006654225 0.0060236063 0.049357086
-0.037922315 0.0550737 -0.02708465 -0.049926005 0.026288755 0.04757288 0.037169963 0.054090656
0.012704642 0.023882817 0.054659616 -0.015957035 -0.033352032 0.0042592185 -0.023192871 -0.044989932
0.040412575 0.05682718 0.0147379115 0.031771928 0.055620924 -0.030625537 -0.0324777 -0.024462413
-0.0389635 -0.035425104 0.052045085 -0.013357486 0.043421596 0.026468761 -0.013404915 0.010762847

fc1.bias f4 [300]
00000000: a48d 1e3e 6c13 70be 1057 63be 34d9 0f3f
00000010: 9e22 043f 08ef aa3e be7f e1be d4ab 883e
00000020: e27a 82be 4aaf 613e 1383 843e c3b9 82be
00000030: fcf8 debe 9720 2d3e daea 9d3e 18f8 053f
00000040: 3abc 6a3e 2078 2b3f 1e18 bebe 4a48 fd3e
00000050: 35cb 04bf 0095 a7bd 8ef2 413e fa36 0f3f
00000060: d64e d83e c82a d43e 108c a63e 728e 55be
00000070: 5ceb d53e 870b c9be 1eeb 12bf f631 db3e
00000080: ce49 213f 8287 123f 3495 cc3e 32f1 c7be
00000090: 8c1b 1ebf eafc 0e3f fc69 48be 7369 2ebf
000000a0: 5a3e 023f 1713 093f 14a9 efbe aa51 273f
000000b0: 38e8 f43d f9d8 393e d146 023f 50e1 6ebd
000000c0: 606a ffbc 5abe e8be 456a 1f3e 24ce b7bc
000000d0: dac5 af3c 143b d43e a73b 133f a0c5 aa3e
000000e0: a022 db3e cf5e 2e3c e0ea b53e 9c99 b73d
000000f0: 88c2 273e aff2 95be 0fff c3be b489 043e
00000100: f4fc 0a3f e225 c2be ea94 d6be 90be 0f3e
00000110: e006 33be a8fb d8bd e227 32bf 2698 66be
00000120: a065 28bd 4303 13bf 11f0 653e c4a5 323f
00000130: a3f5 13bf 0422 38be b8e1 e2bd 20a6 2abd
00000140: 8525 30bf ceb8 2cbf 048e 2cbf edf9 a7be
00000150: 1ae6 243f b883 2abf 2947 eb3e 38c4 223e
00000160: 3e84 1d3f 7cc9 953d 5614 28bf e83c 943e
00000170: 9387 8bbe f866 e13e 141c 6d3e 6eba 203f
00000180: 30a6 d5be 4148 1abf 6a41 043f 3cb4 533e
00000190: a488 8e3e 707b 73bd c26f 833e a94a 1f3f
000001a0: cf35 d23e 90ec 0ebd df55 913e 867b d73e
000001b0: ac99 72be a070 03bf cef0 e23e eca9 ef3e
000001c0: 692e 17bf 1d40 a2be ddcb 83be ad69 abbe
000001d0: c834 e23e 7759 213f 20cf 2c3f 1c26 c3be
000001e0: 64ba 27bf a3c6 27bf 64cb 16bf c9aa 81be
000001f0: 3928 a73e 50ad 8d3d 3abf 19bf 3ed5 973e
00000200: 44de 11bf 342e 2d3f 1018 e8bd f392 243f
00000210: 26e3 bf3e 5702 0d3f 0c4e 1bbf 1815 ab3e
00000220: 7c87 81be ee92 14bf 8070 dcbe 44ac 253f
00000230: fc22 cdbe d859 373d c72c 94be a5f8 26bf
00000240: 75ba 323f b81f 163f fef7 e4be 6814 ffbe
00000250: 4013 b43e 505d 60be 9871 a3be 7c11 fb3e
00000260: f09d e43d 66e9 2e3f c038 49be 4e32 9f3e
00000270: 4140 af3e 0abe b33e ec20 c13e c076 cabe
00000280: 2e80 debe df6f 0a3c 811f dcbe 5460 90be
00000290: 3dd3 24bf b317 dfbe 9227 60be 684e cbbe
000002a0: 291c 09bf 9039 0fbf 2b56 20bf 3856 1f3e
000002b0: 3e21 ffbe 68fa 6c3e 5802 d13e e540 28bf
000002c0: 3192 2a3f 46fd 923e 1450 18be 10d6 e0bd
000002d0: a097 bebe 66df 813e 5e30 043f 5ca5 233f
000002e0: 9afd f33e d8a2 12be 20e0 da3c aea3 f9be
000002f0: 311c 163e 905c 4c3e 6689 f4be b8e3 0dbe
00000300: 9f65 26bf f986 3e3c a4fa 273e 9008 ddbe
00000310: e213 133f 801d 30bd 2874 243e 5571 19bf
00000320: c416 f1be 72bd 73be 7017 a1be 473b fa3e
00000330: d857 febd 2b11 83be 94d3 28be bfdf e1be
00000340: 1a47 20bf ff45 b6be 626c e13e 7f7d 92be
00000350: 9f89 5a3e 5ad1 6a3d f43e a0be f85d 08be
00000360: 58ef 0abe 8e8e 0e3f 0c67 1e3f d066 0abf
00000370: d8e3 0cbf f682 713e ae9d 0cbf e9d6 9fbe
00000380: db53 a5be 142f 0a3f aaf4 ef3e 03d8 28bd
00000390: b480 9ebe aa37 183f bab6 193f 030e e3be
000003a0: cde6 bcbe 2576 a8be 2705 ba3e 9e32 f3be
000003b0: 282b 943e d1b1 973e f83c 91bd 60e7 1dbe
000003c0: fdc4 e7be bd13 223e 6cfb 2bbf b021 f0be
000003d0: 8a1b 043f 74cc f6be a0be 03bf 9516 633e
000003e0: d89d bfbd 12a1 d53e c0cd b0be 7ac3 7bbe
000003f0: d81d 123e e861 623d 580b d73e b0af 67bd
0.15483719 -0.23444909 -0.2220118 0.561908 0.5161532 0.3338549 -0.44042772 0.26693594
-0.25484377 0.22039524 0.25881252 -0.2553235 -0.43549335 0.16906963 0.3084324 0.52331686
0.22923365 0.6698017 -0.37127775 0.49469215 -0.5187257 -0.08182716 0.18940184 0.5594326
0.42247647 0.4143889 0.32528734 -0.2085512 0.41781127 -0.39266607 -0.5739001 0.42811555
0.6300324 0.5723802 0.39957583 -0.39051205 -0.61760783 0.55854666 -0.1957168 -0.6812965
0.5087639 0.53544754 -0.46808684 0.65358984 0.11958355 0.18149175 0.5088931 -0.058320343
-0.031178653 -0.45457727 0.15567882 -0.022437163 0.021456648 0.41451323 0.575129 0.333539
0.42799854 0.010642721 0.35530758 0.089648455 0.16382802 -0.29286715 -0.38280532 0.12943155
0.54292226 -0.37919527 -0.41910487 0.14037538 -0.17483091 -0.105948746 -0.69592106 -0.22518978
-0.041112542 -0.5742685 0.2245486 0.6978419 -0.57796687 -0.17981726 -0.11078209 -0.041662335
-0.6880725 -0.6746949 -0.674042 -0.32807866 0.6441361 -0.66607237 0.45952728 0.15895164
0.6152991 0.07313821 -0.6565603 0.28952718 -0.27251872 0.4402387 0.23155242 0.6278447
-0.41728354 -0.602665 0.51662314 0.20674223 0.27838624 -0.05944389 0.25671202 0.622233
0.41056678 -0.034893572 0.28385827 0.42086428 -0.23691434 -0.5134373 0.44324344 0.46809328
-0.5905519 -0.3168954 -0.25741473 -0.33479062 0.44180894 0.6302714 0.6750355 -0.38115013
-0.65518785 -0.6553747 -0.589041 -0.2532561 0.32647875 0.06917822 -0.60057414 0.29654878
-0.56979775 0.67648625 -0.113327146 0.64286727 0.37477988 0.55081695 -0.60665965 0.3341453
-0.2529868 -0.58036697 -0.4305458 0.6471598 -0.40065753 0.044763416 -0.28940412 -0.6522315
0.6981576 0.5864215 -0.44720453 -0.49820256 0.35170937 -0.21910596 -0.31922603 0.49036777
0.11162937 0.6832489 -0.19650555 0.31093067 0.3422871 0.35105926 0.3772043 -0.39543724
-0.43457168 0.008449524 -0.42992786 -0.28198493 -0.64384824 -0.4357277 -0.21890095 -0.39708257
-0.53558594 -0.5594721 -0.6263148 0.15560234 -0.4983005 0.23142397 0.408221 -0.6572402
0.6662932 0.28708857 -0.14874297 -0.10978329 -0.37225056 0.25365752 0.516363 0.63924193
0.4765442 -0.14319932 0.0267182 -0.4875769 0.14659192 0.19957185 -0.47761077 -0.13856399
-0.6499881 0.01162886 0.16404206 -0.43170595 0.57452214 -0.042996883 0.16059935 -0.59938556
-0.4708768 -0.23802736 -0.31463194 0.4887335 -0.124190986 -0.25599036 -0.1648696 -0.44116017
-0.6260849 -0.35600278 0.44028002 -0.2861137 0.21341561 0.05732856 -0.3129803 -0.13317096
-0.13567865 0.5568627 0.6187599 -0.5406313 -0.5503516 0.23585114 -0.549281 -0.3121865
-0.3229054 0.53978086 0.4686635 -0.04122163 -0.30957568 0.59459937 0.60044444 -0.44346628
-0.36894837 -0.32902637 0.36332056 -0.47499555 0.28939176 0.2962785 -0.07091707 -0.15420294
-0.45267478 0.15827842 -0.67180514 -0.46900702 0.5160452 -0.4820286 -0.51462746 0.22176583
-0.09356278 0.4172445 -0.34531975 -0.24586287 0.14269197 0.055269152 0.42000842 -0.056564033

fc2.weight f4 [150, 301]
00000000: 906b 25bd dade 80bd 649e ee3c 6996 61bd
00000010: f863 8a3d 2b0c 94bd 7ec6 173d 7553 4e3d
00000020: 90dc 99bd 64ef 443c 6368 1e3d 4ca6 d13c
00000030: fcda 7e3d 3580 303d 26ab f0bb ca19 abbb
00000040: 9456 ebbc 0bc7 0c3c f0d3 e43b 00dd ebb6
00000050: 4282 08bd 9685 a43d 39f6 a6bc 54f1 eabc
00000060: fcb1 28bd 3cf4 79bd 7a56 a13d 183a 6c3d
00000070: 364d 97bd 8090 b9bb 0674 88bd 3844 e6bc
00000080: 9ccf 873d 70e1 a13d f012 7f3d 98ad 233d
00000090: 8287 2b3d 4cf8 6a39 a838 0b3d 9429 fa3c
000000a0: beba a43d 7c96 de3c 7e24 6ebd 2a7a 10bc
000000b0: 8aa2 dfbc a254 c73c 6d8d 54bd 77d4 24bd
000000c0: 9cf3 b4bc ccf3 463d 30d4 113d 2c77 6abd
000000d0: c252 29bb 5d4c d6bc 4cad 963c 0c16 85bd
000000e0: b40c 33bd 0233 ff3c 7570 6a3d f609 21bd
000000f0: 70f4 573d f88f 633d c0cc 2cbb be11 29bc
00000100: 64fc 863d 7048 2a3d 461d 953d a0a8 9ebd
00000110: 82a7 e6bc 20eb 5c3c 0c7b 3b3d f03c 6b3d
00000120: a280 57bd 508b 94bc d018 a03d 1645 98bd
00000130: 7871 2fbd 9423 f13c a61d 09bd 44fc 683d
00000140: b25c 59bd bc8f 1e3d 48a8 29bc 5e35 e5bc
00000150: 0d50 5f3d f13d 59bd e0fe 83bc 168d 943d
00000160: 34b1 6c3d 1541 a6bd 20b2 41bc 25d7 e13c
00000170: 90cd fd3b b7e0 5c3d be6e afbb 873d cdbc
00000180: 443f cebc f436 3fbd a1dd a93c 7122 fbbc
00000190: a6d0 1e3c 58a6 6e3d 0af6 8ebd 960c 0dbc
000001a0: cefe 29bc 1c8e 073d 0ea9 a0bd d088 c8ba
000001b0: 08a8 5d3c a67a 7cbd a836 473c cb43 f23c
000001c0: 5e80 0fbd 30f9 7e3c 788e 5f3d fafd 103d
000001d0: 54a7 edbc c458 8d3d fceb 0fbd 1cd4 6b3d
000001e0: b4e0 553d c010 7a3d 9695 f0bc aaa7 153d
000001f0: c013 65bd 80d3 1d36 3a66 92bd 5879 a6bb
00000200: b7a6 9ebd 9846 a2bd 30ab db3c f2e9 1abd
00000210: 8457 26bd 02ca 9dba d8cf 173d 2042 303d
00000220: 2ef6 9a3d 80e7 aa3c 0c1c f03c c2d8 0f3d
00000230: 52dd 3abd 1119 99bd 4874 6e3c aa0d 4abd
00000240: 7a88 81bc 01b8 073d cf14 34bd 88ed 903d
00000250: f8e6 54bd 1c64 9a3d 9751 93bd ae57 903c
00000260: d820 a7bc a4e2 a4bc 901a ab3b ea95 cfbb
00000270: 24f8 973d 8ee5 1ebd 0c32 dc3b 6ded 9bbd
00000280: 0c53 503d 9293 c8bc e31f 98bd f6fd 9b3d
00000290: 146a 683d f812 9ebd 8045 683c 3aeb 45bd
000002a0: a11a 36bd eeaf 8f3d 7838 8e3d 3682 3b3d
000002b0: 3cf4 463d 3416 68bd 40de fd3c e871 45bd
000002c0: 5f61 d5bc 8ec9 96bc 3256 a1bd c848 143d
000002d0: 7d71 22bd a4b9 433c 7089 873d d21f 053d
000002e0: 02a4 4bbd f6b1 6dbd 9a8e 9d3d 2a79 bbbc
000002f0: 6645 bd3c dd09 90bd 7036 003c 9676 04bd
00000300: 35e7 33bd e5cb f93c ba58 babc aa1d 90bd
00000310: c983 9b3d b4a7 753d aaeb 503d 3cc0 85bd
00000320: f45b 87bd 90b4 0e3d 8442 563d d268 fb3c
00000330: e04b 953c 5043 093c 103e 203c 30a4 85bd
00000340: 188d 823d 500b 3a3d 82e8 53bd 58e6 c43c
00000350: 3acc 413d db60 85bc 8e4a bebc 1272 3dbd
00000360: 373b 35bd 5866 453c c648 003d 8ad5 c1bc
00000370: 506c 473c b2e5 51bd c8e7 f63c 222a aabc
00000380: f2db 7dbd a4b2 72ba 8530 99bd 41a6 97bd
00000390: 38f2 e5bc 1500 3f3c 26d5 0ebc c8ad 583d
000003a0: c0a0 ea3a 1a72 813d eea2 8c3d 5a71 dbbc
000003b0: 33b0 f53c c478 ebbc 625f f1bc 5c4a 003d
000003c0: 7806 163d 5920 623d 0097 c139 e2ff 2e3d
000003d0: daf5 8cba e007 a03d 44c7 003d 1a76 0dbd
000003e0: c066 613c 61c5 403d 17a5 94bd 6cb1 97bd
000003f0: e9ee 9d3b a7d2 81bd da11 f3bc c007 0f3b
-0.040385783 -0.062925056 0.02912826 -0.055075083 0.06757349 -0.07228883 0.03705453 0.05037256
-0.07512772 0.012019966 0.03867377 0.025591992 0.06222056 0.043091018 -0.0073446212 -0.00522158
-0.028727807 0.008592377 0.0069832727 -7.0292735e-06 -0.03332735 0.08033292 -0.02038108 -0.028679527
-0.041185364 -0.061023936 0.07877822 0.05767259 -0.07387774 -0.0056629777 -0.06662755 -0.028108701
0.06631395 0.07904327 0.06227392 0.039960474 0.041877277 0.00022408477 0.03398958 0.030537404
0.08043431 0.027171366 -0.05814027 -0.008818189 -0.027299184 0.024332348 -0.051892687 -0.040241685
-0.022088818 0.048572347 0.03560275 -0.057242557 -0.002583668 -0.02615946 0.018393181 -0.06498346
-0.043713287 0.031152252 0.057236154 -0.03931614 0.05272335 0.05555722 -0.0026367158 -0.0103191715
0.065911084 0.041572988 0.07280974 -0.077470064 -0.028156046 0.013483793 0.045771644 0.05743116
-0.05261291 -0.018132836 0.078172326 -0.07435052 -0.04283282 0.02943591 -0.03347554 0.056881204
-0.053066917 0.038711295 -0.010355063 -0.027979549 0.0545197 -0.053037588 -0.016112745 0.072534725
0.05778618 -0.08117882 -0.011822253 0.02756841 0.007745452 0.053925242 -0.0053537777 -0.025053753
-0.025176652 -0.046683267 0.020735564 -0.030656071 0.0096933 0.058264107 -0.06980522 -0.008608958
-0.010375692 0.03309451 -0.078447446 -0.0015299562 0.013528831 -0.061640404 0.012159027 0.029573342
-0.03503453 0.015562341 0.05457923 0.03539846 -0.029010452 0.06901696 -0.03513716 0.05757533
0.052216247 0.06105113 -0.029368203 0.03653685 -0.05592704 2.3517932e-06 -0.071484044 -0.0050803833
-0.07746642 -0.07923621 0.026815027 -0.037820764 -0.040610805 -0.0012038352 0.03706345 0.04303181
0.07566486 0.02086234 0.029310249 0.035118826 -0.045621224 -0.07475484 0.014554091 -0.049329437
-0.015812147 0.033134464 -0.043965157 0.070765555 -0.05197808 0.075386256 -0.071932964 0.017619934
-0.020401403 -0.020127602 0.0052216724 -0.00633501 0.07420376 -0.03879314 0.0067198332 -0.07613645
0.05086045 -0.02448443 -0.07427957 0.076167986 0.05674179 -0.07718462 0.014176726 -0.048320033
-0.04445899 0.07015978 0.06944364 0.045778476 0.048572764 -0.0566618 0.030989766 -0.048204333
-0.026047407 -0.018406656 -0.078777686 0.036202222 -0.039659012 0.011946116 0.06618011 0.03250105
-0.049716957 -0.058031045 0.07693215 -0.022884924 0.02310438 -0.07033131 0.007825479 -0.032339655
-0.043921668 0.030492732 -0.022747386 -0.07036908 0.075934954 0.059974387 0.051005997 -0.065308064
-0.066093355 0.034840167 0.052309528 0.03068963 0.018224657 0.008377865 0.009780422 -0.06525457
0.06374568 0.045420945 -0.05173541 0.024035618 0.047313906 -0.016281536 -0.02322891 -0.046251364
-0.044245925 0.012048326 0.031319402 -0.023661394 0.01217182 -0.051244445 0.030139819 -0.020772044
-0.061977334 -0.0009258187 -0.074799575 -0.07404757 -0.0280696 0.011657734 -0.008717811 0.052900106
0.001790069 0.06320591 0.06867014 -0.026787449 0.029991245 -0.028744109 -0.029464427 0.031320915
0.036627263 0.05520663 0.00036924332 0.042724498 -0.0010754422 0.07814002 0.031440035 -0.03453646
0.013757408 0.047063235 -0.07258051 -0.074068874 0.00481974 -0.06339007 -0.029671598 0.0021824688

fc2.bias f4 [150]
00000000: de2b 203d 6274 4e3d b488 19bd 8e6e e13c
00000010: 0666 433d 4cb7 1bbb d4ac c93c 50a1 6e3b
00000020: 2f61 1a3d 9007 ad3c c00d 20bd c0b8 1dba
00000030: 5646 39bd e432 6abc 9106 3dbd efdd 0f3d
00000040: d2b8 6b3d 15c1 eebc e5c6 f33c c82e 7cbc
00000050: 002c dd3c d64b 69bd e669 28bd e0cc 57bd
00000060: 2d64 25bd 129c b5bc e00e 373b 8249 46bd
00000070: c3d8 5bbd 90df bcbc 3139 e7bc 54a9 533d
00000080: 80d8 0e3d f667 4d3d 60a0 03bd f7fc 91bc
00000090: 06d3 903c 583a 5a3d 4b4e 4f3d b382 6cbd
000000a0: 0e7c fabc d13d 50bd cf42 58bd 3812 4a3c
000000b0: 72ff 98bc d221 dcbc 96d8 3a3d 4199 453d
000000c0: 2a12 d93c ba44 09bd 1ec4 b93c 2707 6bbd
000000d0: 4dde 61bd cbca 583c 8eee fc3c 2cc4 23bd
000000e0: dbd7 8d3b a57c af3b 00c4 2cb8 96ff 0abb
000000f0: 1b6b 71bc 613e c13a 5012 1b3b 54c3 3cbc
00000100: 7c18 3dbd db12 a43b 3c7a 8bbc b844 143c
00000110: f012 383d 28d7 0d3c b426 203d 34f0 d53c
00000120: 43e8 66bd 84fc cc3c cccb 253d c85c 623d
00000130: 4a4c 613d 5a96 29bd 58ad c1bc bae5 b43b
00000140: 01a6 45bd 5c0b 23bd 2bac 0ebd 42dc f13c
00000150: f09e 1ebc 489a 0f3c 0580 1f3d 90c3 4fbb
00000160: eb85 f8bc 5c33 ae3c 5452 b1bc d67b a7bc
00000170: 9434 2c3d 080c 5a3d 8b44 13bd fc96 22bd
00000180: 8af5 083d d8c5 69bb 680e 44bd 4742 10bd
00000190: 54b0 41bc 50e7 e53c de48 0dbd 419f 65bd
000001a0: a5d9 3cbd f78e c23c 4081 2c3c 40ac f13c
000001b0: b075 dbbc c07d 0a3b 9048 eebb 9aa1 39bd
000001c0: d6e9 14bd 2e2a 013c 90df 213d 8bc6 aa3b
000001d0: 56bf 22bc 4cdf 09bd 4729 27bd 00c3 1539
000001e0: 06f3 443d dcf0 21bd 10f3 9b3b 7292 0d3d
000001f0: 0c7a 5bbc 867e 6a3d 95c9 dabc b274 0e3d
00000200: d8e0 073c ca21 d23c 3063 813b d30b a63c
00000210: 88f3 023d 7e60 b0bc 2f6a b83b 352f 3ebd
00000220: 00f4 173a 5a49 50bd 62b3 653d b478 4b3d
00000230: 006c d5ba 7400 5cbd 4898 81bc 2035 b2bb
00000240: 7842 ccbc f289 27bd 30c8 013b 8cd1 c6bc
00000250: 4de3 ce3c e6b1 6cbd
0.039104335 0.05040396 -0.037483886 0.027518537 0.04770472 -0.0023760376 0.024618544 0.0036412068
0.037690338 0.02112177 -0.039075613 -0.00060166046 -0.045233093 -0.01429436 -0.04614884 0.03512376
0.057549305 -0.029144803 0.029757926 -0.015392013 0.02699852 -0.05695709 -0.041116618 -0.05268562
-0.04037874 -0.022169147 0.002793245 -0.048409946 -0.053673517 -0.023055822 -0.028225513 0.051675156
0.03487444 0.050147973 -0.032135367 -0.017820818 0.017678749 0.053278297 0.050611775 -0.057741832
-0.030576732 -0.050840203 -0.05279809 0.012333445 -0.018676493 -0.026871596 0.04561671 0.048241857
0.02649792 -0.03351281 0.022676524 -0.057379868 -0.055143643 0.013231943 0.03087547 -0.039982006
0.0043287105 0.005355435 -4.1190535e-05 -0.002120947 -0.014735009 0.0014743322 0.0023662038 -0.011521179
-0.04616593 0.0050071306 -0.01702606 0.009049587 0.044939935 0.008657254 0.03909941 0.026115514
-0.056373846 0.025022753 0.04047756 0.055264264 0.055004396 -0.041403152 -0.023642227 0.0055205496
-0.048254017 -0.039805755 -0.03483216 0.029523972 -0.009681448 0.008764811 0.03894045 -0.0031702258
-0.030337295 0.021264724 -0.021645702 -0.020444792 0.04204233 0.05323413 -0.03595404 -0.03969477
0.03343729 -0.0035670903 -0.0478653 -0.035219457 -0.011821825 0.0280644 -0.03449332 -0.05606008
-0.046106 0.023749812 0.0105288625 0.02950108 -0.026789516 0.0021132082 -0.0072718337 -0.04532013
-0.036355816 0.007883592 0.039519846 0.0052116564 -0.009933313 -0.033660218 -0.04081085 0.0001428239
0.048083328 -0.039536342 0.0047592 0.03456349 -0.013395797 0.05724957 -0.02670745 0.034779258
0.008293353 0.025650878 0.0039485916 0.02026931 0.03197053 -0.021530386 0.0056278924 -0.04643174
0.00057965517 -0.050851204 0.056079276 0.04967566 -0.0016282797 -0.05371137 -0.015819684 -0.005438462
-0.024934039 -0.04090304 0.001980316 -0.024269842 0.02525487 -0.057786845

fc3.weight f4 [1, 150]
00000000: 4972 ec3a 2712 313b a69b 443b 1e2a e03a
00000010: ecac fd3a 6573 0e3b a69b 443b a69b 443b
00000020: 8278 373b a69b 443b d34f 0a3b a69b 443b
00000030: a69b 443b a69b 443b 68ca 2d3b 9405 373b
00000040: a69b 443b dcd9 ba3a 9a26 1d3b a69b 443b
00000050: 2a75 0f3b a03d e93a a69b 443b d5fc 413b
00000060: a69b 443b a69b 443b a69b 443b a69b 443b
00000070: a69b 443b a69b 443b a69b 443b a69b 443b
00000080: a69b 443b 0801 ee3a e3f9 0e3b 5f92 173b
00000090: f85f d93a 6e6f 223b 5837 013b 034e 213b
000000a0: d45d e13a a9bd 043b a69b 443b 8c74 ea3a
000000b0: a69b 443b a69b 443b 4e70 1f3b fa76 123b
000000c0: 90b7 f03a 7982 433b c8e3 8f3a a69b 443b
000000d0: 04a0 f83a ed44 ef3a 4b19 2d3b 6420 cc3a
000000e0: 5c54 423b 727b f53a a69b 443b 0103 d33a
000000f0: 43b9 f93a 9d9d 413b a69b 443b a69b 443b
00000100: a69b 443b 7a1e f53a a69b 443b a69b 443b
00000110: a69b 443b a69b 443b 64f5 e73a a69b 443b
00000120: 769a 253b 2461 433b 5ae9 3b3b a69b 443b
00000130: ec0c 0b3b 6f97 c53a a69b 443b 9140 cb3a
00000140: 8830 ce3a a69b 443b 168a 123b c441 bf3a
00000150: a69b 443b a69b 443b ae07 f33a a69b 443b
00000160: 304a 063b a69b 443b 0980 fd3a c83d df3a
00000170: 16a9 dd3a b2fd 343b a69b 443b 3efd 223b
00000180: a69b 443b 0620 e43a 4abf 413b 9b05 f63a
00000190: a69b 443b 20ad 333b a69b 443b a69b 443b
000001a0: a69b 443b bca4 e43a a69b 443b 9adb ec3a
000001b0: 6b91 443b a69b 443b a69b 443b c4e4 2a3b
000001c0: e8ca ee3a 5780 d33a a69b 443b 2052 063b
000001d0: caa4 443b 641a 223b a69b 443b a69b 443b
000001e0: 75a1 e53a a69b 443b a69b 443b 6227 f13a
000001f0: a69b 443b a69b 443b b2f1 d63a 4630 ed3a
00000200: a69b 443b d355 2a3b a69b 443b cfc5 dc3a
00000210: 40de 083b a69b 443b b11d 133b a69b 443b
00000220: a69b 443b a69b 443b 56d2 fb3a 28e4 f63a
00000230: a69b 443b a69b 443b a69b 443b a69b 443b
00000240: a69b 443b a69b 443b a69b 443b eee1 213b
00000250: 0e98 cd3a 2013 eb3a
0.0018039431 0.0027018876 0.003 0.0017102396 0.0019353903 0.002173626 0.003 0.003
0.0027995412 0.003 0.0021104708 0.003 0.003 0.003 0.0026518349 0.0027926909
0.003 0.0014255601 0.0023979307 0.003 0.0021889904 0.0017794855 0.003 0.0029600163
0.003 0.003 0.003 0.003 0.003 0.003 0.003 0.003
0.003 0.0018158266 0.0021816425 0.0023128015 0.0016584387 0.0024785656 0.0019716825 0.002461315
0.0017194101 0.0020254648 0.003 0.0017887517 0.003 0.003 0.0024328413 0.0022348748
0.0018365253 0.0029832406 0.0010977918 0.003 0.0018968587 0.0018254794 0.002641278 0.0015573618
0.0029652333 0.0018728806 0.003 0.0016098918 0.0019052405 0.0029543408 0.003 0.003
0.003 0.0018701099 0.003 0.003 0.003 0.003 0.0017697033 0.003
0.0025269068 0.002981254 0.0028673024 0.003 0.0021217419 0.0015075038 0.003 0.0015506913
0.0015731016 0.003 0.0022360138 0.0014591743 0.003 0.003 0.0018541717 0.003
0.0020490997 0.003 0.0019340526 0.0017031962 0.0016911353 0.0027617035 0.003 0.0024870182
0.003 0.0017404563 0.002956348 0.0018769981 0.003 0.0027416423 0.003 0.003
0.003 0.0017444114 0.003 0.0018070817 0.0029993902 0.003 0.003 0.0026076296
0.001821843 0.0016136271 0.003 0.0020495728 0.0030005448 0.0024734968 0.003 0.003
0.0017519431 0.003 0.003 0.0018398578 0.003 0.003 0.0016398935 0.0018096052
0.003 0.0025991097 0.003 0.001684362 0.0020884424 0.003 0.0022448117 0.003
0.003 0.003 0.0019212465 0.0018836306 0.003 0.003 0.003 0.003
0.003 0.003 0.003 0.0024701315 0.0015685575 0.0017934777
