runs/critic.pth (torch, 5975 bytes, 5 tensors)

fc1.weight f4 [40, 2]
0.040738553 0.100816265 0.001998371 0.052759822 0.15624385 -0.051235676 -0.06434103 0.114776365
0.0604626 -0.14924505 0.056235228 -0.15507086 -0.09222034 0.053229727 0.07985933 -0.0415197
0.13383806 0.15713103 0.11920509 -0.13946411 -0.065986685 -0.0022981018 0.12851053 -0.026523208
0.033029873 0.083221965 -0.08153436 -0.09181272 0.1563642 -0.003528089 0.115140446 -0.15902077
-0.060351886 0.110946395 -0.02998187 0.062649086 -0.14327013 0.15636526 -0.08698832 -0.010311614
-0.09662366 -0.084558465 -0.13459645 -0.13400972 -0.032301996 -0.06974236 0.1334881 0.016385175
0.122948796 -0.02648242 0.03354465 0.15185298 -0.12053045 -0.06949547 0.13517182 -0.036250297
-0.038592033 0.024617597 -0.08955691 0.011269597 -0.06088443 0.045041937 -0.024862185 -0.049149554
-0.060704965 0.04018075 0.07934785 -0.14455403 -0.10971504 -0.15451579 0.07380696 0.118581645
-0.1530033 0.036095485 0.047638718 -0.07599025 0.03416081 0.12191796 0.15508907 0.06837246
00000000: 78dd 263d c278 ce3d 1af7 023b af1a 583d
00000010: 63fe 1f3e 80dc 51bd 3bc5 83bd df0f eb3d
00000020: a2a7 773d b2d3 18be e956 663d e5ca 1ebe
00000030: 05de bcbd 6a07 5a3d 4a8d a33d 9010 2abd
00000040: d80c 093e f5e6 203e cc21 f43d aecf 0ebe
00000050: 0724 87bd c09b 16bb 4498 033e 3347 d9bc
00000060: 554a 073d 4770 aa3d 7dfb a6bd 4f08 bcbd
00000070: f01d 203e 8337 67bb c1ce eb3d 57d6 22be
00000080: 8a33 77bd dd37 e33d 8a9c f5bc 2a4e 803d
00000090: 68b5 12be 371e 203e ef26 b2bd 0bf2 28bc
000000a0: a0e2 c5bd fd2c adbd a7d3 09be d839 09be
000000b0: 194f 04bd 15d5 8ebd 1bb1 083e 343a 863c
000000c0: 94cc fb3d a9f1 d8bc 1d66 093d 597f 1b3e
000000d0: abd8 f6bd a453 8ebd 7b6a 0a3e 317b 14bd
000000e0: ae12 1ebd d8aa c93c 9d69 b7bd 1ea4 383c
000000f0: f461 79bd e57d 383d c8ab cbbc 0b51 49bd
00000100: c5a5 78bd 9294 243d 2081 a23d f905 14be
00000110: 47b2 e0bd 6339 1ebe 1a28 973d efda f23d
00000120: e6ac 1cbe dcd8 133d d120 433d c7a0 9bbd
00000130: 35ec 0b3d 20b0 f93d abcf 1e3e dc06 8c3d

fc1.bias f4 [40]
-0.22799851 -0.56535506 0.44326892 -0.6635767 -0.65095323 -0.47206536 0.56433386 0.4868813
0.47379372 0.5505331 -0.34649292 -0.39434445 -0.43440047 0.24124722 0.27505454 0.15368052
-0.5439909 0.067226924 -0.3583448 -0.15405594 -0.094542556 0.038716573 -0.6200048 0.5867161
-0.30088913 0.22093698 0.49245542 0.28494263 0.5028144 0.38775644 0.52931875 0.16512735
0.44186607 -0.30736104 -0.36944795 0.33764726 0.1823742 -0.02137483 -0.5964508 0.23105694
00000000: 7178 69be 1cbb 10bf 25f4 e23e 2ae0 29bf
00000010: dfa4 26bf 8db2 f1be 2f78 103f 8148 f93e
00000020: 1795 f23e bdef 0c3f 8567 b1be 84e7 c9be
00000030: bd69 debe 8309 773e f3d3 8c3e 6d5e 1d3e
00000040: fd42 0bbf 45ae 893d f878 b7be d7c0 1dbe
00000050: 879f c1bd 4595 1e3d a2b8 1ebf 0733 163f
00000060: 240e 9abe 4e3d 623e 1e23 fc3e 00e4 913e
00000070: 72b8 003f 0388 c63e 6f81 073f 2517 293e
00000080: 453c e23e 6d5e 9dbe 4828 bdbe 1ae0 ac3e
00000090: 4dc0 3a3e 441a afbc 00b1 18bf 319a 6c3e

fc2.weight f4 [20, 41]
-0.044337817 -0.12722795 -0.085439056 0.0018340133 -0.016420847 0.16316181 -0.20122644 0.024033787
-0.071117856 0.014988184 0.20374157 0.0065414906 -0.038781904 -0.07707521 -0.22314572 -0.27959964
0.09742968 -0.10736897 0.15421784 -0.06444727 0.078575715 0.1615482 0.032710813 0.07127036
0.18896465 -0.0702651 0.16376823 -0.18805909 0.20544626 -0.07323316 -0.0074527967 0.124074645
0.017363813 0.19552487 -0.10152591 -0.12324543 0.19968657 -0.114141405 0.15388279 0.21535954
0.16626273 -0.08453995 -0.003305425 -0.20179106 -0.1217572 -0.04628181 -0.14773649 0.129946
0.1213409 -0.063987985 -0.039574727 0.20418419 -0.013772919 0.18992354 0.2056845 -0.07843608
-0.2956543 0.20857304 -0.08870786 0.24375576 -0.14388698 0.03825885 0.06423594 -0.052820317
0.16883212 -0.20273842 -0.092917055 -0.035959776 0.17125677 0.10430191 0.14396015 0.09731613
0.1995788 -0.05463888 -0.06903005 -0.034311157 0.0879641 -0.0654708 0.10423231 0.061306123
0.052576948 0.19866635 0.035614878 0.14838172 -0.06261853 -0.20093986 0.13665952 0.09273697
0.18795654 0.09479364 0.0044687996 -0.17045517 -0.2258811 0.044876 0.18241931 -0.020275969
-0.07294854 0.014093304 -0.10825804 0.12133719 -0.14218508 -0.2049306 -0.1341348 -0.0416531
0.07539998 0.110071085 -0.14153183 -0.045924008 0.07159266 -0.04931236 0.0030526598 0.14385845
-0.0643274 0.112253286 0.18188769 0.074542485 -0.045179363 -0.14158362 -0.1486244 -0.018840816
0.0698808 0.12229451 0.019126158 0.18019253 -0.08856448 0.044590037 -0.11448014 0.060085386
0.19084156 0.078351654 0.014982276 -0.08229376 -0.18345898 -0.1530163 -0.19180802 0.15892743
-0.09328334 -0.033457343 -0.2003755 -0.062350452 0.19019213 0.041110147 -0.039928008 0.11654582
0.17239034 0.1740034 -0.1654459 0.016054273 -0.18361922 -0.15417099 0.17170411 -0.17815183
-0.10966057 0.1072352 0.21756345 -0.21721524 -0.14428905 -0.08768371 0.17321879 0.1303116
0.13940181 0.1432785 -0.05596053 0.16487344 -0.006283434 0.021008665 -0.059031192 0.09485644
0.09985439 -0.023702415 0.20008893 -0.044554126 0.056597047 0.21380594 0.10971608 -0.081424505
-0.10128965 0.045347743 -0.0016946823 -0.034389853 0.1440395 0.086861275 -0.10516863 -0.18178096
0.21219902 -0.022986999 -0.08809296 -0.1697351 0.21472488 0.112833254 -0.13928951 -0.19312173
0.19787252 0.09903044 -0.029444933 -0.1835594 0.13893928 -0.15178898 0.110177875 -0.21237715
-0.19733982 -0.17504114 0.20270908 0.20320018 -0.19887847 0.17285573 -0.1359141 -0.2075325
0.107613124 0.12675424 0.12674654 0.043188214 0.23915815 -0.19262747 0.110625 -0.07130006
0.011043557 0.15421891 -0.1612895 0.0979917 0.029797316 0.14463344 0.030167019 0.12530307
0.21023804 -0.08317754 -0.22305724 0.21092302 -0.11204613 0.051100712 0.13906962 -0.034347553
0.17475636 0.1485919 -0.04314067 0.06326866 0.016515095 0.22270282 0.1548095 -0.15666242
0.021544931 0.1213702 0.20911261 0.07634654 0.095014326 -0.023390988 0.004850007 -0.15475929
0.18408228 0.17607675 -0.12312812 -0.19143963 0.1906467 -0.21342625 0.1434039 -0.2313558
00000000: 929b 35bd 0b48 02be acfa aebd 4663 f03a
00000010: 0385 86bc e413 273e 4e0e 4ebe 81e2 c43c
00000020: 3da6 91bd 0091 753c a1a1 503e 005a d63b
00000030: c6d9 1ebd 9cd9 9dbd 5080 64be af27 8fbe
00000040: 3689 c73d 43e4 dbbd 48eb 1d3e eefc 83bd
00000050: 4eec a03d e46c 253e c6fb 053d 32f6 913d
00000060: f37f 413e 26e7 8fbd dcb2 273e 9092 40be
00000070: 8160 523e 44fb 95bd 9736 f4bb d91a fe3d
00000080: 8e3e 8e3c ac37 483e d1ec cfbd 1a68 fcbd
00000090: a37a 4c3e f8c2 e9bd 7393 1d3e 3687 5c3e
000000a0: c740 2a3e 4823 adbd d49f 58bb 51a2 4ebe
000000b0: d75b f9bd ff91 3dbd 3c48 17be 9010 053e
000000c0: 9481 f83d 220c 83bd 1c19 22bd a915 513e
000000d0: cfa7 61bc 517b 423e f59e 523e 18a3 a0bd
000000e0: 0060 97be 2c94 553e 77ac b5bd 1c9b 793e
000000f0: 1c57 13be 50b5 1c3d 228e 833d 1e5a 58bd
00000100: 54e2 2c3e a99a 4fbe 4c4b bebd 8f4a 13bd
00000110: ef5d 2f3e 3d9c d53d 4a6a 133e ae4d c73d
00000120: 635e 4c3e 05cd 5fbd a05f 8dbd db89 0cbd
00000130: 8626 b43d 8e15 86bd c077 d53d 211c 7b3d
00000140: ed5a 573d 316f 4b3e e8e0 113d 61f1 173e
00000150: 253e 80bd 2ec3 4dbe 79f0 0b3e e1ec bd3d
00000160: ae77 403e 2b23 c23d 026f 923b cd8b 2ebe
00000170: 604d 67be e6cf 373d 21cc 3a3e ca19 a6bc
00000180: 0b66 95bd 9ae7 663c 64b6 ddbd a27f f83d
00000190: f798 11be 54d9 51be a25a 09be 719c 2abd
000001a0: 4e6b 9a3d f36c e13d b8ed 10be d01a 3cbd
000001b0: 2c9f 923d c2fb 49bd 220f 483b a14f 133e
000001c0: 15be 83bd 0de5 e53d c440 3a3e bba9 983d
000001d0: ff0d 39bd 4cfb 10be ff30 18be 0e58 9abc
000001e0: aa1d 8f3d 8b75 fa3d 76ae 9c3c 6484 383e
000001f0: 4b61 b5bd 0ba4 363d 9074 eabd 181c 763d
00000200: f86b 433e d576 a03d 3878 753c a189 a8bd
00000210: acdc 3bbe 4eb0 1cbe 5269 44be dfbd 223e
00000220: 560b bfbd 910a 09bd 3c2f 4dbe 3063 7fbd
00000230: bac1 423e 1d63 283d 8d8b 23bd 93af ee3d
00000240: 1887 303e f32d 323e a66a 29be 4084 833c
00000250: ad06 3cbe 00df 1dbe 34d3 2f3e 6f6d 36be
00000260: b995 e0bd 219e db3d f4c8 5e3e ac6d 5ebe
00000270: 82c0 13be 8493 b3bd 4460 313e 6770 053e
00000280: 59bf 0e3e 99b7 123e de36 65bd 95d4 283e
00000290: 44e5 cdbb 5d1a ac3c b1ca 71bd 1844 c23d
000002a0: 7580 cc3d 912b c2bc 1de4 4c3e 637e 36bd
000002b0: 4ed2 673d f2ef 5a3e d3b2 e03d e4c1 a6bd
000002c0: f370 cfbd 8ebe 393d 1a20 deba 60dc 0cbd
000002d0: 177f 133e 53e4 b13d a762 d7bd ca24 3abe
000002e0: b34a 593e 3b4f bcbc 156a b4bd 0acf 2dbe
000002f0: d7e0 5b3e 1f15 e73d e9a1 0ebe b4c1 45be
00000300: 189f 4a3e 79d0 ca3d 8036 f1bc fff6 3bbe
00000310: 1946 0e3e 926e 1bbe f0a4 e13d 6579 59be
00000320: 7313 4abe fc3d 33be f892 4f3e b513 503e
00000330: cca6 4bbe 1801 313e 112d 0bbe 6683 54be
00000340: 4564 dc3d ddcb 013e d8c9 013e 20e6 303d
00000350: e0e5 743e 2340 45be 5c8f e23d c405 92bd
00000360: 09f0 343c 90eb 1d3e 1329 25be dfaf c83d
00000370: 8019 f43c ca1a 143e d320 f73c 734f 003e
00000380: a448 573e fc58 aabd 1e69 64be 34fc 573e
00000390: 7178 e5bd fb4e 513d 4468 0e3e 05b0 0cbd
000003a0: 55f3 323e 7a28 183e 45b4 30bd 0093 813d
000003b0: aa4a 873c 350c 643e 6286 1e3e 1d6c 20be
000003c0: ff7e b03c f090 f83d 9e21 563e 935b 9c3d
000003d0: df96 c23d 759e bfbc cfec 9e3b 3879 1ebe
000003e0: 1180 3c3e 774d 343e 992a fcbd c008 44be
000003f0: e338 433e 698c 5abe 79d8 123e 89e8 6cbe

fc2.bias f4 [20]
-0.08087698 -0.035635743 0.022103459 -0.11587531 0.08797263 0.072340645 -0.047012772 -0.057853773
-0.0714394 0.123697154 0.07766172 0.0456915 -0.0042123105 0.039291468 0.15360293 0.049447384
-0.077888586 0.07327189 -0.06299397 -0.0031331116
00000000: d5a2 a5bd c9f6 11bd 5012 b53c 0950 edbd
00000010: ff2a b43d 5527 943d 7790 40bd 14f8 6cbd
00000020: d24e 92bd ef54 fd3d 1c0d 9f3d 0327 3b3d
00000030: 6c07 8abb 17f0 203d 164a 1d3e 5789 4a3d
00000040: 0d84 9fbd 930f 963d fc02 81bd e454 4dbb

fc3.weight f4 [1, 20]
-0.005909556 -0.0064528547 -0.0071084173 0.003 0.00070559775 0.06820411 0.026137127 0.003
-0.003012232 -0.0058059357 -0.12112396 -0.0054230704 -0.0026006363 0.0032771528 -0.001057375 0.003
0.003 -0.13413613 -0.006437115 -0.0032768138
00000000: f3a4 c1bb 7872 d3bb baed e8bb a69b 443b
00000010: ddf7 383a 99ae 8b3d 871d d63c a69b 443b
00000020: de68 45bb b83f bebb d70f f8bd 03b4 b1bb
00000030: 706f 2abb 80c5 563b 9e97 8aba a69b 443b
00000040: a69b 443b fb5a 09be 6fee d2bb d0bf 56bb
