runs/critic.pth (torch, 490327 bytes, 5 tensors)

fc1.weight f4 [400, 2]
000000 1f 34 29 3e 21 22 bf 3e 34 77 47 3e 49 77 1f 3c
       0.16523789 0.37330726 0.19479066 0.00973303
000010 ab 8e 17 3d 4d e5 13 3c dc 64 16 3e ff 5d 49 3e
       0.037001293 0.009026838 0.14686912 0.19664763
000020 f0 1a 01 bd d3 00 65 bc 46 48 77 bc 36 df 91 be
       -0.03151983 -0.013977247 -0.015092915 -0.2849061
000030 f1 55 42 3e f4 35 10 3d df 86 31 be 9e a1 87 3e
       0.18978097 0.035207704 -0.17336605 0.26490492
000040 20 5b ca 3d 84 7d e3 3e 9a b1 27 3c 8d dc 17 3d
       0.09880662 0.44431698 0.010235215 0.037075568
000050 40 c7 52 be 18 ec 3e 3d 7a 39 a6 bc 27 d3 38 bc
       -0.2058382 0.046611875 -0.020291079 -0.011280811
000060 fb fc c7 bd 4d 79 95 3e cd 3f b5 ba 92 14 42 3d
       -0.09765049 0.29194108 -0.0013828218 0.0473829
000070 78 30 ea 3d 73 35 06 3f f4 f5 11 3e 17 58 01 3e
       0.11435026 0.5242531 0.1425398 0.1263126
000080 53 24 9d be 3d c6 8a be ec da 0a be 2f 41 86 bd
       -0.30691776 -0.2710437 -0.13560075 -0.065554015
000090 20 31 85 3e 77 4e 1e 3c 59 b1 38 3e 8f 25 20 be
       0.26014042 0.009662262 0.18036403 -0.15639327
0000a0 af f0 82 bd bc 27 a8 3e 07 8a 63 3c c0 e9 9f bc
       -0.06393563 0.32842815 0.013887889 -0.01952064
0000b0 67 36 ee 39 33 05 90 bb 5a 4b d6 3d f0 5e fc 3e
       0.0004543543 -0.004395151 0.10463591 0.49291182
0000c0 8f ce 91 bc d7 79 70 3e d8 01 ca bc d0 ad ab 3e
       -0.01779869 0.23483978 -0.024659082 0.33531046
0000d0 e6 cf 87 3d ad a7 68 3e 9a 07 33 3c c7 fb 73 bc
       0.0663145 0.22720213 0.010927105 -0.014891571
0000e0 1a 85 8d be 73 4a 43 be 92 b9 c2 3e 3e dc e7 bd
       -0.2764061 -0.19071369 0.38032204 -0.11321305
0000f0 27 06 0d 3d d0 f3 3e 3d b7 98 33 bd 5f c2 21 bd
       0.034429695 0.046619236 -0.043846812 -0.039492007
000100 e3 23 e0 3c 2a d7 4b 3d 16 eb 2d be 0f 7b dd bc
       0.027360862 0.049765743 -0.1698421 -0.027036218
000110 57 6c 51 3b 39 8c 8f 3e da 52 34 3e f8 09 ee bc
       0.0031955445 0.2803667 0.1760973 -0.029057488
000120 fd 5e 1e bd c0 f6 80 3c 57 98 43 bd a0 a9 43 bc
       -0.038664807 0.01574266 -0.047752704 -0.011942297
000130 44 86 33 3e 7f cf 6b bd 55 18 40 bd ad 4a 3a bc
       0.17531687 -0.05757093 -0.046898205 -0.011370343
000140 2d f8 08 3e da c4 45 be 00 6b 9f 3c d3 e7 42 bc
       0.13375922 -0.19313374 0.019460201 -0.0118960915
000150 e3 18 f2 3c 73 58 c7 3b 60 f7 5d bc 80 43 33 bc
       0.029552883 0.006083542 -0.013547748 -0.010941386
000160 9a 1c 1e 3e 1a 94 b6 3e cd 1b 34 3e c3 ea 15 3d
       0.15440598 0.35659868 0.1758873 0.03660084
000170 3e bc 9b bd 13 50 e5 3c 5f ff 0c bd ba 40 4a 3c
       -0.07604264 0.027992284 -0.03442323 0.012344534
000180 1d f2 85 be 6c 66 a6 bd 27 56 2d bc 63 8a c4 3c
       -0.2616128 -0.08125004 -0.010579622 0.02399177
000190 f0 bb 94 3e 9f 8c 7a 3d 27 2d b4 3a c7 17 c7 3e
       0.29049635 0.061169263 0.0013746367 0.38885328
0001a0 35 09 97 3c 81 31 2a 3e a0 ad 80 3e 6c ae 86 3d
       0.018437007 0.16620447 0.25132465 0.06576237
0001b0 6d dc 94 3c b0 a4 03 bd d3 e3 57 3e ea 19 3e bd
       0.018171513 -0.03213948 0.21083002 -0.046411432
0001c0 d7 05 85 bc 07 3c 9f 3c 5c 72 fd bd 02 1d 52 3d
       -0.016238136 0.019437803 -0.12375328 0.051297195
0001d0 d5 dd 85 3e 6f 40 5b 3d dd 94 83 bc 67 96 de ba
       0.26145807 0.053528246 -0.016062194 -0.0016982079
0001e0 9e c4 4e 3e 19 99 1e bd b2 c9 71 be c3 ac 2c 3e
       0.20192191 -0.038720224 -0.23612097 0.16862778
0001f0 cd 84 2d 39 e7 76 a9 bc 1a 04 6c bb fa 63 7d 3c
       0.00016548038 -0.02068658 -0.0036013187 0.015465731
000200 e0 41 cb 3c 00 f2 97 bd d3 60 78 bc 4d 84 4b bc
       0.024811685 -0.07419205 -0.015159803 -0.01242168
000210 1f 4f 20 3d b3 80 50 bb c4 c8 14 be c3 9a 1b be
       0.039137956 -0.0031814992 -0.14529711 -0.15195756
000220 03 0e 2e 3d d3 15 a3 3c a0 fe d2 3c 40 18 10 3d
       0.04249383 0.019907868 0.02575618 0.035179377
000230 1a c6 c5 bb cd 9c 71 b9 20 c3 f1 3c 1f b7 1c 3d
       -0.0060355784 -0.00023041964 0.029511988 0.038260575
000240 f0 83 15 3e 17 b3 17 3e 6a a0 d9 bc 02 54 46 bd
       0.14601111 0.14814411 -0.02656575 -0.04841996
000250 67 0d 1f 3e 10 29 a7 3e d2 e0 78 3e 79 6f 15 be
       0.15532456 0.32648516 0.24304512 -0.14593305
000260 9d 24 1a bd ff d5 2a 3d d3 48 2c 3c 13 cd 38 3d
       -0.037632573 0.04170799 0.0105154095 0.04511745
000270 cd e4 35 3a fa 30 1f bd 1b cc 09 bd a7 92 bf bc
       0.0006938696 -0.038865067 -0.033641916 -0.023385359
000280 69 72 40 be 6b 0d 26 bd c0 77 fc 3b 7d c6 08 3d
       -0.18793644 -0.04054014 0.007704705 0.03339242
000290 33 80 09 3b ae 54 0e bd 4a 47 02 bd 53 c8 d7 bc
       0.0020980954 -0.034748726 -0.031806268 -0.02634064
0002a0 a8 ef a8 3d 7a 7a b5 3e 9c 7c 84 bd d1 36 22 3e
       0.08248836 0.35445005 -0.0646908 0.15841223
0002b0 91 ef 6f 3e 87 f8 40 be 09 af e6 bd b1 76 84 be
       0.23431231 -0.18844806 -0.11263854 -0.25871804
0002c0 6d 06 ac bc 67 51 00 bc 51 ce 88 bd ea 0b 75 3e
       -0.020999158 -0.007831908 -0.06679977 0.23930326
0002d0 11 90 6a 3d bf 33 18 3e 99 d0 14 3d 01 48 e2 3e
       0.0572663 0.1486349 0.036331747 0.4419556
0002e0 eb e8 16 bd e7 30 f3 bb 86 eb 42 bc 4e 8d 73 3e
       -0.03684322 -0.007421601 -0.0118969735 0.23784372
0002f0 70 2b 37 3d 9a 25 ca 3b 5d 10 20 bd 33 6b 17 3d
       0.04471916 0.0061690332 -0.039078105 0.036967468
000300 c0 d0 79 bd cc 62 fd bd 6d 98 82 bc 8a 68 ba bc
       -0.060990095 -0.1237236 -0.015941823 -0.022754926
000310 8d a4 5e 3c cc 19 27 3e 02 91 47 bd c0 66 a8 3b
       0.013589037 0.16318434 -0.048722275 0.005139202
000320 92 b4 54 be 49 44 43 3e 58 b6 14 bd 1f a1 c4 3e
       -0.20772007 0.19069017 -0.03630671 0.38404176
000330 0d 42 ec 3c 2d 5e 08 3c a3 3d 2b 3d ba 2d fd 3c
       0.02884009 0.0083232345 0.04180683 0.030905593
000340 57 ba 00 be b8 d0 2a be cf 49 19 be 0d 90 02 bd
       -0.12571083 -0.16681182 -0.14969562 -0.03187566
000350 6c 2d 2f be 5f 50 56 bd ed f9 63 3c 00 ce 84 3c
       -0.17107171 -0.05232274 0.013914567 0.01621151
000360 d7 26 0b 3e 5a af b7 3e 5d e2 c1 bc 03 f0 fd 3c
       0.13589035 0.3587597 -0.023667509 0.030998236
000370 64 09 30 3d 7f df 3a 3e 68 50 17 3d 7a ef 11 bc
       0.042977706 0.1824932 0.036941916 -0.008907193
000380 a1 67 2d 3e db e6 d3 3d 1f 40 06 3d b0 6a bb bc
       0.16934063 0.103467666 0.032775994 -0.022878021
000390 62 6c d8 3c ad 08 86 3c f0 58 fd bc 3d b9 42 3d
       0.026418868 0.016361559 -0.030926198 0.04753994
0003a0 33 fa 1d bd 33 cb a1 ba f3 5c f4 3c 80 66 ef bb
       -0.038568687 -0.0012343883 0.029829478 -0.00730592
0003b0 5d 6c ae bc 8a ed b4 3c 5e 00 17 3c be 6b 33 bd
       -0.021291906 0.022085924 0.009216396 -0.043803923
0003c0 6f 8b 2b bd ee 65 c4 3e ef 93 96 3e d2 64 2a 3b
       -0.04188102 0.38359016 0.2940974 0.0026000035
0003d0 e0 b7 11 bd ff 90 33 bd 9a f4 bf ba 2d 00 2b bc
       -0.035575747 -0.04383945 -0.001464504 -0.010437054
0003e0 00 e4 9d ba 07 5d 2c bc 57 7d 37 3d 37 68 22 bd
       -0.0012046099 -0.010520226 0.044797268 -0.03965017
0003f0 75 84 0a 3e e9 06 8c 3e 1f bd 08 bc 94 7b 51 3e
       0.13527091 0.27349022 -0.008345871 0.20457298

fc1.bias f4 [400]
000000 28 bf c5 3e 00 cd 4c 3e a5 49 24 bf 04 91 a1 3e
       0.38622403 0.20000076 -0.6417487 0.3155595
000010 4d eb ce be 36 64 94 3d 56 79 b6 3e 67 60 0b 3e
       -0.40413895 0.07245676 0.35639447 0.13610993
000020 6e f2 fe 3e 90 de e1 be c7 8b 36 bd 52 d3 1f be
       0.49794334 -0.44115114 -0.044566896 -0.15607956
000030 7d fa bd 3e 61 db 5f bd 76 14 d0 3e 19 e2 7c 3e
       0.3710517 -0.054652575 0.4064061 0.24695624
000040 8a f2 a7 bd a7 22 68 3e e0 12 96 3e 10 11 8e 3c
       -0.082005575 0.22669469 0.29311275 0.01734212
000050 ed 34 80 3e 53 2b 3b bd c6 98 71 be a5 f6 0b 3f
       0.2504038 -0.045695614 -0.23593435 0.54673225
000060 f7 07 da 3e f8 0b 95 3e 75 7f 0f 3f 5c b6 32 bf
       0.42584202 0.29110694 0.5605386 -0.6980951
000070 8e 77 e1 bd b5 a1 28 3e 12 0c 9f be 13 04 bc be
       -0.11009131 0.16467936 -0.31063896 -0.36721858
000080 f3 89 0a bf ef 8e b0 3e 62 3e 86 3e 3f 64 1b 3e
       -0.54116744 0.3448405 0.2621947 0.1517496
000090 33 63 f7 be bb 05 25 bf d9 39 03 3f 1c fd ab bd
       -0.4831787 -0.6446187 0.51260144 -0.08397886
0000a0 7f d8 88 bd a1 39 13 bf ee bf 3a be f7 66 ac be
       -0.06681918 -0.5750981 -0.18237278 -0.33672306
0000b0 6a bb 07 3f 12 3a 03 3f 0d 1b 63 3e 72 01 04 bf
       0.53020346 0.51260483 0.22178288 -0.51564705
0000c0 bd d6 c3 bd fd db b5 be b8 f6 ac 3e 84 ec b8 3e
       -0.095624425 -0.355194 0.3378198 0.36117947
0000d0 f5 60 2e 3e be 82 02 3f d9 76 ea be 70 19 04 3f
       0.17029174 0.50980747 -0.457938 0.51601315
0000e0 eb 92 f5 be 69 49 0a 3f 08 3b f1 3e 5d 5a 30 bf
       -0.47963652 0.54018265 0.4711535 -0.68887883
0000f0 69 41 5a 3e 75 e8 97 bc 73 1c c8 be 12 60 0d bf
       0.21314014 -0.018543461 -0.39084205 -0.55224717
000100 34 db 8f 3e a8 68 0e be de 6e 8c be e9 dc 2d 3d
       0.28096926 -0.1390711 -0.27428335 0.042447004
000110 80 8d 22 bf bc ae 97 be 5d 7b d3 bd f0 24 91 be
       -0.6349716 -0.296255 -0.10326264 -0.28348494
000120 57 08 ef 3e 48 ea 87 be 5d fc e6 3e 11 64 0f 3e
       0.4668605 -0.2654593 0.45114413 0.14003016
000130 d1 4a 01 bf 48 49 0e bf f0 68 fd be e0 a8 81 be
       -0.50504786 -0.5558057 -0.49494123 -0.25324154
000140 84 2a 26 3e d6 08 2d be e3 75 1b bd 4d 54 20 bf
       0.16227156 -0.16897902 -0.037954222 -0.6262863
000150 7b 60 b9 3e a5 c2 57 3e 8a 46 8f 3e a8 fc 1a be
       0.3620642 0.21070345 0.27983505 -0.15135443
000160 e0 ea 1f bf 54 0e 95 3e 0c 13 e3 3e 1a d3 df 3e
       -0.62467766 0.29112494 0.4435047 0.43715745
000170 55 b4 e8 be e8 57 4a 3e 9d f4 cc be 40 93 60 be
       -0.45450082 0.19760096 -0.40030375 -0.21931171
000180 ac a1 9e 3e 5d 2c 29 bf 9f fb 0d 3e a3 43 32 bf
       0.3098272 -0.6608332 0.13865517 -0.69634455
000190 d5 97 ac 3c 9b ab a7 3e 05 6f dc be ee 97 93 be
       0.021068493 0.32748112 -0.4305345 -0.2882685
0001a0 10 55 66 3e 17 e1 03 3e b1 8c ea bd 99 16 c9 be
       0.22493386 0.12878834 -0.11452616 -0.39275053
0001b0 b3 41 ea 3e c9 5b 13 bf 05 cc 53 3e f7 92 64 be
       0.4575325 -0.5756193 0.20683296 -0.22321688
0001c0 2c 34 83 3e 48 b0 61 be 94 90 a6 3e 25 e6 16 bf
       0.2562574 -0.22039902 0.3253218 -0.5894492
0001d0 89 d9 0d be 92 40 9b bd 6c d9 c2 be 1c d2 13 3f
       -0.13852514 -0.07580675 -0.38056505 0.57742476
0001e0 b5 3b a6 3e 2b a7 85 3e 88 56 1a bf e1 d2 27 be
       0.32467428 0.26104102 -0.60288286 -0.16389038
0001f0 35 00 d1 bd 96 da e7 bd 22 56 83 3e 44 0a 14 3e
       -0.102051176 -0.11320989 0.25651652 0.14457041
000200 ec 00 bd 3e c7 6b 02 3d da 23 0b 3f 9c c3 c7 3e
       0.36914766 0.031841066 0.5435158 0.39016426
000210 2e 90 7d be 4c 68 9e be 1f e6 19 3e da b4 22 be
       -0.24762031 -0.30938947 0.1502919 -0.15889302
000220 ea bd a4 3e 7d b8 35 3e 31 3e 1d bf bf 7b bd bd
       0.32176143 0.17746158 -0.6142302 -0.09252118
000230 01 09 f5 3e 05 7f 7a bd b8 fa 1c bf 7a dd 94 3e
       0.47858432 -0.06115629 -0.61320066 0.29075223
000240 31 e9 b3 be 68 79 80 3e 2d 6c dd 3e 70 f7 e8 3e
       -0.35138848 0.25092626 0.43246594 0.4550128
000250 6c 7c e0 bd 11 73 20 3e 88 0c a8 be 85 8a a1 bd
       -0.109612316 0.15668894 -0.3282206 -0.07887749
000260 07 0d 90 3e 6e 5d 1c bf a1 47 86 3e a0 67 c7 3e
       0.2813494 -0.6108006 0.26226524 0.38946247
000270 1f 67 34 be 5e 78 dc 3e 87 39 2d bf 00 e7 87 3e
       -0.17617463 0.43060583 -0.67665905 0.26543427
000280 5c 43 0f bf aa 54 b7 be 3d c5 5b be 01 fb 1c bf
       -0.5596216 -0.3580678 -0.21461959 -0.613205
000290 ee dc 1a bf a9 d9 0e 3f 93 44 7f be cf ba 5b be
       -0.6049336 0.55800873 -0.24928503 -0.2145798
0002a0 5b 70 7b 3e db fd 10 bf 77 3a 0d 3f a5 22 2d 3e
       0.24554579 -0.5663735 0.55167335 0.16907747
0002b0 57 c8 ab bd 98 48 27 be 58 11 07 bf 37 45 10 3f
       -0.08387821 -0.16336286 -0.5276084 0.56355613
0002c0 6e 4c d5 be f9 3d bb 3e a0 46 ed be 40 2f 18 bf
       -0.41659874 0.3657072 -0.46342945 -0.594471
0002d0 02 7b a3 3e d4 2d bf 3e 1c 7b de be 15 f1 17 bf
       0.31929785 0.37339652 -0.434533 -0.59352237
0002e0 7d 2e 29 be a9 ac 9f be 1b 3f cf be 25 6e 8d bd
       -0.1652164 -0.31186417 -0.40477833 -0.06905774
0002f0 ff 12 d5 3e ce 69 2d 3e 70 4b 67 3e 4c 5c cf be
       0.41616055 0.16934893 0.22587371 -0.40500104
000300 a5 d6 da be 66 e4 d6 be 81 4e 2d 3e 25 ec bf 3e
       -0.42741886 -0.4197113 0.16924478 0.3748485
000310 c8 11 04 be 6a b5 46 be 67 7a 96 3e e1 ee f6 3d
       -0.12897408 -0.19405141 0.2939026 0.12057281
000320 5e a0 87 3e db 1f 14 bf 04 4c 0f bf 4a a6 f0 be
       0.26489538 -0.5786111 -0.55975366 -0.47001868
000330 d1 ea d6 be 15 47 21 be 9a 4c c9 3e a6 e0 dd be
       -0.41976026 -0.15749772 0.39316255 -0.43335456
000340 52 42 a5 be 7a 10 d4 3e a6 01 06 bf a5 46 91 be
       -0.3227716 0.4141882 -0.52346265 -0.2837421
000350 ff b7 bb 3e d3 3c 2b bf aa 6c bd be 8b 8f 0e 3f
       0.36663815 -0.66889685 -0.36996967 0.5568778
000360 50 a6 87 be 68 bb e4 3e 5f e0 c4 3e b2 e8 43 be
       -0.26494074 0.4467423 0.38452432 -0.19131735
000370 b9 f4 b5 ba 65 83 e2 bd 10 14 a3 3e bd e2 c7 3d
       -0.0013882137 -0.11060218 0.31851244 0.09760044
000380 9e 2f 87 be 7c 00 a9 3e 17 51 10 bf 21 47 7d be
       -0.26403517 0.33008182 -0.56373733 -0.24734165
000390 0e 05 11 bf b1 aa c9 3e 57 9a ed bd e9 a8 89 be
       -0.5664834 0.3938804 -0.116017036 -0.2688668
0003a0 cc 67 a1 3e 0a 33 c7 bd 6a 90 22 be c7 81 63 be
       0.31524503 -0.09726532 -0.15875402 -0.22217475
0003b0 dd 12 69 be 24 ad 77 3e d1 8c 14 3f ed 24 f6 3e
       -0.22761102 0.24187142 0.5802737 0.48075047
0003c0 0c 42 17 bf a7 b4 bc be f2 da 85 be 1b 2c 6c bd
       -0.59085155 -0.36856577 -0.26143605 -0.05765925
0003d0 c2 d1 26 be db be 88 be dd b2 2a bf d8 f9 13 3f
       -0.16290954 -0.2670811 -0.66679174 0.57803106
0003e0 bb 67 0e bf 4f 67 01 3f 17 77 75 3e 31 ac 96 3e
       -0.5562703 0.5054826 0.2397121 0.29428247
0003f0 2f 44 50 3e d0 d1 cc 3e a0 c8 83 3e c0 16 73 3e
       0.2033851 0.40003824 0.25739002 0.23739147

fc2.weight f4 [300, 401]
000000 7f a4 2d bd e5 ea 60 3d 71 c1 aa 3c b4 d0 df 3c
       -0.042393204 0.054911513 0.020844193 0.027321197
000010 8a 51 1c 3d 5c a8 29 bd d7 9c 1e bd 8f c0 52 3d
       0.0381637 -0.041420326 -0.038723793 0.05145317
000020 94 ac 47 3d e1 e6 b9 bc 6b 5a 57 bd 0e b3 58 3d
       0.048748568 -0.0226931 -0.052576464 0.052905135
000030 46 cb e3 3c 80 90 4b 3d 4a 63 8d bb 3c 2f 3d 3c
       0.02780689 0.049698353 -0.0043148147 0.011546906
000040 2d 34 64 3d e6 6f b5 bc 99 ae 22 bb b5 05 e4 bc
       0.05571382 -0.022148084 -0.0024823307 -0.027834753
000050 b4 0f 13 bd ba ad 15 3c f9 03 03 bd 41 2c 8c 3c
       -0.035903648 0.009135658 -0.03198621 0.017110946
000060 95 c1 28 3c a1 f5 d5 bc 06 39 91 3c f8 c0 23 3d
       0.01030006 -0.026118102 0.017727386 0.03997895
000070 7a d6 b5 bc 0f 47 2b 3d 4e ee 8f 3c 7c b4 52 3d
       -0.022196997 0.041815814 0.017569687 0.051441655
000080 6e 78 71 3b e9 49 f7 3c 41 68 0a bd 70 ca 20 3d
       0.0036845463 0.03018661 -0.03379083 0.03925556
000090 9f b2 3c 3d 72 82 98 bc 4b e8 00 3d 1f 00 69 bd
       0.046068784 -0.018616889 0.03147153 -0.05688488
0000a0 ef 51 6a 3d 29 cc 9c b9 74 bf ad bc 5a 3f 5b bd
       0.057207044 -0.0002990675 -0.021209456 -0.053527214
0000b0 9d cf 0c bb c6 89 b3 bc 05 60 1d bd 79 18 e8 3c
       -0.0021486052 -0.021916281 -0.03842165 0.028331982
0000c0 74 4c 57 bc af 81 83 bc f7 62 a4 ba e1 c0 70 3c
       -0.013140786 -0.016053049 -0.0012541701 0.014694423
0000d0 af ad 17 3d 3f 9c 2d bd 06 a8 1b bb 5e 17 8c 3c
       0.037030872 -0.042385336 -0.0023751273 0.017100986
0000e0 19 dd 1d 3d 99 cd 22 bd 72 01 95 bb 59 48 61 bd
       0.038540933 -0.039746854 -0.0045472914 -0.055000637
0000f0 23 84 3e 3d 4e 41 b4 3c e0 5a 02 bd 0b 72 65 3d
       0.046512734 0.022003796 -0.031824946 0.056016963
000100 1d e0 b7 bc 7e 61 51 3d 4d 53 fd bc 2e fb 88 3c
       -0.022445733 0.051118366 -0.03092351 0.016721334
000110 62 a9 e0 bc 3a de 1b 3d c7 1c 19 3d 94 69 4e bc
       -0.027424518 0.03805373 0.03738096 -0.012598414
000120 9b dd 3f bd 6e 3c 01 bd af 0a b7 3b 67 b5 b4 3b
       -0.0468422 -0.03155177 0.0055859904 0.005514789
000130 d5 c7 5c bd 8c 06 2b bd 40 f7 c2 bc be 1e 68 3d
       -0.053901512 -0.04175429 -0.023799539 0.056669943
000140 fe 5f a1 3c 1d e0 04 3d e4 af 06 3d e8 ae 0a 3d
       0.019699093 0.032440294 0.032882586 0.03385821
000150 bd ae ca 3c c9 83 49 3d c4 93 74 bc 9b bc 4f bd
       0.024741525 0.049197946 -0.014927808 -0.050716978
000160 b5 6b 56 bd ce 3e dc 3c cd ea 15 bd b3 cf b6 3c
       -0.05234881 0.026885416 -0.036600877 0.022315836
000170 c4 4f f8 bb 73 ed 2a bc 81 63 c8 3c 0b 36 26 bd
       -0.007577868 -0.010432589 0.02446151 -0.040578883
000180 86 f6 29 bd 0a f0 c6 3c 4a 52 07 bd 57 d5 a1 bc
       -0.04149487 0.024284381 -0.03303746 -0.019755049
000190 b6 5f a3 3c 4d dd ea 3c ee b7 2a bd b0 20 1c bd
       0.0199431 0.028669978 -0.041679315 -0.03811711
0001a0 95 8a 11 bd 93 5f 11 bd 7f 5e 31 3a 75 bd 0e 3d
       -0.035532553 -0.035491537 0.0006766095 0.03484865
0001b0 f9 82 70 bd 88 7a f8 3c 12 5a 3f 3d 8b 39 62 bb
       -0.058718655 0.030331865 0.046716757 -0.0034519162
0001c0 5b db 3a bd 66 69 0b 3d f7 aa c4 3c 97 d7 1d ba
       -0.04561935 0.034036063 0.024007304 -0.00060212
0001d0 be 57 74 bc 3c c3 a8 bb 07 0c 2f 3d 92 39 3a 3d
       -0.0149134975 -0.005150227 0.04273608 0.04546506
0001e0 60 ba 28 3c 80 ca 24 3d 85 ee 06 3b 19 c8 a3 3c
       0.0102983415 0.04023218 0.0020588946 0.019992875
0001f0 98 f8 12 bd 33 4c b2 bc ee 5f 2c 3d ca c1 6d bd
       -0.03588161 -0.02176485 0.042083673 -0.05804614
000200 d3 5c f3 3c a4 6a 1f 3c a2 5b 29 bd 5f ec 40 bd
       0.029707348 0.009730015 -0.041347153 -0.04710042
000210 f1 48 98 3b 0a cb 4f 3d 15 21 38 bd 55 17 63 bd
       0.004647367 0.050730743 -0.044953424 -0.055442173
000220 67 ea af bc 24 ec 53 bd ef 0c 22 3d 23 ec b3 bb
       -0.021474076 -0.051738873 0.039563116 -0.005490796
000230 da ba aa bc 44 29 32 bc 82 ae 0f 3d 36 91 b4 3c
       -0.02084105 -0.010874096 0.035078533 0.022041898
000240 46 f9 67 bd 13 af d5 bc 10 89 85 bc 45 b8 5d 3b
       -0.05663421 -0.026084458 -0.016300708 0.0033831757
000250 dc f4 68 bd bc 03 2f bd 97 ed 53 3d e4 1d 27 bd
       -0.05687414 -0.04272817 0.051740255 -0.04079999
000260 92 63 a8 bc 28 a1 d5 3b fb 76 2d 3d 72 55 6b bd
       -0.020555291 0.0065194555 0.042349797 -0.057454534
000270 41 8f 32 3d da 0a 3f bc 41 56 b4 3c eb 1f a4 bc
       0.04359365 -0.011660302 0.022013785 -0.02003475
000280 63 66 18 bd 85 4d 23 bd 34 f1 1a 3d a6 a3 2c 3d
       -0.03720702 -0.03986885 0.037827685 0.042148255
000290 3b 70 54 bd 0e fa d8 bc 1c 64 03 bc 29 17 04 bd
       -0.051864844 -0.026486423 -0.008019473 -0.03224865
0002a0 e7 b0 f9 3c e6 d2 1d bd 26 68 50 3d d0 8a dd 3c
       0.030479861 -0.038531207 0.050880574 0.02704373
0002b0 31 e4 4a 3d c8 e1 18 3d 78 a7 6d bc 1f bb 9b bc
       0.049534027 0.037324697 -0.01450526 -0.019010125
0002c0 9c e0 69 3c e1 7f 6f 3c af 95 0f 3d 68 cd 4d 3b
       0.014274742 0.014617891 0.03505486 0.003140295
0002d0 c0 fc 35 bd 3c 39 73 bc aa e9 bf 3c ad 3c dd b9
       -0.044430494 -0.014845189 0.02342685 -0.00042197612
0002e0 01 94 af bc 7f 47 fc bb fb 0f d0 3c 1d 57 0e bc
       -0.021432878 -0.0076989527 0.025398245 -0.008687762
0002f0 87 1b a8 bc 48 14 30 bb 76 26 b2 bc 9d 3a 00 3d
       -0.020520939 -0.0026867557 -0.021746855 0.031305898
000300 21 09 9d 39 f7 b2 f4 bc f8 c4 52 bc 9c 8b a2 bc
       0.00029952175 -0.029870493 -0.012864344 -0.019841962
000310 5a c3 1e 3c 39 18 51 bd 2a 35 2b 3b 7b bd 10 3d
       0.00969013 -0.05104849 0.0026124218 0.035336953
000320 2b 84 77 3c 16 53 45 3c 12 53 5a bd b3 a9 d6 3c
       0.015107195 0.012043735 -0.05330188 0.026203966
000330 3a f2 31 bd de e4 45 ba 9e 17 d2 ba bc e9 09 bd
       -0.043443896 -0.00075490575 -0.0016028767 -0.033670172
000340 77 3b 2a 3d 8e c0 76 bc 70 74 95 3c 98 48 2a bd
       0.041560616 -0.015060557 0.018243998 -0.041573137
000350 1c 6c 46 3d 04 21 37 bc 12 3c 4b 3d d0 17 15 3d
       0.048442945 -0.011177305 0.049617834 0.036399662
000360 39 3b 4f 3d 96 96 58 3c bb 75 a8 3c 51 9e ac 3c
       0.05059359 0.013219496 0.02056395 0.021071585
000370 b2 89 5b 3c ad ea 88 3c f9 ef 6b 3c 5b 57 32 3d
       0.013399528 0.016713465 0.014400476 0.04354034
000380 54 a3 06 3d 8f 09 0d bd 24 50 25 bd 99 77 0e bd
       0.032870606 -0.034432944 -0.04035963 -0.034782026
000390 4c 71 f7 bc cf 0e 73 bd d0 40 32 3d 06 d0 1e 3d
       -0.030205391 -0.059340294 0.04351884 0.038772605
0003a0 b8 35 2c bc 55 15 0a bd 86 b9 89 3c 97 2d 4e bd
       -0.010510854 -0.03371175 0.016812097 -0.050336447
0003b0 1d 12 1b 3c 28 f2 f1 bc 0b 21 19 3c 92 b4 36 bd
       0.009464768 -0.029534414 0.009346257 -0.0446058
0003c0 b0 b9 f5 bc 59 43 48 bd c4 2c 84 3b 3f 9d 11 3d
       -0.02999577 -0.048892353 0.004033657 0.035550352
0003d0 5f d6 49 bd 93 5a e0 3a d8 2a f3 bc 2d 52 a7 bb
       -0.049276706 0.0017116837 -0.029683515 -0.0051062317
0003e0 59 bb ab bc 54 36 71 bd e4 dc 1d bc 97 72 04 3d
       -0.020963358 -0.058889702 -0.009635184 0.032335844
0003f0 b0 77 d1 3c f8 e9 ed 3c ee af 1a 3d 41 fd 4c bc
       0.025569767 0.029042229 0.037765436 -0.012511552

fc2.bias f4 [300]
000000 ef 47 16 3c 25 06 c4 3d 60 a4 a4 bc a2 86 ea 3d
       0.009172424 0.095714845 -0.020097911 0.114514604
000010 5a c1 43 bd 4d a9 ad 3c dd 2e 58 bc 01 43 1f bd
       -0.047791816 0.021198893 -0.013194767 -0.03888226
000020 da d8 4c bd d8 f1 5f bd 9b 27 16 3c 13 13 4c bd
       -0.050011493 -0.054674 0.009164716 -0.049822878
000030 0c 2f 8e 3b 9c 3d 29 bd f1 52 e2 bc 7a 96 82 3c
       0.0043391045 -0.04131852 -0.02762744 0.015940893
000040 ac 5a 5f bc f2 ec 29 3d a3 33 77 bc e4 ec e3 3c
       -0.013632458 0.041485734 -0.015087995 0.02782292
000050 40 d2 ea bc eb e9 a3 bc 94 bb 38 3e fb 6e e5 3c
       -0.028664708 -0.020009002 0.18040305 0.028007021
000060 84 52 5e bd 6a c3 72 bc 08 a7 15 bd 37 46 5e bc
       -0.05427791 -0.014817098 -0.036536247 -0.013566545
000070 84 d0 02 3c 54 57 52 3a b0 1c ef bd 78 6f d8 ba
       0.007984284 0.0008023877 -0.116753936 -0.0016512712
000080 a9 33 21 bd 67 1e 53 bd 4b 1a 8a bc 0f 3b 84 3b
       -0.039355908 -0.051542666 -0.01685824 0.0040353606
000090 42 50 0e bc cf 95 b3 bc c0 35 22 bd 8a 64 30 3c
       -0.008686127 -0.02192202 -0.03960204 0.010766158
0000a0 71 e6 2e bc 22 9b 84 3d c0 54 57 bd 3d ea f7 bc
       -0.010675059 0.06474902 -0.05257106 -0.03026306
0000b0 f5 2a f1 bc 63 c7 28 bd bc 28 ce bc 26 eb 14 bc
       -0.029439429 -0.041205775 -0.025165908 -0.009089267
0000c0 f3 24 da 3c 66 6d 01 3d 58 74 88 bc 5e 18 5c 3a
       0.026628947 0.03159847 -0.01665704 0.0008395965
0000d0 da 8d b5 bc 06 95 02 bd 2c 36 3e 3b 99 aa 1c bc
       -0.022162367 -0.0318804 0.0029023988 -0.009562158
0000e0 d7 fe 62 bb 03 90 a7 bb af 9d 91 3d 14 f5 3c bb
       -0.003463676 -0.005113603 0.07110154 -0.0028832601
0000f0 f1 f1 22 bd 84 7f 1a bc 0e c2 e6 bc 57 9b e0 3d
       -0.039781515 -0.009429816 -0.028168704 0.10967129
000100 ee 9d 0c bd ea 33 c4 3c bf f7 1d bd 03 16 2c bd
       -0.0343303 0.023950536 -0.038566347 -0.04201318
000110 35 a0 a7 3c ca d2 3b bd 79 6d 32 bc d5 41 0a 3d
       0.020462135 -0.04585532 -0.010890358 0.03375419
000120 ef d0 69 bd 89 ec 43 bd 2c 7c cf 3c d6 79 26 3c
       -0.05708402 -0.047833 0.025327764 0.010160884
000130 5f 65 89 bb 31 bf c6 bc fd 6c 97 bc 0b 2d cc bc
       -0.0041929926 -0.024261089 -0.018484587 -0.024923822
000140 87 2b 08 bd 30 b4 e7 3c 53 47 09 bc cf 4b 88 3c
       -0.033244636 0.028284162 -0.008378821 0.01663771
000150 72 04 0c bd e3 22 36 b9 12 3e 92 3c d2 a7 49 3d
       -0.034183927 -0.00017369869 0.017851863 0.04923231
000160 ca 72 07 3c 84 5f c6 3c 98 65 4e ba 87 54 7e bd
       0.008267114 0.024215467 -0.0007873415 -0.06209233
000170 79 2c 39 bd 41 3b 4f 3c 0e a7 a3 bc d5 15 04 bc
       -0.045208428 0.012648405 -0.019977119 -0.008061846
000180 63 fd 24 3c ed 26 27 bd 24 c6 7c bd 34 1d 76 bb
       0.010070178 -0.040808607 -0.0617124 -0.0037554028
000190 1e d9 d7 bc a0 76 00 bd d2 f4 1b 3e b6 f5 00 3e
       -0.026348647 -0.03136313 0.1523011 0.12593731
0001a0 ba cf 84 bb da 5f 99 3b 5f 2d a4 3c 20 20 54 bc
       -0.0040530832 0.004680616 0.020041166 -0.012947112
0001b0 6a e6 03 bd 63 29 2d 3c 2b eb 9c bc 19 ea 6a bc
       -0.03220216 0.010568949 -0.019155106 -0.01433804
0001c0 79 dd c4 3d a0 1b 91 bc bf 03 1c bd 58 28 9d bd
       0.09612555 -0.017713368 -0.03808951 -0.076737106
0001d0 9f c1 ab 3c 9f ea b9 bb 78 21 00 3c e8 7a 90 bd
       0.02096635 -0.005673721 0.00782048 -0.070546925
0001e0 1b bd ca 3c 10 d1 67 bd cd 33 14 ba 87 22 eb 3c
       0.024748376 -0.056595862 -0.0005653471 0.028702987
0001f0 b0 0b f4 bc f1 8b ce 3c 2b 81 80 3c 6b 7b bc bc
       -0.02979073 0.025213214 0.015686592 -0.023008069
000200 7d 2a b5 3c cd 3b e2 3c f1 10 cf 3c 35 bb 7d bc
       0.022114987 0.027616406 0.025276633 -0.015486528
000210 d8 34 dc 3b 12 b9 0a 3d 97 3a 02 bd 3d ad a9 bc
       0.0067201667 0.033867903 -0.031794157 -0.02071249
000220 df b1 13 bc c7 9e 82 3d 60 5c 13 3c e1 22 9e bc
       -0.009014576 0.063779406 0.008994192 -0.019303741
000230 99 35 ec bc 18 87 78 bc bc 8a 4b bd 96 aa e7 3c
       -0.028834151 -0.015168928 -0.049692854 0.028279584
000240 53 b4 b7 3c a0 87 16 bd 36 ff 2f 3e e0 ff f2 bc
       0.022424852 -0.036750436 0.17187199 -0.029663026
000250 17 35 3f 3c d3 30 7f bd b1 0e e6 3c 9b f8 3a 3b
       0.011670372 -0.06230242 0.028083177 0.0028529528
000260 67 1f 28 bd 02 77 a5 bd 49 1a 22 3d c1 40 d8 3b
       -0.041045573 -0.080793396 0.03957585 0.006599516
000270 70 12 33 3d 11 7f 4d bd 98 f5 15 3c 1d fa c0 3d
       0.043718755 -0.050170008 0.009152792 0.09422705
000280 b6 e7 3e 3b 83 69 59 3c c8 e9 a6 bc cc 6b 80 bc
       0.002912981 0.013269785 -0.020375147 -0.015676402
000290 30 3c f4 ba ac e0 20 bd db 50 2d bd 71 22 e4 bc
       -0.001863366 -0.039276764 -0.042313438 -0.027848454
0002a0 11 97 a4 3c 93 b8 8c 3c 5e 19 86 bc 35 74 9f 39
       0.020091565 0.017177856 -0.016369518 0.00030413424
0002b0 fa d8 35 bd 5f 84 f4 3d 78 e3 0c 3d 06 b2 b1 bc
       -0.044396378 0.1193931 0.03439662 -0.021691334
0002c0 a8 2e 01 bc 35 4a a0 3c 45 75 cf bc 6b 3d 65 3c
       -0.007884659 0.019566635 -0.025324473 0.013991694
0002d0 59 be a0 bc cc 29 9f 3c 69 0c a0 3c e5 de 92 bb
       -0.019622015 0.01942911 0.019537168 -0.0044821375
0002e0 2a cd 5e 3d 5a 07 90 bc d7 ed 3d 3d c3 f7 65 3d
       0.05439488 -0.01758163 0.0463694 0.056144487
0002f0 03 d4 22 bd 93 bb 56 bc 66 8a 23 bd ac 63 04 3c
       -0.03975297 -0.013106245 -0.03992691 0.008080404
000300 0d ea 06 ba 8e 61 cc 3c 66 bf 19 3c d0 f6 d7 bc
       -0.00051465706 0.024948861 0.009384012 -0.026362807
000310 b3 a7 bb bc a6 8f 52 bb 20 43 26 bd f7 55 f6 bc
       -0.022907114 -0.0032129078 -0.04059136 -0.030070288
000320 e9 46 e5 bc e7 b8 30 bd 51 d1 39 3d 80 e4 50 bd
       -0.027987914 -0.043145087 0.045365635 -0.050999165
000330 85 07 a4 3c 61 c6 17 3d 99 44 af bb fa b9 08 3d
       0.020023117 0.037054423 -0.0053487536 0.033380486
000340 0c aa c2 3b fb 62 28 bd 3c 40 20 bd 89 4b 3c bc
       0.0059406813 -0.04111002 -0.03912376 -0.011492618
000350 8e 66 1c 3d 4c a1 a9 bb eb 3b 22 3d 50 34 5a 3c
       0.03818374 -0.005176699 0.039607923 0.013318136
000360 25 30 79 bd 6c c9 0e bd f1 39 c3 bd a2 e9 ad 3c
       -0.06083693 -0.03486006 -0.09532536 0.021229569
000370 3b d9 25 bd 69 b9 f3 3c b4 1b 78 bc 51 bb 9f b9
       -0.04049037 0.029751496 -0.015143324 -0.00030466405
000380 e8 ec f7 3c 83 23 14 bd 3f 48 b3 3c 7d 5f 4d 3d
       0.030264333 -0.03616668 0.021885036 0.050139893
000390 4b 58 60 bc 63 7e 78 3c 3d b2 84 3d 92 13 6e bd
       -0.013692926 0.015166852 0.06479309 -0.058124132
0003a0 53 55 91 bb f9 91 6f bc 81 ba de 3b 54 67 b3 3b
       -0.0044352203 -0.014622205 0.0067971353 0.005474964
0003b0 07 51 12 3d ee 92 1f bd 84 03 0b bc 17 dc 3b bc
       0.035721805 -0.038958482 -0.008484725 -0.011466048
0003c0 56 b0 19 3d 1c 28 07 3d e4 78 5f 3c 25 7f 5b 3d
       0.037521683 0.032997236 0.013639662 0.05358805
0003d0 3b 06 d1 ba 27 45 15 3d b7 b6 ae 3c e4 73 21 3c
       -0.0015947291 0.036442902 0.02132736 0.009854291
0003e0 b5 b6 43 bc 99 fd cd bb 31 43 91 3d 30 1a 1d 3d
       -0.011945416 -0.0062863347 0.07092894 0.038355052
0003f0 fd 6a 73 bd c6 e9 c0 bc 07 76 84 bc f4 c7 57 bd
       -0.059428204 -0.023548972 -0.016169561 -0.052680925

fc3.weight f4 [1, 300]
000000 5c 48 1d 3b 01 34 f3 3d 52 21 06 bc 97 5a 2b 3e
       0.0023999428 0.11875153 -0.008186655 0.16733776
000010 7b 3c 06 3f e3 2c 9b 3e a6 9b 44 3b 5e 12 0f 40
       0.52436036 0.30307683 0.003 2.235496
000020 41 29 cd 3b 9a c6 e4 3e a6 9b 44 3b 74 1b 43 bc
       0.0062610214 0.4468277 0.003 -0.011908401
000030 da c6 3b 3e 60 4e 9c bb 9a 78 ef 3a 9a 43 7e bc
       0.18337575 -0.004770085 0.0018270195 -0.015519047
000040 fc 52 60 3a a6 9b 44 3b 21 d7 31 3f 67 1a e0 3e
       0.00085572875 0.003 0.69468886 0.43770143
000050 02 9a 44 bc a6 9b 44 3b e6 7a 5a 3e 9b 8f 7e 3b
       -0.011999609 0.003 0.21335945 0.003884292
000060 b7 c8 cf 3e a6 9b 44 3b 31 12 3e bc a6 9b 44 3b
       0.4058282 0.003 -0.011601017 0.003
000070 3e a7 fa 3e f0 83 30 3c c7 75 3f be 00 df e9 3e
       0.4895572 0.010773644 -0.18697272 0.45677948
000080 25 c8 c9 bb ce a7 05 3f 6a 04 9d 3b 35 15 15 bf
       -0.0061578923 0.52209175 0.004791786 -0.58235484
000090 80 6f 92 3b a6 30 52 bc 46 f9 3c 3f 45 11 6d 3b
       0.0044688582 -0.0128289815 0.7381786 0.0036173624
0000a0 a6 9b 44 3b f6 af 85 3f 2a 48 37 bd 82 a4 e1 bb
       0.003 1.0444324 -0.044746555 -0.006886066
0000b0 c7 fa 00 bc a6 9b 44 3b a6 9b 44 3b 75 9f 79 ba
       -0.00787229 0.003 0.003 -0.0009522357
0000c0 97 d9 27 3e 27 96 1a 3f 1a 6c 83 3f 92 60 29 bc
       0.16391598 0.60385364 1.0267365 -0.010337966
0000d0 e4 3f 77 be 32 14 0f 3f dd f9 f1 3e 2f 3f ca 3a
       -0.24145466 0.5589019 0.47260943 0.0015430207
0000e0 0f ba 60 ba a6 9b 44 3b 7d 4a e8 3d c0 ad 34 3b
       -0.0008572647 0.003 0.113423325 0.0027569383
0000f0 a6 9b 44 3b a6 9b 44 3b a6 9b 44 3b 73 4f 36 3e
       0.003 0.003 0.003 0.17803745
000100 a6 9b 44 3b 4d 03 74 ba a6 9b 44 3b f6 7f 11 bd
       0.003 -0.0009308353 0.003 -0.035522424
000110 58 00 1b 3b 98 d2 57 bc fb 5c b5 bb 2d e0 41 3a
       0.0023651328 -0.013172768 -0.005534766 0.00073957705
000120 f6 06 8a bc f4 ad dd 3a aa 86 30 bb ec 4e 92 3b
       -0.016849022 0.0016912804 -0.0026935735 0.0044649746
000130 d1 e7 61 3c a6 9b 44 3b a6 9b 44 3b 53 19 04 3f
       0.0137881795 0.003 0.003 0.5160114
000140 2b f5 c6 3b a6 9b 44 3b a6 9b 44 3b 43 e2 c5 3e
       0.006071707 0.003 0.003 0.38649186
000150 28 ae e4 3c 18 a4 51 39 d3 d2 16 3f 3a 42 00 3f
       0.027915075 0.00019992923 0.5891544 0.50101054
000160 73 ed 32 3f ea b6 e5 3b a6 9b 44 3b 4d cd 86 3d
       0.6989357 0.0070103304 0.003 0.06582127
000170 8d be 0b bc c8 2f 5d bc a9 0b c6 3b 46 2d a4 3c
       -0.008529318 -0.0135001615 0.0060438705 0.02004112
000180 a6 9b 44 3b a6 9b 44 3b 77 74 f6 ba c1 39 42 bc
       0.003 0.003 -0.001880302 -0.01185459
000190 9f 88 17 ba a6 9b 44 3b e4 14 6a 3e 52 1d e7 3e
       -0.0005780551 0.003 0.22859532 0.45139557
0001a0 a6 9b 44 3b a6 9b 44 3b cc ed e8 3d a6 7c e5 3c
       0.003 0.003 0.11373481 0.028013539
0001b0 a6 9b 44 3b 3c 21 bd bb a6 9b 44 3b 92 24 64 3f
       0.003 -0.005771784 0.003 0.891183
0001c0 d2 9c cf 3d 98 16 a5 3e 9c 74 09 3f 95 13 a7 bf
       0.10137333 0.322438 0.53693557 -1.3052851
0001d0 5c 45 90 bb 84 83 e6 3e ec 8e 09 3b ee b2 7b bc
       -0.0044027995 0.45022213 0.002098973 -0.015362484
0001e0 8d 50 4c 3b 24 1f f7 bb 59 41 ef 3e a6 9b 44 3b
       0.0031175942 -0.007541554 0.46729544 0.003
0001f0 42 62 34 3f 5f c7 44 bc a6 9b 44 3b bc a2 4d bc
       0.7046243 -0.012010424 0.003 -0.012551006
000200 a6 9b 44 3b 10 ac 2f 3c 2e 3a 32 bb a6 9b 44 3b
       0.003 0.010722175 -0.0027195322 0.003
000210 7c ee d9 ba 93 22 05 3f 9a fa 25 3f a1 bb eb 3e
       -0.001662686 0.5200588 0.6483551 0.46041587
000220 ec 18 35 3f 07 82 de 3e 00 df 01 3f 73 d9 98 bc
       0.7074115 0.43458578 0.50730896 -0.018658375
000230 a6 9b 44 3b bd 0f 4c 3c 63 41 37 3f 94 68 1f 3f
       0.003 0.012454924 0.7158415 0.6226895
000240 af 58 80 bb a6 9b 44 3b c5 29 32 3e a6 9b 44 3b
       -0.003916822 0.003 0.17398746 0.003
000250 ff 30 63 3d 9a 5d 00 bf 2c 8b 47 bc a6 9b 44 3b
       0.05546665 -0.50142825 -0.012179177 0.003
000260 b6 9f 6f bb 03 ab 29 bf a6 9b 44 3b 9c b9 74 3c
       -0.00365637 -0.6627657 0.003 0.014936831
000270 53 ca 3a 3e b0 77 38 bc 54 40 87 3c 76 6e 6c bf
       0.18241243 -0.0112590045 0.016510166 -0.9235605
000280 d7 9e a0 3a 17 c0 dd 3e 68 03 26 3f c5 87 df 3a
       0.0012254369 0.43310615 0.6484895 0.0017054012
000290 cd ac c9 3e 45 ec 86 bc 9d 96 ae bb 57 86 01 39
       0.3938965 -0.016470084 -0.005328013 0.00012352444
0002a0 b7 79 c3 3b a6 9b 44 3b 0d 72 04 bc a6 9b 44 3b
       0.0059654373 0.003 -0.008083832 0.003
0002b0 8c af 96 bb a3 fc e9 3e a6 9b 44 3b a6 9b 44 3b
       -0.0045985635 0.4570056 0.003 0.003
0002c0 60 6f 1b bc 72 24 86 3a a2 0f 1c 3f 77 2a 61 3f
       -0.009487003 0.001023425 0.60961354 0.8795542
0002d0 99 b7 41 3b 12 51 05 3f ba c1 ec 3e c3 bf 31 3b
       0.0029558896 0.5207683 0.46241552 0.0027122356
0002e0 a6 fc b0 3e a6 9b 44 3b ca d3 95 37 7e 01 1e 3f
       0.34567755 0.003 1.7860806e-05 0.61721027
0002f0 42 68 bc 3e 27 cf 8b b9 c0 c3 08 3f 74 00 03 3f
       0.36798292 -0.00026666487 0.5342369 0.51172566
000300 66 8e 02 3f aa 92 60 bb c6 ad 9d bc 1e 65 9d bb
       0.5099853 -0.0034267106 -0.0192479 -0.004803314
000310 a6 9b 44 3b 31 e7 9f 3e a6 9b 44 3b cf fb a6 bc
       0.003 0.31231073 0.003 -0.020383744
000320 e3 2c 0e 3f a6 9b 44 3b f0 7d e0 3e 0e b8 ed 3e
       0.5553724 0.003 0.43846083 0.46429485
000330 b1 60 f6 bb 76 4c 02 3e da c8 48 b9 b0 ea 02 bb
       -0.0075188507 0.1272448 -0.0001914831 -0.001997631
000340 b6 24 34 3f 6b 69 ac 3a 9b 37 f4 3e 06 b9 50 bb
       0.70368516 0.0013153976 0.47698674 -0.0031848564
000350 66 41 11 3f 25 f1 39 3b e0 46 5b c0 3e f8 47 39
       0.56740415 0.0028372493 -3.4262009 0.00019070596
000360 3e 77 e3 3b f7 df 10 bb 61 1f 05 bf a6 9b 44 3b
       0.006941705 -0.002210615 -0.52001005 0.003
000370 dd 5a 84 be d6 69 50 bc f4 03 00 3e a6 9b 44 3b
       -0.25850573 -0.012720546 0.12501508 0.003
000380 87 b3 87 3f 6e 2c 1e 3f 2a 10 15 3b bf 76 1c 3f
       1.0601662 0.61786544 0.002274523 0.6111869
000390 b0 f0 15 bc 12 4f a5 bb fa 5c ec 3e d1 1f 9c bc
       -0.009151623 -0.0050448263 0.46164685 -0.01905814
0003a0 a6 9b 44 3b 3f 8e e4 39 bb 04 3f b8 a6 9b 44 3b
       0.003 0.0004359353 -4.5542354e-05 0.003
0003b0 99 93 e9 3e 53 54 8d bc 0d ed 10 bc b9 23 13 3b
       0.4562042 -0.017252123 -0.00884558 0.0022451712
0003c0 5c 1f f9 3e e4 34 09 bf c1 4f 92 b9 a0 8c 1f 3f
       0.48656738 -0.5359633 -0.0002790671 0.6232395
0003d0 66 cd 19 bd a4 d0 c6 3e 97 6a 0c c0 a6 9b 44 3b
       -0.0375494 0.38831055 -2.1940057 0.003
0003e0 e1 a3 e4 3e 5f c0 e8 3a 4a 53 00 3f 84 fc 1e 3f
       0.4465628 0.0017757526 0.5012709 0.6210406
0003f0 d9 b3 24 bc 61 21 f6 3d a3 ec ba 3e 61 20 3b bc
       -0.010052645 0.12018085 0.36508664 -0.011421294
