runs/critic.pkl (torch, 3159 bytes, 5 tensors)

fc1.weight f4 [20, 2]
0	0x3c6c2180	0.014412284
1	0x3e20c10c	0.15698642
2	0xbca2af08	-0.019858852
3	0xbe10838e	-0.14112684
4	0x3e21c812	0.15798977
5	0x3cffce90	0.031226426
6	0xbd8327b4	-0.06404057
7	0xbe16eac0	-0.14737988
8	0x3d56ace0	0.05241096
9	0xbe5a6248	-0.21326554
10	0x3d7139d8	0.058893055
11	0x3de26de8	0.11056119
12	0xbe48db05	-0.196148
13	0xbe15e70c	-0.14638919
14	0xbe249d68	-0.1607567
15	0x3e407420	0.18794298
16	0x3e42a7ac	0.19009274
17	0x3c6557c0	0.013997972
18	0x3e56f626	0.20992336
19	0xbd9917ea	-0.07475264
20	0xbe5e4adc	-0.21708244
21	0x3d9ff55c	0.078104705
22	0x3da23c74	0.07921687
23	0x3e607b40	0.21922016
24	0xb887b800	-6.471574e-05
25	0x3e2f7bfc	0.1713714
26	0x3e0c5a36	0.13706288
27	0x3e25b94a	0.16183963
28	0xbe6337b6	-0.22189221
29	0x3e3c8cc8	0.18413079
30	0xbe433062	-0.19061425
31	0x3e4d46f4	0.20046598
32	0xbc17d220	-0.009266406
33	0xbe4aeb8c	-0.19816417
34	0x3d7eb410	0.06218344
35	0xbd3a6d58	-0.045514435
36	0xbe4da990	-0.20084214
37	0xbda605f0	-0.08106601
38	0x3cbcdde0	0.023055017
39	0x3e3255ca	0.17415538

fc1.bias f4 [20]
0	0xbef74c90	-0.483006
1	0x3f331e1b	0.6996781
2	0xbe99654c	-0.29960096
3	0x3eda270e	0.4260792
4	0x3e10fd88	0.14159214
5	0x3e3fe358	0.18739069
6	0xbdde14f0	-0.10843837
7	0x3e94b3bc	0.29043376
8	0xbe96e336	-0.29470223
9	0xbf2aa005	-0.6665042
10	0xbe8b18ac	-0.2716726
11	0x3f0dd5eb	0.5540454
12	0xbe3ea0ac	-0.18615979
13	0x3e639740	0.22225666
14	0xbe85daf2	-0.26143605
15	0x3f07caa1	0.5304356
16	0x3ed8ad36	0.4231965
17	0x3e7f9bf4	0.24961835
18	0xbeb90f6f	-0.36144587
19	0xbf13ea93	-0.57779807

fc2.weight f4 [10, 21]
0	0xbdc71a20	-0.0972178
1	0x3e40564a	0.18782917
2	0x3d223460	0.03960073
3	0x3c2ea4a0	0.010659367
4	0x3d77d7e0	0.06050861
5	0xbe5482d8	-0.20753038
6	0xbe869402	-0.26284796
7	0xbdcb7e88	-0.09936243
8	0xbe96e00d	-0.29467812
9	0xbe170329	-0.14747299
10	0x3c6e5c20	0.0145483315
11	0xbe5544df	-0.20827053
12	0xbe06516e	-0.13117
13	0xbd68be00	-0.056821823
14	0xbd153828	-0.036430508
15	0xbe32c078	-0.17456234
16	0x3c78f4c0	0.015195072
17	0xbd35cdf8	-0.04438588
18	0x3db93878	0.09043974
19	0x3c6a0420	0.01428321
20	0xbe21b45c	-0.15791458
21	0xbddef85c	-0.108872145
22	0xbb6edd00	-0.0036447644
23	0xbe4a0ea4	-0.19732147
24	0x3ccacce0	0.024755895
25	0xbcb6e830	-0.022327513
26	0x3dfb44b0	0.122689605
27	0x3d9945dc	0.07484028
28	0x3e7256ea	0.23665968
29	0xbc2acbe0	-0.010424584
30	0xbe6f452e	-0.23366234
31	0x3e10bfcc	0.14135665
32	0xbe5ad913	-0.2137187
33	0xbd3209a8	-0.04346624
34	0xbdd1b4ae	-0.1023954
35	0xbdf5bdc8	-0.119990885
36	0xbdef9d44	-0.11699918
37	0x3e94c7f9	0.29058817
38	0x3e395f14	0.18102676
39	0x3db37bd4	0.08763853
40	0x3e980671	0.29692414
41	0xbe92b9a3	-0.28657255
42	0x3d5103b0	0.051028907
43	0x3e4f4cd6	0.20244154
44	0x3e571bca	0.21006694
45	0xbe80db07	-0.25167105
46	0x3de67c80	0.11254215
47	0xbe387960	-0.18015051
48	0xbc4a71c0	-0.012356222
49	0xbd87245c	-0.06598732
50	0xbe87301d	-0.26403895
51	0xbe9a726c	-0.30165422
52	0xbe5509e8	-0.2080456
53	0x3e12f050	0.14349484
54	0x3e142020	0.1446538
55	0xbe8cd27e	-0.27504343
56	0xbdf336d0	-0.11875689
57	0x3ba94280	0.005165398
58	0xbe8bfbbe	-0.27340502
59	0x3e3674ce	0.17817995
60	0x3e92a559	0.28641775
61	0x3d651560	0.055928588
62	0xbe7099db	-0.23496191
63	0x3d970500	0.073740005
64	0x3deb19a4	0.114795
65	0x3e8034cb	0.25040278
66	0xbe2c4b1d	-0.16825528
67	0xbe910e36	-0.28331155
68	0x3e0e44f0	0.13893485
69	0x3ca14700	0.019687176
70	0xbdd30434	-0.10303536
71	0xbe07afc8	-0.13250649
72	0xbe26f71d	-0.16305204
73	0x3e831085	0.2559854
74	0xbd5f7c08	-0.054561645
75	0x3e698a0e	0.2280657
76	0x3e908715	0.2822806
77	0x3d241460	0.040058494
78	0x3d89f520	0.06736207
79	0xbcb06d90	-0.021536618
80	0x3e5e6716	0.21719012
81	0xbe91e4d6	-0.284949
82	0x3e00c6d0	0.12575841
83	0xbd530960	-0.051522613
84	0x3e13dc38	0.14439476
85	0xbab89d00	-0.0014084876
86	0xbdefcc0c	-0.11708841
87	0xbd0bd300	-0.034136772
88	0x3e2edbe6	0.17076072
89	0xbe60e698	-0.21962965
90	0xbe4caf42	-0.1998873
91	0xbd91115a	-0.07083388
92	0xbdeae9b4	-0.114703566
93	0x3dfe6a8c	0.12422666
94	0x3e59eb52	0.21281174
95	0xbd0ab8b0	-0.033867538
96	0x3e9918b7	0.29901668
97	0xbe074c1c	-0.13212627
98	0xbe35b68c	-0.17745417
99	0xbe10f897	-0.1415733
100	0xbe5f19e3	-0.21787219
101	0xbe62f976	-0.22165474
102	0xbe90435a	-0.28176385
103	0xbe8f7f0a	-0.2802661
104	0x3da9081c	0.082535
105	0x3e457b32	0.19285277
106	0x3e9801e9	0.29688957
107	0x3e89e9cf	0.26936194
108	0xbc9532e0	-0.018212736
109	0x3d7b57b0	0.061362922
110	0xbe41bf0a	-0.18920532
111	0x3dfa530c	0.12222871
112	0xbe9b3ea0	-0.30321217
113	0x3e18bc5e	0.14915606
114	0x3d6d9288	0.05800107
115	0x3dc70554	0.09717813
116	0x3ded215c	0.115786284
117	0xbe14aa81	-0.14518167
118	0x3e8aef51	0.2713571
119	0x3e1a8ae6	0.15092048
120	0x3e54b6be	0.20772836
121	0x3d2b13c8	0.04176691
122	0x3e4b5a56	0.19858679
123	0x3e59edea	0.21282163
124	0x3e12c3e8	0.14332545
125	0x3e76ac82	0.24089244
126	0xbd6aeee0	-0.057356715
127	0x3e54ebea	0.20793119
128	0x3d9536e4	0.0728586
129	0x3e42d6ea	0.19027296
130	0x3e9db2e1	0.30800536
131	0x3d92a600	0.07160568
132	0xbdf06168	-0.11737329
133	0xbd00dfd0	-0.031463444
134	0x3db653d8	0.08902711
135	0x3d5a64f0	0.053318918
136	0xbdb0ea14	-0.08638397
137	0x3e7db77e	0.24777028
138	0x3e428d42	0.18999198
139	0xbe4923e9	-0.19642605
140	0xbcd314b0	-0.0257667
141	0xbcf8acf0	-0.0303559
142	0xbe4af23c	-0.19818968
143	0x3d3cebe0	0.046123385
144	0xbdc6d1b6	-0.09707968
145	0xbe272ca3	-0.16325621
146	0xbdd03eb4	-0.1016821
147	0xbde6e9c2	-0.112750545
148	0x3e9ae365	0.30251613
149	0x3df86a18	0.12129611
150	0x3e9f561f	0.31120393
151	0x3db19418	0.08670825
152	0x3d92a508	0.071603835
153	0x3e051e84	0.12999922
154	0x3d5e4f70	0.054274976
155	0xbe7e1f5d	-0.24816652
156	0xbe3f7d8f	-0.1870024
157	0xbd9ce870	-0.076615214
158	0x3b9bc6c0	0.0047539175
159	0x3df3f928	0.11912757
160	0x3df95edc	0.12176296
161	0x3e8071bb	0.2508677
162	0x3d83d738	0.06437534
163	0xbddd0882	-0.10792638
164	0xbe7384e2	-0.2378116
165	0xbe6d2acd	-0.23160858
166	0xbe416d9d	-0.1888947
167	0x3dc35430	0.09537542
168	0x3e2ef30e	0.17084906
169	0x3e8da7e9	0.27667168
170	0xbdccdab8	-0.10002655
171	0xbccc5960	-0.024944961
172	0xbdc052e2	-0.09390809
173	0xba977400	-0.0011554956
174	0x3dcfe440	0.10150957
175	0xbbe3ac00	-0.006947994
176	0x3c6fdb60	0.014639705
177	0x3d241810	0.04006201
178	0x3df130e0	0.117769
179	0xbdc47e40	-0.09594393
180	0xbe411769	-0.18856587
181	0x3d98cafc	0.07460591
182	0xbd195df8	-0.03744313
183	0xbe12b2c1	-0.14326002
184	0x3e07fdc2	0.13280395
185	0x3b3bf380	0.0028679073
186	0xbd3c6a78	-0.045999974
187	0xbe1cc132	-0.15308073
188	0xbd2a69c8	-0.041604787
189	0xbe89acca	-0.2688964
190	0x3d9354a0	0.07193875
191	0x3b9b8040	0.004745513
192	0x3e44810e	0.19189855
193	0x3ca745b0	0.020418972
194	0x3ccf1e90	0.025283128
195	0x3db06c90	0.08614457
196	0x3e76679a	0.24062958
197	0xbe1905b6	-0.14943585
198	0x3e41520e	0.18878958
199	0x3d9e62f0	0.077337146
200	0xbe58061e	-0.21096084
201	0x3de17f70	0.11010635
202	0xbe42343b	-0.18965237
203	0xbdcbdce8	-0.09954244
204	0xbe1a5a84	-0.15073591
205	0xbe5c4c26	-0.21513423
206	0x3e7f077a	0.24905196
207	0xbe90b7a1	-0.28265098
208	0x3e21e9da	0.15811864
209	0xbe91b83d	-0.28460875

fc2.bias f4 [10]
0	0x3e4fe4a9	0.2030207
1	0x3e298471	0.16554429
2	0xbe23607e	-0.15954778
3	0x3e0a391b	0.13498347
4	0x3de96dce	0.11397897
5	0xb9af7c00	-0.00033470988
6	0x3e58778b	0.21139352
7	0xbdb1806e	-0.08667074
8	0xbd500194	-0.050782755
9	0xbde1dff0	-0.11029041

fc3.weight f4 [1, 10]
0	0x3b449ba6	0.003
1	0x3b449ba6	0.003
2	0x3b449ba6	0.003
3	0x3b449ba6	0.003
4	0x3b449ba6	0.003
5	0x3b449ba6	0.003
6	0x3b449ba6	0.003
7	0x3b449ba6	0.003
8	0x3b449ba6	0.003
9	0x3b449ba6	0.003
