runs/critic.pkl (torch, 187415 bytes, 5 tensors)

fc1.weight f4 [300, 2]
0	0xbcbc1024	-0.022956915
1	0x3c825af7	0.015912516
2	0x3d32563e	0.04353928
3	0xbd3b54a8	-0.04573503
4	0xbd48d176	-0.049027883
5	0x3c27e4b0	0.010247394
6	0xbd6b2dbb	-0.05741666
7	0xbd59347c	-0.05302857
8	0xbd24f0ab	-0.04026858
9	0x3cc59e57	0.024123354
10	0x3c5b4ad9	0.013384544
11	0xb86cfaf4	-5.6500503e-05
12	0x3c931668	0.01795502
13	0x3d1a067c	0.03760384
14	0xbc7f8863	-0.015596482
15	0xbd2b8acc	-0.041880414
16	0x3d1facfe	0.038983338
17	0x3ca70994	0.02039031
18	0xbc6f9a8c	-0.014624249
19	0xbd078996	-0.033090197
20	0xbd1da022	-0.038482793
21	0xbcc92200	-0.024552345
22	0xbd089fec	-0.03335564
23	0xbd455e1c	-0.048185453
24	0xbd5c2f80	-0.053756237
25	0x3c8bb980	0.017056227
26	0x3c1e16f2	0.009649025
27	0xbcd4e618	-0.025988623
28	0xbd0274c4	-0.031849638
29	0xbc917364	-0.017755218
30	0xbd5bba69	-0.05364457
31	0x3ba06f54	0.004896084
32	0xbb29d3dd	-0.0025913634
33	0xbc11ac4c	-0.008891176
34	0xbcc93897	-0.024563117
35	0x3d30aec1	0.04313541
36	0x3cc2ea08	0.023793235
37	0x3d55a05e	0.05215489
38	0xbb4f94ae	-0.0031674313
39	0x3d1caed4	0.038252667
40	0xbd23642b	-0.03989045
41	0xba397440	-0.00070745125
42	0xbc49b300	-0.012310743
43	0xbd60c9e1	-0.054880027
44	0x3d39ca8c	0.04535918
45	0xbd3f5bd0	-0.04671842
46	0x3d4fa740	0.05069661
47	0x3c33bf66	0.010970926
48	0xbd2db363	-0.042407405
49	0xba824976	-0.0009940106
50	0xbc2ef8b2	-0.010679411
51	0x3d0bba84	0.034113422
52	0xbd59b836	-0.053154193
53	0x3bb6016c	0.0055543687
54	0xbb265e30	-0.002538573
55	0x3d23061e	0.039800756
56	0x3d0af16d	0.033921648
57	0xbb18f0e0	-0.0023336932
58	0xbd2544dc	-0.040348873
59	0xbd3a9442	-0.045551546
60	0x3d06670e	0.032813124
61	0x3d39363c	0.045217738
62	0x3a0ad2f9	0.00052957196
63	0x3ca9c52e	0.020723905
64	0xbb2c0ffe	-0.002625465
65	0x3bbde888	0.005795542
66	0x3d157714	0.036490515
67	0x3cfa82a1	0.030579867
68	0xbc09f92f	-0.008421226
69	0x3d1ec8fa	0.038765885
70	0xbc84d298	-0.0162137
71	0x3be03430	0.0068421587
72	0xb967c700	-0.0002210401
73	0x3d491e78	0.049101323
74	0x3cbf503a	0.023353685
75	0x3c63fc01	0.013915063
76	0xbd564bc9	-0.052318368
77	0xbbaff980	-0.005370319
78	0x3d007320	0.03135979
79	0xbca9302e	-0.020652857
80	0x3b866b2e	0.0041021323
81	0xbd58aca3	-0.052899014
82	0x3d08a0c2	0.033356436
83	0xbd632737	-0.05545732
84	0xbd540360	-0.05176103
85	0xbb276800	-0.0025544167
86	0x3bcc64ce	0.006237603
87	0xbcea716a	-0.028618533
88	0x3d400e8a	0.046888866
89	0x3cbd7e52	0.023131523
90	0xbcf60c32	-0.030035112
91	0x3d699f66	0.05703678
92	0xbacc8896	-0.0015604671
93	0xbd0294e2	-0.031880267
94	0xbcb82528	-0.022478655
95	0xbca4ece0	-0.020132482
96	0x3b6677c0	0.0035166591
97	0xbb9e7640	-0.004835874
98	0x3cd8a010	0.026443511
99	0xbcf29244	-0.02961076
100	0xbcbaa548	-0.02278389
101	0xbd677c43	-0.05651499
102	0xbd538cb6	-0.051647864
103	0x3cecd0cd	0.028908158
104	0x3d0bb344	0.034106508
105	0xbd497ccc	-0.04919128
106	0xbd0bd1d5	-0.03413566
107	0xbd3e3aae	-0.04644268
108	0x3d02c678	0.031927556
109	0xbac5e934	-0.0015099407
110	0x3c2a834f	0.010407283
111	0xbcdd6384	-0.027024992
112	0xbd64e1a9	-0.05587927
113	0xbd54fe94	-0.052000597
114	0xb81f04e0	-3.7913094e-05
115	0xbd62602b	-0.055267494
116	0x3d55880c	0.052131698
117	0xbb8b8a2a	-0.004258414
118	0xbd68c142	-0.05682493
119	0xbca7690c	-0.020435832
120	0xbbe56768	-0.0070008524
121	0x3bf881f9	0.0075838533
122	0xbc7735f4	-0.015088547
123	0xbd12f76a	-0.035880484
124	0xbd1ec040	-0.038757563
125	0xbc00f914	-0.007871885
126	0x3d420c44	0.04737498
127	0x3d46f224	0.048570767
128	0xbd2e5a91	-0.04256684
129	0x3d1e76b0	0.038687408
130	0x3c45c328	0.012070455
131	0xbc15556c	-0.009114604
132	0x3d3a946e	0.04555171
133	0xbcaa0968	-0.020756438
134	0x3cedff6d	0.02905246
135	0x3d4967ea	0.049171366
136	0xbc63b518	-0.013898157
137	0xbcc6d3d6	-0.024270933
138	0x3cdcedb0	0.026968807
139	0xbd2ce1cf	-0.042207535
140	0x3d0df314	0.034655645
141	0xbc2b1dfc	-0.010444161
142	0xbc967680	-0.018367052
143	0xbc8cc17c	-0.017182104
144	0x3cabf0ec	0.020988904
145	0xbd1ff9c5	-0.03905656
146	0xbcc147aa	-0.023593742
147	0x3d351ec4	0.044218794
148	0x3d074942	0.03302885
149	0x3ca9973c	0.020701997
150	0xbd0b5d21	-0.03402436
151	0xbb869750	-0.0041073933
152	0x3d60c1cc	0.05487232
153	0x3c911b10	0.0177131
154	0x3c08e768	0.008355953
155	0x3d3b2d1e	0.045697324
156	0xbd20809a	-0.039185144
157	0x3c93f8d0	0.018062979
158	0x3d09cd7e	0.03364324
159	0x3c03ed90	0.008052245
160	0x3d1e6b3a	0.038676478
161	0xbd0def50	-0.034652054
162	0x3d1c6360	0.03818071
163	0xbd4d5130	-0.050126255
164	0x3d07ef04	0.033186927
165	0x3d513a4c	0.051080987
166	0xbbbb9008	-0.005723957
167	0xbd0c2982	-0.034219272
168	0xbcb91274	-0.022591807
169	0x3d387792	0.045035906
170	0xbb12ac70	-0.0022380613
171	0xbd23690e	-0.03989511
172	0xbc756d78	-0.014979713
173	0xbc3bc25c	-0.011459913
174	0xbd26cdbd	-0.04072355
175	0xbd4f016a	-0.050538458
176	0xbcc3127e	-0.023812529
177	0xbc682d36	-0.014170935
178	0xbd5f489c	-0.054512605
179	0x3d4d2991	0.05008847
180	0xbbe7bd38	-0.007072117
181	0x3d272c5e	0.040813796
182	0xbd541ef0	-0.051787317
183	0x3cca8372	0.024720881
184	0x3d59a69c	0.053137407
185	0x3d46125e	0.04835736
186	0xbcb018a2	-0.02149612
187	0x3c119603	0.008885863
188	0x3be6f11c	0.0070477854
189	0xbd27602c	-0.0408632
190	0xbd69e15c	-0.057099685
191	0x3cf22322	0.029557768
192	0xbd0612d3	-0.032732796
193	0xbd65f222	-0.05613912
194	0x3d38e3e4	0.04513921
195	0xbd5f4604	-0.05451013
196	0x3d0579c2	0.03258682
197	0xbc97930e	-0.018502738
198	0x3be2973a	0.0069150003
199	0x3ce8863a	0.028384317
200	0x3cd5a5f4	0.02608011
201	0x3a97828d	0.0011559293
202	0xbcf80d5b	-0.030279806
203	0x3d4a7d80	0.049436092
204	0x3d0bf76a	0.0341715
205	0x3d505edf	0.050871726
206	0xbd5c2d5f	-0.053754207
207	0x3d308920	0.043099523
208	0x3c13b5fa	0.009015555
209	0x3d2a213a	0.041535594
210	0xbca4dbb2	-0.02012429
211	0x3c9fe5f8	0.019518837
212	0x3d4ca338	0.049960345
213	0x3c5becf4	0.013423193
214	0x3bed6c50	0.007245578
215	0xbcf438a5	-0.029812166
216	0x3d62c2e4	0.055361643
217	0xbd42b54a	-0.047536172
218	0xbbd49748	-0.0064877607
219	0xbd06cb1b	-0.03290854
220	0x3c4d63f6	0.01253604
221	0xbbd51c63	-0.006503628
222	0x3bd11e00	0.00638175
223	0x3d4b10d0	0.04957658
224	0xbd1b546e	-0.037922315
225	0x3d6194f6	0.0550737
226	0xbcdde0a1	-0.02708465
227	0xbd4c7f36	-0.049926005
228	0x3cd75b84	0.026288755
229	0x3d42dbc8	0.04757288
230	0x3d183f88	0.037169963
231	0x3d5d8e2a	0.054090656
232	0x3c4e4346	0.012589281
233	0x3cc45c90	0.023969918
234	0x3d5fa028	0.054596096
235	0xbc82bffe	-0.01596069
236	0xbd0763a4	-0.03305401
237	0x3b8a86a8	0.004227478
238	0xbcbdfefa	-0.023192871
239	0xbd38475d	-0.044989932
240	0x3d2587a8	0.040412575
241	0x3d68c39e	0.05682718
242	0x3c717748	0.0147379115
243	0x3d022348	0.031771928
244	0x3d63d2c4	0.055620924
245	0xbcfae268	-0.030625537
246	0xbd050756	-0.0324777
247	0xbcc86566	-0.024462413
248	0xbd1fb320	-0.038989186
249	0xbd11cb8e	-0.035594516
250	0x3d55faba	0.052241065
251	0xbc5bc64c	-0.013413977
252	0x3d31dad8	0.043421596
253	0x3cd8d504	0.026468761
254	0xbc57abfe	-0.013163565
255	0x3c2e89f4	0.010653008

fc1.bias f4 [300]
0	0x3e1e7f1f	0.1547818
1	0xbe70136c	-0.23444909
2	0xbe635710	-0.2220118
3	0x3f0fe17e	0.5620345
4	0x3f04266c	0.5162113
5	0x3eab64e8	0.33475423
6	0xbee17fbe	-0.44042772
7	0x3e88f90c	0.26752508
8	0xbe827ae2	-0.25484377
9	0x3e6273fe	0.2211456
10	0x3e845675	0.2584721
11	0xbe82b9c3	-0.2553235
12	0xbedef8fc	-0.43549335
13	0x3e2c54f7	0.16829287
14	0x3e9e0c70	0.30868864
15	0x3f05f985	0.5233386
16	0x3e6b2688	0.22963917
17	0x3f2bb22d	0.6706875
18	0xbebe181e	-0.37127775
19	0x3efc9dfe	0.49339288
20	0xbf04cb35	-0.5187257
21	0xbda79500	-0.08182716
22	0x3e42747c	0.18989748
23	0x3f0f2ac8	0.55924654
24	0x3ed8842c	0.4228834
25	0x3ed40ce0	0.41416073
26	0x3ea69638	0.32536483
27	0xbe558e72	-0.2085512
28	0x3ed5cbd6	0.41757077
29	0xbec90b87	-0.39266607
30	0xbf12eb1e	-0.5739001
31	0x3edb489e	0.4282884
32	0x3f2188d5	0.63099414
33	0x3f129206	0.57254064
34	0x3eccceee	0.40001625
35	0xbec7f132	-0.39051205
36	0xbf1e1b8c	-0.61760783
37	0x3f0f1ad4	0.5590031
38	0xbe4869fc	-0.1957168
39	0xbf2e6973	-0.6812965
40	0x3f022fe0	0.508543
41	0x3f092db2	0.5358535
42	0xbeefa914	-0.46808684
43	0x3f273488	0.6531453
44	0x3df450d2	0.11929478
45	0x3e39aa04	0.18131262
46	0x3f0256de	0.509138
47	0xbd6ee150	-0.058320343
48	0xbcff6a60	-0.031178653
49	0xbee8be5a	-0.45457727
50	0x3e1e906e	0.15484783
51	0xbcb3d7da	-0.021953512
52	0x3cb43fdb	0.022003105
53	0x3ed4441e	0.4145822
54	0x3f136485	0.57575256
55	0x3eaaa7bc	0.33331096
56	0x3edb1a5e	0.42793554
57	0x3c153b40	0.009108365
58	0x3eb61c76	0.3556859
59	0x3db92c58	0.09041661
60	0x3e285416	0.16438326
61	0xbe95f2af	-0.29286715
62	0xbec3ff0f	-0.38280532
63	0x3e0461f6	0.12927994
64	0x3f0b1196	0.5432371
65	0xbec225e2	-0.37919527
66	0xbed694ea	-0.41910487
67	0x3e0fafa4	0.14031845
68	0xbe3306e0	-0.17483091
69	0xbdd8fba8	-0.105948746
70	0xbf3227e2	-0.69592106
71	0xbe669826	-0.22518978
72	0xbd2865a0	-0.041112542
73	0xbf130343	-0.5742685
74	0x3e66b892	0.22531345
75	0x3f32bdc4	0.6982081
76	0xbf13f5a3	-0.57796687
77	0xbe382204	-0.17981726
78	0xbde2e1b8	-0.11078209
79	0xbd2aa620	-0.041662335
80	0xbf302585	-0.6880725
81	0xbf2cb8ce	-0.6746949
82	0xbf2c8e04	-0.674042
83	0xbea7f9ed	-0.32807866
84	0x3f24f8bd	0.64442044
85	0xbf2a83b8	-0.66607237
86	0x3eeb7188	0.45985055
87	0x3e22cf7e	0.15899464
88	0x3f1dae72	0.6159431
89	0x3d9426f6	0.07233994
90	0xbf281456	-0.6565603
91	0x3e948296	0.2900588
92	0xbe8b8793	-0.27251872
93	0x3ee1bd34	0.44089663
94	0x3e6db783	0.23214535
95	0x3f20a397	0.6274962
96	0xbed5a630	-0.41728354
97	0xbf1a4841	-0.602665
98	0x3f0430f8	0.5163722
99	0x3e543ff3	0.2072752
100	0x3e8ea35e	0.27859014
101	0xbd737b70	-0.05944389
102	0x3e82ed94	0.25571883
103	0x3f1f7092	0.62281144
104	0x3ed23be0	0.41061306
105	0xbd0eec90	-0.034893572
106	0x3e91bbbe	0.28463548
107	0x3ed6f02a	0.41980106
108	0xbe7299ac	-0.23691434
109	0xbf0370a0	-0.5134373
110	0x3ee2e0b0	0.44312048
111	0x3eef9db2	0.468
112	0xbf172e69	-0.5905519
113	0xbea2401d	-0.3168954
114	0xbe83cbdd	-0.25741473
115	0xbeab69ad	-0.33479062
116	0x3ee269d8	0.44221377
117	0x3f21655c	0.6304529
118	0x3f2c9b6e	0.67424667
119	0xbec3261c	-0.38115013
120	0xbf27ba64	-0.65518785
121	0xbf27c6a3	-0.6553747
122	0xbf16cb64	-0.589041
123	0xbe81aac9	-0.2532561
124	0x3ea7219a	0.32642823
125	0x3d8ccd1e	0.068750605
126	0xbf19bf3a	-0.60057414
127	0x3e978f68	0.29601598
128	0xbf11de44	-0.56979775
129	0x3f2d13a4	0.67608094
130	0xbde81810	-0.113327146
131	0x3f249bb9	0.64300114
132	0x3ec02ad3	0.37532672
133	0x3f0d530c	0.55204844
134	0xbf1b4e0c	-0.60665965
135	0x3eab6354	0.3347422
136	0xbe81877c	-0.2529868
137	0xbf1492ee	-0.58036697
138	0xbedc7080	-0.4305458
139	0x3f25b190	0.64724064
140	0xbecd22fc	-0.40065753
141	0x3d360f4e	0.04444819
142	0xbe942cc7	-0.28940412
143	0xbf26f8a5	-0.6522315
144	0x3f32d130	0.69850445
145	0x3f164758	0.5870261
146	0xbee4f7fe	-0.44720453
147	0xbeff1468	-0.49820256
148	0x3eb390d2	0.35071427
149	0xbe605d50	-0.21910596
150	0xbea37198	-0.31922603
151	0x3efb113d	0.4903659
152	0x3de4ba05	0.11168293
153	0x3f2eef48	0.68333864
154	0xbe4938c0	-0.19650555
155	0x3e9f4f58	0.31115222
156	0x3eaf9bf6	0.34298676
157	0x3eb3f953	0.35151157
158	0x3ec1999a	0.378125
159	0xbeca76c0	-0.39543724
160	0xbede802e	-0.43457168
161	0x3c0ffa28	0.008787669
162	0xbedc1f81	-0.42992786
163	0xbe906054	-0.28198493
164	0xbf24d33d	-0.64384824
165	0xbedf17b3	-0.4357277
166	0xbe602792	-0.21890095
167	0xbecb4e68	-0.39708257
168	0xbf091c29	-0.53558594
169	0xbf0f3990	-0.5594721
170	0xbf20562b	-0.6263148
171	0x3e1eb59a	0.15498963
172	0xbeff213e	-0.4983005
173	0x3e6cd198	0.23126829
174	0x3ed0c18e	0.4077267
175	0xbf2840e5	-0.6572402
176	0x3f2acb50	0.6671648
177	0x3e9305b7	0.28715298
178	0xbe185014	-0.14874297
179	0xbde0d610	-0.10978329
180	0xbebe97a0	-0.37225056
181	0x3e819372	0.25307804
182	0x3f0423fc	0.5161741
183	0x3f23ca6c	0.63980746
184	0x3ef40690	0.47661257
185	0xbe12a2d8	-0.14319932
186	0x3cdf2af0	0.027242154
187	0xbef9a3ae	-0.4875769
188	0x3e160bd3	0.14652948
189	0x3e4d1b8c	0.2003004
190	0xbef48966	-0.47761077
191	0xbe0de3b8	-0.13856399
192	0xbf26659f	-0.6499881
193	0x3c419d76	0.011817327
194	0x3e280414	0.16407806
195	0xbedd0890	-0.43170595
196	0x3f131e0b	0.57467717
197	0xbd2e37f1	-0.04253382
198	0x3e24e7fb	0.16104119
199	0xbf197155	-0.59938556
200	0xbef116c4	-0.4708768
201	0xbe73bd72	-0.23802736
202	0xbea11770	-0.31463194
203	0x3efa0cbc	0.4883784
204	0xbdfe57d8	-0.124190986
205	0xbe83112b	-0.25599036
206	0xbe28d394	-0.1648696
207	0xbee1dfbf	-0.44116017
208	0xbf20471a	-0.6260849
209	0xbeb645ff	-0.35600278
210	0x3ee170e9	0.44031456
211	0xbe927d7f	-0.2861137
212	0x3e5a91b7	0.21344648
213	0x3d6a1aa8	0.057154328
214	0xbea03ef4	-0.3129803
215	0xbe085df8	-0.13317096
216	0xbe0aef58	-0.13567865
217	0x3f0e5366	0.55596006
218	0x3f1e9d02	0.61958325
219	0xbf0a66d0	-0.5406313
220	0xbf0ce3d8	-0.5503516
221	0x3e71902a	0.2359015
222	0xbf0c9dae	-0.549281
223	0xbe9fd6e9	-0.3121865
224	0xbea553db	-0.3229054
225	0x3f0a693c	0.54066825
226	0x3ef02ef8	0.46910834
227	0xbd28d400	-0.041217804
228	0xbe9e80b4	-0.30957568
229	0x3f18193a	0.5941349
230	0x3f19d9d4	0.60098004
231	0xbee30e03	-0.44346628
232	0xbebce6cd	-0.36894837
233	0xbea87625	-0.32902637
234	0x3eba369f	0.36369798
235	0xbef3329e	-0.47499555
236	0x3e949ada	0.29024392
237	0x3e97f426	0.29678458
238	0xbd913cf8	-0.07091707
239	0xbe1de760	-0.15420294
240	0xbee7c4fd	-0.45267478
241	0x3e21c568	0.15797961
242	0xbf2bfb6c	-0.67180514
243	0xbef021b0	-0.46900702
244	0x3f0429c8	0.51626253
245	0xbef6cc74	-0.4820286
246	0xbf03bea0	-0.51462746
247	0x3e6222a3	0.22083525
248	0xbdbf9dd8	-0.09356278
249	0x3ed5f761	0.41790298
250	0xbeb0cdc0	-0.34531975
251	0xbe7bc37a	-0.24586287
252	0x3e11c3f9	0.14234914
253	0x3d605e50	0.054777443
254	0x3ed75c62	0.4206267
255	0xbd67afb0	-0.056564033

fc2.weight f4 [150, 301]
0	0xbd2341ce	-0.039857678
1	0xbd80deda	-0.062925056
2	0x3cee9e64	0.02912826
3	0xbd5f95e2	-0.0545863
4	0x3d8b66f4	0.06806746
5	0xbd9321c4	-0.07184175
6	0x3d17c67e	0.03705453
7	0x3d504088	0.05084279
8	0xbd99dc90	-0.07512772
9	0x3c4cb60e	0.012494577
10	0x3d206eae	0.039168052
11	0x3cd1a64c	0.025591992
12	0x3d7edafc	0.06222056
13	0x3d323986	0.04351189
14	0xbbe088cf	-0.0068522464
15	0xbb9a9e4e	-0.0047185784
16	0xbce78d13	-0.028265512
17	0x3c149d6c	0.009070735
18	0x3be4d3f0	0.0069832727
19	0x39f2f76f	0.0004634219
20	0xbd088242	-0.03332735
21	0x3da48596	0.08033292
22	0xbca3f0e4	-0.020012327
23	0xbce767fc	-0.028247826
24	0xbd26a48c	-0.040684268
25	0xbd7806f0	-0.06055349
26	0x3da26734	0.07929841
27	0x3d6c3a18	0.05767259
28	0xbd966d4a	-0.07345064
29	0xbbb99080	-0.0056629777
30	0xbd887406	-0.06662755
31	0xbce275b0	-0.027644008
32	0x3d88c1f8	0.066776216
33	0x3da2c93e	0.0794854
34	0x3d808308	0.06274992
35	0x3d23ad98	0.039960474
36	0x3d2b8782	0.041877277
37	0x3a300ee4	0.0006716086
38	0x3d0b38a8	0.03398958
39	0x3cfa2994	0.030537404
40	0x3da5a694	0.08088413
41	0x3ce21e68	0.02760239
42	0xbd6e247e	-0.05814027
43	0xbc090404	-0.008362774
44	0xbcdcc63a	-0.02694999
45	0x3ccbdc5c	0.024885349
46	0xbd52ad72	-0.05143494
47	0xbd24d477	-0.040241685
48	0xbcb4f39c	-0.022088818
49	0x3d46f3cc	0.048572347
50	0x3d139b09	0.036036525
51	0xbd65db2c	-0.05611722
52	0xbb24ea83	-0.0025164194
53	0xbcd25672	-0.025675986
54	0x3c9a4982	0.01883388
55	0xbd843098	-0.06454581
56	0xbd310da1	-0.04322589
57	0x3d01a6c8	0.031653196
58	0x3d6c1f9b	0.05764733
59	0xbd1e8632	-0.038702197
60	0x3d59f16e	0.05320876
61	0x3d638ff8	0.05555722
62	0xbb2cccc0	-0.0026367158
63	0xbc233a6c	-0.009962659
64	0x3d88007c	0.066407174
65	0x3d2a4870	0.041572988
66	0x3d951d46	0.07280974
67	0xbd9dd4c3	-0.07706597
68	0xbce6a782	-0.028156046
69	0x3c5ceb20	0.013483793
70	0x3d3b7b0c	0.045771644
71	0x3d6b3cf0	0.05743116
72	0xbd5780a2	-0.05261291
73	0xbc948b50	-0.018132836
74	0x3da0f2c6	0.07858805
75	0xbd974a4e	-0.07387219
76	0xbd2f7178	-0.04283282
77	0x3cf12394	0.02943591
78	0xbd091da6	-0.03347554
79	0x3d68fc44	0.056881204
80	0xbd595cb2	-0.053066917
81	0x3d1e8fbc	0.038711295
82	0xbc29a848	-0.010355063
83	0xbce5355e	-0.027979549
84	0x3d614627	0.054998543
85	0xbd593df1	-0.053037588
86	0xbc80217a	-0.015640963
87	0x3d9597a1	0.073043115
88	0x3d6ea13b	0.05825923
89	0xbda49542	-0.08036281
90	0xbc41b220	-0.011822253
91	0x3ce6419e	0.02810746
92	0x3bfdcd90	0.007745452
93	0x3d5ed321	0.054400567
94	0xbba11b98	-0.0049166195
95	0xbcc9247a	-0.024553526
96	0xbcce3f44	-0.025176652
97	0xbd3f36f4	-0.046683267
98	0x3cad7392	0.021173272
99	0xbcf76f5a	-0.030204464
100	0x3c25dc34	0.010123301
101	0x3d6ea658	0.058264107
102	0xbd8e1486	-0.06937508
103	0xbc04e284	-0.008110646
104	0xbc226afc	-0.009913202
105	0x3d078e1c	0.03309451
106	0xbd9fd5e9	-0.07804472
107	0xba8e2d14	-0.0010847175
108	0x3c5da808	0.013528831
109	0xbd7c7aa6	-0.061640404
110	0x3c4e8b48	0.012606449
111	0x3cf61324	0.030038424
112	0xbd0f805e	-0.03503453
113	0x3c7ef930	0.015562341
114	0x3d5f8e78	0.05457923
115	0x3d10fdfa	0.03539846
116	0xbce9ee1e	-0.028555926
117	0x3d8e3888	0.06944376
118	0xbd0df8a0	-0.034660935
119	0x3d6bd41c	0.05757533
120	0x3d55e0b4	0.052216247
121	0x3d7a10c0	0.06105113
122	0xbcf09596	-0.029368203
123	0x3d15a7aa	0.03653685
124	0xbd63185e	-0.05544316
125	0x397f8962	0.00024369874
126	0xbd92663a	-0.071484044
127	0xbb96f516	-0.0046068532
128	0xbd9ea6b7	-0.07746642
129	0xbda151be	-0.07876919
130	0x3cdbab30	0.026815027
131	0xbd192950	-0.037392914
132	0xbd244982	-0.040109165
133	0xba43790f	-0.0007456699
134	0x3d17cfd8	0.03706345
135	0x3d321d34	0.04348488
136	0x3d9af62e	0.07566486
137	0x3caae780	0.02086234
138	0x3cf01c0c	0.029310249
139	0x3d11949a	0.035542108
140	0xbd3add52	-0.045621224
141	0xbd9826b7	-0.07429259
142	0x3c6e7448	0.014554091
143	0xbd4a0daa	-0.049329437
144	0xbc7b887e	-0.0153523665
145	0x3d099f8a	0.033599414
146	0xbd3414cf	-0.043965157
147	0x3d90ed88	0.070765555
148	0xbd530be4	-0.05152501
149	0x3d9a641c	0.075386256
150	0xbd935197	-0.071932964
151	0x3c947391	0.018121513
152	0xbca3e9c2	-0.020008925
153	0xbca11990	-0.01966551
154	0x3bab1a90	0.0052216724
155	0xbbc0a26c	-0.005878737
156	0x3d990ba2	0.07472922
157	0xbd1ce720	-0.038306355
158	0x3beb4844	0.0071802456
159	0xbd9bed6d	-0.07613645
160	0x3d50530c	0.05086045
161	0xbcc7a1a2	-0.024369065
162	0xbd981fe3	-0.07427957
163	0x3d9bfdf6	0.076167986
164	0x3d686a14	0.05674179
165	0xbd9e12f8	-0.07718462
166	0x3c684580	0.014176726
167	0xbd45eb3a	-0.048320033
168	0xbd361aa1	-0.04445899
169	0x3d8fafee	0.07015978
170	0x3d8e3878	0.06944364
171	0x3d3dfa2a	0.046381153
172	0x3d46f43c	0.048572764
173	0xbd6626a0	-0.05618918
174	0x3d00eb92	0.031474657
175	0xbd4571e8	-0.048204333
176	0xbcd199a0	-0.02558595
177	0xbc9373bc	-0.017999522
178	0xbda15632	-0.078777686
179	0x3d1448c8	0.036202222
180	0xbd22717d	-0.039659012
181	0x3c4b7a60	0.012419313
182	0x3d8886d3	0.06666341
183	0x3d071ece	0.032988362
184	0xbd49ac53	-0.049236607
185	0xbd6db1f6	-0.058031045
186	0x3d9dd16e	0.07705961
187	0xbcbb792a	-0.022884924
188	0x3cc0ba30	0.023526281
189	0xbd8f3a3a	-0.06993528
190	0x3c003670	0.007825479
191	0xbd047696	-0.032339655
192	0xbd33e735	-0.043921668
193	0x3cfac424	0.030611105
194	0xbcb7770a	-0.02239563
195	0xbd901daa	-0.07036908
196	0x3d9c66f5	0.07636825
197	0x3d742b42	0.059611566
198	0x3d5281f3	0.05139346
199	0xbd85c03c	-0.065308064
200	0xbd875bf4	-0.066093355
201	0x3d0eb490	0.034840167
202	0x3d564284	0.052309528
203	0x3cff4f1e	0.031165656
204	0x3c954be0	0.018224657
205	0x3c094350	0.008377865
206	0x3c203e10	0.009780422
207	0xbd85a430	-0.06525457
208	0x3d828d18	0.06374568
209	0x3d3a0b50	0.045420945
210	0xbd5223e5	-0.051303763
211	0x3cc4e658	0.024035618
212	0x3d436ea0	0.047712922
213	0xbc811ce0	-0.015760839
214	0xbcbe4a8e	-0.02322891
215	0xbd3d7212	-0.046251364
216	0xbd353b37	-0.044245925
217	0x3c4cd224	0.012501273
218	0x3d022baa	0.031779923
219	0xbcc1d58a	-0.023661394
220	0x3c476c50	0.01217182
221	0xbd5048d2	-0.050850697
222	0x3cf6e7c8	0.030139819
223	0xbcaa2a22	-0.020772044
224	0xbd7ddbf2	-0.061977334
225	0xb9f998c8	-0.00047606812
226	0xbd9833f7	-0.074317865
227	0xbd97a70a	-0.07404907
228	0xbce5f238	-0.0280696
229	0x3c468a06	0.012117868
230	0xbc07a7dc	-0.008279767
231	0x3d58adc8	0.052900106
232	0x3aeaa0c0	0.001790069
233	0x3d81721a	0.06320591
234	0x3d8da87e	0.06916903
235	0xbcdb715a	-0.026787449
236	0x3cf9f1e8	0.030510858
237	0xbce789b4	-0.028263904
238	0xbcf15f62	-0.029464427
239	0x3d004a5c	0.031320915
240	0x3d160678	0.036627263
241	0x3d642a76	0.055704556
242	0x39c19700	0.00036924332
243	0x3d2effe2	0.042724498
244	0xba22a406	-0.0006204251
245	0x3da007e0	0.07814002
246	0x3d00c744	0.031440035
247	0xbd0b60c4	-0.03402783
248	0x3c6166c0	0.013757408
249	0x3d42cb94	0.04755743
250	0xbd94a517	-0.07258051
251	0xbd97b16c	-0.074068874
252	0x3baf013c	0.0053407233
253	0xbd80ed70	-0.062952876
254	0xbcef4190	-0.029206067
255	0x3b0f07c0	0.0021824688

fc2.bias f4 [150]
0	0x3d220d18	0.03956327
1	0x3d49336a	0.049121298
2	0xbd1988b4	-0.037483886
3	0x3ce4f910	0.027950794
4	0x3d453859	0.04814944
5	0xbb162d38	-0.0022915136
6	0x3cc9acd4	0.024618544
7	0x3b6ea150	0.0036412068
8	0x3d17466d	0.036932398
9	0x3cad0790	0.02112177
10	0xbd1ee3a8	-0.03879133
11	0xba1db8c0	-0.00060166046
12	0xbd394656	-0.045233093
13	0xbc6a32e4	-0.01429436
14	0xbd3b7cc6	-0.04577329
15	0x3d1219ca	0.035669126
16	0x3d6bb8d2	0.057549305
17	0xbcebb05c	-0.028770618
18	0x3cf713c9	0.030160801
19	0xbc7c2ec8	-0.015392013
20	0x3cea50b0	0.028602928
21	0xbd67a97c	-0.056558117
22	0xbd2869e6	-0.041116618
23	0xbd5a2962	-0.053262122
24	0xbd25642d	-0.04037874
25	0xbcb59c12	-0.022169147
26	0x3b370ee0	0.002793245
27	0xbd464982	-0.048409946
28	0xbd5bd8c3	-0.053673517
29	0xbcbcdf90	-0.023055822
30	0xbce73931	-0.028225513
31	0x3d53a954	0.051675156
32	0x3d0ed880	0.03487444
33	0x3d4f2706	0.050574325
34	0xbd0468c4	-0.032326475
35	0xbc8d74d6	-0.017267626
36	0x3c945b7f	0.018110035
37	0x3d595d49	0.05306748
38	0x3d51bdf6	0.05120655
39	0xbd6cf864	-0.05785407
40	0xbcf75657	-0.030192537
41	0xbd4e4b90	-0.05036503
42	0xbd5842cf	-0.05279809
43	0x3c51d540	0.01280719
44	0xbc98ff72	-0.018676493
45	0xbcdc21d2	-0.026871596
46	0x3d3b44ff	0.045720097
47	0x3d4a059a	0.04932175
48	0x3cdc74d4	0.026911177
49	0xbd08ead5	-0.03342708
50	0x3cb79f45	0.022414813
51	0xbd6b0727	-0.057379868
52	0xbd60238c	-0.0547214
53	0x3c61b1c3	0.013775292
54	0x3cfe9eaa	0.031081516
55	0xbd2249f1	-0.039621297
56	0x3b8f7390	0.00437779
57	0x3bbd435f	0.0057758535
58	0xb82cc400	-4.1190535e-05
59	0xbae3c938	-0.0017378693
60	0xbc6fd2e6	-0.014637684
61	0x3adbb738	0.0016762977
62	0x3b1b1250	0.0023662038
63	0xbc3cc354	-0.011521179
64	0xbd3d187c	-0.04616593
65	0x3bb270ac	0.0054455604
66	0xbc8b7a3c	-0.01702606
67	0x3c1444b8	0.009049587
68	0x3d3812f0	0.044939935
69	0x3c0dd728	0.008657254
70	0x3d21c3be	0.039493315
71	0x3cd5f034	0.026115514
72	0xbd651ae3	-0.055933844
73	0x3ccd2c1a	0.025045443
74	0x3d25fbc4	0.040523306
75	0x3d625cc8	0.055264264
76	0x3d62f97e	0.055413716
77	0xbd26316e	-0.040574484
78	0xbcc1ad58	-0.023642227
79	0x3bc13b2f	0.005896948
80	0xbd441cfe	-0.04787921
81	0xbd230b5c	-0.039805755
82	0xbd0dfe60	-0.03466642
83	0x3cf54a7a	0.02994274
84	0xbc1e9ef0	-0.009681448
85	0x3c0f9a48	0.008764811
86	0x3d213e30	0.039365947
87	0xbb4fc390	-0.0031702258
88	0xbcf397c3	-0.029735452
89	0x3cae335c	0.021264724
90	0xbca96e86	-0.020682584
91	0xbca43dec	-0.020049058
92	0x3d2e3422	0.042530186
93	0x3d57b722	0.052664883
94	0xbd13448b	-0.03595404
95	0xbd20f494	-0.039295748
96	0x3d08f58a	0.03343729
97	0xbb4dd183	-0.0031405396
98	0xbd45156a	-0.048116125
99	0xbd0e8bd9	-0.034801338
100	0xbc41b054	-0.011821825
101	0x3ce664c4	0.02812422
102	0xbd0d48de	-0.03449332
103	0xbd659f41	-0.05606008
104	0xbd3cd9a5	-0.046106
105	0x3cc5bad0	0.02413693
106	0x3c2c8140	0.0105288625
107	0x3cf54772	0.029941294
108	0xbcdb8707	-0.026797784
109	0x3b0a7dc0	0.0021132082
110	0xbbee4890	-0.0072718337
111	0xbd395cdc	-0.045254573
112	0xbd13257a	-0.035924412
113	0x3c0145d2	0.007890182
114	0x3d21df90	0.039519846
115	0x3bbb39a4	0.0057136584
116	0xbc231c85	-0.00995553
117	0xbd06f53d	-0.03294872
118	0xbd272947	-0.04081085
119	0x3915c300	0.0001428239
120	0x3d469db2	0.048490234
121	0xbd21f0dc	-0.039536342
122	0x3b9bf310	0.0047592
123	0x3d0faa48	0.035074502
124	0xbc5b7a0c	-0.013395797
125	0x3d6a7e86	0.05724957
126	0xbcd43de4	-0.025908418
127	0x3d102c46	0.035198472
128	0x3c07e0d8	0.008293353
129	0x3cd80e2d	0.026373947
130	0x3b816330	0.0039485916
131	0x3ca7d168	0.020485595
132	0x3d050e04	0.03248407
133	0xbcb0607e	-0.021530386
134	0x3bcc6dfd	0.0062386976
135	0xbd3e2f35	-0.04643174
136	0x3a17f400	0.00057965517
137	0xbd50495a	-0.050851204
138	0x3d67fd38	0.056637973
139	0x3d4d437f	0.050113197
140	0xbad56c00	-0.0016282797
141	0xbd5c0074	-0.05371137
142	0xbc819848	-0.015819684
143	0xbbb23520	-0.005438462
144	0xbccc4278	-0.024934039
145	0xbd2789f2	-0.04090304
146	0x3b01c830	0.001980316
147	0xbcc4cd10	-0.024023563
148	0x3cd47fd0	0.025939852
149	0xbd6acad4	-0.05732234

fc3.weight f4 [1, 150]
0	0x3b1c6a08	0.002386691
1	0x3ac72750	0.0015194211
2	0x3b449ba6	0.003
3	0x3b19d81f	0.0023474765
4	0x3b1e99fb	0.0024200666
5	0x3b219cf9	0.0024660213
6	0x3b449ba6	0.003
7	0x3b449ba6	0.003
8	0x3b18d040	0.0023317486
9	0x3b449ba6	0.003
10	0x3b317c06	0.002708198
11	0x3b449ba6	0.003
12	0x3b449ba6	0.003
13	0x3b449ba6	0.003
14	0x3b3374e8	0.0027382914
15	0x3b3e0004	0.0028991709
16	0x3b449ba6	0.003
17	0x3b105a30	0.0022026412
18	0x3b284493	0.002567564
19	0x3b449ba6	0.003
20	0x3b36d8fa	0.0027900324
21	0x3b189567	0.002328241
22	0x3b449ba6	0.003
23	0x3acc4fee	0.0015587786
24	0x3b449ba6	0.003
25	0x3b449ba6	0.003
26	0x3b449ba6	0.003
27	0x3b449ba6	0.003
28	0x3b449ba6	0.003
29	0x3b449ba6	0.003
30	0x3b449ba6	0.003
31	0x3b449ba6	0.003
32	0x3b449ba6	0.003
33	0x3b1b96b6	0.0023740954
34	0x3b1deb6c	0.0024096621
35	0x3b29ec56	0.002592822
36	0x3b188782	0.0023274128
37	0x3b1a0c0f	0.0023505723
38	0x3b216744	0.0024628201
39	0x3b249046	0.0025110408
40	0x3b15fdfa	0.0022886978
41	0x3b0f287f	0.0021844206
42	0x3b449ba6	0.003
43	0x3b1d0bd4	0.002396335
44	0x3b449ba6	0.003
45	0x3b449ba6	0.003
46	0x3b1992c4	0.0023433426
47	0x3b20b406	0.0024521365
48	0x3b1c43b8	0.0023844074
49	0x3adbb7d8	0.0016763164
50	0x3b06256a	0.0020469078
51	0x3b449ba6	0.003
52	0x3b1deaf0	0.0024096332
53	0x3b1d75ea	0.002402658
54	0x3b3c59d9	0.0028740077
55	0x3b2751e6	0.0025530993
56	0x3b41cc5b	0.0029571268
57	0x3b1cda88	0.0023933966
58	0x3b449ba6	0.003
59	0x3b13468d	0.0022472471
60	0x3b272944	0.0025506774
61	0x3b43fb4f	0.002990443
62	0x3b449ba6	0.003
63	0x3b449ba6	0.003
64	0x3b449ba6	0.003
65	0x3b1db306	0.0024063005
66	0x3b449ba6	0.003
67	0x3b449ba6	0.003
68	0x3b449ba6	0.003
69	0x3b449ba6	0.003
70	0x3b183248	0.002322333
71	0x3b449ba6	0.003
72	0x3b2d4ccf	0.0026443487
73	0x3b44a93c	0.0030008098
74	0x3b3a8d66	0.0028465628
75	0x3b449ba6	0.003
76	0x3b2a419e	0.0025979052
77	0x3b1d620f	0.0024014746
78	0x3b449ba6	0.003
79	0x3b1055a7	0.002202371
80	0x3b11d11c	0.0022249883
81	0x3b449ba6	0.003
82	0x3b282fff	0.0025663374
83	0x3b107d03	0.002204717
84	0x3b449ba6	0.003
85	0x3b449ba6	0.003
86	0x3b1d719f	0.0024024022
87	0x3b449ba6	0.003
88	0x3b23f7c8	0.0025019515
89	0x3b449ba6	0.003
90	0x3b0102ad	0.0019685433
91	0x3b15e468	0.0022871736
92	0x3b16fa32	0.0023037312
93	0x3ae4a752	0.0017444885
94	0x3b449ba6	0.003
95	0x3b3b3d19	0.0028570353
96	0x3b449ba6	0.003
97	0x3b185e07	0.0023249404
98	0x3b12bae0	0.0022389218
99	0x3b1ce734	0.0023941519
100	0x3b449ba6	0.003
101	0x3b2fac50	0.0026805587
102	0x3b449ba6	0.003
103	0x3b449ba6	0.003
104	0x3b449ba6	0.003
105	0x3b153c18	0.0022771414
106	0x3b449ba6	0.003
107	0x3b1bfe3a	0.0023802654
108	0x3b475efa	0.00304216
109	0x3b449ba6	0.003
110	0x3b449ba6	0.003
111	0x3b31dc6f	0.0027139445
112	0x3b1c136e	0.0023815292
113	0x3b0fc5a8	0.002193788
114	0x3b449ba6	0.003
115	0x3b248396	0.0025102845
116	0x3b485287	0.0030566768
117	0x3b25e400	0.00253129
118	0x3b449ba6	0.003
119	0x3b449ba6	0.003
120	0x3b18c542	0.0023310934
121	0x3b449ba6	0.003
122	0x3b449ba6	0.003
123	0x3b1ea8f9	0.0024209602
124	0x3b449ba6	0.003
125	0x3b449ba6	0.003
126	0x3b076226	0.0020657866
127	0x3b1abf7f	0.0023612676
128	0x3b449ba6	0.003
129	0x3b1dd14a	0.0024081045
130	0x3b449ba6	0.003
131	0x3b2256ed	0.002477105
132	0x3b251da5	0.0025194671
133	0x3b449ba6	0.003
134	0x3b28cee3	0.002575808
135	0x3b449ba6	0.003
136	0x3b449ba6	0.003
137	0x3b449ba6	0.003
138	0x3b211fde	0.0024585645
139	0x3b1e327e	0.0024138982
140	0x3b449ba6	0.003
141	0x3b449ba6	0.003
142	0x3b449ba6	0.003
143	0x3b449ba6	0.003
144	0x3b449ba6	0.003
145	0x3b449ba6	0.003
146	0x3b449ba6	0.003
147	0x3b2d3ab8	0.0026432704
148	0x3b0dfe47	0.0021666454
149	0x3b1bf97c	0.0023799827
