runs/critic.pth (torch, 490391 bytes, 5 tensors)

fc1.weight f4 [400, 2]
00000000: 0f96 8a3e 8879 a33e 5e96 343e b180 08be
00000010: ab8e 173d 4de5 133c 2ad0 c83d 9e5f b93d
00000020: f01a 01bd d300 65bc 84bc 16be 96ae 79bd
00000030: fc9e 1a3e 0fd2 5cbb 29be 773d 03d3 e73d
00000040: f3fb 113e 190c 0a3e 9ab1 273c 8ddc 173d
00000050: 65a5 94be 8e3c 8ebe 7a39 a6bc 27d3 38bc
00000060: e601 99bd 4f1e 583d df55 6ebc d215 0e3d
00000070: 3ddd 263e 9dc8 d63d ac0c c13d f9b4 5dbd
00000080: 3bfb 34be 7b02 58be d7ed babd 2f19 bbbd
00000090: c8b8 933e f2bb 9d3e c072 bd3c 73ce 8abc
000000a0: faa5 753d 4a73 d73d 078a 633c c0e9 9fbc
000000b0: 6736 ee39 3305 90bb 42e1 d43d 4ef0 fd3d
000000c0: 6059 273e e83c 243e d98c 8cbc db84 95bd
000000d0: 34ef 2d3d 1312 863d 9a07 333c c7fb 73bc
000000e0: adf3 6fbd 6055 37bd f0e0 f83d 6d48 af3d
000000f0: 2706 0d3d d0f3 3e3d b798 33bd 5fc2 21bd
00000100: e323 e03c 2ad7 4b3d 1ccb 9abd 5361 1cbe
00000110: 3bef ee3d d097 343d c4d9 233e 9863 cd3d
00000120: fd5e 1ebd c0f6 803c 5798 43bd a0a9 43bc
00000130: ca41 453e 99ff a63d 5518 40bd ad4a 3abc
00000140: d0f8 ce3c a7eb e8bc 006b 9f3c d3e7 42bc
00000150: e318 f23c 7358 c73b 60f7 5dbc 8043 33bc
00000160: 3b61 aa3b 2a0f 573d fdfd 163e 0596 db3d
00000170: 9557 d6bd 523b d4bd 5fff 0cbd ba40 4a3c
00000180: 43df 1bbe fa7b 62be 2756 2dbc 638a c43c
00000190: 2edb 7a3e 28ed b5bd e94d c93d 0b14 c33c
000001a0: 314f b03d f161 133e 913c 4f3e b27b 633d
000001b0: 6ddc 943c b0a4 03bd f3b2 5f3e f1a1 bb3d
000001c0: d705 85bc 073c 9f3c 03ee 6b3e a16e b83c
000001d0: 8a0a 253e 6c06 3f3d dd94 83bc 6796 deba
000001e0: 396e 173e 99b1 903d ea51 77be 4c2a 13be
000001f0: cd84 2d39 e776 a9bc 1a04 6cbb fa63 7d3c
00000200: 6f19 aabc bb9f ccbd d360 78bc 4d84 4bbc
00000210: 1f4f 203d b380 50bb dce0 69be f25c eebd
00000220: 030e 2e3d d315 a33c a0fe d23c 4018 103d
00000230: 1ac6 c5bb cd9c 71b9 20c3 f13c 1fb7 1c3d
00000240: b931 4c3e 290d 0c3e 6aa0 d9bc 0254 46bd
00000250: 19c2 cd3d 7d99 343d 153b 2d3e 1db3 2f3d
00000260: 9d24 1abd ffd5 2a3d d348 2c3c 13cd 383d
00000270: cde4 353a fa30 1fbd 1bcc 09bd a792 bfbc
00000280: 07b3 edbd 6762 48bd c077 fc3b 7dc6 083d
00000290: 00bc ad39 8adb 15bd 4a47 02bd 53c8 d7bc
000002a0: f283 2a3e 5474 003e 1b65 34be 91bd 153e
000002b0: b1d3 3d3e 48bd 623c f469 10be f475 7cbe
000002c0: 6d06 acbc 6751 00bc 7518 0e3e 5b9e 103e
000002d0: 8b7e 4c3e 4e12 053e 5d3f 2fba 8801 9cbd
000002e0: ebe8 16bd e730 f3bb d854 b0bd 3f70 31be
000002f0: 702b 373d 9a25 ca3b 5d10 20bd 336b 173d
00000300: 1471 05be fa2b 02be 6d98 82bc 8a68 babc
00000310: 8a58 a53d 0c57 073e 0291 47bd c066 a83b
00000320: 330e 2ebd d348 6b3c edde a23d 6b86 143e
00000330: 0d42 ec3c 2d5e 083c a33d 2b3d ba2d fd3c
00000340: 7d21 0fbe c987 e5bd 15c7 d5bd b024 a4bd
00000350: efcd 01be f639 39be edf9 633c 00ce 843c
00000360: 9e58 2c3e 3b72 113e 5de2 c1bc 03f0 fd3c
00000370: daf9 e2bc 46bd 8bbd 6850 173d 7aef 11bc
00000380: b939 f33d 34b1 063e 1f40 063d b06a bbbc
00000390: e4f5 d13d 61f4 f9bc f058 fdbc 3db9 423d
000003a0: 33fa 1dbd 33cb a1ba f35c f43c 8066 efbb
000003b0: 5d6c aebc 8aed b43c d763 12bd a4e9 9ebd
000003c0: 1add 07be 19aa 96bd fe0d 103e 292c f83d
000003d0: e0b7 11bd ff90 33bd 9af4 bfba 2d00 2bbc
000003e0: 00e4 9dba 075d 2cbc 577d 373d 3768 22bd
000003f0: 5860 443d 77eb cd3d 6ad4 353d b722 b53d
0.2706761 0.31928658 0.17635486 -0.13330342 0.037001293 0.009026838 0.09805329 0.09051441
-0.03151983 -0.013977247 -0.1472035 -0.060957514 0.1509971 -0.003369454 0.060484085 0.11319544
0.14256267 0.13481177 0.010235215 0.037075568 -0.29032436 -0.27780575 -0.020291079 -0.011280811
-0.07471065 0.05276328 -0.01454684 0.03468878 0.16295333 0.10487483 0.09426245 -0.054127667
-0.17673962 -0.21094696 -0.091273956 -0.09135663 0.28851914 0.30807453 0.023126006 -0.016944146
0.05997274 0.105200365 0.013887889 -0.01952064 0.0004543543 -0.004395151 0.10394527 0.1239935
0.16342688 0.16038859 -0.017157005 -0.07300731 0.04246445 0.06546416 0.010927105 -0.014891571
-0.058581997 -0.044759154 0.121522784 0.08558736 0.034429695 0.046619236 -0.043846812 -0.039492007
0.027360862 0.049765743 -0.07558271 -0.15271501 0.11666723 0.044090092 0.1600104 0.100287616
-0.038664807 0.01574266 -0.047752704 -0.011942297 0.19263378 0.0815422 -0.046898205 -0.011370343
0.025265127 -0.02843268 0.019460201 -0.0118960915 0.029552883 0.006083542 -0.013547748 -0.010941386
0.005199579 0.052504696 0.14745326 0.10721973 -0.10465924 -0.10362877 -0.03442323 0.012344534
-0.15221886 -0.22117606 -0.010579622 0.02399177 0.24497673 -0.088831246 0.09829313 0.023813268
0.086088546 0.1439283 0.20237948 0.055537887 0.018171513 -0.03213948 0.21845607 0.09161747
-0.016238136 0.019437803 0.23040013 0.02251369 0.16117302 0.046636984 -0.016062194 -0.0016982079
0.1478814 0.07065124 -0.24152341 -0.14371604 0.00016548038 -0.02068658 -0.0036013187 0.015465731
-0.02076408 -0.09991404 -0.015159803 -0.01242168 0.039137956 -0.0031814992 -0.22839683 -0.11638822
0.04249383 0.019907868 0.02575618 0.035179377 -0.0060355784 -0.00023041964 0.029511988 0.038260575
0.19940843 0.13676895 -0.02656575 -0.04841996 0.10046787 0.04409169 0.1691707 0.042895425
-0.037632573 0.04170799 0.0105154095 0.04511745 0.0006938696 -0.038865067 -0.033641916 -0.023385359
-0.116064124 -0.04892197 0.007704705 0.03339242 0.00033137202 -0.036586322 -0.031806268 -0.02634064
0.16651896 0.12544376 -0.17616694 0.14623095 0.18537785 0.0138390735 -0.14102918 -0.2465437
-0.020999158 -0.007831908 0.13876517 0.14122908 0.19970147 0.12995264 -0.0006685162 -0.076174796
-0.03684322 -0.007421601 -0.08609933 -0.17327975 0.04471916 0.0061690332 -0.039078105 0.036967468
-0.13031417 -0.12712088 -0.015941823 -0.022754926 0.08073528 0.132168 -0.048722275 0.005139202
-0.04249401 0.014360624 0.07952676 0.14504401 0.02884009 0.0083232345 0.04180683 0.030905593
-0.13977619 -0.112075396 -0.104383625 -0.0801481 -0.12676214 -0.18088517 0.013914567 0.01621151
0.1683068 0.14203732 -0.023667509 0.030998236 -0.02770703 -0.068232104 0.036941916 -0.008907193
0.11876244 0.13153535 0.032775994 -0.022878021 0.10251978 -0.030512037 -0.030926198 0.04753994
-0.038568687 -0.0012343883 0.029829478 -0.00730592 -0.021291906 0.022085924 -0.035739746 -0.07759407
-0.13267937 -0.07356662 0.14067838 0.12117798 -0.035575747 -0.04383945 -0.001464504 -0.010437054
-0.0012046099 -0.010520226 0.044797268 -0.03965017 0.047943443 0.10054677 0.044392027 0.08844512

fc1.bias f4 [400]
00000000: df77 813e d882 813d a549 24bf 5c53 373e
00000010: 4deb cebe 3661 3d3e 9ed2 543e 3f5d 273e
00000020: 2a71 d03e 90de e1be a6fc 973d 52d3 1fbe
00000030: f4db 8e3e 868a 87bd badb 6a3e b4e1 f93d
00000040: adfa 86be 2ff7 4b3e 9afe b83e 2f6d f8bb
00000050: b056 1f3e 532b 3bbd c698 71be db3b f33e
00000060: a8c6 a93e f795 823e db40 0f3f 5cb6 32bf
00000070: 7306 053e d79b 343e 120c 9fbe 1304 bcbe
00000080: f389 0abf 71f1 9e3e bb3b 1a3e 9a6d 643e
00000090: 3363 f7be bb05 25bf ef16 d13e 1cfd abbd
000000a0: 940b ecbc a139 13bf eebf 3abe f766 acbe
000000b0: f76b 0c3f 5b9c cc3e 50c3 6b3e 7201 04bf
000000c0: dea6 80be fddb b5be 0b8d 113e 394b 483e
000000d0: 2e33 493e 57be e43e d976 eabe 9b87 963e
000000e0: eb92 f5be c5e1 b43e 5a59 003f 5d5a 30bf
000000f0: 0721 533e b0e5 193e 731c c8be 1260 0dbf
00000100: b3e0 9a3e a868 0ebe de6e 8cbe 278d 053e
00000110: 808d 22bf bcae 97be 5d7b d3bd f024 91be
00000120: 9d36 ae3e 48ea 87be 5729 913e 5b9b 473e
00000130: d14a 01bf 4849 0ebf f068 fdbe e0a8 81be
00000140: 0f35 173e d608 2dbe 41ee 13bd 4d54 20bf
00000150: 3d6f 803e d212 b5bc 5cde 3a3e 1a78 72be
00000160: e0ea 1fbf dcc5 883e 1767 a13e b0e5 b13e
00000170: 55b4 e8be 3150 483e 9df4 ccbe 4093 60be
00000180: 1e9b 963e 5d2c 29bf 5b82 353e a343 32bf
00000190: bb43 34bd 4ddb 583e 056f dcbe ee97 93be
000001a0: 7862 793e dd06 343e f0c0 57be 9916 c9be
000001b0: 5c84 df3e c95b 13bf 9c3e d43d f792 64be
000001c0: 9fa1 7a3e 48b0 61be 68f0 6f3e 25e6 16bf
000001d0: 89d9 0dbe 9240 9bbd 6cd9 c2be 44b5 0d3f
000001e0: 5630 823e ce89 4c3e 8856 1abf e1d2 27be
000001f0: 3500 d1bd 96da e7bd 4c61 1b3e 87d1 aa3d
00000200: 39d8 743e 340c 9a3d 6893 0a3f 6a8d 993e
00000210: 2e90 7dbe 4c68 9ebe 920f 043e dab4 22be
00000220: ca0f 883e 5ca7 303e 313e 1dbf bf7b bdbd
00000230: 1262 ec3e 0615 783c b8fa 1cbf 5b9e 813e
00000240: 31e9 b3be f73b 173e df34 773e 0c9d a93e
00000250: 6c7c e0bd af14 453e 880c a8be 858a a1bd
00000260: 353b 793e 6e5d 1cbf f8cf 26bd 5e83 783e
00000270: 885a 6fbe 180b c33e 8739 2dbf d719 283e
00000280: 5c43 0fbf aa54 b7be 3dc5 5bbe 01fb 1cbf
00000290: eedc 1abf 2adc 023f 9344 7fbe cfba 5bbe
000002a0: c8d4 5f3e dbfd 10bf 4c44 e53e 1323 473e
000002b0: 57c8 abbd 9848 27be 5811 07bf ed8b db3e
000002c0: 6e4c d5be deb9 953e a046 edbe 402f 18bf
000002d0: ac41 163e eaaa 8f3e 1c7b debe 15f1 17bf
000002e0: 7d2e 29be a9ac 9fbe 1b3f cfbe 6b8a 6bbe
000002f0: 9293 ee3e e4c4 5f3e ed89 0d3e 4c5c cfbe
00000300: a5d6 dabe 66e4 d6be f444 663e 82f4 983e
00000310: c95b 88be 6ab5 46be a7f7 863e aef9 693d
00000320: 00f6 793e db1f 14bf 044c 0fbf 4aa6 f0be
00000330: d1ea d6be 1547 21be 2ea9 6a3e a6e0 ddbe
00000340: 5242 a5be 8c92 8e3e a601 06bf a546 91be
00000350: 1c74 7c3e d33c 2bbf aa6c bdbe d0a0 fc3e
00000360: 50a6 87be 8831 d13e 352c 923e b2e8 43be
00000370: e09a 5bbe 6583 e2bd 59cd 5b3e 29b4 353e
00000380: 9e2f 87be 523b 883e 1751 10bf 2147 7dbe
00000390: 0e05 11bf 8250 873e 1fc3 05be e9a8 89be
000003a0: 6722 713e e7ec f0bd 6a90 22be c781 63be
000003b0: dd12 69be 8a27 503e 7bef 133f 0bdc 813e
000003c0: 0c42 17bf a7b4 bcbe f2da 85be 1b2c 6cbd
000003d0: c2d1 26be dbbe 88be ddb2 2abf 6ca4 073f
000003e0: bb67 0ebf 112a 873e 88d7 343e 4bc0 703e
000003f0: 4284 5f3e 8ed5 aa3e cc98 853e c055 453e
0.25286767 0.063237846 -0.6417487 0.17902893 -0.40413895 0.18494114 0.20783469 0.16344164
0.40711337 -0.44115114 0.07421236 -0.15607956 0.27902186 -0.06618218 0.22935382 0.122012526
-0.26363125 0.19918512 0.36131746 -0.007581375 0.15560412 -0.045695614 -0.23593435 0.47506604
0.33159375 0.2550504 0.55958337 -0.6980951 0.12990741 0.17637573 -0.31063896 -0.36721858
-0.54116744 0.3104358 0.15061848 0.22307435 -0.4831787 -0.6446187 0.4083781 -0.08397886
-0.028814115 -0.5750981 -0.18237278 -0.33672306 0.5485224 0.3996304 0.23023725 -0.51564705
-0.2512731 -0.355194 0.1421396 0.19559945 0.1964843 0.44676468 -0.457938 0.29400334
-0.47963652 0.35328498 0.5013634 -0.68887883 0.20618068 0.15029025 -0.39084205 -0.55224717
0.30249557 -0.1390711 -0.27428335 0.13042127 -0.6349716 -0.296255 -0.10326264 -0.28348494
0.34026042 -0.2654593 0.28351852 0.19492857 -0.50504786 -0.5558057 -0.49494123 -0.25324154
0.14766334 -0.16897902 -0.03611589 -0.6262863 0.25084868 -0.0221037 0.18248886 -0.23678628
-0.62467766 0.26713455 0.31523964 0.3474555 -0.45450082 0.1956184 -0.40030375 -0.21931171
0.2941522 -0.6608332 0.17725508 -0.69634455 -0.044009905 0.21177407 -0.4305345 -0.2882685
0.24353969 0.17580743 -0.21069694 -0.39275053 0.4365567 -0.5756193 0.10363504 -0.22321688
0.24475716 -0.22039902 0.23431551 -0.5894492 -0.13852514 -0.07580675 -0.38056505 0.55354714
0.25427502 0.19974443 -0.60288286 -0.16389038 -0.102051176 -0.11320989 0.15173835 0.083407454
0.23910607 0.07521859 0.54131174 0.29990703 -0.24762031 -0.30938947 0.12896565 -0.15889302
0.26574546 0.17251343 -0.6142302 -0.09252118 0.46168572 0.015141731 -0.61320066 0.25316128
-0.35138848 0.14768969 0.24141262 0.3312763 -0.109612316 0.19246171 -0.3282206 -0.07887749
0.24338992 -0.6108006 -0.04072568 0.24268863 -0.23374379 0.380944 -0.67665905 0.16416107
-0.5596216 -0.3580678 -0.21461959 -0.613205 -0.6049336 0.51117194 -0.24928503 -0.2145798
0.21858513 -0.5663735 0.4477867 0.19446974 -0.08387821 -0.16336286 -0.5276084 0.42880192
-0.41659874 0.29243368 -0.46342945 -0.594471 0.1467349 0.28060085 -0.434533 -0.59352237
-0.1652164 -0.31186417 -0.40477833 -0.23002021 0.46596962 0.21852452 0.13822146 -0.40500104
-0.42741886 -0.4197113 0.22487241 0.29874045 -0.26632527 -0.19405141 0.2636082 0.05712288
0.24410248 -0.5786111 -0.55975366 -0.47001868 -0.41976026 -0.15749772 0.229161 -0.43335456
-0.3227716 0.2784618 -0.52346265 -0.2837421 0.24653667 -0.66889685 -0.36996967 0.4934144
-0.26494074 0.40858102 0.28549352 -0.19131735 -0.21445799 -0.11060218 0.21465053 0.17744507
-0.26403517 0.26607758 -0.56373733 -0.24734165 -0.5664834 0.2642861 -0.13062714 -0.2688668
0.2354828 -0.117639355 -0.15875402 -0.22217475 -0.22761102 0.20327583 0.57787293 0.25363192
-0.59085155 -0.36856577 -0.26143605 -0.05765925 -0.16290954 -0.2670811 -0.66679174 0.5298526
-0.5562703 0.26399282 0.17660344 0.23510854 0.21827796 0.33366054 0.26093137 0.19270992

fc2.weight f4 [300, 401]
00000000: f60a 22bd 21cb 623d 71c1 aa3c 4e77 f13c
00000010: 8a51 1c3d 4297 27bd 5e03 17bd bfa4 5e3d
00000020: 0b2e 573d e1e6 b9bc 1daa 55bd 0eb3 583d
00000030: 1d39 fe3c 8090 4b3d b181 19ba 7593 5b3c
00000040: 2d34 643d d04c a6bc a4af c4ba b505 e4bc
00000050: 74f3 05bd baad 153c f903 03bd f398 ab3c
00000060: 7fe9 603c cdbb bdbc 1425 af3c f8c0 233d
00000070: 522a b3bc 0f47 2b3d 4eee 8f3c 7cb4 523d
00000080: 6e78 713b e949 063d b9dd 00bd 70ca 203d
00000090: 9fb2 3c3d 7282 98bc c239 0b3d 1f00 69bd
000000a0: ef51 6a3d 29cc 9cb9 74bf adbc 5a3f 5bbd
000000b0: 2c56 e43a 9db9 9cbc a0b0 14bd 7918 e83c
000000c0: 744c 57bc af81 83bc 0762 4ab9 5ef4 943c
000000d0: d983 1e3d 7f7e 23bd 06a8 1bbb 08b1 9f3c
000000e0: 19dd 1d3d ae07 13bd 0235 edba 5948 61bd
000000f0: 416e 3f3d 27e2 bc3c e05a 02bd 0b72 653d
00000100: 50b6 aabc 7e61 513d 4d53 fdbc 60a3 913c
00000110: 62a9 e0bc 3ade 1b3d c71c 193d 9469 4ebc
00000120: 173a 33bd 6e3c 01bd 19bd 103c 67b5 b43b
00000130: d5c7 5cbd 8c06 2bbd 40f7 c2bc be1e 683d
00000140: 7f31 ad3c 1de0 043d e4af 063d e8ae 0a3d
00000150: caf2 e63c 3b77 513d ed3d 6dbc 9bbc 4fbd
00000160: b56b 56bd 438b f33c 6c6f 07bd 1ba7 d43c
00000170: c44f f8bb 766a 0cbc 8163 c83c 0b36 26bd
00000180: f9e8 21bd 0af0 c63c 8efa ffbc 57d5 a1bc
00000190: d0d8 b23c e9f5 033d eeb7 2abd b020 1cbd
000001a0: 5d36 0cbd c435 0bbd 78f3 333a 75bd 0e3d
000001b0: 662a 63bd 887a f83c f576 443d 8b39 62bb
000001c0: 34f0 34bd 6669 0b3d c97e d73c 97d7 1dba
000001d0: be57 74bc 3cc3 a8bb 070c 2f3d 8545 483d
000001e0: a028 633c 80ca 243d 85ee 063b 19c8 a33c
000001f0: 98f8 12bd 334c b2bc e328 373d 97b1 64bd
00000200: 0055 073d 89a7 383c 3c20 1cbd 40b8 37bd
00000210: f148 983b 0acb 4f3d 1521 38bd 5517 63bd
00000220: e269 a0bc 492c 53bd ef0c 223d 23ec b3bb
00000230: 0476 8fbc ceaa 2bbc 82ae 0f3d e39a c33c
00000240: 46f9 67bd ec5a c1bc 791e 4bbc a124 ab3b
00000250: dcf4 68bd 0329 28bd 97ed 533d e41d 27bd
00000260: ab80 9ebc 28a1 d53b 8f17 3a3d 5544 64bd
00000270: 418f 323d c29d 17bc 4156 b43c b420 97bc
00000280: 6366 18bd 854d 23bd 34f1 1a3d a6a3 2c3d
00000290: 3b70 54bd b2ba bfbc 1c64 03bc 2917 04bd
000002a0: c9b0 013d e6d2 1dbd 90ae 5d3d 50d6 ea3c
000002b0: 31e4 4a3d c8e1 183d 78a7 6dbc 5126 84bc
000002c0: 9ce0 693c 12e1 8a3c af95 0f3d 68cd 4d3b
000002d0: 97af 2dbd 366a 4fbc aae9 bf3c ad3c ddb9
000002e0: 0194 afbc 7f47 fcbb fb0f d03c 1d57 0ebc
000002f0: 42e9 8ebc 35d1 f8ba 8248 b1bc 9d3a 003d
00000300: 2109 9d39 f7b2 f4bc 9694 3cbc e8b8 8dbc
00000310: 5ac3 1e3c 3918 51bd 99f7 953b 7bbd 103d
00000320: 0c60 853c 1653 453c 1253 5abd b3a9 d63c
00000330: 3af2 31bd dee4 45ba 9bdc 8c3a bce9 09bd
00000340: 773b 2a3d 03f5 43bc 7074 953c 9848 2abd
00000350: bdba 513d 0421 37bc 123c 4b3d 1efb 223d
00000360: 393b 4f3d 4f5d 843c e685 ba3c 519e ac3c
00000370: 652e 6e3c adea 883c bfd7 8f3c 5b57 323d
00000380: 54a3 063d c04f 01bd 2450 25bd 9977 0ebd
00000390: 4c71 f7bc f780 6bbd d040 323d 06d0 1e3d
000003a0: bc15 0cbc 5515 0abd 86b9 893c 972d 4ebd
000003b0: 1d12 1b3c c87e f1bc 6322 593c 3e0a 27bd
000003c0: b0b9 f5bc 5943 48bd c42c 843b 3f9d 113d
000003d0: 5fd6 49bd 935a e03a d82a f3bc 0f7e 04bb
000003e0: 59bb abbc 2b4c 67bd 1638 03bc 872e 0c3d
000003f0: 4d08 e03c 3ec1 003d e2f9 203d 8253 21bc
-0.039561234 0.0553695 0.020844193 0.029475834 0.0381637 -0.040915735 -0.036868446 0.054356333
0.052534144 -0.0226931 -0.052164186 0.052905135 0.031033093 0.049698353 -0.00058558123 0.013401856
0.05571382 -0.020300299 -0.0015005958 -0.027834753 -0.032702878 0.009135658 -0.03198621 0.020946955
0.013727545 -0.02316084 0.021379985 0.03997895 -0.021870766 0.041815814 0.017569687 0.051441655
0.0036845463 0.03278533 -0.03146145 0.03925556 0.046068784 -0.018616889 0.03399063 -0.05688488
0.057207044 -0.0002990675 -0.021209456 -0.053527214 0.0017420701 -0.019131476 -0.036301255 0.028331982
-0.013140786 -0.016053049 -0.00019300739 0.01818293 0.03869996 -0.039915558 -0.0023751273 0.019493595
0.038540933 -0.035895996 -0.0018097463 -0.055000637 0.046736006 0.023057057 -0.031824946 0.056016963
-0.020838886 0.051118366 -0.03092351 0.017778099 -0.027424518 0.03805373 0.03738096 -0.012598414
-0.04375657 -0.03155177 0.008834147 0.005514789 -0.053901512 -0.04175429 -0.023799539 0.056669943
0.021141766 0.032440294 0.032882586 0.03385821 0.028191943 0.051139098 -0.014480096 -0.050716978
-0.05234881 0.029729491 -0.033065245 0.025958588 -0.007577868 -0.008570304 0.02446151 -0.040578883
-0.03952882 0.024284381 -0.031247403 -0.019755049 0.0218319 0.03221694 -0.041679315 -0.03811711
-0.034231532 -0.03398682 0.0006864588 0.03484865 -0.055460356 0.030331865 0.04796501 -0.0034519162
-0.044174388 0.034036063 0.026305573 -0.00060212 -0.0149134975 -0.005150227 0.04273608 0.048894424
0.013864666 0.04023218 0.0020588946 0.019992875 -0.03588161 -0.02176485 0.044716727 -0.055833425
0.033040047 0.011270412 -0.03811668 -0.04485345 0.004647367 0.050730743 -0.044953424 -0.055442173
-0.019581739 -0.051555905 0.039563116 -0.005490796 -0.017512329 -0.010477735 0.035078533 0.023877567
-0.05663421 -0.023602925 -0.012397402 0.0052228724 -0.05687414 -0.041054737 0.051740255 -0.04079999
-0.019348463 0.0065194555 0.045432623 -0.05572923 0.04359365 -0.009253921 0.022013785 -0.018448211
-0.03720702 -0.03986885 0.037827685 0.042148255 -0.051864844 -0.023404453 -0.008019473 -0.03224865
0.031662736 -0.038531207 0.054121554 0.028666645 0.049534027 0.037324697 -0.01450526 -0.016131552
0.014274742 0.016953025 0.03505486 0.003140295 -0.042403784 -0.0126596 0.02342685 -0.00042197612
-0.021432878 -0.0076989527 0.025398245 -0.008687762 -0.01744521 -0.0018983247 -0.02164102 0.031305898
0.00029952175 -0.029870493 -0.011510035 -0.017300084 0.00969013 -0.05104849 0.004576635 0.035336953
0.01628115 0.012043735 -0.05330188 0.026203966 -0.043443896 -0.00075490575 0.0010746898 -0.033670172
0.041560616 -0.011960271 0.018243998 -0.041573137 0.051203478 -0.011177305 0.049617834 0.039790265
0.05059359 0.016157774 0.022768926 0.021071585 0.0145374285 0.016713465 0.01755893 0.04354034
0.032870606 -0.031570196 -0.04035963 -0.034782026 -0.030205391 -0.057496037 0.04351884 0.038772605
-0.008550104 -0.03371175 0.016812097 -0.050336447 0.009464768 -0.0294794 0.013252827 -0.040781252
-0.02999577 -0.048892353 0.004033657 0.035550352 -0.049276706 0.0017116837 -0.029683515 -0.0020216738
-0.020963358 -0.056469124 -0.008008977 0.03422406 0.027347708 0.03143429 0.039300807 -0.00984657

fc2.bias f4 [300]
00000000: 6959 6b3c 482f 463c dfbf e0bc 2622 863d
00000010: 6610 a1bd a73d 6a3c 2c40 dabc ac33 88bd
00000020: 6ec5 15bd b3e7 9cbd 3612 103c 6bca 41bd
00000030: 5240 83bd 65c3 71bc 2847 a7bb 88fe cb3c
00000040: d9b0 a8bc 396b fd3c 1e07 00bd 4f91 ecbc
00000050: c92c a9bc ebe9 a3bc 8be0 cf3d 39bc 263d
00000060: b084 6dbd 6ac3 72bc 396b 37bd 3746 5ebc
00000070: 0026 9abc 90e9 2a3b 8c7f acbc 19b9 99bd
00000080: 0f2f f7bc 7e1e 64bd 3574 cdba 6eb4 edbb
00000090: faf0 193c e807 24bc 4dc3 4ebd 7112 253d
000000a0: 3b7a d7bc de91 293d adc6 8dbd 6469 70bc
000000b0: 3d20 71bc 63c7 28bd bc28 cebc 1bb0 ba3b
000000c0: ec08 1abd e6f9 263c fb68 85bd 8c66 d83b
000000d0: 5467 2c3d 4e99 a03c f4cc f9bb af8b acbb
000000e0: dfa5 87bb 0390 a7bb 088f 673c 562d b93d
000000f0: f1f1 22bd 847f 1abc 0ec2 e6bc b5cd c5bc
00000100: 6e2c 3ebd 32de f83c bff7 1dbd 3299 84bd
00000110: e80e f43c a83a 81bc 17cb bf39 2e15 843d
00000120: 412e 6abd 1021 12bd ecf4 a83c 5d66 2d3d
00000130: ac27 5dbc e18c 1bbd fd6c 97bc da04 44bd
00000140: 6c91 293d 30b4 e73c 5347 09bc ed0d 8fbc
00000150: a225 28bd 589a 473d 63a3 82bb f251 01bd
00000160: 7a78 d0b9 00a5 de3d 9865 4eba 187e ddbc
00000170: fa62 32bd f408 523c dcd8 bd3c 59f1 0b3c
00000180: 63fd 243c ed26 27bd 1983 7cbd 69b1 123d
00000190: a608 6f3d a076 00bd c1ad adbc 4ac1 523d
000001a0: bacf 84bb da5f 993b 4e27 83bd edfd 1e3d
000001b0: 6ae6 03bd 0213 503c 2beb 9cbc a4c1 96bd
000001c0: 9c6a e4ba 632d c9bc 2174 a93b c85f 233d
000001d0: b1e3 ee3d c561 21bd e9db b73b 267c 8dbd
000001e0: aeae a33c 08f4 41bd be38 89bc f7f3 843c
000001f0: 4b22 66bd c4be 023d 2b81 803c 93df a2bc
00000200: 7d2a b53c 2260 423d 9713 b73c 35bb 7dbc
00000210: 8918 803b 6b95 0a3c 4ddf 8fbd 173f 5cbd
00000220: 1755 0ebd 7f47 61bd 0353 023c 8e9b 863c
00000230: 9935 ecbc 56b4 83bb 317e 99bd 8001 fb3b
00000240: aae7 c13c a087 16bd 9835 edbc e0ff f2bc
00000250: 94aa 753d 78d3 113d c685 0c3d 9bf8 3a3b
00000260: 39a5 04bd 4cc9 1fbc 491a 223d c2e3 0ebc
00000270: 3c81 893c 5546 0cbd 25e3 923d acf9 af3d
00000280: 43f5 063b 839b c7bc 10d3 37bd 4d04 55bc
00000290: eff9 30bd 793f 1ebd 5ed7 ddbc 59c3 e3bc
000002a0: ccfd a83c 93b8 8c3c a9e4 5fbc 3aef 79bc
000002b0: 8d03 f4bc ff0d 84bb 921b b13c 06b2 b1bc
000002c0: f9ec 8f3a 21b8 433d 8c09 7bbd 06c9 c8bc
000002d0: 3a99 dbbc 2c29 ccbc 6d9a a4bd bea0 5cbb
000002e0: 272d 803c 5a07 90bc 844f 393d 8130 203d
000002f0: 5bfa 98bd ab60 783c c4e0 17bd 3a09 0fbc
00000300: 71b0 2abd 1713 db3c b6c0 da3d de7a 10bd
00000310: 03e7 05bd 5884 2fbc 014b 44bd 0b8c c1bc
00000320: a399 5fbd 063b 6fbd d493 103d ccd3 a5bd
00000330: 3a99 dc3c c4bf c4bc 3cfb adbb 6b5b 103d
00000340: 922e b6bc 32c6 29bd 3a52 86bd de62 7d3b
00000350: abb9 ef3c f1ca b13c d4ad 963b 0895 cc3b
00000360: 3c62 92bd 95a5 6e3d f1e5 7b3d 1ed5 c23b
00000370: 8a24 59bd 540a 363d a14a 69bd 51bb 9fb9
00000380: e1a0 fcbc 845c 82bd 9800 553c 1e9f b63c
00000390: 9f75 50bc b27f 7b3c 2343 a13d ee8b 39bd
000003a0: 2154 9bbc 115f 91bc 8363 803c 642e 4eba
000003b0: 3fc9 b4bb 3241 babc f629 b03b b57c 163d
000003c0: acfc 283c f934 733c 508e 5a3c 3c5b 323d
000003d0: 19d9 c93c 90d3 d2bc 0866 7e3c c71e 273c
000003e0: 865b 13bd 7d48 1c3b 7f9b 77bc 59dd 5d3c
000003f0: f526 69bd ef8a f9bc 7cca 54bd de09 0d3c
0.014364579 0.012096234 -0.027435241 0.06549482 -0.07864456 0.014296926 -0.026641928 -0.06650481
-0.036565237 -0.076613806 0.008793404 -0.04731218 -0.064087525 -0.014756058 -0.005104918 0.024901643
-0.02059214 0.030934917 -0.031256787 -0.028877882 -0.020651238 -0.020009002 0.1015025 0.040706847
-0.05798787 -0.014817098 -0.04477999 -0.013566545 -0.018816948 0.0026079156 -0.021056913 -0.07506008
-0.030173806 -0.055693142 -0.0015674891 -0.007254175 0.009395832 -0.010011651 -0.050479222 0.04030079
-0.026303401 0.041398875 -0.0692266 -0.014673565 -0.014717159 -0.041205775 -0.025165908 0.005697263
-0.037606165 0.010191416 -0.06514164 0.0066040214 0.04209073 0.019604351 -0.0076233093 -0.005265675
-0.0041396464 -0.005113603 0.014133222 0.0904185 -0.039781515 -0.009429816 -0.028168704 -0.02414594
-0.04642909 0.030379388 -0.038566347 -0.06474532 0.029792264 -0.01577504 0.00036581673 0.06449352
-0.057173017 -0.035676062 0.0206246 0.04233395 -0.013498228 -0.03797615 -0.018484587 -0.04785619
0.04139845 0.028284162 -0.008378821 -0.017462695 -0.041051514 0.048731178 -0.0039867624 -0.03157229
-0.00039762614 0.10871315 -0.0007873415 -0.027037665 -0.043551423 0.012819517 0.023174696 0.0085414285
0.010070178 -0.040808607 -0.061648462 0.035813723 0.058357857 -0.03136313 -0.021201016 0.051453866
-0.0040530832 0.004680616 -0.06403981 0.03881638 -0.03220216 0.012699844 -0.019155106 -0.07361153
-0.0017426792 -0.024557775 0.0051713143 0.039886266 0.116645224 -0.03939988 0.005610932 -0.06908445
0.019980755 -0.047351867 -0.01675069 0.016229613 -0.056185048 0.03192021 0.015686592 -0.019882
0.022114987 0.04745496 0.022348208 -0.015486528 0.003909175 0.008458476 -0.07025013 -0.053771105
-0.034749117 -0.054999825 0.007954362 0.016431596 -0.028834151 -0.0040193005 -0.07494772 0.007660091
0.023670036 -0.036750436 -0.02895622 -0.029663026 0.05997713 0.035602063 0.034307264 0.0028529528
-0.03238413 -0.009752583 0.03957585 -0.008721294 0.016785257 -0.03424676 0.07172231 0.08592543
0.0020592965 -0.024366146 -0.04487902 -0.013001514 -0.043207105 -0.03863475 -0.027080234 -0.02780311
0.020628832 0.017177856 -0.013665357 -0.01525479 -0.02978685 -0.004029989 0.021619592 -0.021691334
0.0010980658 0.04778302 -0.0612884 -0.024509918 -0.026806463 -0.024921976 -0.08037267 -0.0033665146
0.01564653 -0.01758163 0.045241848 0.039108757 -0.074696265 0.015159766 -0.037079588 -0.008730227
-0.041672174 0.026742501 0.10681288 -0.035273425 -0.032691013 -0.010712706 -0.04792309 -0.023626348
-0.05458988 -0.0584059 0.03529723 -0.08097038 0.026928533 -0.024017222 -0.0053094905 0.035243433
-0.022239003 -0.04144878 -0.06558652 0.0038663666 0.029263338 0.021703215 0.0045983586 0.006243352
-0.07147643 0.05826338 0.061498586 0.0059458157 -0.053013362 0.044443443 -0.056955937 -0.00030466405
-0.030838432 -0.06365302 0.01300063 0.02229267 -0.012723356 0.015350269 0.078741334 -0.045299463
-0.018961014 -0.017745527 0.01567245 -0.0007865189 -0.0055171545 -0.022736166 0.005376096 0.036740024
0.010314148 0.014844173 0.013339594 0.04354404 0.024639653 -0.025735646 0.015527256 0.010200209
-0.035975955 0.0023846917 -0.015112757 0.013541543 -0.056921918 -0.030461757 -0.051950917 0.00860831

fc3.weight f4 [1, 300]
00000000: a69b 443b d7dd 283e 5682 3b3e ee95 cd3d
00000010: e9f2 1d3e 6cbd 363e 3f62 1fba b2d0 5b3d
00000020: 41a0 a6b9 3cde 2b3e cf59 4abb b49c 98ba
00000030: 6389 623f 683f 3c3e 690f 2b3e 9769 3fbc
00000040: d9e0 a73d 9f62 3ebc d64c 49bc 7ae0 7c3e
00000050: a69b 443b a69b 443b 849a ca3d 1078 ec39
00000060: d32c 483e a69b 443b a156 733c a69b 443b
00000070: 40c9 b13d 8e45 68bb 0cb9 8dbf 38d8 ad3d
00000080: 18cc 2e3b 9bbb 5e3e 24c0 5f3e c7d3 93bd
00000090: 58b3 9bbc 908b 10be 425a 533e 1bd9 813e
000000a0: 66b6 84bc 286c 04bf 91d5 543e a69b 443b
000000b0: a69b 443b a69b 443b a69b 443b dc62 513f
000000c0: 9c28 323b 7b4a 583e 275b 683b a69b 443b
000000d0: e414 6abf a69b 443b 4015 473e 0a22 51bc
000000e0: 4cf7 47bb a69b 443b a267 1d3e bb97 833e
000000f0: a69b 443b a69b 443b a69b 443b b085 193e
00000100: fa38 50bb c239 4ab5 a69b 443b 023c 523d
00000110: b42c 3dbc 88fe 313e bb99 c7bf cafd 7d3e
00000120: 0a09 c0bb a69b 443b ccaf fe3a d400 5b3e
00000130: e781 47bc 9945 38bc a69b 443b 5960 173e
00000140: b4e6 8d3e a69b 443b a69b 443b cf63 553e
00000150: 1bfd 713e 86d6 643e d9d4 3f3e c4e8 503e
00000160: 7a59 563e a664 a93e a69b 443b 84d1 653c
00000170: 0f05 d53a 3762 893b 1dae 7bbf a69b 443b
00000180: a69b 443b a69b 443b 2fe1 2dbb 1a4f 933f
00000190: 6c18 ab3e a69b 443b 8845 44bc f4f6 c83e
000001a0: a69b 443b a69b 443b 34c4 123e 224f 4ebf
000001b0: a69b 443b a69b 443b a69b 443b cfae 3b3d
000001c0: 8474 ea3d e1c7 393e c8f5 d13d 939e 92bd
000001d0: 135e c53e e39f 973e d28f f43a be74 ef3c
000001e0: 3e25 c53f 914c 37ba f26e 4b3e 1dc9 1f3b
000001f0: 2202 293e 58d5 07bb a69b 443b a69b 443b
00000200: a69b 443b 1136 6a3e b8fa 4abc a69b 443b
00000210: 6430 1a3c c9b7 7d3e b0ba 963e 088b 2c3e
00000220: 5ea6 883e 758c e43c e6b4 323e 559f 1cba
00000230: a69b 443b 295c 233b 5395 b83e 78db 103e
00000240: 0461 ef3a a69b 443b 0884 3b3e a69b 443b
00000250: a8a4 9b3e ac93 053f f887 90ba a69b 443b
00000260: ea74 57bc 1811 8ebe a69b 443b 0c22 a838
00000270: 9663 e3bd 0e4c 853b 6c3f e23e 67f0 89bf
00000280: 53ff 42ba 26ec 0d3d 9c2e f83d a69b 443b
00000290: 7ba2 673e 4e04 e0bb a69b 443b a011 cb38
000002a0: 02a9 813b a69b 443b 35c8 38bc e6e1 0bbc
000002b0: a69b 443b 3695 1f3e c43d 42bc a69b 443b
000002c0: a69b 443b 2af8 e73e 3798 9c3e 9d74 303e
000002d0: 3b5d b8bb 3435 0c3e 0523 373e c36e 403b
000002e0: 1f29 203e a69b 443b 3d0c 1eba bc9e 083e
000002f0: 8af7 943e 795f 2f3e 7c5c 653e f57c 133e
00000300: 975f 8d3e e943 89b8 b454 6e3e 7ff8 07bc
00000310: 3271 833a 10de 5c3e 0058 f43a bea1 553e
00000320: 07ec 323e e537 fc38 3da7 cd3e 592b 113e
00000330: ef99 353b c5b2 f83d c0b5 9539 4d02 a1bb
00000340: 1205 773e c115 a83a 8d44 413e a69b 443b
00000350: c7ce 753e 1541 82bf b149 6abf f0b1 1fbb
00000360: cd02 5a3e 774d b83e cfc8 f53e 98a5 2cbc
00000370: 0e89 6ebd a69b 443b 06c2 2bbc a69b 443b
00000380: b322 073e 6b7c 393e 64ce dd3b d362 653e
00000390: ff8b 84ba cb86 13bb a998 d03d 6573 08b9
000003a0: 4704 ba3a bd25 56bb e013 813c 110c 533a
000003b0: ce82 703e 9010 40b9 a69b 443b 1887 d33e
000003c0: 5e11 363e 5cf8 dabe fa77 48ba af0c d13e
000003d0: 70eb 08be 111e 993b 7b17 6dbf d1ab 69ba
000003e0: 20b6 4e3e a7c7 e5b9 3fd4 fe3b a60c 023e
000003f0: 56ab 4fbc 24f6 a73d 31ad 4d3e b500 6ebf
0.003 0.16490875 0.18311438 0.100383624 0.15424694 0.17845696 -0.00060800085 0.053665824
-0.00031781386 0.16783994 -0.0030876284 -0.0011643381 0.88490885 0.18383563 0.16705097 -0.011682889
0.08197183 -0.011620193 -0.0122863855 0.24695006 0.003 0.003 0.09892753 0.0004510288
0.19548349 0.003 0.014852197 0.003 0.086809635 -0.0035441848 -1.1072097 0.08488506
0.0026671942 0.21751253 0.2185064 -0.07218128 -0.019006416 -0.14115739 0.206399 0.2536095
-0.016200256 -0.51727533 0.20784594 0.003 0.003 0.003 0.003 0.8179147
0.002718485 0.21122162 0.0035454722 0.003 -0.91438127 0.003 0.194417 -0.012764463
-0.003051239 0.003 0.15371564 0.257017 0.003 0.003 0.003 0.14992404
-0.0031772242 -7.533491e-07 0.003 0.05132676 -0.011546303 0.17382252 -1.559379 0.24803844
-0.0058604525 0.003 0.0019431054 0.21387035 -0.012176967 -0.011247062 0.003 0.14782847
0.27715075 0.003 0.003 0.20838855 0.23631708 0.22347459 0.18733539 0.20401293
0.2093257 0.330846 0.003 0.014027003 0.0016252118 0.0041926163 -0.9831255 0.003
0.003 0.003 -0.0026531925 1.1508515 0.3341707 0.003 -0.011979468 0.3925091
0.003 0.003 0.14332658 -0.805895 0.003 0.003 0.003 0.045821007
0.11448005 0.18142654 0.10251957 -0.07159152 0.38548335 0.2961417 0.0018658584 0.029230472
1.540199 -0.0006992305 0.19866541 0.0024381347 0.1650472 -0.0020726528 0.003 0.003
0.003 0.22872187 -0.012388878 0.003 0.009410951 0.2477714 0.29439306 0.16849911
0.26689428 0.027899006 0.1745182 -0.000597467 0.003 0.0024926758 0.36051425 0.1414622
0.0018263166 0.003 0.18312085 0.003 0.3039906 0.52178454 -0.001102685 0.003
-0.013150433 -0.27747416 0.003 8.017206e-05 -0.11102979 0.0040679043 0.44189012 -1.077649
-0.0007438559 0.034649037 0.12118265 0.003 0.22620575 -0.0068364507 0.003 9.683077e-05
0.003956915 0.003 -0.011278202 -0.008537745 0.003 0.15584263 -0.011855546 0.003
0.003 0.45306522 0.3058488 0.17231984 -0.0056263483 0.1369217 0.17884453 0.0029362894
0.15640686 0.003 -0.00060290453 0.13341802 0.29095107 0.17126264 0.22398561 0.14403136
0.27611992 -6.545318e-05 0.23274499 -0.008298992 0.0010028242 0.21569085 0.0018641949 0.20862481
0.1747285 0.000120267076 0.40166655 0.14176692 0.002771016 0.121434726 0.0002855491 -0.0049136044
0.24123028 0.0012823866 0.18873806 0.003 0.2400466 -1.0176111 -0.91518694 -0.0024367534
0.21290131 0.359966 0.48004767 -0.0105375275 -0.058236174 0.003 -0.0104832705 0.003
0.1319683 0.18113868 0.0067689884 0.2240098 -0.0010112523 -0.0022510763 0.101853676 -0.00013012959
0.0014191949 -0.0032676302 0.015756547 0.0008050809 0.23487398 -0.00018316717 0.003 0.41314006
0.17780063 -0.42767608 -0.00076472724 0.4082999 -0.13371062 0.0046727736 -0.92613953 -0.0008913847
0.20186663 -0.00043827036 0.0077767665 0.12700137 -0.012675127 0.082012445 0.20085599 -0.9296983
